2021_BOML_srcnn_project/output/epoch_62.pth (torch, 231519 bytes, 5 tensors)

conv1.weight f4 [64, 1, 9, 9]
-0.0067176414 0.029210089 -0.04211855 0.07593048 -0.065334186 0.09452851 -0.06906055 -0.024243986
-0.0049620583 0.08420305 -0.039274026 0.019794557 -0.10837442 -0.08564216 -0.08219457 -0.06355374
-0.08322656 0.088081196 0.01004829 0.037399307 0.059336796 0.016654108 0.03426768 0.08854963
-0.087282576 0.019431401 -0.05485117 0.06118139 0.03537708 -0.15434818 0.09897021 0.09100341
0.06878785 0.028204141 0.069382496 -0.041418225 -0.11088457 -0.07883871 -0.09604867 0.073110044
0.07140242 -0.0025179803 -0.0059100688 0.1009621 -0.026009912 -0.00630298 -0.053419758 0.019109322
0.16620158 0.13445166 0.06474887 0.009326782 0.022993263 0.027156552 -0.004526495 -0.14267059
-0.08724012 0.10918039 0.009962455 -0.11280176 -0.014325503 0.10390925 -0.09706339 -0.04162721
-0.08169774 -0.03642733 -0.05059739 -0.039873295 -0.1476332 0.021549087 0.119614534 0.07614704
0.0392001 -0.06877821 0.021501407 -0.01393687 0.041856296 -0.11514867 -0.014356167 0.10277992
0.034902345 0.023802359 0.01037757 0.00028712946 -0.07637269 -0.06499742 -0.09424401 0.092570774
0.04092727 -0.03090334 -0.0896893 0.053438824 0.01640801 0.028962854 -0.09634857 -0.022549666
0.112867214 0.07278306 0.042409893 -0.008474948 0.07148907 -0.08068614 -0.0019342869 -0.076415226
-0.044425894 0.0008221349 0.02793324 0.075593576 0.042321693 -0.025772234 0.09836204 -0.034910828
0.070777185 -0.04079161 -0.015865104 0.007981763 -0.12448137 -0.0031140975 0.0317576 0.16209221
0.04469026 0.09780447 0.10131373 -0.038296573 0.10874716 -0.08768319 0.007318626 0.008341326
0.070541725 0.12870683 -0.029033085 -0.011406738 0.0002643282 -0.06099953 -0.04256772 -0.12886004
-0.01762197 0.0037600552 -0.0057655335 -0.07898071 -0.07534803 -0.04567519 0.063901976 0.09473584
0.010760381 -0.088975124 -0.07320966 -0.01165273 -0.124375165 -0.13947216 -0.07139386 0.0052450397
-0.01419157 0.10617375 0.02924202 0.109895416 -0.041239653 0.03286081 -0.078622974 0.12429864
0.100767344 0.09297345 -0.06995299 0.106302656 0.120002665 0.16463296 0.14539486 0.20747323
0.13358663 0.087084815 -0.047225412 -0.09092511 -0.022918733 -0.032457344 -0.12542039 -0.07593914
-0.119419366 -0.06030899 0.049324676 -0.05918786 0.023679605 0.026382932 0.057323646 -0.12013827
-0.08140911 -0.04476354 -0.07737151 0.034913454 0.041766576 -0.075895295 -0.05408845 -0.08610787
0.062214646 0.13861637 -0.058508582 -0.032403275 0.053606622 -0.058064405 0.09768975 0.040480785
-0.017199622 0.03374875 0.08048488 -0.021158354 -0.07689651 0.018123789 0.012644493 0.010327743
-0.0056968885 0.08448157 -0.0066775708 0.030473959 0.07218441 -0.050430592 0.058080405 -0.010993369
0.05147398 -0.073725395 -0.0068170256 -0.0016001429 -0.0949227 -0.08951157 0.04213936 -0.018422153
0.0696194 -0.07752963 -0.039621573 -0.08167248 0.04365557 0.009366544 -0.009897221 -0.0063554463
-0.072589636 0.037803702 0.048928905 -0.049671397 0.06515755 0.008174346 -0.08026346 0.07462694
0.06734428 -0.028849158 -0.084065154 -0.0013730136 0.07337123 0.07999596 -0.10477342 -0.05817365
0.084600955 0.05818114 0.061157927 -0.065464266 0.08981005 -0.09666422 -0.01620482 -0.008405861
00000000: a91f dcbb ff49 ef3c 8084 2cbd 7181 9b3d
00000010: eecd 85bd 2a98 c13d 9e6f 8dbd 539b c6bc
00000020: c398 a2bb a672 ac3d cddd 20bd 3228 a23c
00000030: 68f3 ddbd 2865 afbd a055 a8bd 7728 82bd
00000040: b072 aabd ea63 b43d 95a1 243c 0430 193d
00000050: 240b 733d 326e 883c 445c 0c3d 8259 b53d
00000060: 35c1 b2bd 9a2e 9f3c 9fab 60bd 5699 7a3d
00000070: 8fe7 103d 730d 1ebe e5b0 ca3d ff5f ba3d
00000080: a5e0 8c3d 5f0c e73c 6918 8e3d 28a6 29bd
00000090: 7317 e3bd 3176 a1bd 2ab5 c4bd b8ba 953d
000000a0: 6f3b 923d b304 25bb 40a9 c1bb 38c5 ce3d
000000b0: bd12 d5bc 3a89 cebb adce 5abd 278b 9c3c
000000c0: bf30 2a3e b2ad 093e 0e9b 843d 5ccf 183c
000000d0: 5e5c bc3c 6b77 de3c fe52 94bb 3d18 12be
000000e0: f3aa b2bd f899 df3d 9139 233c 9c04 e7bd
000000f0: 84b5 6abc 5fce d43d 2cc9 c6bd 4b81 2abd
00000100: 2551 a7bd d334 15bd 353f 4fbd 2e52 23bd
00000110: 282d 17be b687 b03c 77f8 f43d fbf2 9b3d
00000120: 4990 203d 97db 8cbd b823 b03c 7857 64bc
00000130: 8271 2b3d 11d3 ebbd 2136 6bbc 477e d23d
00000140: c3f5 0e3d 2afd c23c af06 2a3c dd89 9639
00000150: 4969 9cbd 5e1d 85bd 0103 c1bd bf95 bd3d
00000160: 5aa3 273d 0029 fdbc 06af b7bd abe2 5a3d
00000170: 176a 863c 8243 ed3c 6652 c5bd 14ba b8bc
00000180: ed26 e73d 490f 953d ffb5 2d3d 82da 0abc
00000190: dd68 923d c63e a5bd e687 fdba 967f 9cbd
000001a0: edf7 35bd 8a84 573a 40d4 e43c ced0 9a3d
000001b0: 8359 2d3d 4b20 d3bc 0a72 c93d a8fe 0ebd
000001c0: a1f3 903d 1a15 27bd 89f7 81bc f1c5 023c
000001d0: 17f0 febd e315 4cbb 4214 023d 80fb 253e
000001e0: 220d 373d b64d c83d 937d cf3d dedc 1cbd
000001f0: d5b6 de3d 3f93 b3bd 16d1 ef3b 0faa 083c
00000200: 2e78 903d b9cb 033e cbd6 edbc 54e3 3abc
00000210: 8895 8a39 a5da 79bd 7d5b 2ebd e3f3 03be
00000220: f35b 90bc 426b 763b cdec bcbb a3c0 a1bd
00000230: 1150 9abd e815 3bbd 0adf 823d dd04 c23d
00000240: 4f4c 303c 9738 b6bd f2ee 95bd 18eb 3ebc
00000250: 68b8 febd cad1 0ebe f236 92bd 95de ab3b
00000260: c283 68bc 9f71 d93d f68c ef3c d910 e13d
00000270: e9ea 28bd 0f99 063d 1505 a1bd 4990 fe3d
00000280: 1c5f ce3d dd68 be3d 8343 8fbd 35b5 d93d
00000290: f5c3 f53d 8b95 283e 64e2 143e dd73 543e
000002a0: efca 083e 8659 b23d 6f6f 41bd f236 babd
000002b0: 11c0 bbbc fef1 04bd 346e 00be fb85 9bbd
000002c0: 2492 f4bd 8f06 77bd ac08 4a3d f86e 72bd
000002d0: bbfb c13c 0521 d83c 33cc 6a3d 0e0b f6bd
000002e0: d2b9 a6bd f959 37bd f474 9ebd 6901 0f3d
000002f0: 6e13 2b3d fe6e 9bbd da8b 5dbd 5359 b0bd
00000300: c9d4 7e3d 73f1 0d3e b2a6 6fbd 4cb9 04bd
00000310: 9e92 5b3d f1d4 6dbd 9011 c83d 2ecf 253d
00000320: 39e6 8cbc 213c 0a3d 42d5 a43d 4954 adbc
00000330: eb7b 9dbd 5778 943c d92a 4f3c b235 293c
00000340: f7ac babb ac04 ad3d 86cf dabb 86a4 f93c
00000350: 6cd5 933d 4f90 4ebd b8e5 6d3d 881d 34bc
00000360: 61d6 523d 57fd 96bd 5b61 dfbb e3bb d1ba
00000370: d566 c2bd d851 b7bd 529a 2c3d 0eea 96bc
00000380: 9e94 8e3d dbc7 9ebd 3b4a 22bd e743 a7bd
00000390: 2fd0 323d 2276 193c f427 22bc 5941 d0bb
000003a0: e0a9 94bd 0ed8 1a3d ad69 483d 3c74 4bbd
000003b0: 5271 853d b1ed 053c 2b61 a4bd 02d6 983d
000003c0: cceb 893d 1255 ecbc 5a2a acbd b1f6 b3ba
000003d0: a843 963d ecd4 a33d 7293 d6bd 7e47 6ebd
000003e0: 4443 ad3d 594f 6e3d bc80 7a3d 2112 86bd
000003f0: 55ee b73d e4f7 c5bd f8bf 84bc bdb8 09bc

conv1.bias f4 [64]
0.02349842 -0.08997603 0.0007296179 -0.05769224 0.04154341 0.018877199 0.042809483 -0.016799413
0.11213773 -0.044314727 0.006623936 0.025227599 -0.1473902 0.1234582 0.056524135 -0.0056012985
-0.025534773 -0.027286375 0.027565992 0.020723913 0.028580721 -0.014847008 -0.05499485 0.07316493
-0.14021891 -0.014666394 0.055039812 0.013029629 0.02567351 0.049578574 0.08729851 -0.012119778
0.033266902 0.04521803 0.003977024 -0.054482657 -0.005623694 0.06378454 -0.023304127 0.07389238
0.000324678 -0.0006309648 0.081530504 -0.04159307 0.03290676 -0.020019641 -0.028439594 0.025972303
0.0016321501 -0.03254139 0.019595267 0.050189383 -0.012305087 0.0033480763 0.008593351 0.008793312
0.060949866 -0.026300803 -0.0063058794 0.061296288 0.048901446 -0.03320532 -0.04970469 -0.04370976
00000000: c27f c03c 5a45 b8bd d443 3f3a b34e 6cbd
00000010: 6c29 2a3d 5ba4 9a3c ff58 2f3d ec9e 89bc
00000020: 77a8 e53d 5c83 35bd 9a0d d93b 1caa ce3c
00000030: 75ed 16be a7d7 fc3d da85 673d 198b b7bb
00000040: 4d2e d1bc ad87 dfbc 13d2 e13c 32c5 a93c
00000050: 1e22 ea3c dd40 73bc 4842 61bd 7fd7 953d
00000060: 8c95 0fbe 514b 70bc 6d71 613d 3a7a 553c
00000070: 4151 d23c e712 4b3d 90c9 b23d 0992 46bc
00000080: e042 083d 8b36 393d b251 823b 3529 5fbd
00000090: f746 b8bb 78a1 823d 4ce8 bebc e354 973d
000000a0: 8b39 aa39 5567 25ba 77f9 a63d 7f5d 2abd
000000b0: 3dc9 063d 3b00 a4bc 27fa e8bc dec3 d43c
000000c0: dfed d53a 1f4a 05bd 4186 a03c 6293 4d3d
000000d0: 479b 49bc 666b 5b3b 20cb 0c3c d311 103c
000000e0: 91a6 793d c874 d7bc 8da1 cebb d111 7b3d
000000f0: e24c 483d 4d02 08bd 2597 4bbd 0109 33bd

conv2.weight f4 [32, 64, 5, 5]
-0.005738631 0.030775419 0.08196501 0.077194795 -0.06352633 0.004907265 -0.017896485 0.0091319075
0.03390277 -0.0058081704 0.003945397 -0.010127935 0.018091284 0.010960103 0.05326202 -0.01772079
0.024370823 0.02617204 0.032861132 0.07439882 -0.021724556 0.005416681 -0.045650344 0.025908072
0.008013698 -0.050008517 0.006413897 -0.029461283 -0.050089166 -0.08552544 -0.064733885 0.005195828
0.037217017 0.0443187 -0.020779427 -0.008265004 -0.026308898 0.04910114 0.08789921 0.076528735
-0.060178563 -0.013710309 -0.021882487 0.018027578 0.008062671 -0.07203578 0.01613776 0.015246769
0.034255836 0.018054426 -0.028925633 -0.0006009741 -0.009508776 0.049216516 -0.026809929 -0.02278018
-0.028716814 0.014700077 0.061027717 -0.011027861 0.030264633 0.008125068 -0.031530533 -0.01909638
-0.07801311 0.00795852 0.057325453 0.037721194 0.0030076527 -0.03449395 -0.022038545 0.005139679
0.011927011 -0.006910349 -0.002038908 0.04131074 0.0032262711 -0.011097536 -0.042956892 -0.07680983
0.032468457 0.040305723 -0.016163368 -0.037415046 -0.022585668 -0.0145228235 -0.0129172765 -0.03983816
0.013175171 -0.005241031 -0.040275674 0.005791639 -0.0071779527 0.041603114 2.0433456e-05 0.0044150003
0.007243442 0.0014412417 -0.009509063 -0.019948522 -0.04053732 -0.029435722 0.024334569 0.018228235
-0.012191237 -0.012767902 0.004464805 0.010536006 -0.009312503 -0.039551187 -0.055050317 -0.022266129
0.028726444 0.005078241 -0.07230424 -0.026996473 0.020878142 -0.014810287 0.020277815 -0.008398881
-0.039292287 -0.038593728 -0.06743852 -0.035199624 -0.00685707 0.12372621 0.047079 0.01759245
0.06970649 -0.03640618 -0.03320988 -0.011790995 -0.01315929 -0.015395493 -0.01636516 -0.034874026
-0.005405346 0.029794 -0.013386222 -0.03127711 0.018969567 0.04066553 0.04402148 0.01907231
0.0010562653 0.0064685666 -0.0017033565 0.039151967 0.013140248 -0.011775265 -0.0050447155 -3.2158103e-05
-0.018996371 0.02144433 -0.04770573 0.049840525 0.020591065 -0.0071664928 -0.007664221 -0.006422051
0.02594983 0.00030354693 0.013948185 -0.008278469 -0.021770338 0.047513362 0.023487797 0.019475194
0.0008781745 0.049635604 -0.023534946 -0.026102468 0.0060075796 -0.014446093 0.019154888 0.05500721
0.0661941 0.056565534 -0.018075727 -0.0043769632 -0.016043054 -0.029140254 0.07984994 0.06756331
-0.00037326416 -0.013811762 -0.03358379 -0.060359843 0.051439494 0.051269326 0.09835949 0.066798575
-0.05471417 0.020783274 0.030631412 0.20714556 0.21027039 0.14466743 0.055061355 -0.0075354613
0.010093242 -0.023708379 -0.028016001 0.010741444 -0.010206579 0.01911694 -0.03871125 -0.04042682
0.008760515 -0.022887522 -0.033415146 -0.062166274 -0.053643335 0.0021975117 -0.005858014 0.0033705956
-0.016435329 -0.010776075 0.0011121734 0.030611852 0.004051963 0.05967801 0.027294813 -0.0125504555
0.042092606 0.0063856407 0.021122226 0.0133686075 0.022446197 0.03354832 0.009398019 -0.0005117812
0.035858028 0.043081243 0.021743065 -0.04088412 -0.0372414 -0.008925378 0.016228987 0.010863625
-0.037384313 -0.027049365 -0.011403626 -0.01974239 -0.0062368857 0.0013163558 -0.014570645 -0.02514368
-0.018349685 0.01696105 -0.044210415 -0.03481369 -0.003072929 0.01948604 0.0083965855 -0.041540083
00000000: 200b bcbb bb1c fc3c 45dd a73d 4e18 9e3d
00000010: 181a 82bd 1fcd a03b a69b 92bc ff9d 153c
00000020: a2dd 0a3d 7752 bebb 6448 813b a3ef 25bc
00000030: 2c34 943c 0192 333c 4729 5a3d 312b 91bc
00000040: 52a5 c73c bf66 d63c 6599 063d 695e 983d
00000050: b2f7 b1bc 6a7e b13b dbfb 3abd 2a3d d43c
00000060: e34b 033c bbd5 4cbd ab2b d23b ca58 f1bc
00000070: 4c2a 4dbd f627 afbd 3393 84bd c441 aa3b
00000080: df70 183d 8687 353d 9e39 aabc f069 07bc
00000090: c285 d7bc 471e 493d 8004 b43d 19bb 9c3d
000000a0: cc7d 76bd 34a1 60bc e742 b3bc 92ae 933c
000000b0: 4b19 043c 7f87 93bd 5633 843c 96cd 793c
000000c0: d94f 0c3d e0e6 933c 73f5 ecbc b08a 1dba
000000d0: b2ca 1bbc 4297 493d 7fa0 dbbc 809d babc
000000e0: 863f ebbc 97d8 703c 33f8 793d 34ae 34bc
000000f0: 89ed f73c 011f 053c 2926 01bd 0370 9cbc
00000100: 56c5 9fbd 7464 023c 18ce 6a3d 8a81 1a3d
00000110: 0a1c 453b 8749 0dbd 2e8a b4bc c16a a83b
00000120: 8369 433c 3570 e2bb 339f 05bb 7335 293d
00000130: d96f 533b 71d2 35bc 91f3 2fbd 794e 9dbd
00000140: a5fd 043d 9d17 253d 0a69 84bc 8540 19bd
00000150: 9405 b9bc 23f1 6dbc fca2 53bc 572d 23bd
00000160: acdc 573c f4bc abbb 1bf8 24bd cac7 bd3b
00000170: 0835 ebbb 0768 2a3d 8368 ab37 b5ab 903b
00000180: 655a ed3b 0ce8 bc3a e7cb 1bbc 156b a3bc
00000190: 760a 26bd 2f23 f1bc 4a59 c73c 6153 953c
000001a0: c1bd 47bc 7630 51bc 804d 923b 369f 2c3c
000001b0: 7893 18bc 6d00 22bd 717c 61bd 7567 b6bc
000001c0: b853 eb3c 6067 a63b 3f14 94bd b527 ddbc
000001d0: a308 ab3c d9a6 72bc a91d a63c 769b 09bc
000001e0: f3f0 20bd 7514 1ebd 351d 8abd 7b2d 10bd
000001f0: 46b1 e0bb 2b64 fd3d e9d5 403d 0b1e 903c
00000200: 47c2 8e3d a61e 15bd 1507 08bd 042f 41bc
00000210: 109a 57bc 613d 7cbc 3a10 86bc 11d8 0ebd
00000220: 541f b1bb 8c12 f43c e251 5bbc 6d1c 00bd
00000230: 1166 9b3c e690 263d de4f 343d 883d 9c3c
00000240: 6272 8a3a 45f6 d33b 2943 dfba d05d 203d
00000250: 324a 573c 0bed 40bc 244e a5bb 80e1 06b8
00000260: 479e 9bbc 05ac af3c 1567 43bd 9425 4c3d
00000270: 98ae a83c e6d4 eabb 2524 fbbb 1270 d2bb
00000280: bd94 d43c 6125 9f39 ee86 643c 6aa2 07bc
00000290: b557 b2bc 5f9d 423d 7b69 c03c 718a 9f3c
000002a0: 4b35 663a b44e 4b3d 5ccc c0bc d8d4 d5bc
000002b0: 3bdb c43b 4eaf 6cbc b6ea 9c3c 3d4f 613d
000002c0: c690 873d 43b1 673d 8c13 94bc a16c 8fbb
000002d0: b96c 83bc 8bb7 eebc 5e88 a33d a25e 8a3d
000002e0: abb2 c3b9 bb4a 62bc 288f 09bd e23b 77bd
000002f0: 38b2 523d c9ff 513d b370 c93d b1cd 883d
00000300: f71b 60bd af41 aa3c baee fa3c f71d 543e
00000310: 1f51 573e b323 143e 0488 613d 08ec f6bb
00000320: 205e 253c 1338 c2bc d081 e5bc e2fc 2f3c
00000330: 7f39 27bc 219b 9c3c b08f 1ebd 9896 25bd
00000340: 4388 0f3c 9d7e bbbc 52de 08bd 10a2 7ebd
00000350: 1db9 5bbd 2104 103b 95f4 bfbb 36e5 5c3b
00000360: 62a3 86bc 228e 30bc 59c6 913a b5c5 fa3c
00000370: 54c6 843b ee70 743d 5f99 df3c 6da0 4dbc
00000380: 4c69 2c3d a33e d13b 8508 ad3c 0108 5b3c
00000390: 16e1 b73c f769 093d 26fa 193c 0e29 06ba
000003a0: dedf 123d f575 303d 831e b23c 1b76 27bd
000003b0: 708a 18bd c03b 12bc a7f2 843c 59fd 313c
000003c0: 4b20 19bd a196 ddbc 46d6 3abc cbba a1bc
000003d0: ca5e ccbb 9289 ac3a b7b9 6ebc 1efa cdbc
000003e0: 1452 96bc e6f1 8a3c fb15 35bd cd98 0ebd
000003f0: 3263 49bb 30a1 9f3c d591 093c ef25 2abd

conv2.bias f4 [32]
-4.1967036e-05 -0.015722288 -0.0029755102 0.02466911 0.03106846 0.001431384 -0.004816555 0.014490617
0.043814976 -0.019514143 -0.0014747326 -0.0059020016 0.0297249 0.002488445 0.057289723 -0.015417405
-0.013033312 -0.00962421 0.006420053 0.02704911 0.042140506 0.008404248 -0.011828301 0.010808658
-0.004698869 0.030945284 0.023095733 0.013353583 0.016285207 -0.034902487 -0.030770782 0.005742495
00000000: c305 30b8 07cc 80bc c700 43bb e016 ca3c
00000010: 4883 fe3c 479d bb3a 31d4 9dbb 0e6a 6d3c
00000020: 5577 333d 20dc 9fbc d14b c1ba 9465 c1bb
00000030: a281 f33c 2e15 233b a1a8 6a3d 4999 7cbc
00000040: ac89 55bc ddae 1dbc 4f5f d23b 1896 dd3c
00000050: 869b 2c3d f9b1 093c 7dcb 41bc cc16 313c
00000060: f8f8 99bb f780 fd3c 4333 bd3c fdc8 5a3c
00000070: 8e68 853c e9f5 0ebd 0213 fcbc 8a2b bc3b

conv3.weight f4 [1, 32, 5, 5]
0.007769514 0.018599598 0.010094346 0.03547876 0.03589249 -0.031329323 0.0023313188 -0.030442301
0.001001694 0.0064148814 -0.0045525003 0.022262776 0.0010628168 -0.044576515 -0.012187723 -0.014605185
-0.030864581 -0.011025211 -0.042363495 0.016935775 0.008851222 0.018331062 0.024039371 0.031341784
-0.013000309 0.0018543906 -0.033862103 0.008443364 0.0263787 -0.023366703 0.019826224 -0.016670737
0.010380788 -0.01603672 0.005646221 -0.03431185 0.026130503 -0.007918487 0.032036398 -0.013480188
0.014785419 -0.017577803 -0.015562448 -0.010105006 0.016571704 0.01423544 0.0205551 -0.0060169185
0.0038392134 0.022368245 -0.013813855 -0.011615065 0.026915718 -0.029820474 -0.017106604 -0.01959804
-0.0074307816 -0.025979418 0.008238535 -0.024685435 -0.015524569 -0.034382995 0.023595622 -0.021663766
-0.0042370977 -0.021056985 -0.004853518 -0.006753346 -0.011504377 -0.0005057458 0.01505847 0.029141173
0.026237432 -0.026237072 -0.004094119 -0.048664156 0.018496606 0.029941449 0.0063087125 0.008868565
0.043386165 0.02073779 -0.009491616 -0.01415399 -0.0036686284 0.04446967 0.019619208 0.020477384
-0.0069131944 -0.016670898 0.01225859 -0.009350536 -0.052911386 -0.03031894 -0.009021103 0.0029221019
-0.012850111 -0.023894979 -0.013508829 0.031760227 0.0054252297 0.0070053074 0.013926363 -0.0032711858
0.003350587 -0.0083507225 0.03118799 -0.0005868545 0.024778707 -0.020904519 -0.028307376 0.0040389434
-0.032152954 0.020529835 0.020535212 0.028033433 0.031312503 0.011141169 0.0131966965 -0.0054660626
0.031799294 0.014564349 -0.0087667145 -0.03346976 0.0035986742 0.0043285177 0.036722325 0.03360423
0.03309736 0.0021307531 0.011647409 -0.019119056 0.010683833 0.0099196285 -0.014939356 -0.018500997
0.010827818 -0.027351504 -0.017228445 0.028210025 0.02255002 -0.036648117 -0.03747487 0.020614816
-0.0052330676 0.0062570334 -0.019850742 -0.011473563 0.029212255 -0.019188888 0.01231541 0.00077123276
0.01138257 0.0019509069 -0.006683384 0.012853598 0.00953483 -0.0027898496 0.024580883 0.032641117
0.018575642 -0.010538569 -0.026299682 -0.024431806 -0.017191363 -0.0033579362 0.018117914 0.010066628
0.031552482 -0.035358254 -0.02089528 0.0321043 -0.02477705 0.022847535 0.0003073359 -0.004247479
0.024846341 0.027303994 -0.014229417 -0.0019130533 0.033024747 0.02944375 0.014325937 -0.021123463
-0.023676917 0.025402373 0.020401914 -0.0037743119 0.034394998 0.024917983 -0.007973751 0.015375158
0.034419484 0.020598257 -0.017120918 -0.03367863 0.010591969 0.013176264 -0.03481121 0.00525556
-0.030994156 -0.0035564515 -0.021610832 -0.021764359 0.02320199 0.006190822 -0.0073042153 -0.030793877
0.0060297167 -0.013103932 -0.0021808518 0.048008647 0.08167639 -0.009469295 0.0049756584 -0.016368663
0.060832307 0.06429477 -0.036296993 -0.035263963 0.0007962896 0.0042419317 0.021929529 -0.022838227
-0.04284837 0.038421337 -0.0059412876 0.018391976 0.022392066 0.012378033 0.03281167 -0.02594814
-0.00030054775 -0.0042636665 0.01718826 -0.017790167 -0.024574934 -0.032456886 0.01952555 0.009635744
-0.037473347 -0.0049825246 -0.032401443 -0.031068418 0.02128764 -0.01853646 0.023188492 0.036487117
0.008806189 0.01840676 -0.030863246 -0.015066355 -0.001923622 0.0075768447 0.014315626 0.019061852
00000000: 6897 fe3b 2f5e 983c c162 253c 2d52 113d
00000010: 0104 133d 2d53 00bd 0ac9 183b 2262 f9bc
00000020: 464b 833a ed33 d23b 242d 95bb 6d60 b63c
00000030: 374e 8b3a dd95 36bd 04af 47bc 964a 6fbc
00000040: b8d7 fcbc 16a3 34bc 5885 2dbd e5bc 8a3c
00000050: b704 113c 062b 963c 37ee c43c 3e60 003d
00000060: 3fff 54bc 060f f33a fdb2 0abd 0956 0a3c
00000070: 2518 d83c 876b bfbc 9b6a a23c 1291 88bc
00000080: 2e14 2a3c 705f 83bc ef03 b93b 958a 0cbd
00000090: a30f d63c 8bbc 01bc 9938 033d 02dc 5cbc
000000a0: 8b3e 723c 53ff 8fbc a3f9 7ebc 788f 25bc
000000b0: 62c1 873c c33b 693c 2b63 a83c 9229 c5bb
000000c0: 509b 7b3b 9c3d b73c 8253 62bc 1d4d 3ebc
000000d0: 5a7e dc3c 114a f4bc 2623 8cbc 128c a0bc
000000e0: ea7d f3bb cad2 d4bc ecfa 063c 1c39 cabc
000000f0: c35a 7ebc 2fd5 0cbd 9b4b c13c 3678 b1bc
00000100: 5ad7 8abb b37f acbc 430a 9fbb 2c4b ddbb
00000110: db7c 3cbc 0794 04ba cdb7 763c 78b9 ee3c
00000120: e2ef d63c 21ef d6bc f627 86bb 1154 47bd
00000130: 3286 973c c547 f53c 51b9 ce3b 754d 113c
00000140: b1b5 313d 4ce2 a93c b982 1bbc 23e6 67bc
00000150: 5f6d 70bb d425 363d 76b8 a03c 30c0 a73c
00000160: 1488 e2bb 6891 88bc 41d8 483c fe32 19bc
00000170: 9cb9 58bd 6d5f f8bc 40cd 13bc bc80 3f3b
00000180: 4689 52bc 67bf c3bc 2354 5dbc 0317 023d
00000190: 20c6 b13b c78c e53b 662b 643c 6461 56bb
000001a0: 8695 5b3b 78d1 08bc f57d ff3c 24d7 19ba
000001b0: b7fc ca3c f43f abbc dfe4 e7bc 1d59 843b
000001c0: d1b2 03bd 2f2e a83c 7639 a83c 5fa6 e53c
000001d0: 8a41 003d 7389 363c f536 583c a81c b3bb
000001e0: fa3f 023d 4f9f 6e3c 44a2 0fbc 9617 09bd
000001f0: bcd7 6b3b 3dd6 8d3b 266a 163d 97a4 093d
00000200: 1991 073d 1ba4 0b3b c6d4 3e3c 919f 9cbc
00000210: 3e0b 2f3c f085 223c 33c4 74bc 678f 97bc
00000220: 2967 313c 4310 e0bc ab22 8dbc b618 e73c
00000230: d2ba b83c 561c 16bd 407f 19bd 67e0 a83c
00000240: 277a abbb cd07 cd3b 069e a2bc 9cfb 3bbc
00000250: 8a4e ef3c 0432 9dbc 93c6 493c 8e2c 4a3a
00000260: f57d 3a3c 93b5 ff3a 4a00 dbbb e697 523c
00000270: fa37 1c3c e9d5 36bb d95d c93c b1b2 053d
00000280: f22b 983c f6a9 2cbc 6e72 d7bc 3625 c8bc
00000290: e7d4 8cbc d210 5cbb 056c 943c 80ee 243c
000002a0: 2d3d 013d d1d3 10bd 942c abbc cc7f 033d
000002b0: 3df9 cabc c12a bb3c ed21 a139 702e 8bbb
000002c0: 8e8a cb3c a0ac df3c 8022 69bc 6bbf faba
000002d0: f544 073d 0534 f13c 56b7 6a3c 1d0b adbc
000002e0: 18f6 c1bc a318 d03c ea21 a73c 725a 77bb
000002f0: c5e1 0c3d cc20 cc3c 56a4 02bc 16e8 7b3c
00000300: 72fb 0c3d adbd a83c 2b41 8cbc 9af2 09bd
00000310: f089 2d3c 42e1 573c 3396 0ebd d536 ac3b
00000320: 75e7 fdbc 5b13 69bb 3309 b1bc 2b4b b2bc
00000330: 1a12 be3c 61dc ca3b 3358 efbb 7143 fcbc
00000340: ee94 c53b e0b1 56bc 9fec 0ebb b7a4 443d
00000350: f345 a73d 1a25 1bbc d90a a33b 9317 86bc
00000360: 4c2b 793d faac 833d 28ac 14bd f270 10bd
00000370: 17be 503a e7ff 8a3b 8ea5 b33c 3c17 bbbc
00000380: c681 2fbd b15f 1d3d 22af c2bb c5aa 963c
00000390: 916f b73c 3ccd 4a3c 8865 063d 3291 d4bc
000003a0: d692 9db9 3ab6 8bbb 65ce 8c3c afbc 91bc
000003b0: 5f51 c9bc 83f1 04bd 0cf4 9f3c 3ddf 1d3c
000003c0: a77d 19bd 7244 a3bb 60b7 04bd 3283 febc
000003d0: 6b63 ae3c c6d9 97bc cbf5 bd3c 8473 153d
000003e0: d547 103c c6c9 963c ebd4 fcbc dfd8 76bc
000003f0: 0b22 fcba 2e47 f83b 168c 6a3c 9a27 9c3c
