2021_BOML_srcnn_project/output/epoch_114.pth (torch, 231519 bytes, 5 tensors)

conv1.weight f4 [64, 1, 9, 9]
00000000: cab1 f8bc 9a80 a93c d4ae 66bd 083b a33d
00000010: 4193 47bd 293e e33d 73c4 5abd abd1 de3b
00000020: 173e 0b3b be7e ab3d 4e81 a1bc f7b2 c63c
00000030: 281f cabd 92eb 95bd 380a 97bd 5671 59bd
00000040: fe32 6dbd ecc0 dc3d d44b c83c 5ed2 873d
00000050: 1b7b 873d e262 893c fd45 e43c 0e8d 9a3d
00000060: 1a63 ddbd 6e88 993b ef42 84bd 1523 4d3d
00000070: 138d e83c f10f 3abe e13d 9a3d 7aed 8a3d
00000080: 4212 343d 4192 37bb bfe4 2c3d e804 64bd
00000090: c2d8 f3bd c013 a5bd 1e7a d9bd a8df aa3d
000000a0: 6656 ad3d 089c 103b ab6e 33bc 1b65 d03d
000000b0: bf51 a8bc 750c 5abc d986 3abd dcf7 e43c
000000c0: e7ad 463e 4522 1c3e 2ea4 8a3d a187 933b
000000d0: 656c e33c 24f0 e43c 18c9 28bc f791 0ebe
000000e0: 2a9b b9bd 1966 ed3d 2237 013a 4f73 01be
000000f0: 6a92 aabc 0704 f23d 2143 afbd d83a 1dbd
00000100: d341 a3bd 1e19 4fbd 35c9 4fbd 1986 46bd
00000110: be9a 1ebe 4404 923c 288a 073e 796f b33d
00000120: bd52 8d3d f2af 31bd 0009 663c 7a2f 24bc
00000130: 978e 3c3d 62b4 e5bd 7b08 ebbc eaf9 aa3d
00000140: 79ef 133b d037 593d f4d9 8f3c 5c5e 0a3c
00000150: 3d86 a6bd 47d2 79bd b91b b8bd 7614 d53d
00000160: 8279 4d3d 084e 34bd 3615 a2bd aec7 423d
00000170: 014c 7e3c 4842 163c 6f9d e8bd 03ac 18bd
00000180: e573 e23d fdbf 8c3d b283 dd3c f520 ebba
00000190: 21eb 843d 2238 a2bd 18bd 7dbc 5e79 b3bd
000001a0: 063d 6ebd f9a5 c53a 4eb8 e63c e1d3 8e3d
000001b0: 810f 4d3d ec04 f5bc 047d e63d 9bbc dabc
000001c0: 6fe0 a73d a989 2ebd eab6 a2bb f99e 8b3c
000001d0: 05c1 e6bd 28fe c9bb c7b4 ac3c e0ee 363e
000001e0: 5897 773d 7a96 e93d c7d5 cc3d 3dd3 0cbd
000001f0: 280e d63d 8e4f bfbd b26f b5bb 40e8 2ebc
00000200: 2370 a33d 4cb4 0e3e e2c9 9dbc 083f 92bc
00000210: af2f ab3b bc11 67bd 7d33 27bd 2fe1 12be
00000220: efd5 2bbd 8199 abbb 7130 67bc 7d12 b6bd
00000230: 383a bfbd eb53 27bd 2fa2 9c3d 0a06 d73d
00000240: 66c0 8d3b 6a52 d2bd bb1f a7bd e729 c0bc
00000250: 2953 0fbe 665b 25be 55f4 94bd 577a 503c
00000260: 5c3a 71bc 41fa 023e 0ed5 2d3d 4b18 fd3d
00000270: 9bd0 fbbc 99ca 163d b1cc b1bd 65e0 043e
00000280: 680d e53d b21c ba3d 658a 81bd 10b1 c33d
00000290: 6321 dd3d ea35 2e3e 51b0 2f3e a164 753e
000002a0: 90fc 1c3e d55d a83d a9ee 27bd 7d3b acbd
000002b0: 3fa5 16bd d667 80bd 0275 24be 4ae1 dcbd
000002c0: 4e02 0bbe cac0 91bd 4294 e83c 75f9 7abd
000002d0: 6a6e 643d 290b 2e3d ebd1 753d c954 f8bd
000002e0: 100c a4bd 6cf4 22bd 8b70 9cbd fc37 de3c
000002f0: e703 6c3d 60fe 83bd 2616 56bd b420 c1bd
00000300: 0964 6f3d c453 123e 656b 6ebd 8f28 2dbd
00000310: 9f8b 113d 3ef4 51bd 295d c43d 2780 0b3d
00000320: 5d31 debc cd0c 093d a665 a43d 06b2 e6bc
00000330: 33fb b3bd 59e2 053c 5c57 a43c fd58 903c
00000340: 959f 3f3b 07e4 bd3d 1285 2d3c d3be 313d
00000350: 224d af3d d2f6 25bd 24dc 873d 9c5c c6bb
00000360: 6647 4d3d 2883 96bd cd5a 38bc 0b86 80bb
00000370: 8862 dcbd 3f79 bebd 4689 2d3d 2c6e 8ebc
00000380: db57 7a3d f755 99bd 67d7 0abd e48f abbd
00000390: fb9d 273d 4334 bb3a e0da 9ebb b663 10bb
000003a0: 44ea 8cbd d494 193d c32e 3f3d 5204 35bd
000003b0: 8b2b 833d fca1 f13b 25ca aabd c21c 9b3d
000003c0: dc39 783d 1e05 1cbd b730 aebd ab59 34bc
000003d0: 4263 8f3d 4647 7b3d b809 d9bd e00d 4ebd
000003e0: 3e8b af3d a8b6 a83d 9521 853d f1db 5ebd
000003f0: 9347 b53d 4f81 b2bd 2abb 47bc 6fd1 fd3b
-0.030358214 0.020691205 -0.056319073 0.07970244 -0.048724417 0.110958405 -0.053410005 0.0067998967
0.0021246725 0.083737835 -0.019714978 0.024255259 -0.09869224 -0.07320322 -0.07374996 -0.0530866
-0.057909958 0.107789844 0.02445022 0.06631921 0.066152774 0.016770784 0.027865404 0.07546435
-0.10809918 0.004685453 -0.06458079 0.050082285 0.028387582 -0.18170144 0.07531334 0.06783576
0.043962725 -0.0028010758 0.042210337 -0.05566874 -0.11906578 -0.08060408 -0.10618995 0.0834344
0.08463745 0.0022065658 -0.010951678 0.10175534 -0.020546792 -0.013308634 -0.045538757 0.02795022
0.19402276 0.15247448 0.06769596 0.004502252 0.027761647 0.02794654 -0.010301851 -0.13922869
-0.09062798 0.11591739 0.0004929175 -0.12641643 -0.020821769 0.118171744 -0.08557726 -0.038386196
-0.07971539 -0.050561063 -0.050728995 -0.04846773 -0.15488717 0.0178243 0.13236296 0.08761496
0.06900547 -0.043380685 0.014040232 -0.010021085 0.04603442 -0.11216046 -0.028690567 0.083484486
0.0022573157 0.053031743 0.017559983 0.008445349 -0.08131073 -0.06099155 -0.08989663 0.10404293
0.050164707 -0.04401973 -0.07914202 0.04755371 0.01552105 0.009171076 -0.11358153 -0.03727342
0.110572614 0.06872556 0.027040336 -0.0017938899 0.0649016 -0.07920863 -0.015486978 -0.08763383
-0.058163665 0.0015079371 0.028164055 0.069740064 0.050063614 -0.029909573 0.112543136 -0.026701262
0.08197104 -0.04261175 -0.0049656527 0.017043578 -0.11267284 -0.006164331 0.021082295 0.17864561
0.060447067 0.11405654 0.10001712 -0.03438114 0.10451919 -0.09341346 -0.0055369968 -0.01067549
0.07980373 0.13935965 -0.019261304 -0.017852321 0.00522419 -0.056413397 -0.040820587 -0.14343713
-0.04195207 -0.005236805 -0.01411067 -0.08890245 -0.09337276 -0.040851515 0.076481216 0.10499199
0.004325914 -0.102696255 -0.08160349 -0.02345748 -0.13996567 -0.16148147 -0.07273165 0.012724481
-0.014723387 0.12790777 0.042439513 0.12358149 -0.03073912 0.036814306 -0.0868162 0.12976225
0.11184198 0.090875044 -0.06325225 0.09555256 0.10797384 0.17012754 0.17157103 0.23964168
0.1533072 0.08221022 -0.04099909 -0.08409784 -0.036778685 -0.06269805 -0.1606026 -0.10785158
-0.13575098 -0.0711685 0.028391007 -0.061273057 0.05576936 0.042491112 0.060014647 -0.121255465
-0.08010113 -0.03978388 -0.07638653 0.027126305 0.05762091 -0.064450026 -0.052267216 -0.09430066
0.05844501 0.14289767 -0.05820789 -0.042275008 0.035533544 -0.051258318 0.095880814 0.034057762
-0.027123148 0.033459473 0.080272004 -0.02816106 -0.08788147 0.008171641 0.020061187 0.017620558
0.0029239405 0.092720084 0.0105908085 0.043394875 0.08559634 -0.04051859 0.06633785 -0.0060535204
0.05011692 -0.07349235 -0.011252117 -0.003922229 -0.10760981 -0.093004696 0.042367242 -0.017386518
0.06111894 -0.074870996 -0.03389683 -0.08377054 0.040922146 0.0014282543 -0.0048478693 -0.0022032089
-0.0688062 0.03749545 0.046675455 -0.044193573 0.064047895 0.0073740464 -0.08339337 0.075738445
0.060602054 -0.038090818 -0.08505385 -0.011007707 0.07001354 0.06134727 -0.10597557 -0.0503062
0.0857148 0.08237964 0.06500546 -0.05440897 0.08851542 -0.0871607 -0.0121906195 0.0077459137

conv1.bias f4 [64]
00000000: 68ae e23c efcc bfbd 56ea af3b bb25 ccbd
00000010: 45d6 0b3d c92f 973c 5d70 153d d14a 6ebc
00000020: 8d26 d63d 2188 2bbd 0889 0c3b 50c1 b73c
00000030: 7a32 39be cf24 2a3e 06e6 753d 7add 0ebc
00000040: 467a 92bc f07a 40bc 33f7 853c bd4a 813c
00000050: 6c46 c23c 4b89 aebc 222f 37bd f5ca 753d
00000060: 5d02 47be 3e61 91bc 4ec4 8d3d 1208 093c
00000070: 0285 ec3c 1846 133d e858 703d 4a70 57bc
00000080: 0202 f13c 99bf 083d c07f a6ba 53f6 44bd
00000090: bdd0 39bc ed9f 8e3d 7a2d 95bc 9a81 893d
000000a0: ac66 f03a 5128 37ba 4173 b53d 662c 06bd
000000b0: 6ce8 133d 29e3 71bc 9328 06bd e473 063d
000000c0: 761b 1dba b802 bc38 15f7 e83c d685 073d
000000d0: 4ac5 a1b9 8bd9 883a 45ef 6a3c 2e00 413c
000000e0: 341b f13c 789d e0bc fcd3 dabb 296f 4e3d
000000f0: da7b 4f3d 4b99 c3bc 94b1 21bd 6461 a9bc
0.027671054 -0.0936526 0.005368511 -0.09968134 0.03413989 0.018455403 0.03648411 -0.014544205
0.10456572 -0.04187787 0.0021443982 0.022431046 -0.18085662 0.16615604 0.06003382 -0.008719796
-0.01788057 -0.011748061 0.016353225 0.015782708 0.02371522 -0.0213057 -0.044722684 0.060008008
-0.19434495 -0.017746564 0.06922208 0.0083637405 0.028872017 0.03595552 0.058678538 -0.01314933
0.029419903 0.033385847 -0.0012702867 -0.048086476 -0.011341271 0.06964097 -0.018210161 0.06714173
0.0018341145 -0.00069869036 0.088598736 -0.032757185 0.036110327 -0.014763632 -0.03275354 0.032825366
-0.00059931667 8.965045e-05 0.02843813 0.03308662 -0.00030855305 0.001044081 0.014339273 0.011779828
0.029431917 -0.027418837 -0.0066781025 0.05039898 0.050655223 -0.023876807 -0.039475992 -0.020676322

conv2.weight f4 [32, 64, 5, 5]
00000000: 1b58 c2bc d03c 373d 1efd b43d 1fae 993d
00000010: 9816 9cbd 990c 363c ade4 e6bb b8fb a33c
00000020: 7a38 323d 1496 17bc d157 9c3c e212 92bb
00000030: a645 093c 814f af39 034f 443d 94b7 18bb
00000040: b18f 223d e4c4 853c b2d9 173d 166b e83d
00000050: 3769 cdbc ad3b 293c 703d 9cbd 7cea be3b
00000060: 3a72 943c dd05 91bd fbca eb3c 8cd5 a4bc
00000070: 6d93 4abd a3fc d8bd b77a f0bd de82 eabb
00000080: 97bd 673d 9fd3 923d 6653 17bd e8ec 08bd
00000090: 16e7 94bc 9a32 753d 0bf6 c63d 19ab 663d
000000a0: 3357 b4bd 0c35 9b3a 1bcc 3ebc 9ad6 d23c
000000b0: b335 db3c 2c2c a5bd 4210 273d 0402 233d
000000c0: 8792 5d3d a639 293d 0da2 44bc d913 453d
000000d0: 22be 4a3d c0db cc3d c9fe 043d 848d 50bc
000000e0: 477a e93a e959 4d3d 1876 8b3d caa3 e4bc
000000f0: 073c 8a3c 9a9d 113c 1fc4 23bd 8b66 64bd
00000100: 8d30 09be 0edf e63c 296e b13d 340f 443d
00000110: e820 21bc 4c56 38bd d4b3 57bd 87d8 81bc
00000120: db68 91bc caa6 3bbd 69aa 09bd 32c4 a83d
00000130: 1926 0a3d ba1e 80ba 9c9f 71bd d889 ccbd
00000140: 1f41 343d 09f3 a23d ad7b 8a3b c142 1ebd
00000150: 4f71 cebc 1e36 13bd 0286 02bc b955 33bd
00000160: 8683 8b3b 1b5b c3bb a1d9 06bd ed17 8b3c
00000170: eb32 36bc 2adb 2c3d 8839 583c caeb 1cbc
00000180: a0db 813c 0879 81bc beff babc 189e 89bc
00000190: b231 08bd 878c 47bc 93e1 8b3c b661 d53b
000001a0: 8efd 4bbc 15cb 823c acab f73c 20b2 9d3c
000001b0: 7ac0 d3bc e166 afbd 3e73 5ebd 1f0a 0fbc
000001c0: 565f 643d 1939 b03b 7f27 e7bd 87e3 ccbc
000001d0: da31 453d 7e64 ca3c e15a 2f3d 5f89 32bb
000001e0: a3ca 0cbd 99aa ffbc 916b a2bd bd20 12bd
000001f0: 8fa0 003a 0389 033e c82a 6f3d 581d 073c
00000200: d1e5 3e3d 994c 72bd 4187 9ebc 261e 92bb
00000210: 8f6f 32bc 3b48 e8bc 9739 e5bc 8d4a 28bd
00000220: 37d1 14bc af26 d03c 6356 bfbc 7677 13bd
00000230: 51cd a43c 3b4c 393d 447e 303d f77d 5b3c
00000240: cee0 1c3c 4bb8 443d ec04 fd3c 484b 443d
00000250: 232b ad3c d7dc 7d3c 6605 d33c 2b32 da3c
00000260: bbfb beb8 1c48 2f3d 0012 46bd 4837 aa3d
00000270: 6bfe 4a3d e07f bdbb cfdf 24bc 4df5 09bd
00000280: 671d 603d 1c35 913c aef1 62ba 2bf2 aebc
00000290: 629d f9bc a515 033c 4d9b 8abb ca63 88bb
000002a0: 5d25 babc c498 b03d e364 d8bd 4012 7abd
000002b0: c7de be3c 89ab 773c 44f9 6e3d 995a c73d
000002c0: 9a8b d03d 56f4 cf3d cd6b 36bc af0c 80bd
000002d0: 35ca dcbb c3b2 e7bc 6b60 bd3d e94d 9d3d
000002e0: 9708 f6bc 1ed8 d6bc 281d 6ebd 2d8b 93bd
000002f0: 8d8a 673d 7190 673d 7393 e23d a767 4c3d
00000300: 5662 90bd 0bcc 1a3d 923e 1a3d cd96 303e
00000310: 832a 6e3e 137d 243e 6433 953d 3568 ad3c
00000320: 2530 4d3c a340 95bd 7243 acbd 07d1 91bc
00000330: dc48 a93c b338 de3c 2e6f 69bd 9477 73bd
00000340: 1f1a 553c 9290 b9bc dcfe 7a3b 849f 4fbd
00000350: f6dc 48bd 6d75 373d 385a f83c dff8 2abb
00000360: 7b00 deba 131e b13b 68c1 173d 9ef9 1f3d
00000370: 0260 293b 60f1 b33d 4bd3 323d a0c8 343c
00000380: e778 363d d0da d13b 9ced b33a 4e9c e2ba
00000390: 5454 b83c 1a42 353d 6214 5d3c c782 5cbc
000003a0: 8f24 0b3d 5072 763d 8022 553d 0291 3fbd
000003b0: 968f 50bd d78a 85bb 722a 383d c940 3f3d
000003c0: 4ed4 b6bc 0c75 acbc 2c93 d93b 0c28 703b
000003d0: a92f f53b 61f6 cc3b c686 31bc 7240 bfbc
000003e0: bd0a 86bc 9b43 b13a f377 39bd dd49 2bbd
000003f0: 66d7 fdba 4120 813c d3a8 253b 148b 25bd
-0.023723653 0.04473573 0.08837341 0.07503914 -0.07621497 0.011111402 -0.0070463032 0.02001749
0.04351089 -0.00925209 0.019084843 -0.0044578174 0.008378422 0.00033437836 0.047926914 -0.002330278
0.039687816 0.016329236 0.037072845 0.1134855 -0.025074584 0.010329169 -0.07628906 0.0058262926
0.018120874 -0.070811965 0.028783312 -0.020121358 -0.049457002 -0.10595062 -0.11742156 -0.007156714
0.05657729 0.0716927 -0.03694477 -0.033429056 -0.018176597 0.05986271 0.09714898 0.056315515
-0.088056944 0.0011841371 -0.011645342 0.025737096 0.026759004 -0.08065066 0.04078699 0.039796844
0.054094817 0.041314743 -0.012001527 0.04811463 0.04949773 0.100028515 0.032469545 -0.012729052
0.0017812931 0.050134573 0.06809634 -0.027910132 0.016874326 0.008887673 -0.039981958 -0.055761855
-0.13397427 0.028182533 0.086635895 0.04786606 -0.009834506 -0.045004174 -0.05266173 -0.015850319
-0.017750194 -0.04581336 -0.03360978 0.08240546 0.03372774 -0.0009774782 -0.058990106 -0.09987229
0.044007417 0.079565115 0.004226169 -0.03863788 -0.025200514 -0.035940282 -0.00796652 -0.043782923
0.004257622 -0.0059617884 -0.03292239 0.016979182 -0.011120538 0.0422012 0.01319731 -0.009577701
0.015851796 -0.015804783 -0.022827026 -0.016799018 -0.03325052 -0.0121795 0.017075336 0.006511892
-0.012450589 0.015965978 0.030233227 0.019249976 -0.025848616 -0.085645445 -0.054309122 -0.00873044
0.055754982 0.0053779003 -0.1128683 -0.025010837 0.048143245 0.024706122 0.04281128 -0.0027242524
-0.034372937 -0.031209277 -0.07930673 -0.035675753 0.00049067376 0.12845235 0.05839041 0.008246742
0.04660589 -0.05915508 -0.019351603 -0.0044591604 -0.010890855 -0.028354755 -0.027981563 -0.041086722
-0.009083084 0.02540907 -0.023356622 -0.0360026 0.020117434 0.045238715 0.043089166 0.013396732
0.009575082 0.048027318 0.030886136 0.047923356 0.021138733 0.015494547 0.02575941 0.02663525
-9.1067945e-05 0.04279338 -0.04835701 0.08311325 0.049559038 -0.005783066 -0.010063126 -0.033681203
0.05471554 0.01772552 -0.0008657229 -0.021355709 -0.030470554 0.008000766 -0.004229939 -0.0041622864
-0.022722894 0.08622888 -0.105661176 -0.06105256 0.023299588 0.015116581 0.058343187 0.09734077
0.10182877 0.10154025 -0.0111341 -0.06252419 -0.006737972 -0.028283482 0.09246906 0.07680876
-0.030033393 -0.0262261 -0.058133274 -0.0720428 0.056528617 0.056534234 0.1106328 0.049903538
-0.07050006 0.037792247 0.037657328 0.17245026 0.23258404 0.16063337 0.072851926 0.021167854
0.012523686 -0.07287719 -0.08411302 -0.017799867 0.020664625 0.027126646 -0.056990795 -0.05944021
0.013006716 -0.022651944 0.003829888 -0.050689235 -0.04903885 0.04478972 0.030316457 -0.002608828
-0.0016937399 0.0054051965 0.03704968 0.039056413 0.0025844579 0.08786273 0.043658536 0.011034161
0.044548895 0.0064042583 0.0013727429 -0.0017289014 0.022501148 0.044252492 0.013493629 -0.013458914
0.033970412 0.06016761 0.052034855 -0.04676915 -0.050918184 -0.004075389 0.044962354 0.046692643
-0.022318032 -0.021051906 0.0066398587 0.0036644964 0.007482488 0.0062549566 -0.010835355 -0.02334616
-0.016362542 0.0013524176 -0.045280408 -0.04181849 -0.0019366562 0.01576245 0.002527763 -0.04041584

conv2.bias f4 [32]
00000000: c40e 443c 4277 61bc 5d81 a4bb 43c3 c43c
00000010: 2c56 153d 3f27 67bc d399 24ba 962c 9d3c
00000020: 8bb5 253d 96cc abbc d14b c1ba 9a17 e0bc
00000030: 28cd 073d f64c 43bc 4f24 b13d 8f78 27bc
00000040: 7206 84bc 1684 30bb f0a4 80bb 0abd 0d3d
00000050: 190b 423d d45d 423c 8feb 6ebc 583c a93b
00000060: c135 d4bb 8936 fb3c 53c5 d23c 0fdc 863c
00000070: 3139 c33c 2ee9 16bd ced9 4dbd 0935 783c
0.011966411 -0.013761343 -0.005020304 0.02401889 0.036459133 -0.014108478 -0.0006279025 0.0191863
0.040456336 -0.020971578 -0.0014747326 -0.027355004 0.033154637 -0.011920204 0.086495034 -0.0102216145
-0.016116355 -0.0026934198 -0.003925912 0.03460411 0.047373865 0.011863191 -0.014582529 0.0051646642
-0.0064761345 0.030665653 0.025728857 0.016462354 0.023830982 -0.03684347 -0.050256543 0.015149363

conv3.weight f4 [1, 32, 5, 5]
00000000: a619 923a 5803 9e3c d1d5 a33c 6f8a 2a3d
00000010: b092 1a3d 2c2e dbbc 74e2 a23b a26a acbc
00000020: e5d2 82ba b5a5 923a 21e0 90bb 4957 813c
00000030: 430f a5bb 41c6 5abd 1f91 8fbc 63fe 22bc
00000040: c6cc f1bc d40e 9cbc 2c93 37bd 5500 9c3c
00000050: fe2c 2c3c dde9 a93c ea41 ba3c cd28 0f3d
00000060: ed6d 56bb 898e f33a e1bc 0bbd 1a2d 1c3c
00000070: 982f d63c df8f c9bc b47c a63c 803b 82bc
00000080: e26e 333c 3b69 8cbc 2dea 933b 6489 0ebd
00000090: 51aa d73c 42ae f7bb 47e0 fc3c 954d 6abc
000000a0: 5f2e 6e3c d2a8 96bc 2b81 86bc 08f6 41bc
000000b0: 3cc9 803c 126c 773c ff15 ad3c 2b10 cdbb
000000c0: bffd 2d3b 7d2b bb3c ea50 62bc b84b 3ebc
000000d0: fc7e dc3c 7a4f f4bc dd21 8cbc f28a a0bc
000000e0: 3979 f3bb 5bd1 d4bc 9cee 063c 5e34 cabc
000000f0: 4aa3 7ebc f8a8 0cbd 8342 c13c d07d b1bc
00000100: 32cb 8abb 4f45 acbc 77a7 9dbb a731 debb
00000110: 7f7d 3cbc 1958 04ba bfbd 773c f3fd ee3c
00000120: a09b d63c 68ed d6bc 3b24 86bb 8454 84bd
00000130: 7a37 523c 004c c93c fafb 1d3c 39f4 403c
00000140: 1d0f 153d ae2b c63c 5ad0 353b 7428 bebb
00000150: cd98 5e3b c3d5 503d adba d13c d5fd 383c
00000160: 1789 d1bc ed7c 96bc 5a53 ba3c 6fbf abbb
00000170: 66e1 69bd b211 21bd 3dea 1ebc 73cb ce3b
00000180: 0955 58bc fa59 9ebc 8546 f4bb 3d69 013d
00000190: da8f 943b 58ad cb3b 0cef 5b3c 8df0 68bb
000001a0: c9f0 5b3b 6d85 1cbc 192b fa3c e686 5dba
000001b0: 93bb ca3c 9119 aabc f5f8 eebc f2d8 683b
000001c0: bbd5 04bd 18cc a83c 5814 ab3c 730b de3c
000001d0: 8aa5 fa3c b02a 313c 9090 543c 8998 b3bb
000001e0: e905 003d 7162 643c 2e1b 18bc f171 0bbd
000001f0: 516c 503b f099 773a 1487 1e3d ad88 263d
00000200: 6afd 073d db3f c0ba aa9f 523c 3212 44bc
00000210: a586 6c3c fc90 153c 96a4 27bc 984c 8bbc
00000220: 0c7b e83b 3eab 0bbd 336f bdbc 704d e03c
00000230: 876a 8c3c bf53 2dbd 0696 2bbd 6f03 893c
00000240: 9ecf 9cba e987 163c 1a82 70bc 4123 d6bb
00000250: 9f2d fe3c d8a4 60bc 7fc1 3f3c 37df a538
00000260: e619 323c 47d6 cf3a 0a39 e3bb 5bab 3e3c
00000270: dbe0 053c af09 78bb 0230 c43c 0d1e 053d
00000280: ed63 953c ecc3 34bc 651d ddbc e521 ccbc
00000290: b4c0 8ebc ea53 80bb 4129 943c d5bf 2c3c
000002a0: c16e 023d ac51 13bd 59c6 b3bc daf1 003d
000002b0: be28 c8bc e0f6 bc3c dc4e 52b9 aef4 95bb
000002c0: 5463 c93c 0808 df3c dc26 69bc c411 fbba
000002d0: 130f 053d 2a46 ed3c 247d 683c cc03 adbc
000002e0: 2aed c2bc daef ca3c 55e5 a13c 0723 81bb
000002f0: ea00 0d3d f048 cb3c 8eb9 0abc a597 733c
00000300: 8204 0c3d cd17 a93c af31 8cbc 954a 0bbd
00000310: 86fd 273c 0b3b 553c 0530 0ebd ec72 ae3b
00000320: 85e2 18bd b24b a4bc 74b1 1bbd 1b64 c6bc
00000330: 87ac 523c 0156 42bb 0508 a33a 9861 19bd
00000340: f47f feb8 eea6 76bc 45c4 73bb 317c 933d
00000350: 1703 bd3d 3020 66bc 3ed9 a2b9 0cd9 d4bc
00000360: 4e75 903d b62a a93d 559c 11bd c8b7 41bd
00000370: 1997 75bc 0898 2abc 850b 7b3c 36b3 6fbc
00000380: 600a 4dbd 656c 2f3d b5fb 883b df37 803c
00000390: 2dab 933c d174 1c3c de4d 083d 9993 c7bc
000003a0: 6c59 f4bb 2341 c1bb 0dfd 943c 75bc a5bc
000003b0: 7208 05bd f3a8 2cbd 53b9 743c 4a8e f83b
000003c0: e433 25bd a06a fabb e2c0 00bd adbd bcbc
000003d0: bb88 9f3c 67f1 6abc b803 f53c 462f 3d3d
000003e0: 4079 823c c310 853c ebd4 fcbc dfd8 76bc
000003f0: 0b22 fcba 2e47 f83b 168c 6a3c 9a27 9c3c
0.001114656 0.019288704 0.019999417 0.041635927 0.03773755 -0.026755415 0.004970843 -0.02104694
-0.0009981064 0.00111883 -0.0044212495 0.015788691 -0.0050372197 -0.053411726 -0.017525254 -0.009948346
-0.029516589 -0.01905004 -0.04481809 0.019043127 0.010508774 0.020741398 0.022736508 0.03495102
-0.003271933 0.0018581907 -0.034115676 0.009532237 0.026145741 -0.024604736 0.020323135 -0.015897512
0.0109517295 -0.017140022 0.004514 -0.034798995 0.02632633 -0.007558615 0.030868663 -0.014300724
0.014537423 -0.018391047 -0.016419014 -0.011838444 0.015720956 0.01510145 0.021128653 -0.006258031
0.002654895 0.022847885 -0.013813237 -0.011614732 0.02691602 -0.029823054 -0.017105991 -0.019597504
-0.0074302224 -0.025978735 0.0082356 -0.024683174 -0.015541861 -0.03434083 0.023591286 -0.021666437
-0.0042356486 -0.021029143 -0.004811223 -0.0067808214 -0.01150453 -0.0005048528 0.015120923 0.029173827
0.026197255 -0.026236251 -0.0040936745 -0.064614326 0.012830609 0.024572372 0.009642595 0.011776977
0.036391366 0.02419075 0.0027742595 -0.005803162 0.0033965588 0.05098511 0.02560171 0.011290987
-0.025578065 -0.018370116 0.022744823 -0.0052413265 -0.057099722 -0.039323516 -0.009699401 0.006310874
-0.013203868 -0.019330014 -0.0074546956 0.031594504 0.00453375 0.0062157325 0.013423692 -0.003554377
0.0033560267 -0.009553296 0.030538129 -0.00084505824 0.024747645 -0.020764144 -0.029171446 0.00355297
-0.03243039 0.020605132 0.020883724 0.027105069 0.030596513 0.0108134 0.0129739195 -0.00548083
0.031255636 0.013939486 -0.009283824 -0.03404421 0.0031802843 0.0009445241 0.03870304 0.040657688
0.03320066 -0.0014667468 0.01285545 -0.011967229 0.014436399 0.009128805 -0.010232111 -0.017004296
0.0070947465 -0.034098856 -0.023124313 0.027380675 0.01714064 -0.042316195 -0.04189112 0.01672527
-0.001196373 0.009187677 -0.014679456 -0.0065349643 0.031027613 -0.013711177 0.011703848 7.90939e-05
0.0108704325 0.0015856706 -0.00693429 0.011637534 0.0081712855 -0.0037847569 0.023948673 0.03249936
0.018236125 -0.01103304 -0.026991555 -0.024918506 -0.017425872 -0.0039162533 0.018086078 0.010543783
0.031843904 -0.03596656 -0.021945165 0.031480648 -0.02443349 0.023066938 -0.00020056538 -0.004576287
0.024583496 0.02722551 -0.014230456 -0.0019155075 0.03248508 0.02896412 0.014189992 -0.021119975
-0.02379473 0.024772573 0.019762674 -0.003940943 0.0344247 0.024815053 -0.008467091 0.014867698
0.034183986 0.020641232 -0.017113535 -0.034006674 0.010253316 0.013014565 -0.034713764 0.0053237583
-0.0373254 -0.020055626 -0.03801103 -0.024217656 0.012858517 -0.0029653313 0.0012438303 -0.03744659
-0.00012135497 -0.015054448 -0.0037195843 0.07201422 0.09229105 -0.01404576 -0.00031060906 -0.025982402
0.07053624 0.082600996 -0.03554948 -0.047294408 -0.014989638 -0.010412224 0.015322571 -0.01463013
-0.050058722 0.042827982 0.0041803964 0.015651641 0.018025959 0.009549336 0.033277385 -0.024362372
-0.007456949 -0.0058976575 0.01818707 -0.020231465 -0.032478757 -0.04215331 0.014936763 0.0075853216
-0.04033269 -0.007642105 -0.031433947 -0.023039663 0.019474378 -0.014339781 0.029909 0.04618766
0.015926957 0.016243344 -0.030863246 -0.015066355 -0.001923622 0.0075768447 0.014315626 0.019061852
