2021_BOML_srcnn_project/output/epoch_17.pth (torch, 231519 bytes, 5 tensors)

conv1.weight f4 [64, 1, 9, 9]
000000 f4 22 a4 bc a1 fe 2f 3c c1 83 71 bd b7 0e 24 3d
       -0.020036198 0.010741861 -0.05896354 0.040053096
000010 50 d1 cb bd e3 4e 9d 3d 59 7e a4 bd 0d da a2 bd
       -0.099520326 0.07681062 -0.080319114 -0.07951746
000020 00 d4 6b bd 89 da 81 3d 12 db 31 bd 55 50 04 3d
       -0.057575226 0.063405104 -0.043421812 0.032303173
000030 ce d4 ce bd fb 1f 98 bd 2f d8 48 bd 58 d3 c8 bc
       -0.10099183 -0.07427975 -0.049034294 -0.024514839
000040 c4 51 a1 bd fd 1e a6 3d 6d ef 90 bc a5 bd 0e 3d
       -0.07876924 0.08111379 -0.017692292 0.034848828
000050 57 f4 99 3d a2 8a c5 3c 0b ba 1b 3d 54 0c e2 3d
       0.07517307 0.024113957 0.03801922 0.11037508
000060 44 d2 3e bd e4 79 31 3d 1c fb 29 bd e5 5d 96 3d
       -0.046587244 0.043329135 -0.041499242 0.07342128
000070 fb ab 9d 3d 66 6e df bd 90 c0 df 3d 03 0e 9f 3d
       0.07698818 -0.10909729 0.109254 0.077663444
000080 4b 63 85 3d 41 b6 58 3d a2 dd bf 3d c0 3b 98 bc
       0.06513079 0.052908186 0.09368445 -0.018583179
000090 a8 97 ce bd 8d 07 33 bd 75 ff 9c bd f9 6c 21 3d
       -0.1008752 -0.043708373 -0.07665912 0.039410565
0000a0 8a 57 a0 3c e6 99 05 bd 93 73 61 b8 29 34 d6 3d
       0.019572992 -0.032617472 -5.3751817e-05 0.104591675
0000b0 5f 60 8e bc 18 47 ba ba 64 31 df bc e4 60 c4 3c
       -0.017379938 -0.0014211861 -0.027245231 0.023971982
0000c0 b7 5e 03 3e 26 19 c2 3d fe f6 48 3d 61 fe b0 3c
       0.128291 0.09477453 0.049063675 0.021605672
0000d0 58 aa ab 3c bb a7 02 3d 95 65 22 bc fa 2e e8 bd
       0.02095525 0.03189824 -0.009911914 -0.11337085
0000e0 5d 6d 8d bd 29 06 d8 3d d2 3a 2d 3c 62 39 cd bd
       -0.06905625 0.1054805 0.010573106 -0.100207105
0000f0 62 c5 88 3b b8 1c b4 3d 2c 19 de bd 5f 06 78 bd
       0.0041739205 0.0879454 -0.10844645 -0.06055295
000100 18 8a 48 bd 72 e9 92 ba 6f 13 fb bc ad ff c1 bc
       -0.04895982 -0.0011208488 -0.030648915 -0.023681486
000110 27 e9 03 be 13 68 20 3d b2 bb d4 3d 7f 54 99 3d
       -0.1288191 0.039161753 0.103873625 0.074868195
000120 71 24 42 bd 84 5b a9 bd 22 6c 23 3d 11 61 09 bc
       -0.047398034 -0.08269408 0.039898045 -0.008384959
000130 95 14 0a 3d ba b1 fa bd be c6 01 bc 79 98 c5 3d
       0.033711035 -0.1224093 -0.007920919 0.096482225
000140 ce b8 82 3d 5a 21 ae b9 f3 0a 77 3b f8 8a eb bc
       0.06382905 -0.00033212715 0.0037695735 -0.028752789
000150 95 ba a0 bd 7b 07 54 bd 27 16 98 bd 89 7f bb 3d
       -0.07848088 -0.051764946 -0.074261 0.09155185
000160 18 2a 56 3d 62 4c ad 3c 07 e1 ba bd 7a 0a 90 3d
       0.052286237 0.021154586 -0.09124952 0.07033248
000170 b6 c5 a0 3c 2e 23 80 3d b4 67 51 bd 71 90 91 3c
       0.019625526 0.0625671 -0.05112429 0.01776907
000180 ac fb e4 3d 2a bd 96 3d 95 43 9b 3d 1e 5d f5 bc
       0.11180815 0.07360299 0.075812496 -0.029951628
000190 c0 dd 92 3d 6d dd c1 bd 50 b7 26 3c 7f ce 5c bd
       0.07171202 -0.09466062 0.010175541 -0.053907868
0001a0 3e d3 c4 bc 21 dc b4 bc 67 18 ed 3b c8 84 ac 3d
       -0.02402651 -0.022077622 0.007235575 0.084237635
0001b0 3a 7f 10 3d 86 78 98 bc c8 e2 99 3d 42 f5 3b bd
       0.035277583 -0.018612158 0.07513958 -0.045888193
0001c0 f9 d8 99 3d 54 b2 5a bc 2d 89 c3 bc a9 ad 85 3a
       0.075120874 -0.013348181 -0.023869121 0.001019885
0001d0 69 c6 e4 bd 3b a5 ac 3a 76 1e 0a 3d 30 ca df 3d
       -0.11170656 0.0013171801 0.033720456 0.10927236
0001e0 6a 41 ed bb c8 52 8d 3d 00 05 ed 3d ef b8 3f bd
       -0.007240464 0.06900555 0.11573219 -0.046807226
0001f0 79 38 ce 3d 8b bb 9a bd d5 38 0f 3d 4e ed 16 3d
       0.10069365 -0.07555302 0.03496631 0.036847405
000200 e6 75 1c 3d 6b 30 c3 3d b1 91 24 bd 72 a9 85 3c
       0.038198374 0.09530719 -0.040178005 0.01631615
000210 9a de f2 bb ab d0 b8 bd 2e d1 56 bd 92 77 c3 bd
       -0.00741179 -0.09024175 -0.052445583 -0.095442906
000220 a1 2d 09 3d 19 56 dd 3b e6 78 a9 ba c6 de 61 bd
       0.03349078 0.0067546484 -0.0012929707 -0.055144094
000230 ce d8 f8 bc ef df 50 bd d5 1f c7 3c aa 13 a7 3d
       -0.030376818 -0.05099481 0.02430717 0.081580475
000240 cf 0c 00 3c a5 10 6f bd 6c 62 89 bd 57 3b 8c 3a
       0.007815554 -0.058365483 -0.067082256 0.0010698837
000250 57 b2 c8 bd 96 2e d1 bd fa 30 9d bd 0e 2a 04 bd
       -0.097996406 -0.10213964 -0.07675357 -0.03226667
000260 a4 54 9f bb b0 49 9f 3d eb 75 2e 3d 6c bd d2 3d
       -0.004862385 0.07777727 0.042592924 0.102900356
000270 4f 6e 4b bd 5b 09 ea 3c bf 17 a1 bd 9e eb bb 3d
       -0.049665745 0.028568914 -0.07865857 0.091758
000280 88 29 53 3d 4e bd e1 3d 98 34 8f bd 21 51 d9 3d
       0.05155328 0.11022435 -0.06992453 0.10611177
000290 9d 1f fc 3d 43 d7 02 3e be 08 66 3d 54 f3 05 3e
       0.12310717 0.12777428 0.05616068 0.13081104
0002a0 5f 11 c2 3d 60 22 bf 3d 68 91 42 bc 59 21 b3 bd
       0.094759695 0.093327284 -0.011875488 -0.08746595
0002b0 8a 5e 41 b9 c5 0f e9 3c 00 59 86 bd 86 e3 53 bd
       -0.00018441133 0.028449902 -0.06559944 -0.051730655
0002c0 5b 5b ce bd 8f 95 0d bd b0 dc c9 3d cf d7 0a 3c
       -0.100760184 -0.03456646 0.09856546 0.008474304
0002d0 a2 ad ef bb dc ea 12 3c 10 5a 9f 3d d5 0c bb bd
       -0.0073144 0.008967128 0.0778085 -0.09133307
0002e0 2f a7 a2 bd 58 69 1a bd a2 1d 7f bd de aa 81 3d
       -0.07942044 -0.03769812 -0.06228412 0.063314185
0002f0 2f 21 9d 3d 6b d7 d1 bd f1 57 a3 bd c3 3c b2 bd
       0.07672345 -0.10246166 -0.07975758 -0.08702996
000300 ba 5c 7b 3d 03 91 da 3d 6a c4 a3 bd 09 66 32 bd
       0.061367728 0.1067219 -0.079964474 -0.04355434
000310 cc 20 53 3d 24 f3 77 bd 44 89 ce 3d 55 95 2f 3d
       0.05154495 -0.06053461 0.10084775 0.042867023
000320 dc 8a a0 bb 6e b8 0f 3d 8e 67 75 3d 83 4b e9 bc
       -0.004899366 0.035087995 0.05991321 -0.02847839
000330 b3 f3 9b bd 9a 20 a3 3c e6 f8 96 3c 39 fb 8c 3b
       -0.07614841 0.019913007 0.01842923 0.004302409
000340 51 3e 2b bc bc 38 b6 3d 24 59 1d bc 31 fb 1c 3c
       -0.010451869 0.0889754 -0.009603772 0.009581373
000350 c0 c2 5a 3d ba 38 87 bd c8 5d 2b 3d bb ce 83 bc
       0.053408384 -0.066026166 0.041837484 -0.016089788
000360 69 9e 4a 3d 07 9c 93 bd f5 ad 0d 3c f6 0c a4 3c
       0.049467478 -0.07207494 0.008647432 0.020025712
000370 2a e9 a5 bd d3 50 a7 bd 5c d6 1e 3d 7e 14 eb bc
       -0.08101113 -0.08169713 0.038778648 -0.028696295
000380 1f 29 8b 3d f6 59 c3 bd dd f8 60 bd 56 67 a9 bd
       0.067949526 -0.09538643 -0.054924835 -0.08271663
000390 a2 8e 62 3d c9 62 45 3c 79 4f 4e bc 61 6c 7c bc
       0.055311806 0.012047478 -0.01259219 -0.015406699
0003a0 17 e1 a3 bd df af 17 3d 30 a7 05 3d 06 58 80 bd
       -0.08001917 0.037032958 0.032630146 -0.06266789
0003b0 22 67 7d 3d 44 ed 88 3c d1 e3 a5 bd 8a 63 a3 3d
       0.061865933 0.0167147 -0.08100093 0.0797797
0003c0 bf e8 96 3d e9 b7 d4 bb e8 5f 83 bd 3f 83 f2 3a
       0.073686115 -0.0064916504 -0.06414777 0.0018502249
0003d0 ac b2 a8 3d 22 9d cd 3d 69 61 af bd ef f1 52 bd
       0.08237204 0.10039736 -0.085635014 -0.051500257
0003e0 ba 69 af 3d c3 6c 58 3d 49 43 85 3d a3 c1 72 bd
       0.085650876 0.0528381 0.06506974 -0.059266698
0003f0 32 bd bf 3d 6a 1f bc bd 72 4b bc bb 7b ab 0f 3a
       0.09362258 -0.09185679 -0.0057462985 0.00054805697

conv1.bias f4 [64]
000000 38 79 8f bc da 14 d0 bd bd 72 c3 3b af a7 7b bd
       -0.017513856 -0.10160227 0.0059646056 -0.061439212
000010 cb 9b 1c 3d 43 c2 bd bc 45 f2 5e 3d f7 55 43 bc
       0.038234513 -0.02316392 0.054430265 -0.011922351
000020 a1 ba d5 3d 9c 39 3f bd 4c 67 06 3c cb b8 f6 3c
       0.10435987 -0.0466858 0.008203339 0.030117413
000030 23 e8 c7 bd a0 09 c4 3d b3 00 89 3d 29 71 f9 3c
       -0.097610734 0.09572148 0.066895865 0.030449467
000040 41 39 0a bd cc 97 86 bd c7 17 48 3d be 95 16 3d
       -0.033746008 -0.06571922 0.0488508 0.0367639
000050 9a a3 87 3c 7c d5 97 3a cd f4 8c bd bc 4a 92 3d
       0.016557503 0.0011584009 -0.068826295 0.07143161
000060 e7 42 88 bd 2c 4f 41 3c 7a 7c 3b 3c a6 ff 14 bc
       -0.066533856 0.011798661 0.011443252 -0.009094154
000070 d7 3e e9 3c 61 b8 72 3d d8 f0 b6 3d a5 ce 04 bc
       0.028472347 0.05925787 0.08932656 -0.0081059085
000080 2e 8d 42 3d 3f fa 2e 3d d3 42 77 3b d7 ee ba bd
       0.04749792 0.042719122 0.003772904 -0.09127586
000090 b3 a6 ec bc e5 2a ab 3d f6 4a 27 3c dd 84 4f 3d
       -0.028888082 0.08357791 0.010210743 0.050663818
0000a0 b7 0c b8 bc 77 fa 03 bc ae ae ca 3d 29 ab 3b bc
       -0.022467 -0.008055321 0.09896599 -0.011454382
0000b0 d2 58 15 3d dc 49 5a b9 c7 8e 84 bc 66 9a 80 3c
       0.03646166 -0.00020817615 -0.016181363 0.015698623
0000c0 af 17 14 bc 1b 98 c6 bc 35 c4 71 3b 00 20 3d 3d
       -0.00903885 -0.024242451 0.003689063 0.046173096
0000d0 79 14 c4 3c c7 52 06 bb 3c 30 e0 b9 2e 88 9c 3b
       0.023935543 -0.0020496116 -0.00042760547 0.004776976
0000e0 01 fc d9 3d 2d 6c 3c bd 04 52 18 bc 60 c1 98 3d
       0.10643769 -0.046001602 -0.009296898 0.07458758
0000f0 a1 25 8f 3d aa 59 1a bd ff 81 ca bd e3 26 a6 bd
       0.06989599 -0.037683167 -0.09888076 -0.08112886

conv2.weight f4 [32, 64, 5, 5]
000000 e8 c0 e0 ba f4 82 83 bb fc ad ac bb 6d 0c 46 bb
       -0.0017147334 -0.0040134136 -0.005269764 -0.0030219809
000010 54 0c 7e bd 93 ea a4 3a 9f b0 58 bc 7d f8 a4 bc
       -0.062023476 0.0012582116 -0.0132257035 -0.02013802
000020 66 55 17 bc 13 20 b5 bc 70 b1 1d 3c 5b 21 f4 bb
       -0.009236669 -0.02211002 0.009624824 -0.0074502653
000030 ff e7 74 3c 56 8c 0b 3b d8 02 f5 3c 18 ef 5f bc
       0.01494789 0.0021293364 0.029908583 -0.013667844
000040 8d 6c 4c 3c 6a 7d 9a 3c e2 46 86 3c 69 e7 10 3d
       0.012477052 0.01885863 0.016391221 0.03537694
000050 30 87 54 bb 3b e8 cd 3b 59 11 b7 bc ac 04 8e 3c
       -0.003242921 0.0062837875 -0.02234714 0.017336212
000060 b6 9f 63 bc c6 19 05 bd 1f 79 0c 3c 96 9f 81 3c
       -0.0138930585 -0.032495283 0.008573799 0.015823167
000070 95 84 81 bc d4 aa 9c bc 4d 9e cc bc 24 cc 8f 3c
       -0.01581029 -0.019124426 -0.024977827 0.017553397
000080 30 d8 04 3d f9 7b d9 3c 0d bb 71 3c de c4 8f 3b
       0.032432735 0.026548373 0.014754069 0.004387482
000090 05 37 59 bc 8b 99 c5 3c 58 37 dc 3c 83 dc 25 3d
       -0.013257747 0.024121067 0.026881859 0.0404935
0000a0 81 7f cb bb dd ce f7 3a 5f 9a 68 bc 23 72 04 3c
       -0.006210268 0.0018906255 -0.014196961 0.008083853
0000b0 af 62 79 3b 9d d9 06 bd 2d d9 3b 3c d1 79 eb 3b
       0.0038053205 -0.032922376 0.011465353 0.0071861525
0000c0 04 c9 f6 3b cd af 59 3b 28 34 6c bd f9 70 5b bd
       0.007531287 0.0033216358 -0.057666928 -0.053574536
0000d0 21 a7 be bd 0a 37 a0 bd 67 f7 e1 bd b4 9e f0 bc
       -0.09309221 -0.07822998 -0.110335164 -0.02937255
0000e0 54 32 5a bc 8c 97 55 bc 52 57 a6 3b ba d1 d7 bc
       -0.013317663 -0.01303662 0.0050763274 -0.026345123
0000f0 b0 02 db 3b dc 6f 37 ba fc 04 82 bc 38 8a 8b 3c
       0.00668367 -0.00069975643 -0.015871517 0.017033681
000100 20 ae 58 bc b9 83 82 3a 8a 62 28 3d 2e ef 42 3d
       -0.013225108 0.0009957469 0.0411096 0.04759138
000110 ba 9e 2a 3d 38 80 9b 3b e6 4d 6b 3c 12 66 00 3d
       0.04165528 0.0047455095 0.014361834 0.03134734
000120 3d c9 da 3c c8 13 b7 3c 45 81 4d 3c 8a 96 48 3c
       0.026707286 0.0223483 0.012543027 0.012242923
000130 f3 e1 4f bc 7d 98 26 bc 58 b6 97 bc 35 18 bf bc
       -0.012688148 -0.010168192 -0.018519565 -0.023326972
000140 95 73 d4 38 9c 49 9e 3c 06 a1 79 bc cf af a9 bc
       0.000101304766 0.019322209 -0.015236145 -0.020713715
000150 da c6 2f 3c 50 5c 5d 3c 10 c3 28 3c 4c 72 81 bc
       0.010728562 0.013510779 0.010300413 -0.015801571
000160 d3 a4 c3 3c e0 72 ad 3b e4 71 8e ba 6e ba bc 3c
       0.023882305 0.005293235 -0.0010867682 0.023038115
000170 9c fb 22 3c fd 89 a5 3c e9 c3 f2 bb ba 97 66 3c
       0.009947684 0.0202074 -0.007408608 0.01407426
000180 1f 3e c2 bb f4 01 32 3c e3 e1 50 bc 57 9b 7c bc
       -0.0059278156 0.0108647235 -0.012749168 -0.015417895
000190 3b 62 b6 bc 02 8e 9c bc 55 a9 a7 3c db 3d b5 3c
       -0.022263637 -0.019110683 0.020466486 0.022124222
0001a0 f3 d5 02 3c 99 87 85 bb e2 ca b9 ba 79 cc 46 3c
       0.00798558 -0.0040750024 -0.0014174844 0.012133711
0001b0 fa 3e dc 3c 7d d8 29 3c 51 1f 85 bc f4 78 72 bc
       0.026885498 0.010366556 -0.016250284 -0.014799345
0001c0 35 6a ef 3c 44 5c c4 3c 08 d8 f0 bc 49 d3 b5 bc
       0.029225448 0.023969777 -0.029399887 -0.022195475
0001d0 ac 42 24 3c 33 3c 57 bc b8 08 c4 3c ec 8b 3d 3c
       0.010025661 -0.013136911 0.023929939 0.0115690045
0001e0 ba 64 ac bc f5 f9 4e bb d3 a9 7b bc ba 9f ea bc
       -0.021044124 -0.0031582091 -0.0153603135 -0.028640617
0001f0 4a 9e 90 b9 6e 57 24 3d 98 94 83 3c 6d 18 ad ba
       -0.00027583755 0.040122442 0.016062066 -0.0013206132
000200 83 96 ae 3c db a2 ef bb 43 d3 09 bd ba b4 cb 3b
       0.021312004 -0.007313115 -0.03364874 0.0062166126
000210 3c 3d 48 bc f3 ec d7 bb 2c 57 23 3b 6f b7 d4 bc
       -0.012221631 -0.006589526 0.0024923785 -0.025966374
000220 37 a9 9e 3b 17 a7 d1 3c 68 e4 e9 bb 90 f6 4b bc
       0.0048419493 0.02559237 -0.007137824 -0.012448922
000230 ce f2 e1 3c 5a 3c 09 3d 90 26 05 3d 11 f1 81 3c
       0.027581599 0.03350482 0.03250748 0.01586202
000240 d2 7f 5f 3c 0d f9 e3 bc 37 92 e4 bc b1 7f 69 3c
       0.013641315 -0.027828718 -0.027901752 0.014251635
000250 58 87 aa bc b9 5f 45 bd 62 73 92 bc 85 65 de bb
       -0.02081649 -0.04818699 -0.017877284 -0.0067870044
000260 2f 65 91 bc 73 b3 9f 3c e7 5b 04 bd f8 95 e7 3c
       -0.017748443 0.019494748 -0.032314207 0.028269753
000270 c3 91 a1 3c 1f 45 64 bc d4 24 2c bc 62 61 c0 3c
       0.019722825 -0.013932495 -0.010506827 0.023483936
000280 8d e3 a6 3b 45 f1 1c bc 26 ef 3b 3c 9c 5f a4 ba
       0.005093044 -0.0095790075 0.011470592 -0.0012540701
000290 58 52 1c bb a1 16 af 3c cf 8a 27 bc 84 99 c4 bb
       -0.0023852792 0.021373095 -0.010225966 -0.005999746
0002a0 c6 30 94 ba 35 8b 9e 3c 57 d8 2c bc 64 ee d9 bb
       -0.001130604 0.019353488 -0.010549626 -0.006650733
0002b0 84 27 32 3c 0a 0e 5d 3c b2 a0 5f bb 01 48 17 3c
       0.010873679 0.013492117 -0.0034122881 0.009233476
0002c0 6f 04 63 3d a1 ff a1 3c f3 0a 23 bb c4 85 87 3d
       0.05542415 0.019775214 -0.0024878352 0.06617311
0002d0 86 d7 0e bd 1b bb 13 bc 98 13 83 3d e7 cc 85 3c
       -0.034873508 -0.009016777 0.064002216 0.016333057
0002e0 46 82 19 3b 97 e1 60 bd f8 50 9b bc 83 35 82 bc
       0.0023423596 -0.05490264 -0.018959507 -0.015894657
0002f0 72 5b 50 bb a9 e7 91 bc 40 29 1b bc cc 73 ec ba
       -0.0031792787 -0.01781066 -0.009470284 -0.0018039881
000300 57 dd aa bc 5f 7c 52 3c 97 3c 8f bb a3 6d bc 3d
       -0.020857496 0.012847035 -0.0043712365 0.09200599
000310 7d 49 91 3d 4b be 62 3d f9 1a 12 3d f9 c9 ca 3c
       0.07094095 0.05535726 0.035670254 0.024754511
000320 ec 3a 5f bc 29 5f 20 bb e7 b2 b6 ba 12 e8 a6 3c
       -0.013624888 -0.0024470782 -0.0013938815 0.020374332
000330 48 2e 4d 3c 40 17 b6 3c e5 a8 f6 b9 29 a6 99 b9
       0.012523241 0.022227883 -0.00047046613 -0.00029306233
000340 64 f2 57 3c b3 96 a2 bb 3f 85 e3 bc 1e ab a5 bc
       0.013180349 -0.0049618124 -0.027773498 -0.020223197
000350 2d 0e 02 bb 53 e7 f4 3b e4 be e0 bc a8 54 e1 3c
       -0.0019844875 0.007473865 -0.027434774 0.027506188
000360 4b 6d 9d 3b a9 bd 38 3c cd 3f 64 bb 0c 82 71 bc
       0.0048042885 0.011275687 -0.0034828067 -0.014740478
000370 34 17 95 bb 51 ea c8 3c fc 2c 3a 3c f6 6f aa bc
       -0.004549885 0.024525793 0.011363264 -0.02080534
000380 a7 6f 08 3c 2d 6e 84 ba 52 3f 37 3c c6 4a 20 bb
       0.008327401 -0.0010103636 0.01118453 -0.002445863
000390 28 b0 07 bc 88 70 47 ba e5 cc 7b 3c 2e 4f 1a 3c
       -0.008281745 -0.0007608016 0.015368675 0.009418292
0003a0 1e 83 02 3d dd a5 da 3c 9a ad db bb 04 57 a7 bb
       0.031863324 0.026690418 -0.0067040445 -0.0051068086
0003b0 20 01 f7 3a 60 39 80 3b 26 72 b2 bb 53 df ee bc
       0.001884494 0.0039130896 -0.0054457365 -0.029159224
0003c0 d9 51 20 bd b0 46 78 bc 2e 44 c8 bb f7 77 ff bc
       -0.039140556 -0.015153572 -0.0061116433 -0.031185133
0003d0 21 6d c3 bc 72 74 2c 3b 30 70 15 bc ee 21 5d bc
       -0.023855748 0.0026314524 -0.009120986 -0.013496859
0003e0 af 95 66 bc 3b 04 d2 ba 77 72 0d bd f0 c1 ae bc
       -0.014073773 -0.0016022989 -0.03453299 -0.021332711
0003f0 e2 82 3d bb 53 c7 24 3c 1e 94 f4 3b 3d a4 2b bd
       -0.0028917124 0.010057288 0.007463946 -0.041904677

conv2.bias f4 [32]
000000 57 c0 ee bb ce 38 bf bc 10 11 ca ba 8f d3 83 3c
       -0.0072861123 -0.023342516 -0.0015416462 0.01609209
000010 c9 0a cb 3c 1c a4 9c 3c cb f8 49 bc 10 94 dc 3b
       0.024785416 0.019121222 -0.012327383 0.0067315176
000020 c9 f3 98 3c 09 ee 58 bc da 22 91 39 3b a0 29 3c
       0.018670933 -0.013240346 0.00027682522 0.010353143
000030 1b 8e d3 3c 69 9b 72 3c b5 c7 47 3c f4 e2 23 bc
       0.025824597 0.0148075605 0.01219361 -0.01000284
000040 82 fd 7b bc 7d ba 99 bc cf 81 75 3c a5 20 b8 3c
       -0.015380265 -0.018765682 0.014984562 0.022476504
000050 ba 5d d2 3c 33 51 e2 3a ae 4a b0 bb ae 83 09 3c
       0.025679458 0.0017266631 -0.0053799963 0.008393211
000060 35 16 4f 3c 35 9e b8 3c 1a d9 84 3c ae 81 99 3c
       0.012639572 0.022536376 0.016216803 0.018738594
000070 80 be 03 3c 1e c0 ca bc 70 c5 08 bc fd bc 33 bb
       0.008041024 -0.024749812 -0.008347854 -0.0027425878

conv3.weight f4 [1, 32, 5, 5]
000000 bb e5 8f 3c 9d 51 95 3c 6b 2f 4b ba df 00 d4 3c
       0.017565599 0.018227393 -0.0007750901 0.025879322
000010 66 37 00 3d 31 11 fc bc 60 9e 33 3a 4a 3a 0f bd
       0.031302832 -0.030769916 0.0006851908 -0.0349677
000020 c4 e4 5d 3b f0 40 2b 3c 0e 2e 5d bb 9e be df 3c
       0.0033858279 0.010452494 -0.0033749375 0.027312573
000030 99 5d 2e 3c b1 7d 02 bd cf a7 80 bb d7 b2 88 bc
       0.010642433 -0.03185815 -0.0039262543 -0.01668684
000040 93 c1 ef bc b1 0a 7e ba dc 2f 09 bd 5c ac b1 3c
       -0.029267108 -0.0009690924 -0.033492908 0.021688633
000050 b9 c3 7c 3b 91 89 54 3c 9d 78 ad 3c c9 48 e8 3c
       0.0038568808 0.0129722515 0.021175677 0.02835502
000060 82 a3 92 bc 45 82 05 3b 9f 21 09 bd d2 fa 03 3c
       -0.017900232 0.0020371836 -0.03347933 0.008055406
000070 7c d7 d7 3c f2 b5 b7 bc 25 d1 a7 3c 8c b7 87 bc
       0.026347868 -0.022425625 0.02048547 -0.016567014
000080 f0 d4 25 3c 53 af 7c bc 13 42 da 3b bf bd 08 bd
       0.010121569 -0.01542266 0.0066607087 -0.03338408
000090 85 de d7 3c c4 f1 03 bc b4 9d 06 3d 02 bc 4d bc
       0.026351223 -0.008053247 0.03286524 -0.012557032
0000a0 98 9a 7e 3c c5 ff 89 bc 39 7b 73 bc 57 f2 10 bc
       0.015539788 -0.016845593 -0.014860922 -0.008846841
0000b0 0f 4e 8c 3c e6 6a 6a 3c 36 40 a9 3c e0 e3 b7 bb
       0.017127065 0.014307713 0.020660501 -0.0056118816
0000c0 9c a3 93 3b d4 ab b3 3c 82 53 62 bc 1d 4d 3e bc
       0.0045055877 0.02193252 -0.013813855 -0.011615065
0000d0 5a 7e dc 3c 11 4a f4 bc 26 23 8c bc 12 8c a0 bc
       0.026915718 -0.029820474 -0.017106604 -0.01959804
0000e0 ea 7d f3 bb ca d2 d4 bc ec fa 06 3c 1c 39 ca bc
       -0.0074307816 -0.025979418 0.008238535 -0.024685435
0000f0 3c 5c 7e bc 98 d5 0c bd a5 4a c1 3c d7 78 b1 bc
       -0.01552492 -0.034383386 0.023595164 -0.021664066
000100 da d1 8a bb 67 7f ac bc 96 09 9f bb 8a 4a dd bb
       -0.004236442 -0.021056844 -0.0048534377 -0.0067532705
000110 e5 7f 3c bc d6 c4 04 ba 21 b8 76 3c 7d b9 ee 3c
       -0.011505102 -0.0005064731 0.015058548 0.029141182
000120 69 f0 d6 3c fc ee d6 bc 67 2a 86 bb 01 6e 0d bd
       0.026237683 -0.026237004 -0.00409441 -0.034528736
000130 e4 c0 99 3c 6b c2 e1 3c ec a8 e7 3b cc 37 18 3c
       0.018768735 0.027558526 0.0070696976 0.009290647
000140 4f c6 23 3d 46 b3 20 3b 00 f3 dd bc 82 74 93 bc
       0.039984044 0.0024520918 -0.02709341 -0.017999891
000150 69 d0 20 bc ef 17 c5 3c 7b cf aa 3b 60 e5 eb 3c
       -0.009815314 0.024059264 0.005212722 0.028795898
000160 84 65 81 3c 0c a8 46 bc 7e 13 0b bc dc a6 65 bc
       0.015795477 -0.012125026 -0.008488534 -0.014016833
000170 37 f3 17 bd 07 9b 52 bc f5 55 70 bc 10 e9 b4 bb
       -0.037097182 -0.012854344 -0.014668931 -0.0055209473
000180 63 7e 01 bc 54 bf 8d bc c6 d6 8c bc bb 4b 12 3c
       -0.007903668 -0.017303146 -0.017192256 0.008929188
000190 f9 f5 cb 3b 87 36 fe 3b f1 65 6c 3c 32 74 41 bb
       0.0062243906 0.007757965 0.014428602 -0.002951872
0001a0 87 b8 6b 3b 19 b3 f1 bb 04 99 02 3d 7a b1 71 b8
       0.0035968141 -0.0073760864 0.03188421 -5.7624165e-05
0001b0 18 3c ce 3c d6 6d aa bc 5d 3c e2 bc dc 4c 94 3b
       0.02517514 -0.020804327 -0.027616674 0.004525764
0001c0 63 60 02 bd f4 b1 a8 3c 81 be a6 3c a9 2b ec 3c
       -0.031830203 0.020592667 0.020354511 0.028829413
0001d0 de 22 03 3d 29 c0 3b 3c 48 45 5c 3c 44 04 ae bb
       0.032015674 0.011459389 0.013444252 -0.005310567
0001e0 3b 5d 04 3d 0a 7f 76 3c 7f b3 0a bc c1 80 06 bd
       0.032315474 0.015044937 -0.008465647 -0.032837633
0001f0 99 81 89 3b fb 67 67 3b 25 00 e9 3c a1 08 ba 3c
       0.0041963574 0.003530978 0.028442452 0.022709193
000200 11 27 01 3d 58 1d 86 3b b0 21 29 3c d8 bd dd bc
       0.031531397 0.0040928535 0.010322973 -0.027068064
000210 5a f1 c7 3b 4c b9 1d 3c cd 8e 99 bc 7c 62 8c bc
       0.0061017694 0.009626698 -0.01874485 -0.017136805
000220 41 c1 8d 3c 43 9c 92 bc 4a 8c 2d bc 76 fb e1 3c
       0.017304065 -0.017896777 -0.01059253 0.027585726
000230 1a 31 ef 3c 69 25 da bc d3 c9 eb bc 3d d3 d2 3c
       0.029198218 -0.026629167 -0.02878276 0.025735492
000240 d4 ef 0a bc 9b 3f aa 3b 9f 83 ad bc fe 15 5b bc
       -0.008480031 0.0051955706 -0.021180926 -0.013371943
000250 f1 57 ec 3c 1b b0 b2 bc 68 4f 56 3c c4 11 ce 3a
       0.028850527 -0.02181249 0.013080455 0.0015721847
000260 e1 c3 3e 3c a8 91 07 3b 00 9f e5 bb 3e c8 58 3c
       0.011643381 0.0020686183 -0.0070074797 0.013231335
000270 7f 1c 26 3c 28 36 34 bb ab 80 c6 3c a3 d5 02 3d
       0.01013863 -0.00274981 0.024231276 0.03194202
000280 a5 17 99 3c aa 84 23 bc c3 25 d3 bc 94 59 c6 bc
       0.018688032 -0.00998036 -0.025774842 -0.024212636
000290 56 ab 8e bc 52 d0 44 bb b5 f1 95 3c 41 00 21 3c
       -0.017415684 -0.0030031395 0.018303731 0.009826721
0002a0 5a 23 01 3d c1 33 0d bd bc ea a4 bc ac 59 05 3d
       0.031527855 -0.034473184 -0.020131461 0.03255622
0002b0 17 ae cb bc ed ef bb 3c b3 fa 99 3a 3b 0e 79 bb
       -0.024863286 0.022941554 0.0011747688 -0.0038002867
0002c0 d9 7b ce 3c 95 a0 e0 3c 89 46 6a bc 9b 89 f2 ba
       0.02520554 0.027420321 -0.014299043 -0.0018504144
0002d0 87 63 08 3d d2 0b f3 3c 65 56 6b 3c 1d 02 ae bc
       0.03329804 0.029668722 0.01436386 -0.021241242
0002e0 1f f1 c1 bc c2 46 d2 3c 1e d9 a8 3c ba 9b 79 bb
       -0.023674546 0.025668506 0.020611342 -0.0038087205
0002f0 32 3e 0c 3d e7 d6 cb 3c 82 4a f7 bb 20 44 80 3c
       0.034239 0.024882747 -0.007546724 0.015657485
000300 db 66 0d 3d 88 93 a8 3c 3e 6d 8b bc 86 3f 08 bd
       0.03452192 0.02057816 -0.017019864 -0.033263706
000310 8f b2 32 3c 0e e2 5a 3c d6 4c 0e bd ee b1 b1 3b
       0.0109068295 0.01335956 -0.034741245 0.005422822
000320 74 b0 b3 bc cd ed 8c 3c f5 16 3d bc df 36 a6 bc
       -0.021934725 0.017203236 -0.011541118 -0.020289836
000330 8c 94 18 3d 99 28 a2 3c ef fc 12 bc 40 ca b1 bc
       0.03725104 0.01979475 -0.008971437 -0.021702886
000340 90 0a 9f 3c 6b 98 7d bc 8d 3d 8a bb e7 b6 16 3c
       0.019414216 -0.015478234 -0.004218763 0.009198881
000350 cf 81 2c 3d b4 c0 df ba c3 05 7b 3c 38 ce 62 bc
       0.042115983 -0.001707098 0.015321198 -0.013843112
000360 cd cd 4c 3d 5a 23 05 3d 03 78 ba bc 0d ad c0 bc
       0.050000954 0.032504417 -0.022762304 -0.023520017
000370 3b 4c af 3c f3 3c 34 bb 74 f3 cd 3c 24 50 a0 ba
       0.021398654 -0.002750215 0.025140502 -0.0012230915
000380 ac f5 8a bc 12 3c 0e 3d 2f f3 4e bc 09 b0 7b 3c
       -0.016962849 0.034725256 -0.012631222 0.015361794
000390 a3 e7 b8 3c 09 ba 40 3c 6e da 0b 3d 69 1d c6 bc
       0.02257139 0.011763104 0.034143858 -0.024183946
0003a0 95 f7 72 3b 7b 78 32 ba fd 36 8c 3c e9 e4 73 bc
       0.003707384 -0.0006808114 0.017116064 -0.014886119
0003b0 90 5b ad bc b8 97 e1 bc 06 27 c7 3c fe d9 23 3c
       -0.021161824 -0.027538165 0.0243106 0.010000704
0003c0 d2 c9 07 bd d0 3a 1c bb 2c 4a f1 bc 5e af f1 bc
       -0.033151455 -0.0023838766 -0.029454313 -0.029502567
0003d0 46 34 b4 3c 77 d6 92 bc 2a b8 ac 3c fd 49 07 3d
       0.021997582 -0.01792453 0.02108391 0.033029545
0003e0 43 f9 ad 3b 33 ae 7c 3c d4 ed fc bc fd 14 77 bc
       0.0053092553 0.015422392 -0.030875124 -0.015080688
0003f0 26 05 fe ba 1c d0 f7 3b d0 50 6a 3c 77 37 9c 3c
       -0.0019380196 0.0075626504 0.014301494 0.019069416
