2021_BOML_srcnn_project/output/epoch_94.pth (torch, 231519 bytes, 5 tensors)

conv1.weight f4 [64, 1, 9, 9]
000000 4b 29 c7 bc 87 62 d1 3c 11 58 4b bd ab 17 a3 3d
       -0.024311682 0.025559677 -0.049644534 0.07963499
000010 de 3d 5d bd 10 d9 d9 3d 18 05 6f bd 09 c3 46 bb
       -0.05401408 0.106371045 -0.058354467 -0.0030328652
000020 92 63 e1 3a 6e a6 aa 3d 17 6e d4 bc c7 5e bb 3c
       0.0017195812 0.08332525 -0.025931401 0.022872342
000030 ac 0d d2 bd 48 13 a1 bd 64 f2 a0 bd fc 9b 72 bd
       -0.10256514 -0.07865006 -0.07858732 -0.05923079
000040 f0 1d 8d bd d8 51 cb 3d 7f cc 8f 3c b1 9f 62 3d
       -0.06890476 0.0992772 0.017553566 0.055328075
000050 e2 46 81 3d 4a 40 89 3c df f8 f9 3c b1 eb a2 3d
       0.06312348 0.016754288 0.030514179 0.07955111
000060 01 06 d0 bd e1 4b 1e 3c 9f 7d 7d bd 25 fb 4c 3d
       -0.10157395 0.009661646 -0.06188738 0.050044198
000070 9f d9 e2 3c 65 76 32 be a7 ec a9 3d 53 d6 9c 3d
       0.02769166 -0.17427976 0.08297091 0.076580666
000080 40 ca 57 3d 3a 7c f4 3b 3f e1 51 3d 80 ba 56 bd
       0.052683115 0.007461098 0.051240202 -0.052423954
000090 80 1f f4 bd 19 92 a9 bd cf 68 d5 bd 57 ed a2 3d
       -0.11920071 -0.08279819 -0.10420381 0.07955425
0000a0 9b 89 a4 3d 18 88 ea 37 26 09 2f bc ef a1 cd 3d
       0.08034059 2.7958347e-05 -0.0106833335 0.10040652
0000b0 f9 b9 c7 bc 81 64 13 bc 6f 5c 3c bd 94 9a d8 3c
       -0.02438067 -0.00899613 -0.04598659 0.026440896
0000c0 ac 07 3f 3e 1d 4e 18 3e 24 a6 8c 3d 02 f7 fc 3b
       0.1865527 0.14873548 0.06867626 0.0077198753
0000d0 1e ba eb 3c 53 45 f9 3c 49 27 c4 bb e1 c2 0c be
       0.028775271 0.030428564 -0.0059861285 -0.13746215
0000e0 23 de b4 bd fe 9c ea 3d a1 96 ac 3b 49 e8 f6 bd
       -0.08831432 0.11455725 0.00526698 -0.12056024
0000f0 6c 0b 96 bc b5 f6 ea 3d 5f 2a b5 bd 5a b1 23 bd
       -0.018315993 0.11472837 -0.08845972 -0.039964058
000100 75 8d a3 bd c4 a3 41 bd 0d d4 56 bd 8c aa 3e bd
       -0.07985965 -0.04727532 -0.05244832 -0.046549365
000110 7e 1c 1d be 03 ae 8c 3c d7 8a 01 3e a6 d9 a4 3d
       -0.153429 0.017172819 0.1265062 0.08049326
000120 72 62 78 3d ce 5e 4e bd 98 e3 7c 3c 38 73 4e bc
       0.06064076 -0.05038338 0.015435122 -0.0126007125
000130 f6 43 34 3d e8 79 e6 bd a3 ef c0 bc 58 7e bb 3d
       0.044010125 -0.112537205 -0.023551768 0.091549575
000140 6c db 5c 3c a5 5c 36 3d a0 d4 81 3c f6 5c f5 3b
       0.013480049 0.044521946 0.015848458 0.0074878884
000150 a5 c2 a0 bd f6 74 80 bd a7 39 bd bd d2 e7 cd 3d
       -0.078496255 -0.062723085 -0.09239512 0.10053982
000160 7d 05 41 3d d4 90 23 bd bb a6 a7 bd 96 0a 4a 3d
       0.047124375 -0.03993304 -0.08186098 0.0493265
000170 ec 3f 8c 3c 0e 0f 8e 3c 08 d3 db bd df ca 06 bd
       0.017120324 0.017341163 -0.107336104 -0.032908317
000180 0f 93 e5 3d 8c 26 90 3d 9c 78 02 3d 54 2a b1 bb
       0.1120969 0.07038602 0.031853303 -0.0054066572
000190 d7 55 84 3d 71 9a a4 bd 15 60 34 bc 45 7f ad bd
       0.06461685 -0.0803727 -0.011009236 -0.0847154
0001a0 a6 38 61 bd 2e a3 95 3a 5f 6d df 3c 05 d2 8f 3d
       -0.054985665 0.0011416429 0.027273832 0.0702248
0001b0 51 8a 47 3d 75 d8 ec bc 33 0a dd 3d e3 38 ea bc
       0.048715893 -0.028911809 0.10792961 -0.028591579
0001c0 74 7e a0 3d 68 44 2d bd c8 0c 06 bc a6 d4 64 3c
       0.07836619 -0.042301565 -0.008181758 0.013966715
0001d0 4e 03 f1 bd 2c ef 8b bb 5d 2f c6 3c 87 21 31 3e
       -0.117682084 -0.004270455 0.024192506 0.17297946
0001e0 18 7f 63 3d 81 6b de 3d 95 24 cc 3d 37 a6 11 bd
       0.055541128 0.108603485 0.09967915 -0.035558905
0001f0 b3 c6 d9 3d 02 45 bb bd 7f 47 d0 ba 40 bb c6 bb
       0.10633602 -0.091440216 -0.0015890448 -0.0060648024
000200 46 a3 99 3d 17 61 0a 3e 95 f4 b9 bc 55 35 86 bc
       0.07501845 0.135136 -0.022699634 -0.016382853
000210 74 c4 79 3b c2 5b 68 bd df db 23 bd 21 0b 0f be
       0.003811148 -0.056728132 -0.040004607 -0.13969089
000220 37 ff 15 bd f1 58 87 bb c7 0f 40 bc db 41 ae bd
       -0.036620345 -0.0041304757 -0.011722512 -0.08508655
000230 ee c1 b3 bd ec e3 31 bd ec f8 92 3d 62 09 ce 3d
       -0.087772235 -0.043430254 0.07176384 0.100603834
000240 9d d0 0c 3c 1a cd ca bd 96 10 a3 bd 71 5b 9c bc
       0.008594659 -0.09902401 -0.07962148 -0.019086571
000250 84 6f 08 be 5c 9f 1c be 3f f1 91 bd b9 85 3e 3c
       -0.1332379 -0.15295166 -0.07126092 0.011628562
000260 d4 e9 77 bc 35 ed fa 3d f2 ae 12 3d 7e f7 ed 3d
       -0.015131433 0.12252275 0.035811372 0.11619471
000270 e7 c2 11 bd b3 f2 14 3d 82 de a7 bd 23 f2 05 3e
       -0.035586264 0.03636427 -0.08196737 0.13080649
000280 4f af e4 3d f4 09 be 3d d5 39 8a bd 55 4c c9 3d
       0.1116625 0.09279242 -0.06749312 0.09829012
000290 92 cc e3 3d 20 d5 2b 3e a7 01 27 3e ea 80 6a 3e
       0.11123003 0.1678052 0.16309224 0.2290074
0002a0 f4 c5 16 3e 30 9b a9 3d df ee 3d bd 19 e9 b4 bd
       0.1472395 0.08281553 -0.046370383 -0.08833522
0002b0 28 b3 08 bd 37 cb 5c bd 6b 67 19 be dd ad c6 bd
       -0.03337398 -0.05390474 -0.14980857 -0.097011305
0002c0 ea 9b 05 be c0 59 8a bd e5 a0 0b 3d 32 6f 82 bd
       -0.13047758 -0.067554 0.034088988 -0.06368865
0002d0 54 68 42 3d 9b 7e 22 3d 39 ef 78 3d 51 0f f5 bd
       0.047462776 0.03967152 0.060775016 -0.11965812
0002e0 24 cb a0 bd d2 4f 23 bd d9 be 98 bd 45 4a 01 3d
       -0.07851246 -0.039871044 -0.07458276 0.03156497
0002f0 d8 08 59 3d f7 aa 88 bd ef ec 51 bd 09 73 ba bd
       0.05298695 -0.06673234 -0.051251348 -0.091039725
000300 fe 9c 72 3d 00 ac 10 3e a5 0c 73 bd 01 62 1f bd
       0.05923175 0.14128113 -0.05933823 -0.038911823
000310 5a 8d 2a 3d 29 33 5c bd d4 3d c6 3d bc 20 15 3d
       0.04163871 -0.053759728 0.096797615 0.03640817
000320 60 ca c4 bc 02 2e 08 3d f3 87 a4 3d 41 ff dc bc
       -0.024022281 0.033247 0.08033743 -0.026977183
000330 3d 7e ac bd c4 27 40 3c e9 04 93 3c a4 e3 79 3c
       -0.084225155 0.011728231 0.017946677 0.015252028
000340 60 b6 d7 b8 ef ab b7 3d cd 27 9c 3b 90 84 22 3d
       -0.00010285969 0.089683406 0.004765487 0.039677203
000350 36 57 a4 3d c5 34 31 bd e8 41 84 3d 8c ac ba bb
       0.08024447 -0.043263216 0.06457883 -0.0056968387
000360 19 83 4f 3d 35 ff 95 bd b5 5a 12 bc c5 84 16 bb
       0.050662134 -0.073240675 -0.008932759 -0.002296732
000370 56 aa d1 bd 35 ad be bd f3 b9 2e 3d 9c 7c 8c bc
       -0.10237567 -0.0931038 0.042657804 -0.017149262
000380 2e 45 86 3d f6 37 99 bd b3 bc 10 bd b5 25 a8 bd
       0.06556164 -0.07481377 -0.035336208 -0.08210317
000390 83 83 2f 3d d6 f8 a6 3b 9f d3 fe bb 92 2b 64 bb
       0.04285003 0.0050955815 -0.007776692 -0.003481601
0003a0 f4 0a 8f bd 1c 6c 1c 3d 88 92 4a 3d 75 90 3a bd
       -0.06984511 0.03818904 0.04945615 -0.04554792
0003b0 92 bc 85 3d 7b f2 10 3c 9f 8c a5 bd 2d b4 99 3d
       0.065301076 0.008846874 -0.08083462 0.07505069
0003c0 92 72 82 3d 39 13 0f bd 5d 66 ae bd d3 cf 8b bb
       0.06369509 -0.03493044 -0.08515618 -0.004266718
0003d0 50 10 90 3d 51 cb 8a 3d 46 2f dd bd 5c 41 55 bd
       0.07034361 0.06777061 -0.10800032 -0.052064285
0003e0 be b9 ae 3d 8c f5 9a 3d 93 1d 83 3d 51 ac 80 bd
       0.08531521 0.075663656 0.06402125 -0.06282867
0003f0 f3 6c bc 3d 7c 0b b9 bd 17 9a 40 bc 09 8f e7 3a
       0.09200468 -0.090353936 -0.011755488 0.0017666529

conv1.bias f4 [64]
000000 4c e4 e7 3c ff e5 b9 bd 9d e1 81 3b 47 6f a7 bd
       0.028307103 -0.090770714 0.003963663 -0.08175521
000010 84 1b 0c 3d 09 f3 91 3c eb 7c 0f 3d 00 1e 80 bc
       0.03420593 0.017816084 0.03503124 -0.015639305
000020 26 c3 e4 3d dd 71 35 bd 5e ae 88 3b e6 6a b7 3c
       0.11170034 -0.04429804 0.004171177 0.02238984
000030 eb 15 30 be 51 b6 1b 3e a1 08 71 3d b2 f5 13 bc
       -0.17195861 0.15206267 0.05884612 -0.009030746
000040 09 21 a1 bc 46 11 88 bc a7 b0 93 3c d8 b1 8c 3c
       -0.019669073 -0.0166098 0.01802857 0.017174646
000050 3f 3a dc 3c cd 41 96 bc 38 0b 44 bd 3c 98 88 3d
       0.026883243 -0.018341923 -0.04786226 0.066696614
000060 53 5a 35 be a4 36 88 bc 04 8f 86 3d f4 65 21 3c
       -0.17710237 -0.016627617 0.06570247 0.009850968
000070 fe 43 ec 3c 14 9e 2d 3d a1 a8 8c 3d 82 83 61 bc
       0.028841015 0.042387083 0.06868101 -0.013764264
000080 be d2 e4 3c 83 7f 1a 3d d7 88 91 3a b0 89 45 bd
       0.027932521 0.03771926 0.0011103404 -0.048227012
000090 50 3b 49 bc 95 be 8a 3d 49 7a 9d bc e8 d6 93 3d
       -0.012282208 0.06774632 -0.01922335 0.072187245
0000a0 1f de ac 3a 18 1b 02 bb d7 b6 ae 3d d4 ea 19 bd
       0.0013188756 -0.0019852575 0.08530968 -0.037577465
0000b0 28 91 0a 3d 97 9a 8a bc 25 6f fb bc 91 3a fd 3c
       0.033829838 -0.016919417 -0.030692646 0.030911716
0000c0 7e c8 41 39 07 cb 1c bc 48 f6 db 3c 0b df 23 3d
       0.00018480603 -0.00956989 0.026850834 0.040007632
0000d0 44 39 65 bb 9f d3 2a 3b 30 73 64 3c bd bc 27 3c
       -0.003497676 0.0026066077 0.013943478 0.01023787
0000e0 fd a9 15 3d 1c 3c ea bc 75 ae e8 bb 34 47 54 3d
       0.036539067 -0.028593116 -0.007100875 0.051825717
0000f0 86 4d 4d 3d 67 16 dc bc f6 4e 2d bd b2 3c e3 bc
       0.05012276 -0.026866151 -0.04231163 -0.027738903

conv2.weight f4 [32, 64, 5, 5]
000000 73 5e 9d bc 10 a6 24 3d 04 67 bc 3d f6 44 a0 3d
       -0.019210076 0.040197432 0.09199336 0.07825653
000010 9c b4 94 bd f6 d4 1b 3c c8 61 00 bc b8 f4 aa 3c
       -0.07261011 0.009511223 -0.007835813 0.020868644
000020 2e 12 2e 3d 3f 18 d1 bb eb e0 1a 3c 81 76 14 bc
       0.042497806 -0.006381064 0.009453039 -0.009061457
000030 cf 37 08 3c e2 5e 00 3b e2 bc 4c 3d 80 bd 23 bc
       0.008314087 0.0019587805 0.04998482 -0.009993911
000040 e0 6c 10 3d 8b fa ab 3c 9d 16 23 3d 5b 22 d7 3d
       0.03526008 0.020993492 0.039816488 0.105046
000050 33 2a d1 bc 35 60 1e 3c 59 01 86 bd 5e 47 7f 3c
       -0.025532817 0.009666492 -0.06543226 0.01558098
000060 33 fd a7 3c fe 48 83 bd 80 40 c2 3c bf 66 be bc
       0.020506477 -0.064104065 0.023712397 -0.023242353
000070 f0 9f 47 bd 10 ff d1 bd b7 c8 cb bd 35 83 3a ba
       -0.048736513 -0.102537274 -0.09950393 -0.0007114888
000080 f6 61 5c 3d 6b e1 8f 3d cd 48 09 bd d3 68 cc bc
       0.05380436 0.07025417 -0.033516694 -0.024952328
000090 91 82 b6 bc a7 b3 6b 3d 30 47 c6 3d 86 1e 7d 3d
       -0.022279056 0.057544377 0.09681547 0.061796688
0000a0 fd 73 9f bd bf cd 81 bb 3d 62 5b bc 1a 9e cc 3c
       -0.07785795 -0.0039612944 -0.013390121 0.024977732
0000b0 97 03 b5 3c 43 fe a0 bd 25 26 fb 3c 3c 27 03 3d
       0.022096438 -0.078609966 0.030657837 0.03201984
0000c0 f0 23 47 3d 61 53 06 3d ba cd 93 bc 87 1c 07 3d
       0.048618257 0.03279436 -0.018042434 0.03298619
0000d0 43 49 12 3d 62 83 b4 3d f5 f2 48 3c 95 9d 7e bc
       0.0357144 0.08814122 0.012264957 -0.0155405
0000e0 b1 25 32 bc 2c 0d 28 3d dd 0c 8c 3d 26 e7 ad bc
       -0.010873244 0.041028187 0.06838391 -0.021228384
0000f0 ea ec bf 3c d6 84 e0 3b fc a6 22 bd 84 0b 3d bd
       0.0234284 0.006851773 -0.03971003 -0.04615356
000100 28 c2 f0 bd f1 1c ce 3c 2b 67 a3 3d cb 75 3c 3d
       -0.11755782 0.025160285 0.07978662 0.046010774
000110 0e 09 63 bb 97 b2 1f bd 19 27 23 bd 72 a8 de bb
       -0.0034642848 -0.038988676 -0.03983221 -0.0067949826
000120 dd d1 b7 bb b0 23 fa bc e5 34 b9 bc 7a 44 89 3d
       -0.0056097344 -0.030534595 -0.02260823 0.06702514
000130 0a 51 d0 3c 69 85 6b bc 8a 4f 6f bd 4e 8f cf bd
       0.025429267 -0.014375069 -0.058425464 -0.10134755
000140 24 84 47 3d 68 3f 95 3d 2b c1 b9 bb 36 70 35 bd
       0.048710003 0.072874844 -0.0056687794 -0.044296466
000150 6b f7 e5 bc c8 be d5 bc ee 09 7c bb 0c a4 2d bd
       -0.02807208 -0.026091948 -0.0038458067 -0.042392775
000160 de 05 2a 3c f2 32 24 ba 3f da 1c bd 12 39 83 3c
       0.010377375 -0.0006263695 -0.038294073 0.016018424
000170 29 f6 31 bc 9f e7 30 3d 3b d0 f7 3b 87 44 11 bc
       -0.010861912 0.04318964 0.007562665 -0.008866436
000180 3a 03 1d 3c 4d 11 4e bc 80 a5 a4 bc ec 78 b1 bc
       0.009583289 -0.012577367 -0.020098448 -0.021664105
000190 e5 14 0f bd 59 6c 82 bc 4a 20 b5 3c 3a 31 35 3c
       -0.034932036 -0.015920805 0.022110123 0.0110591
0001a0 59 ac 4b bc b6 60 02 3b f4 3f ac 3c 85 99 84 3c
       -0.012431228 0.001989407 0.021026589 0.016186485
0001b0 26 22 be bc 09 c0 93 bd f7 95 68 bd 49 f8 2a bc
       -0.023209643 -0.07214362 -0.056783643 -0.010435172
0001c0 fa b3 4e 3d aa 9e f7 3b 44 fe c5 bd 57 36 c9 bc
       0.050464608 0.007556756 -0.09667638 -0.024562044
0001d0 ee e4 28 3d 7a ee 43 3c 8e 4a 13 3d 14 b1 5c bb
       0.04123395 0.011958713 0.035959773 -0.0033674883
0001e0 9d 6e 17 bd 0d 19 14 bd 0b 93 a0 bd 86 05 0f bd
       -0.036970723 -0.036156703 -0.07840546 -0.034917377
0001f0 14 65 8c 3a 45 34 00 3e e2 ad 56 3d db 4b 33 3c
       0.0010711276 0.12519939 0.05241192 0.010943378
000200 fe 57 5a 3d a2 53 56 bd f9 f4 e0 bc 16 e5 2c bc
       0.053306572 -0.052325852 -0.027460562 -0.010552665
000210 ee f9 5b bc 7e d5 c6 bc 62 f8 c0 bc 8a b2 1f bd
       -0.013426287 -0.024271723 -0.023555938 -0.038988627
000220 b0 23 04 bc 18 bf e9 3c 5f 3e 87 bc 2c c6 00 bd
       -0.008065149 0.028533503 -0.016509233 -0.03143899
000230 1a 4d a3 3c 00 f5 33 3d eb d0 31 3d ae 48 8e 3c
       0.019934226 0.043934822 0.04341213 0.01736864
000240 73 49 fb 3b 5d cd 0c 3d 0d 6e ab 3c 81 03 39 3d
       0.007668668 0.034375537 0.0209265 0.045169357
000250 f8 f2 9c 3c 21 ad d3 3b 3f 1b 9e 3c db c4 9c 3c
       0.019158825 0.0064598476 0.019300101 0.019136837
000260 3e 98 d9 bb a8 48 1b 3d 85 5d 39 bd f8 53 92 3d
       -0.006640463 0.037911087 -0.045255203 0.07144922
000270 d6 52 0f 3d 32 bc 29 bc 3e d4 31 bc 8e 65 d9 bc
       0.034991108 -0.010359811 -0.010853825 -0.026537683
000280 09 e1 26 3d 06 29 12 3c d1 c4 99 3a 7d 4e 92 bc
       0.040741954 0.008920914 0.001173163 -0.017859692
000290 8d 3a e3 bc 90 40 b8 3c a6 1f 19 3c a8 f2 10 3c
       -0.02773788 0.022491723 0.0093459245 0.008846916
0002a0 67 ce 44 bc 09 b8 9a 3d ae 71 9a bd ba 4c 4c bd
       -0.012012101 0.07554633 -0.07541214 -0.04987786
0002b0 a9 10 92 3c 80 41 0a 3b e3 13 2f 3d 8a db a9 3d
       0.01783021 0.002109617 0.042743575 0.08293827
0002c0 af a7 b2 3d a5 d1 b1 3d 86 1c 69 bc 86 d3 44 bd
       0.08723389 0.08682565 -0.014227992 -0.048053287
0002d0 f2 5d 10 bc cd 93 ee bc f7 2b b5 3d a0 a5 99 3d
       -0.008811461 -0.029123211 0.08846276 0.075022936
0002e0 53 07 b7 bc 1c 3b 9d bc a3 e7 4c bd 6d 10 8c bd
       -0.02234236 -0.019193225 -0.050025593 -0.068390705
0002f0 ef 1d 69 3d a9 6e 65 3d 94 0a db 3d 6f 4f 60 3d
       0.056913313 0.056013737 0.10695377 0.054763254
000300 63 08 94 bd 1c 72 e5 3c f8 0d 18 3d 28 2b 3a 3e
       -0.07228162 0.028008513 0.037122697 0.18180525
000310 d2 46 65 3e b7 cd 1c 3e f8 f6 87 3d 81 7d 0a 3c
       0.22390297 0.15312849 0.066389024 0.008452774
000320 a7 fa f9 3b 98 b1 7b bd e1 23 8e bd 46 68 4e bc
       0.007628757 -0.061448663 -0.06940437 -0.012598103
000330 15 da 42 3b 94 6a b9 3c b0 c7 59 bd 75 38 66 bd
       0.0029732038 0.022633828 -0.053168952 -0.056206185
000340 d0 f0 42 3c cc f7 c9 bc be a2 49 bc 91 5d 6e bd
       0.0118982345 -0.024654292 -0.012306867 -0.0581947
000350 63 c4 5d bd c2 89 fa 3c b6 16 99 3c a6 64 49 bb
       -0.054142367 0.030583266 0.018687587 -0.0030730157
000360 05 06 04 bc 24 9f c3 ba f6 79 d2 3c ce 17 27 3d
       -0.008058076 -0.0014924747 0.025692921 0.040794186
000370 90 d1 d4 ba 51 1b a0 3d 0d e9 23 3d 22 44 62 3b
       -0.0016236771 0.0781771 0.040017176 0.0034525474
000380 d9 a5 42 3d a3 d5 0d 3b 72 78 0f 3c b5 87 d4 3b
       0.047521446 0.002164223 0.008756744 0.006485904
000390 6a ba db 3c c9 78 3c 3d 26 74 19 3c b0 10 0a bc
       0.026822288 0.046013627 0.009366071 -0.00842683
0003a0 2c c7 18 3d ee 1c 6a 3d 75 bc 34 3d 1d 25 43 bd
       0.03729932 0.057156496 0.04412504 -0.047642816
0003b0 f8 c1 4b bd cb 32 16 bc 38 4f 0d 3d e4 8d 0f 3d
       -0.04974553 -0.009167383 0.034499377 0.035047427
0003c0 3a 2d d6 bc 43 3b c4 bc e5 cf 4c 3a fe af a8 ba
       -0.026144613 -0.02395404 0.0007812961 -0.0012869833
0003d0 45 6f f0 3b d8 ea d8 3b 33 c1 5a bc f5 94 da bc
       0.007337483 0.0066197924 -0.013351726 -0.026682356
0003e0 b9 d8 98 bc 0e 5e 0f 3c 1f 4b 38 bd 59 ea 20 bd
       -0.018658029 0.008750452 -0.044993516 -0.03928599
0003f0 9b 42 05 bb ef b8 8f 3c 29 5e 93 3b 79 53 25 bd
       -0.002033389 0.017544238 0.0044973087 -0.04036281

conv2.bias f4 [32]
000000 80 2a 17 3c 90 cc 63 bc 5d 81 a4 bb f0 3c d5 3c
       0.009226441 -0.013903752 -0.005020304 0.026030034
000010 75 3b 10 3d f5 94 12 bc 3c bf f6 ba a0 25 93 3c
       0.035212953 -0.008946647 -0.0018825303 0.017962277
000020 37 09 30 3d c9 f3 b1 bc d1 4b c1 ba 8d 5c 9f bc
       0.042977538 -0.021722691 -0.0014747326 -0.019453311
000030 72 a4 00 3d 3b c5 87 bb 33 38 9d 3d d1 00 54 bc
       0.031406827 -0.0041433848 0.07676735 -0.012939648
000040 1c c4 6a bc 8f 3e 98 bb ab fc 04 ba 92 21 03 3d
       -0.014328983 -0.0046461294 -0.0005073051 0.032014437
000050 b0 d1 3e 3d 25 a8 37 3c 16 37 52 bc 30 cc ee 3b
       0.046586692 0.011209522 -0.012830516 0.0072875246
000060 18 7a c7 bb 75 5f ea 3c 06 e0 c9 3c 02 ae 78 3c
       -0.0060875528 0.02860997 0.024642956 0.015178205
000070 2e 6e b1 3c 3a d1 16 bd e1 d0 2d bd 54 7e 46 3c
       0.021658983 -0.036820628 -0.04243553 0.01211508

conv3.weight f4 [1, 32, 5, 5]
000000 55 fb 52 3b 28 37 9c 3c 08 9c 8c 3c 78 e3 24 3d
       0.0032193263 0.01906927 0.017164245 0.040255994
000010 ab 14 1a 3d be 50 e8 bc 1e 5e 94 3b 77 57 c8 bc
       0.037617367 -0.028358813 0.004527821 -0.024455769
000020 a5 72 88 b9 ec 27 37 3b f9 ea 89 bb 80 f6 95 3c
       -0.00026025358 0.002794738 -0.004208919 0.018306017
000030 18 b8 55 bb 5f 48 50 bd 33 29 84 bc 36 e7 40 bc
       -0.003261095 -0.05085027 -0.016132927 -0.011773875
000040 2a 80 fb bc 20 b6 88 bc bd 98 36 bd 82 5c 94 3c
       -0.030700762 -0.016688406 -0.044579256 0.018110517
000050 fc 4f 26 3c 32 e6 a3 3c a1 4f c0 3c 0e 68 0c 3d
       0.010150906 0.020007227 0.02347547 0.03427892
000060 71 59 ce bb 92 ed eb 3a 36 7a 0b bd 20 98 14 3c
       -0.0062972833 0.0017999879 -0.034052096 0.009069473
000070 b0 fb d7 3c 2f 9b c5 bc 14 4f a4 3c 1f 98 85 bc
       0.026365131 -0.024121849 0.020057239 -0.016307889
000080 67 f5 2e 3c 1c 17 88 bc 72 4b a1 3b 43 d7 0d bd
       0.010678626 -0.016612582 0.004922324 -0.034629118
000090 81 31 d6 3c 9e ef fe bb 4c 5e 00 3d 3f 14 66 bc
       0.026146652 -0.0077800294 0.03133993 -0.014042913
0000a0 26 8e 6e 3c dd 8f 94 bc 69 66 83 bc 88 ab 36 bc
       0.014560258 -0.018135006 -0.016040044 -0.011149295
0000b0 27 5f 83 3c 4e ae 6f 3c 5e 67 aa 3c de f5 c8 bb
       0.016036583 0.01462896 0.020801242 -0.0061328253
0000c0 0d 5e 4d 3b e1 05 b9 3c ea 50 62 bc b8 4b 3e bc
       0.0031336576 0.022585811 -0.013813237 -0.011614732
0000d0 fc 7e dc 3c 7a 4f f4 bc dd 21 8c bc f2 8a a0 bc
       0.02691602 -0.029823054 -0.017105991 -0.019597504
0000e0 39 79 f3 bb 5b d1 d4 bc 9c ee 06 3c 5e 34 ca bc
       -0.0074302224 -0.025978735 0.0082356 -0.024683174
0000f0 4a a3 7e bc f8 a8 0c bd 83 42 c1 3c d0 7d b1 bc
       -0.015541861 -0.03434083 0.023591286 -0.021666437
000100 32 cb 8a bb 4f 45 ac bc 77 a7 9d bb a7 31 de bb
       -0.0042356486 -0.021029143 -0.004811223 -0.0067808214
000110 7f 7d 3c bc 19 58 04 ba bf bd 77 3c f3 fd ee 3c
       -0.01150453 -0.0005048528 0.015120923 0.029173827
000120 a0 9b d6 3c 68 ed d6 bc 3b 24 86 bb 0b df 73 bd
       0.026197255 -0.026236251 -0.0040936745 -0.059538882
000130 ff cf 7a 3c a4 03 dc 3c 66 6e 0a 3c 97 58 3b 3c
       0.015308379 0.026857205 0.008449173 0.011434696
000140 f1 b3 1f 3d ad 90 c1 3c 6c c8 d6 ba e2 26 14 bc
       0.038989965 0.023628557 -0.0016386635 -0.0090424735
000150 23 2a a6 3a 22 7c 47 3d 1e 20 c2 3c 0c 9c 6b 3c
       0.0012677353 0.048702367 0.023696955 0.014380466
000160 e1 08 99 bc ba e3 98 bc 2e 0b 9d 3c 8d e6 da bb
       -0.018680992 -0.018663276 0.01917037 -0.006680316
000170 43 b1 65 bd f1 3a 13 bd eb 5f 1d bc 7d db b1 3b
       -0.056077253 -0.035944883 -0.009605388 0.0054277764
000180 e2 b0 5a bc 29 30 ae bc 72 02 1a bc 0a b5 04 3d
       -0.013347836 -0.021263199 -0.009399997 0.032399215
000190 f7 1c 9f 3b 19 62 d4 3b 8f c3 5e 3c ab af 61 bb
       0.004855748 0.0064814207 0.0135964295 -0.0034436982
0001a0 e9 1c 5c 3b fa ae 14 bc 3d 3a fc 3c de d4 47 ba
       0.0033586568 -0.009074921 0.030789489 -0.0007622967
0001b0 33 9b ca 3c a7 66 aa bc cc 2f ec bc 14 d7 75 3b
       0.024732208 -0.020800902 -0.028831385 0.003751223
0001c0 b9 59 04 bd a4 88 a8 3c 46 23 aa 3c ed 26 e1 3c
       -0.03231213 0.020572968 0.020768773 0.027484382
0001d0 11 fc fc 3c 82 4a 33 3c 93 4b 56 3c 2a 00 b3 bb
       0.030881913 0.010943057 0.013079542 -0.005462666
0001e0 98 0d 01 3d 5d 0a 69 3c e9 ae 14 bc a6 9a 0a bd
       0.031507105 0.014223662 -0.009074905 -0.03383889
0001f0 cd ae 58 3b c5 36 0f 3b 66 df 1c 3d fd c5 1c 3d
       0.0033063174 0.0021852714 0.038298987 0.038274754
000200 b8 d1 07 3d b8 ef 5b b8 a7 5a 48 3c 85 f6 70 bc
       0.033158988 -5.2436924e-05 0.012228644 -0.014707212
000210 33 68 55 3c df 8b 1b 3c dc e9 40 bc 47 98 93 bc
       0.013025331 0.009493797 -0.011774506 -0.018016947
000220 12 3d 01 3c bc 2e 03 bd 55 ce ad bc df 63 e4 3c
       0.007888095 -0.03202699 -0.02121655 0.027879653
000230 a7 de 98 3c 9d 74 27 bd 3a 96 26 bd b7 c6 92 3c
       0.018660856 -0.040882695 -0.04067061 0.01791702
000240 13 2a 2e bb 94 bc 03 3c 4b 6c 87 bc df e7 06 bc
       -0.002657537 0.008040566 -0.01653113 -0.008233993
000250 3c 79 fa 3c e2 5a 7b bc a2 aa 43 3c 0b 59 b5 39
       0.030575387 -0.015341492 0.0119425375 0.00034589352
000260 c6 d5 34 3c 8c 7a dc 3a 0f 04 df bb 26 7a 47 3c
       0.011037296 0.001682119 -0.0068059037 0.012175119
000270 8b ca 0f 3c 55 83 59 bb 6d 17 c7 3c 17 dc 05 3d
       0.008776317 -0.0033189852 0.024303162 0.032680597
000280 5f c2 96 3c 1a 66 31 bc 76 09 db bc 82 18 ca bc
       0.01840323 -0.010827566 -0.02673791 -0.02466989
000290 b5 26 8d bc b6 ce 6e bb 89 8b 94 3c 2e ee 29 3c
       -0.017230371 -0.0036439127 0.018132942 0.010371728
0002a0 ea f4 01 3d 98 5f 12 bd c9 ed af bc fb 08 02 3d
       0.03172771 -0.035735697 -0.02147569 0.031746846
0002b0 64 59 c9 bc 50 c2 bb 3c a4 8b c6 b8 25 34 92 bb
       -0.024578758 0.022919804 -9.467386e-05 -0.0044617825
0002c0 1d 1b ca 3c 58 29 df 3c 43 9c 69 bc 16 b2 fd ba
       0.024671132 0.027241394 -0.014258447 -0.0019355442
0002d0 c9 e7 05 3d fe d6 ee 3c b4 4f 69 3c b9 3d ad bc
       0.03269175 0.02915525 0.014240194 -0.021147596
0002e0 36 ab c2 bc f4 ed cc 3c 18 01 a4 3c 7b 7c 7c bb
       -0.02376328 0.025015809 0.020020053 -0.0038526345
0002f0 e4 06 0d 3d e9 b9 cb 3c 1b d3 07 bc 80 d9 76 3c
       0.0344304 0.024868922 -0.008290078 0.0150665045
000300 03 7c 0c 3d f3 34 a9 3c 40 0a 8c bc 6f c6 0a bd
       0.034297954 0.020655131 -0.017094731 -0.033880647
000310 ff 54 2a 3c d0 85 56 3c f7 3f 0e bd 33 ec ad 3b
       0.010396241 0.013093427 -0.03472897 0.005307698
000320 5a bb 0c bd 51 79 74 bc 66 76 03 bd ed 31 bf bc
       -0.03435836 -0.014921502 -0.032095335 -0.023339236
000330 48 ce 85 3c 00 7b 12 b8 e6 f8 2f bb bd ae 10 bd
       0.016333714 -3.4923665e-05 -0.0026851236 -0.035322893
000340 f2 29 12 3b 3c 3a 7e bc c0 4b 39 bb 6d 24 83 3d
       0.0022302833 -0.015516814 -0.002827391 0.06403432
000350 66 27 b7 3d 09 0b 47 bc 34 93 19 38 30 7c bf bc
       0.089430615 -0.012148627 3.6615136e-05 -0.023374647
000360 b2 5d 87 3d c0 00 9a 3d fb 15 17 bd e1 aa 37 bd
       0.06609668 0.07519674 -0.036886197 -0.044840697
000370 d6 45 06 bc a1 ad ba bb 95 16 97 3c 74 71 7b bc
       -0.008195361 -0.0056969677 0.018443385 -0.015346874
000380 a3 f6 42 bd 72 00 28 3d a4 18 0a 38 6a 51 8d 3c
       -0.047598492 0.04101605 3.2924712e-05 0.017250735
000390 a1 4b 9b 3c bb 7b 2c 3c 9e 65 07 3d f7 55 cf bc
       0.018956961 0.0105275465 0.033055894 -0.025309546
0003a0 a1 6d 90 bb 6e 88 ba bb 6f ac 93 3c 68 b1 a0 bc
       -0.0044076 -0.005692533 0.018026559 -0.019615844
0003b0 3f 46 ec bc 72 e5 1a bd b2 dd 8c 3c 1c 2d 12 3c
       -0.02884209 -0.037816472 0.017195556 0.008921888
0003c0 da 3c 26 bd 3e 03 e3 bb a5 6b 03 bd 5c e0 d6 bc
       -0.040585376 -0.0069278767 -0.03208508 -0.02623003
0003d0 57 f0 a4 3c 0e 00 92 bc 09 be db 3c 9d 42 30 3d
       0.020134134 -0.017822292 0.026824014 0.043032277
0003e0 0d 69 62 3c f2 71 8e 3c eb d4 fc bc df d8 76 bc
       0.013818991 0.017388318 -0.030863246 -0.015066355
0003f0 0b 22 fc ba 2e 47 f8 3b 16 8c 6a 3c 9a 27 9c 3c
       -0.001923622 0.0075768447 0.014315626 0.019061852
