2021_BOML_srcnn_project/output/epoch_55.pth (torch, 231519 bytes, 5 tensors)

conv1.weight f4 [64, 1, 9, 9]
0	0xbb85706b	-0.004072239
1	0x3ce2812c	0.027649485
2	0xbd3078fc	-0.04308413
3	0x3d949153	0.07254281
4	0xbd8fae2a	-0.07015641
5	0x3db85cae	0.09002052
6	0xbd96b9ca	-0.07359655
7	0xbd061b8e	-0.032741122
8	0xbc267fc5	-0.010162299
9	0x3dabfc52	0.08397736
10	0xbd29b0d2	-0.041428395
11	0x3ca888e4	0.020573087
12	0xbddce4b2	-0.10785808
13	0xbdaed867	-0.08537369
14	0xbda4cfaa	-0.08047421
15	0xbd7f36ff	-0.062308308
16	0xbdaf8d40	-0.08571863
17	0x3db07a7f	0.08617114
18	0x3c05061e	0.008119134
19	0x3d0deb72	0.034648366
20	0x3d771fad	0.060332943
21	0x3c93f1c3	0.018059617
22	0x3d1224b2	0.035679527
23	0x3dbb636a	0.09149821
24	0xbdaa9e41	-0.08330966
25	0x3cad9010	0.021186858
26	0xbd5a9a1e	-0.053369634
27	0x3d8393d3	0.064246796
28	0x3d1f81bc	0.038942084
29	0xbe17c161	-0.14819862
30	0x3dd2e44e	0.10297452
31	0x3dbf15c2	0.09330322
32	0x3d92d071	0.07168663
33	0x3d05bbdc	0.03264986
34	0x3d94b0a1	0.07260252
35	0xbd1ebb32	-0.038752742
36	0xbddf8150	-0.10913336
37	0xbd9da2c6	-0.07697062
38	0xbdc08d5d	-0.09401963
39	0x3d903d39	0.07042927
40	0x3d8a55da	0.06754656
41	0xbb8dfb7e	-0.0043329587
42	0xbba43b92	-0.005011984
43	0x3dcd9493	0.10038104
44	0xbcd6c5d6	-0.026217382
45	0xbbcd6fb8	-0.0062694214
46	0xbd5dc486	-0.054142497
47	0x3c92b6e7	0.01790948
48	0x3e2508f2	0.16116694
49	0x3e059f07	0.13048945
50	0x3d82320d	0.06357203
51	0x3c2919d2	0.010321097
52	0x3cad140a	0.02112772
53	0x3cd7d5c9	0.026347058
54	0xbba9ab40	-0.0051778853
55	0xbe11f4b3	-0.14253502
56	0xbdb0727b	-0.086155854
57	0x3ddd495e	0.10805009
58	0x3c2d84c7	0.010590739
59	0xbde325a1	-0.110911615
60	0xbc4c59b4	-0.012472559
61	0x3dcefd08	0.10106856
62	0xbdc9d367	-0.09854775
63	0xbd31fd15	-0.04345425
64	0xbda4220b	-0.08014306
65	0xbd032ef6	-0.032027207
66	0xbd48b4bf	-0.049000498
67	0xbd1b8dc1	-0.037976984
68	0xbe151547	-0.14558898
69	0x3cc506ff	0.024051188
70	0x3df30b26	0.11867361
71	0x3d9ee293	0.07758059
72	0x3cf42171	0.029801102
73	0xbd936ca6	-0.071984574
74	0x3ccf19cc	0.025280856
75	0xbc4cb0fe	-0.01249337
76	0x3d2c3948	0.042046815
77	0xbdec75a3	-0.11545875
78	0xbc3e85de	-0.011628596
79	0x3dd6d99b	0.10490724
80	0x3d29a8c7	0.041420724
81	0x3cacb4a3	0.021082228
82	0x3c25a77f	0.010110735
83	0xba880a01	-0.0010378958
84	0xbd998c78	-0.074974954
85	0xbd824f49	-0.06362779
86	0xbdbd50f4	-0.09243956
87	0x3dbbe02f	0.09173619
88	0x3d284efc	0.04109095
89	0xbcd05b68	-0.02543421
90	0xbdb7f516	-0.08982293
91	0x3d622520	0.055211186
92	0x3c881752	0.016612682
93	0x3d03075a	0.031989433
94	0xbdbe7e52	-0.093014374
95	0xbc9b43ea	-0.018953282
96	0x3de6bcdb	0.1126649
97	0x3d963122	0.0733359
98	0x3d3fc184	0.04681541
99	0xbc05fc4f	-0.008177831
100	0x3d96c419	0.073616214
101	0xbda47476	-0.08030026
102	0x3a3e6017	0.00072622433
103	0xbd961300	-0.07327843
104	0xbd2677df	-0.04064166
105	0x3a29de82	0.00064799946
106	0x3ce849f5	0.028355578
107	0x3da04fda	0.078277305
108	0x3d2309eb	0.03980438
109	0xbcd4ba58	-0.025967762
110	0x3dc3e41e	0.09564994
111	0xbd1776da	-0.03697858
112	0x3d8df391	0.06931222
113	0xbd224408	-0.03961566
114	0xbc922339	-0.017839061
115	0x3bd43f65	0.006477284
116	0xbe007018	-0.1254276
117	0xbb4bef71	-0.003111806
118	0x3d07cdcd	0.03315525
119	0x3e231dd6	0.1592935
120	0x3d29d358	0.04146132
121	0x3dc3b0c3	0.09555199
122	0x3dd36f8a	0.10324009
123	0xbd1c5181	-0.038163666
124	0x3de0b435	0.10971872
125	0xbdaff115	-0.085909046
126	0x3c260cbc	0.010134872
127	0x3c4fcd1b	0.012683178
128	0x3d90d9a7	0.07072764
129	0x3e026e23	0.12737326
130	0xbcf802fa	-0.030274857
131	0xbc12831e	-0.008942394
132	0xb908d9b2	-0.00013051069
133	0xbd7febbf	-0.062480684
134	0xbd32059c	-0.04346238
135	0xbe0056d3	-0.12533121
136	0xbc3decca	-0.011592099
137	0x3bf9ca33	0.007622981
138	0xbb775e62	-0.0037745466
139	0xbd9dfbf8	-0.07714075
140	0xbd918bec	-0.07106766
141	0xbd3a3d7f	-0.045468803
142	0x3d7d7d2f	0.061886963
143	0x3dc00666	0.093762204
144	0x3c08a098	0.00833907
145	0xbdb4fdd2	-0.08837475
146	0xbd935777	-0.07194417
147	0xbc367249	-0.011135646
148	0xbdfd693b	-0.12373587
149	0xbe0c67e2	-0.13711503
150	0xbd94adf5	-0.07259742
151	0x3af24baa	0.0018485684
152	0xbc6d8e4e	-0.01449926
153	0x3dc9d413	0.09854903
154	0x3cd2a5f4	0.025713898
155	0x3dde210b	0.10846146
156	0xbd329f77	-0.04360911
157	0x3cf83a4a	0.030301232
158	0xbda2f5bc	-0.07957026
159	0x3df703b5	0.12061254
160	0x3dc3deb3	0.09563961
161	0x3dbd56d3	0.09245076
162	0xbd8caa2e	-0.06868397
163	0x3ddfa84d	0.10920773
164	0x3dfbe982	0.123003975
165	0x3e272c04	0.16325384
166	0x3e0e38a8	0.138888
167	0x3e4d0041	0.20019628
168	0x3e045f66	0.12927017
169	0x3db55eb4	0.08855954
170	0xbd36994b	-0.044579785
171	0xbdb9dbf2	-0.09075154
172	0xbca246d4	-0.019809164
173	0xbcd4ce6b	-0.025977334
174	0xbdf40456	-0.119148895
175	0xbd934469	-0.071907826
176	0xbdf0d221	-0.11758829
177	0xbd70bd8c	-0.058774516
178	0x3d5bfff1	0.05371088
179	0xbd639a49	-0.05556706
180	0x3c913b6b	0.017728528
181	0x3cbc0457	0.022951288
182	0x3d6abc76	0.057308637
183	0xbdf54fa2	-0.119780794
184	0xbda8d718	-0.08244151
185	0xbd3bf826	-0.04589095
186	0xbd9f9293	-0.07791629
187	0x3d13159b	0.035909276
188	0x3d2458ba	0.04012368
189	0xbda127cb	-0.07868918
190	0xbd62fa9e	-0.05541479
191	0xbdad2a8b	-0.0845538
192	0x3d81edf7	0.06344216
193	0x3e0d713f	0.13812731
194	0xbd6da632	-0.058019824
195	0xbcfeb078	-0.031090006
196	0x3d62697a	0.05527637
197	0xbd77e70d	-0.06052308
198	0x3dc8b415	0.09799973
199	0x3d2995d3	0.04140265
200	0xbc7524fa	-0.014962429
201	0x3d0c13fd	0.03419875
202	0x3da5738b	0.08078679
203	0xbc9c2bf7	-0.019063933
204	0xbd9949e7	-0.07484799
205	0x3c9a8e05	0.018866548
206	0x3c2758cc	0.010214042
207	0x3c1c8c5a	0.009554947
208	0xbbdd3a41	-0.006751329
209	0x3dac02f4	0.08399001
210	0xbc13bea9	-0.009017625
211	0x3cebd715	0.028789083
212	0x3d922b02	0.07137109
213	0xbd52d9f3	-0.051477384
214	0x3d651d35	0.055936057
215	0xbc67faf9	-0.014158958
216	0x3d547c66	0.051876448
217	0xbd973c9b	-0.073846065
218	0xbbc8654f	-0.0061155926
219	0xbad74aef	-0.001642553
220	0xbdbe2e0a	-0.09286125
221	0xbdb35b2b	-0.08757623
222	0x3d2e0588	0.042485744
223	0xbca01bbb	-0.019544473
224	0x3d8bc05c	0.06823799
225	0xbda12307	-0.07868009
226	0xbd27fd66	-0.041013144
227	0xbda7d81f	-0.08195519
228	0x3d303e64	0.04302825
229	0x3c2a7656	0.01040419
230	0xbc1ab40f	-0.009442343
231	0xbbd8e4a0	-0.006619051
232	0xbd970596	-0.07374112
233	0x3d14fd38	0.0363743
234	0x3d442dba	0.04789517
235	0xbd4f40f8	-0.05059907
236	0x3d854cc9	0.06508786
237	0x3bf03b3b	0.0073312796
238	0xbda3be01	-0.07995225
239	0x3d9aa9e6	0.07551937
240	0x3d8c633d	0.06854866
241	0xbcdedac1	-0.02720392
242	0xbdab7eee	-0.08373819
243	0xbb332e55	-0.0027340848
244	0x3d986b01	0.074422844
245	0x3da9d0f1	0.082918055
246	0xbdcfc057	-0.10144108
247	0xbd705463	-0.058674227
248	0x3da9d38b	0.08292302
249	0x3d5e33ad	0.0542485
250	0x3d75bc36	0.059993945
251	0xbd84b9ae	-0.06480728
252	0x3db3d55a	0.08780928
253	0xbdc80377	-0.09766286
254	0xbc89c397	-0.016816897
255	0xbc0cb4c7	-0.008588023

conv1.bias f4 [64]
0	0x3cb8874f	0.022525458
1	0xbdbcb4fa	-0.09214206
2	0x39240f88	0.00015646045
3	0xbd5b66e0	-0.053564906
4	0x3d2e2879	0.042519066
5	0x3c8ea4ec	0.017412625
6	0x3d3c826f	0.04602283
7	0xbc8e636b	-0.01738139
8	0x3de195e4	0.110149175
9	0xbd2fbe6b	-0.042906206
10	0x3be31b01	0.0069307094
11	0x3cdf2af2	0.027242158
12	0xbe11287a	-0.14175597
13	0x3def3749	0.11680467
14	0x3d6823e8	0.056674868
15	0xbb8da484	-0.0043225903
16	0xbcde38a4	-0.027126618
17	0xbd00e848	-0.03147152
18	0x3d0650f1	0.032792035
19	0x3cbb6240	0.022873998
20	0x3ce1306f	0.027488915
21	0xbc5188e1	-0.012788982
22	0xbd681858	-0.05666384
23	0x3d9aedb6	0.07564871
24	0xbe007a34	-0.12546617
25	0xbc62ed20	-0.01385048
26	0x3d4a93ea	0.049457468
27	0x3c5e1bc4	0.0135564245
28	0x3cd01e0b	0.02540495
29	0x3d511f69	0.051055346
30	0x3db3c376	0.087775156
31	0xbc4160f7	-0.011802903
32	0x3d0e58a5	0.034752507
33	0x3d3a773b	0.045523863
34	0x3afc9876	0.0019271511
35	0xbd6df77c	-0.058097348
36	0xbb811f30	-0.0039404854
37	0x3d834941	0.064104564
38	0xbcc3cf61	-0.023902597
39	0x3d959054	0.07302919
40	0xba9c1447	-0.0011907899
41	0x39a78049	0.00031948302
42	0x3dae5958	0.08513135
43	0xbd27c594	-0.04095991
44	0x3d092887	0.033485916
45	0xbc9b19bb	-0.018933168
46	0xbcea1202	-0.02857304
47	0x3cc44c49	0.023962157
48	0x3ab2f2e1	0.0013652706
49	0xbd1a0ea8	-0.037611634
50	0x3c866c17	0.016408963
51	0x3d5505e3	0.052007567
52	0xbc6927a8	-0.014230646
53	0x3b1c738a	0.0023872578
54	0x3be6fde1	0.0070493077
55	0x3c0cc933	0.0085928915
56	0x3d90e466	0.070748135
57	0xbcd4e1da	-0.0259866
58	0xbbe675ee	-0.0070331013
59	0x3d8190b8	0.06326431
60	0x3d4f1749	0.050559316
61	0xbd130516	-0.035893522
62	0xbd5335e7	-0.051565077
63	0xbd3b5b74	-0.045741513

conv2.weight f4 [32, 64, 5, 5]
0	0xbac6eaac	-0.0015176139
1	0x3cdca901	0.026936056
2	0x3d9cca0e	0.076557264
3	0x3d9e6dc2	0.077357784
4	0xbd75d44c	-0.060016915
5	0x3b83e58e	0.004025168
6	0xbcae0fa5	-0.021247694
7	0x3b8889a6	0.0041667996
8	0x3d00986e	0.03139537
9	0xbbdbe9a8	-0.0067112036
10	0x3b9d79ff	0.004805803
11	0xbc180754	-0.009279091
12	0x3cb09903	0.021557337
13	0x3c737719	0.014859938
14	0x3d6081ca	0.054811276
15	0xbc980873	-0.018558716
16	0x3caef418	0.021356627
17	0x3cdfa1b1	0.02729878
18	0x3d0014fa	0.031270005
19	0x3d8b2bbd	0.06795452
20	0xbca6751c	-0.020319514
21	0x3b4f3d28	0.0031622145
22	0xbd263d13	-0.04058559
23	0x3cd84c32	0.02640352
24	0x3b394f35	0.002827597
25	0xbd39d766	-0.045371436
26	0x3b582529	0.0032981134
27	0xbce6953b	-0.02814733
28	0xbd4e16b3	-0.050314616
29	0xbda52a7e	-0.08064745
30	0xbd77f56a	-0.06053678
31	0x3b849fcb	0.004047369
32	0x3d046e1f	0.032331582
33	0x3d16536b	0.036700647
34	0xbc883333	-0.016625976
35	0xbc0e9f28	-0.008704938
36	0xbce8d052	-0.028419647
37	0x3d349c49	0.044094358
38	0x3da8cfe0	0.08242774
39	0x3d9dbcc1	0.077020176
40	0xbd62df67	-0.055388834
41	0xbc7a8c59	-0.015292251
42	0xbccec929	-0.025242405
43	0x3c806d6f	0.015677182
44	0x3bb5a8fc	0.005543826
45	0xbd8d6e08	-0.069057524
46	0x3c583a20	0.013197452
47	0x3c238dc1	0.009982527
48	0x3ce6dd6c	0.028181754
49	0x3c6ae30a	0.014336357
50	0xbd003a8f	-0.031305846
51	0xbbf8c5e1	-0.0075919484
52	0xbcc09df7	-0.023512824
53	0x3d101b14	0.035182074
54	0xbd17ee10	-0.03709227
55	0xbcda96bd	-0.026683206
56	0xbd0040e7	-0.031311896
57	0x3bf3d346	0.0074409572
58	0x3d69be51	0.057066265
59	0xbc21c37c	-0.009873267
60	0x3ceee126	0.029160094
61	0x3c0d231b	0.008614327
62	0xbcec7ae3	-0.02886719
63	0xbc2e9f42	-0.010658087
64	0xbd895d0a	-0.06707199
65	0x3b6b6249	0.0035916737
66	0x3d5669ae	0.052346878
67	0x3d130a4e	0.0358985
68	0x3bbe91cd	0.0058157207
69	0xbd05d4e5	-0.032673735
70	0xbc8f5750	-0.017497689
71	0x3c0d9de5	0.008643602
72	0x3c7a6eeb	0.015285234
73	0xbad8721d	-0.0016513501
74	0x3b6efccc	0.0036466597
75	0x3d0481fb	0.03235052
76	0xbb3ccdae	-0.0028809118
77	0xbc2e51da	-0.010639632
78	0xbd18c916	-0.037301145
79	0xbd88d152	-0.0668055
80	0x3ccd6e21	0.025076928
81	0x3d06c000	0.03289795
82	0xbc93cc22	-0.018041674
83	0xbd0a580c	-0.033775374
84	0xbc9df730	-0.019282907
85	0xbc2cf4ba	-0.010556394
86	0xbc59a0b2	-0.013282942
87	0xbd1cd06b	-0.0382847
88	0x3c73cf30	0.01488094
89	0xbbd4e530	-0.006497048
90	0xbd1299ec	-0.035791323
91	0x3b9a2f63	0.004705356
92	0xbbc07ed4	-0.005874494
93	0x3d27c20b	0.04095654
94	0x3a455773	0.00075279846
95	0x3bd391ff	0.006456613
96	0x3bbf41f4	0.0058367196
97	0x3b4dd8de	0.003140978
98	0xbc0407f5	-0.008058538
99	0xbc8dcd1c	-0.017309718
100	0xbd3433a6	-0.04399457
101	0xbd0fb8b1	-0.035088245
102	0x3cb398a3	0.021923369
103	0x3c8fd0a1	0.017555537
104	0xbc4182c7	-0.011810965
105	0xbc876673	-0.016528344
106	0xb7df2bdb	-2.6604093e-05
107	0x3c2e1482	0.010625007
108	0xbb5d92e7	-0.0033809484
109	0xbcf21e8f	-0.029555587
110	0xbd58b426	-0.052906178
111	0xbcc87607	-0.024470342
112	0x3cd38230	0.025818914
113	0x3bc57b8a	0.00602669
114	0xbd872336	-0.06598513
115	0xbcea64b6	-0.028612476
116	0x3c755ba7	0.014975465
117	0xbc9e1fe1	-0.01930231
118	0x3c885373	0.016641354
119	0xbc281b55	-0.010260423
120	0xbd22ad71	-0.039716188
121	0xbd1c3efc	-0.038146004
122	0xbd7e2f83	-0.06205703
123	0xbd1458a0	-0.036217332
124	0xbc271dc2	-0.010199966
125	0x3dfe24f3	0.12409391
126	0x3d4552dd	0.048174728
127	0x3ca1616e	0.019699778
128	0x3d9ceceb	0.07662376
129	0xbcfbf402	-0.030756
130	0xbd030e18	-0.031995863
131	0xbc18a87f	-0.009317516
132	0xbc43cb3e	-0.011950312
133	0xbc5021c7	-0.012703366
134	0xbc71a16f	-0.014747961
135	0xbd120314	-0.035647467
136	0xbbd860c8	-0.006603334
137	0x3ce2cdc9	0.027686017
138	0xbc74931f	-0.0149276545
139	0xbd06fd6d	-0.03295653
140	0x3c97a1d7	0.018509788
141	0x3d1dccec	0.038525507
142	0x3d33358c	0.04375224
143	0x3c98ab3b	0.018636337
144	0xb9524131	-0.00020051446
145	0xba88c864	-0.0010435698
146	0xbc0d30c2	-0.008617582
147	0x3d1557e2	0.036460765
148	0x3c2749ce	0.0102104675
149	0xbc876744	-0.016528733
150	0xbc31e594	-0.010857958
151	0xbb8e2bf3	-0.0043387352
152	0xbcb05f1b	-0.021529725
153	0x3c85104a	0.016243119
154	0xbd4a6781	-0.049415115
155	0x3d34fa7a	0.044184186
156	0x3c8efef2	0.017455552
157	0xbbe17a10	-0.006881006
158	0xbc06a9b4	-0.008219171
159	0xbb092829	-0.0020928478
160	0x3cbcc94a	0.0230452
161	0xbb0a1033	-0.0021066784
162	0x3c8149ff	0.015782354
163	0xbbe22d0c	-0.0069023427
164	0xbcb4a27d	-0.022050137
165	0x3d576811	0.05258948
166	0x3cd333ee	0.025781598
167	0x3ca11fce	0.019668486
168	0x3b5604ba	0.0032656626
169	0x3d312dc3	0.043256532
170	0xbc1eb8ab	-0.009687583
171	0xbc869cdc	-0.016432218
172	0x3bceca06	0.006310704
173	0xbc53ebbd	-0.012934622
174	0x3c8a6907	0.016895784
175	0x3d3ed861	0.046593074
176	0x3d7bc5ef	0.06146806
177	0x3d462677	0.048376527
178	0xbc967504	-0.018366344
179	0x3c228c5a	0.009921158
180	0xbc9faece	-0.019492533
181	0xbcf20f96	-0.029548448
182	0x3d9b7ee7	0.07592564
183	0x3d7ab268	0.061205298
184	0x3b6bd9d4	0.003598799
185	0xbc90b27e	-0.017663237
186	0xbd033b96	-0.032039247
187	0xbd737bd6	-0.05944427
188	0x3d35a11f	0.04434311
189	0x3d334105	0.04376318
190	0x3dbae25f	0.09125208
191	0x3d89ab4e	0.06722127
192	0xbd3bdab0	-0.045862854
193	0x3cabb29e	0.020959195
194	0x3cd3a234	0.02583418
195	0x3e59264f	0.2120602
196	0x3e4fffb9	0.20312394
197	0x3e113461	0.14180137
198	0x3d575533	0.052571487
199	0xbc1fba16	-0.009748956
200	0x3c368f28	0.01114253
201	0xbc741068	-0.01489649
202	0xbca4af7d	-0.02010321
203	0x3c60d748	0.013723202
204	0xbc253865	-0.010084246
205	0x3caf78d5	0.021419922
206	0xbd01da91	-0.03170258
207	0xbd09cd71	-0.03364319
208	0x3c0d84b0	0.008637592
209	0xbc931585	-0.017954597
210	0xbd13e0ce	-0.036103062
211	0xbd7a506b	-0.06111185
212	0xbd51c0d9	-0.051209304
213	0xbb32ea0a	-0.0027300143
214	0xbc21c54e	-0.009873701
215	0x3bc14d9f	0.0058991457
216	0xbc911c66	-0.017713737
217	0xbc3d8f3a	-0.011569792
218	0xbb85e85a	-0.0040865364
219	0x3cd3968e	0.025828626
220	0x3bc59886	0.006030145
221	0x3d5a1c65	0.053249735
222	0x3cb32595	0.021868506
223	0xbc8adb0c	-0.016950153
224	0x3d22eb35	0.039775092
225	0x3c004d12	0.007830875
226	0x3cb4398e	0.0220001
227	0x3c571dd1	0.013129667
228	0x3c9af73e	0.018916722
229	0x3ce90889	0.028446453
230	0x3c23ed3a	0.01000529
231	0x3ade9815	0.001698258
232	0x3d136587	0.035985496
233	0x3d213fc6	0.03936746
234	0x3c86df5f	0.016463934
235	0xbd16ba7b	-0.036798935
236	0xbcff7d29	-0.03118761
237	0xbbc9a351	-0.006153502
238	0x3c45ca9b	0.012072231
239	0x3ba0cbc2	0.0049071023
240	0xbd265111	-0.040604655
241	0xbcd8becc	-0.026458167
242	0xbc4f0dfd	-0.012637612
243	0xbccb0d5c	-0.024786644
244	0xbc34e035	-0.011039783
245	0xb9e8b8a3	-0.00044388053
246	0xbc659c26	-0.0140142795
247	0xbcc69e6d	-0.024245465
248	0xbca5357c	-0.020167105
249	0x3c76fc80	0.015074849
250	0xbd36ff2d	-0.04467695
251	0xbd0d642a	-0.034519352
252	0xbb84e61c	-0.0040557515
253	0x3c9c600e	0.019088771
254	0x3c167649	0.009183475
255	0xbd318d75	-0.043347795

conv2.bias f4 [32]
0	0xbb536d9b	-0.0032261375
1	0xbc892e3b	-0.016745677
2	0xbb4300c7	-0.0029755102
3	0x3cc08b22	0.023503844
4	0x3cf2ddbf	0.029646752
5	0x3b67c64d	0.0035366
6	0xbbca6872	-0.0061770016
7	0x3c56d174	0.013111461
8	0x3d2a84dd	0.041630615
9	0xbc9bef7a	-0.01903509
10	0xbac14bd1	-0.0014747326
11	0xbb32713d	-0.002722814
12	0x3ced9047	0.02899946
13	0x3b2748f2	0.0025525657
14	0x3d57eeb2	0.052717872
15	0xbc82bcdf	-0.015959201
16	0xbc57b4b0	-0.013165638
17	0xbc3544a4	-0.0110637285
18	0x3c088998	0.008333586
19	0x3cd321ad	0.025772894
20	0x3d249694	0.040182665
21	0x3becbefb	0.007224915
22	0xbc33d816	-0.010976812
23	0x3c362e9a	0.011119509
24	0xbb48ba72	-0.0030628708
25	0x3cff22a5	0.03114445
26	0x3cb6e525	0.022326062
27	0x3c5abbd7	0.013350449
28	0x3c742aeb	0.014902811
29	0xbd0d2401	-0.034458164
30	0xbce3ca7a	-0.02780651
31	0x3b81b6dd	0.0039585666

conv3.weight f4 [1, 32, 5, 5]
0	0x3c17dba7	0.009268678
1	0x3c9679f7	0.018368704
2	0x3c00d77b	0.007863875
3	0x3d09fa6b	0.033686083
4	0x3d0fbe76	0.035093747
5	0xbd0267cb	-0.031837266
6	0x3acf6ea3	0.0015825819
7	0xbd029af7	-0.031886067
8	0x3a989899	0.0011642157
9	0x3bebf7ad	0.007201156
10	0xbb95a273	-0.0045664846
11	0x3cbe5913	0.023235833
12	0x3b2326f0	0.0024895035
13	0xbd2e77cd	-0.04259472
14	0xbc31887a	-0.010835761
15	0xbc7556ff	-0.014974355
16	0xbcfa2629	-0.030535774
17	0xbc1b1d20	-0.009467393
18	0xbd2924b0	-0.041294754
19	0x3c8ce614	0.017199554
20	0x3c073604	0.008252624
21	0x3c8fff0b	0.017577669
22	0x3cc2188e	0.02369335
23	0x3cfa345d	0.030542547
24	0xbc6bcb7b	-0.014391775
25	0x3af48d2e	0.0018657797
26	0xbd0a75a1	-0.033803586
27	0x3c08f019	0.008358025
28	0x3cd8156d	0.026377404
29	0xbcbe16e0	-0.023204267
30	0x3ca29810	0.0198479
31	0xbc88dfb2	-0.016708229
32	0x3c293404	0.010327343
33	0xbc828abe	-0.015935298
34	0x3bbed386	0.0058235554
35	0xbd0c1c5d	-0.034206737
36	0x3cd63714	0.02614931
37	0xbc0264b3	-0.007958579
38	0x3d03c35b	0.032168727
39	0xbc5a0c32	-0.013308572
40	0x3c741853	0.0148983775
41	0xbc8ed72d	-0.017436588
42	0xbc7da600	-0.015481472
43	0xbc220293	-0.009888309
44	0x3c88e357	0.016709967
45	0x3c691e7a	0.014228458
46	0x3ca85465	0.020548055
47	0xbbc4b9aa	-0.006003578
48	0x3b818a97	0.003953289
49	0x3cb6cd11	0.02231458
50	0xbc625382	-0.013813855
51	0xbc3e4d1d	-0.011615065
52	0x3cdc7e5a	0.026915718
53	0xbcf44a11	-0.029820474
54	0xbc8c2326	-0.017106604
55	0xbca08c12	-0.01959804
56	0xbbf37dea	-0.0074307816
57	0xbcd4d2ca	-0.025979418
58	0x3c06faec	0.008238535
59	0xbcca391c	-0.024685435
60	0xbc7e5ac3	-0.015524569
61	0xbd0cd52f	-0.034382995
62	0x3cc14b9b	0.023595622
63	0xbcb17836	-0.021663766
64	0xbb8ad75a	-0.0042370977
65	0xbcac7fb3	-0.021056985
66	0xbb9f0a43	-0.004853518
67	0xbbdd4b2c	-0.006753346
68	0xbc3c7cdb	-0.011504377
69	0xba049407	-0.0005057458
70	0x3c76b7cd	0.01505847
71	0x3ceeb978	0.029141173
72	0x3cd6efe2	0.026237432
73	0xbcd6ef21	-0.026237072
74	0xbb8627f6	-0.004094119
75	0xbd3cff4b	-0.046141904
76	0x3c9c4121	0.019074025
77	0x3cf804d1	0.030275734
78	0x3bc12610	0.00589443
79	0x3c0717f2	0.008245455
80	0x3d364f7f	0.044509407
81	0x3c9f2cca	0.019430537
82	0xbc3ca16a	-0.0115130935
83	0xbc79146a	-0.015202621
84	0xbb9d60e4	-0.00480281
85	0x3d306a46	0.0430701
86	0x3c95f37b	0.018304577
87	0x3cb2160a	0.021739025
88	0xbb8cb4bf	-0.0042940076
89	0xbc8370b9	-0.016044961
90	0x3c3019e4	0.01074836
91	0xbc1ecc52	-0.009692268
92	0xbd534141	-0.051575903
93	0xbcec04b0	-0.028810829
94	0xbc1abcc2	-0.009444417
95	0x3b1f2294	0.0024282085
96	0xbc4c31e9	-0.012463071
97	0xbcc615da	-0.024180342
98	0xbc709e2f	-0.014686151
99	0x3cf839a5	0.030300925
100	0x3bb5c595	0.0055472353
101	0x3be98593	0.007126519
102	0x3c65409a	0.013992453
103	0xbb552bfb	-0.0032527435
104	0x3b5a888c	0.0033345548
105	0xbc0670c9	-0.008205601
106	0x3d001e6c	0.031279013
107	0xba0e1403	-0.0005419852
108	0x3ccb2268	0.02479668
109	0xbcab6c17	-0.020925565
110	0xbce6f812	-0.028194461
111	0x3b86bf51	0.004112162
112	0xbd038f97	-0.03211936
113	0x3ca81c83	0.020521408
114	0x3ca7c70e	0.020480659
115	0x3ce6a948	0.028156891
116	0x3d00b5b4	0.031423286
117	0x3c3787fd	0.011201856
118	0x3c58e94a	0.013239214
119	0xbbb2e284	-0.0054591317
120	0x3d027bca	0.031856336
121	0x3c6fc51d	0.014634398
122	0xbc0e851d	-0.008698729
123	0xbd08a231	-0.033357803
124	0x3b716a28	0.0036836956
125	0x3b9ae9f2	0.0047275955
126	0x3d136f21	0.035994653
127	0x3d042e7c	0.032270893
128	0x3d075648	0.03304127
129	0x3b259062	0.002526306
130	0x3c3fc53e	0.011704741
131	0xbca5a2a6	-0.020219158
132	0x3c2411d5	0.010014017
133	0x3c20ce3a	0.009814793
134	0xbc80e573	-0.01573441
135	0xbc95b0bf	-0.018272756
136	0x3c408c5b	0.011752213
137	0xbcd59762	-0.026073162
138	0xbc861a8e	-0.016370084
139	0x3ce60b1c	0.02808147
140	0x3cc1a39e	0.023637589
141	0xbd108961	-0.035287265
142	0xbd150810	-0.036384642
143	0x3cae99c2	0.021313552
144	0xbbbf8173	-0.005844289
145	0x3bc00001	0.0058593755
146	0xbca8113e	-0.020516034
147	0xbc474556	-0.012162527
148	0x3cec5d69	0.028853135
149	0xbca500f0	-0.020142049
150	0x3c4b40f6	0.012405625
151	0x3a6485d5	0.00087174523
152	0x3c3b8773	0.011445868
153	0x3b02d5c1	0.0019963833
154	0xbbda99bc	-0.0066711586
155	0x3c54419a	0.012955094
156	0x3c1e3a41	0.0096574435
157	0xbb3301e9	-0.002731437
158	0x3cc97a32	0.0245944
159	0x3d057377	0.03258082
160	0x3c98833b	0.018617263
161	0xbc2b598b	-0.01045836
162	0xbcd6a617	-0.026202245
163	0xbcc7bb35	-0.02438126
164	0xbc8cf83c	-0.017208211
165	0xbb5903c0	-0.0033113807
166	0x3c948589	0.01813008
167	0x3c240603	0.010011199
168	0x3d012ad1	0.031534974
169	0xbd1040c6	-0.035218023
170	0xbcaa7b25	-0.020810673
171	0x3d03c4bf	0.032170054
172	0xbccb0abf	-0.024785398
173	0x3cbb6ac4	0.022878058
174	0x39f79177	0.0004721989
175	0xbb896ecb	-0.0041941158
176	0x3ccbcbf7	0.024877531
177	0x3cdfb59d	0.02730828
178	0xbc692920	-0.014230996
179	0xbafb92d0	-0.0019193534
180	0x3d078a19	0.033090685
181	0x3cf192dc	0.029488973
182	0x3c6aec36	0.014338544
183	0xbcacfe0f	-0.021117238
184	0xbcc1dd7b	-0.02366518
185	0x3cd0bc93	0.025480544
186	0x3ca7aff3	0.020469641
187	0xbb767792	-0.003760789
188	0x3d0cdd4f	0.034390744
189	0x3ccc2dfd	0.024924273
190	0xbc016de0	-0.007899731
191	0x3c7ce81f	0.015436201
192	0x3d0d1b0e	0.03444963
193	0x3ca8b7b3	0.020595407
194	0xbc8c40ce	-0.017120745
195	0xbd09c625	-0.03363623
196	0x3c2e3581	0.0106328735
197	0x3c5862da	0.013207162
198	0xbd0e94f0	-0.034810007
199	0x3bac892e	0.0052653765
200	0xbcf61813	-0.030040776
201	0xb92a57da	-0.0001624519
202	0xbc98765b	-0.018611124
203	0xbca8ca7b	-0.020604363
204	0x3ccde3ed	0.025133098
205	0x3bfb3b28	0.007666964
206	0xbbf8a03a	-0.00758746
207	0xbcf08a8e	-0.029362943
208	0x3bf7d830	0.0075636134
209	0xbc3f1b9c	-0.011664297
210	0xbaa51c2b	-0.0012596896
211	0x3d35c8e5	0.04438104
212	0x3da1e21a	0.079044536
213	0xbc052b85	-0.008128052
214	0x3c03fadf	0.008055418
215	0xbc663370	-0.01405035
216	0x3d7764da	0.060398914
217	0x3d7c9441	0.061664823
218	0xbd10274a	-0.03519372
219	0xbd03724c	-0.032091424
220	0x3b778c6b	0.0037772905
221	0x3bcf1679	0.0063198176
222	0x3cb832be	0.022485133
223	0xbcc0c236	-0.023530107
224	0xbd284bfe	-0.041088097
225	0x3d1a89eb	0.037729185
226	0xbbefd2f2	-0.007318848
227	0x3c949018	0.018135116
228	0x3cbca9c0	0.023030162
229	0x3c493332	0.012280272
230	0x3d0770a1	0.033066396
231	0xbcd1dae5	-0.025617072
232	0x3a3f7e0a	0.0007304853
233	0xbb5aeb26	-0.003340432
234	0x3c8a5b0e	0.016889121
235	0xbc8cf49a	-0.017206479
236	0xbcc37d1a	-0.023863364
237	0xbd00b7e3	-0.031425368
238	0x3ca597f4	0.020214058
239	0x3c19057a	0.009339685
240	0xbd154822	-0.036445744
241	0xbb939c1e	-0.0045046946
242	0xbd038dc5	-0.032117624
243	0xbd017a39	-0.0316107
244	0x3cab206b	0.020889482
245	0xbc960e4a	-0.01831736
246	0x3cb88581	0.022524597
247	0x3d10371d	0.03520881
248	0x3bfd3db0	0.007728301
249	0x3c92669d	0.017871195
250	0xbcfcd4eb	-0.030863246
251	0xbc76d8df	-0.015066355
252	0xbafc220b	-0.001923622
253	0x3bf8472e	0.0075768447
254	0x3c6a8c16	0.014315626
255	0x3c9c279a	0.019061852
