2021_BOML_srcnn_project/output/epoch_51.pth (torch, 231519 bytes, 5 tensors)

conv1.weight f4 [64, 1, 9, 9]
0	0xbb787ae4	-0.0037915045
1	0x3cd7e6b9	0.026355134
2	0xbd353129	-0.044236336
3	0x3d8faa7c	0.07014939
4	0xbd95e04f	-0.07318174
5	0x3db2ef54	0.087370545
6	0xbd9c269d	-0.076245524
7	0xbd1c9534	-0.03822823
8	0xbc6779da	-0.014128173
9	0x3da96a1a	0.082721904
10	0xbd2f48e7	-0.042794134
11	0x3cab9536	0.020945173
12	0xbddbee1e	-0.107387766
13	0xbdade030	-0.08490026
14	0xbda1bde2	-0.078975454
15	0xbd79f243	-0.061022054
16	0xbdb2063f	-0.086925976
17	0x3dae13a7	0.08499842
18	0x3bcb1dc9	0.006198619
19	0x3d084ecb	0.033278268
20	0x3d7ad524	0.061238423
21	0x3c9e3ab5	0.019315103
22	0x3d16b6cf	0.036795434
23	0x3dbf8955	0.09352366
24	0xbda4daa4	-0.08049515
25	0x3cb8c8e4	0.02255673
26	0xbd5681cb	-0.052369874
27	0x3d86027b	0.06543442
28	0x3d295d42	0.041348703
29	0xbe13d685	-0.14437301
30	0x3dd8115e	0.105501875
31	0x3dc17cee	0.094476566
32	0x3d95cd16	0.07314508
33	0x3d1087d0	0.03528577
34	0x3d988b87	0.07448488
35	0xbd18a822	-0.03726972
36	0xbdde22f8	-0.108465135
37	0xbd9a3477	-0.07529538
38	0xbdbdb2a4	-0.092625886
39	0x3d8d31e3	0.06894281
40	0x3d85386a	0.06504901
41	0xbbba3658	-0.005682748
42	0xbb907ea3	-0.0044096275
43	0x3dcd14c3	0.100137256
44	0xbcd7482b	-0.02627953
45	0xbbdefd34	-0.0068050865
46	0xbd5d7a27	-0.05407157
47	0x3c8d5719	0.017253445
48	0x3e221829	0.15829529
49	0x3e030f3a	0.12798777
50	0x3d7fddd1	0.0624674
51	0x3c31b4dc	0.010846343
52	0x3ca4ff39	0.02014123
53	0x3cd55c89	0.0260451
54	0xbbd3cb4b	-0.0064634434
55	0xbe11859d	-0.14211126
56	0xbdafa182	-0.08575727
57	0x3ddb88f0	0.10719478
58	0x3c2aac8f	0.010417118
59	0xbde2b1de	-0.11069082
60	0xbc43a59f	-0.011941343
61	0x3dcac3c3	0.0990062
62	0xbdcbec3f	-0.0995717
63	0xbd3b237a	-0.04568813
64	0xbda194a5	-0.0788968
65	0xbcf2d11a	-0.029640723
66	0xbd45c277	-0.04828116
67	0xbd19d8b7	-0.03756019
68	0xbe14e181	-0.14539148
69	0x3ccb936b	0.024850568
70	0x3df108bb	0.11769243
71	0x3da0bf46	0.078489825
72	0x3cb87fdc	0.022521906
73	0xbd975931	-0.07390059
74	0x3cde9bbe	0.027173873
75	0xbc46ea19	-0.012140774
76	0x3d28794b	0.0411313
77	0xbdef6b2d	-0.11690364
78	0xbc33bd39	-0.010970407
79	0x3dd841c8	0.10559422
80	0x3d39e0d0	0.045380414
81	0x3c9fec0b	0.019521734
82	0x3c1d70ba	0.009609396
83	0xbb4abb92	-0.0030934555
84	0xbd9aac3c	-0.07552382
85	0xbd8343b0	-0.06409395
86	0xbdbdbaca	-0.09264143
87	0x3db834d0	0.08994448
88	0x3d23b0cf	0.03996354
89	0xbcb8108b	-0.022468826
90	0xbdb66678	-0.08906263
91	0x3d683031	0.056686584
92	0x3c86596e	0.016400065
93	0x3d08a84f	0.033363637
94	0xbdbb717f	-0.09152507
95	0xbc8e5d0b	-0.01737835
96	0x3de4e07a	0.11175628
97	0x3d95581f	0.072921984
98	0x3d4c95b8	0.04994747
99	0xbbf72f34	-0.007543469
100	0x3d9a1aae	0.0752462
101	0xbda435a5	-0.080180444
102	0x3b0fc108	0.0021935124
103	0xbd92b48a	-0.07163341
104	0xbd1f0496	-0.038822733
105	0xb959ef6c	-0.00020783924
106	0x3ce3f3fa	0.027826298
107	0x3da4771a	0.08030529
108	0x3d1fadd3	0.03898413
109	0xbcd065a7	-0.025439097
110	0x3dc10235	0.09424249
111	0xbd1bad85	-0.038007278
112	0x3d8c7efa	0.06860156
113	0xbd1f881f	-0.038948175
114	0xbc9f0307	-0.019410623
115	0x3ba817ce	0.005129791
116	0xbe003c60	-0.12523031
117	0xbb13eb8b	-0.0022570814
118	0x3d0ea532	0.03482551
119	0x3e21afe0	0.15789747
120	0x3d22ed2c	0.039776966
121	0x3dc19023	0.0945132
122	0x3dd66fd7	0.104705505
123	0xbd1c4955	-0.038155872
124	0x3de121c1	0.10992766
125	0xbdac67a4	-0.084182054
126	0x3c51888f	0.012788906
127	0x3c85ca17	0.016331716
128	0x3d921592	0.071330205
129	0x3e020405	0.12696846
130	0xbcfb679d	-0.030689055
131	0xbbeabe91	-0.0071638306
132	0xba00b467	-0.00049096945
133	0xbd8301b5	-0.0639681
134	0xbd32df37	-0.043669906
135	0xbdfae1a6	-0.1225007
136	0xbbe1cb49	-0.0068906886
137	0x3c2d79ca	0.010588119
138	0xbb0a3efd	-0.0021094673
139	0xbd9b2622	-0.07575633
140	0xbd8c12d9	-0.068395324
141	0xbd3af728	-0.045645863
142	0x3d752e94	0.059858873
143	0x3dbed3be	0.0931773
144	0x3c0653ea	0.008198718
145	0xbdb0a6c4	-0.08625558
146	0xbd8eb57a	-0.06968208
147	0xbc1bf59d	-0.009519008
148	0xbdfa9669	-0.1223572
149	0xbe0a2bf6	-0.13493332
150	0xbd9520a9	-0.0728162
151	0xb8b73d43	-8.737531e-05
152	0xbc62a6fe	-0.013833759
153	0x3dc2a3df	0.09503912
154	0x3ccdc9db	0.025120666
155	0x3ddf0e59	0.108914085
156	0xbd3401b6	-0.043946944
157	0x3cf0f597	0.029413981
158	0xbda388fd	-0.07985113
159	0x3df293dd	0.11844609
160	0x3dbd2138	0.092348516
161	0x3dbdf732	0.092756644
162	0xbd8becbc	-0.06832263
163	0x3de29c9a	0.11065026
164	0x3dff3fa9	0.12463314
165	0x3e258e4a	0.1616756
166	0x3e090a43	0.13382821
167	0x3e47aa6a	0.19498602
168	0x3e0160fe	0.12634656
169	0x3db67526	0.08909063
170	0xbd2ee05a	-0.042694427
171	0xbdbae961	-0.09126545
172	0xbc9554e9	-0.018228965
173	0xbcb3f77d	-0.021968598
174	0xbdecdf3c	-0.11566016
175	0xbd8fd8a8	-0.07023746
176	0xbdef8e8f	-0.11697113
177	0xbd6d2aa9	-0.057902012
178	0x3d667cb0	0.056271255
179	0xbd584006	-0.052795433
180	0x3c5bea9f	0.013422637
181	0x3ca84cbe	0.020544406
182	0x3d6b2542	0.05740858
183	0xbdf510e9	-0.11966116
184	0xbdab2c14	-0.083580166
185	0xbd3ffd48	-0.046872407
186	0xbda060a9	-0.078309365
187	0x3d14eb88	0.036357433
188	0x3d22a7ad	0.03971069
189	0xbda666ab	-0.08125051
190	0xbd686d61	-0.056744937
191	0xbdab78b7	-0.08372634
192	0x3d82d150	0.063875794
193	0x3e0c94a7	0.13728581
194	0xbd6e901c	-0.058242902
195	0xbcfd22d4	-0.030900396
196	0x3d62e55c	0.055394515
197	0xbd7e31e3	-0.062059294
198	0x3dc7b58b	0.097514234
199	0x3d2a05a5	0.04150929
200	0xbc62535b	-0.013813819
201	0x3d0c6e38	0.0342848
202	0x3da53e16	0.080684826
203	0xbc939822	-0.018016879
204	0xbd974fa9	-0.07388241
205	0x3c9a86fe	0.018863197
206	0x3c130ce5	0.008975242
207	0x3c0fd3cc	0.008778524
208	0xbbf375a0	-0.0074297935
209	0x3dab88f7	0.08375733
210	0xbc27b8e2	-0.010236951
211	0x3ce50907	0.027958406
212	0x3d91d922	0.07121493
213	0xbd54b624	-0.051931515
214	0x3d5f7cdf	0.054562446
215	0xbc8139e9	-0.015774684
216	0x3d5470c7	0.051865365
217	0xbd974d01	-0.07387734
218	0xbbb857c1	-0.0056256955
219	0xbaa95894	-0.0012920075
220	0xbdba9401	-0.09110261
221	0xbdaf57d4	-0.08561674
222	0x3d318a95	0.043345053
223	0xbca2e72a	-0.019885618
224	0x3d8b0d72	0.06789674
225	0xbda32cfb	-0.07967564
226	0xbd2bf66f	-0.041983064
227	0xbda8b05c	-0.08236763
228	0x3d2f7dff	0.04284477
229	0x3c3b8263	0.011444661
230	0xbc07a940	-0.008280098
231	0xbbc26aef	-0.0059331576
232	0xbd9731b1	-0.07382525
233	0x3d144566	0.036198996
234	0x3d3f45a7	0.046697285
235	0xbd533354	-0.051562622
236	0x3d84259a	0.064524844
237	0x3bdea0e0	0.00679408
238	0xbda2f975	-0.079577364
239	0x3d9d36e5	0.07676486
240	0x3d8f0f4e	0.06985341
241	0xbcd280b5	-0.025696138
242	0xbdaa0a85	-0.08302788
243	0xbb7dfb0d	-0.0038754374
244	0x3d984765	0.074354924
245	0x3dad10a2	0.08450438
246	0xbdca954e	-0.09891759
247	0xbd6e56e2	-0.058188327
248	0x3da75c64	0.08171919
249	0x3d54deee	0.051970415
250	0x3d715fe2	0.05892933
251	0xbd8686e7	-0.06568699
252	0x3db1fe3b	0.08691069
253	0xbdc93a07	-0.09825521
254	0xbc871016	-0.016487163
255	0xbbf6dca7	-0.007533628

conv1.bias f4 [64]
0	0x3cb69b28	0.022290781
1	0xbdc16111	-0.09442342
2	0xb9b2a41e	-0.00034073082
3	0xbd5562e9	-0.05209628
4	0x3d31c9dc	0.0434054
5	0x3c721ef9	0.014777892
6	0x3d467c11	0.048458163
7	0xbc91929a	-0.0177701
8	0x3de0652b	0.10956796
9	0xbd2af70c	-0.04173951
10	0x3bea0e43	0.0071428134
11	0x3ce4aab5	0.02791343
12	0xbe0e46ab	-0.13894145
13	0x3de9e3a2	0.11420371
14	0x3d683d86	0.0566993
15	0xbb35aa92	-0.0027720076
16	0xbce49a4c	-0.027905606
17	0xbd0e0ef0	-0.034682214
18	0x3d111ae5	0.03542604
19	0x3cc8a20d	0.024491334
20	0x3cdaf3ad	0.026727522
21	0xbc1ec477	-0.009690396
22	0xbd6b8048	-0.057495385
23	0x3d9caf2f	0.07650601
24	0xbdecd952	-0.11564888
25	0xbc56b86b	-0.013105492
26	0x3d3a08f6	0.045418702
27	0x3c65acdf	0.014018266
28	0x3cd08d3d	0.025457973
29	0x3d55ac4c	0.05216627
30	0x3db32dd6	0.08748977
31	0xbc356110	-0.011070505
32	0x3d15e092	0.03659112
33	0x3d4106c9	0.04712561
34	0x3a705504	0.0009167942
35	0xbd749f66	-0.059722327
36	0xbb4a0e82	-0.0030831401
37	0x3d865ded	0.06560884
38	0xbcc40d83	-0.023932224
39	0x3d94949a	0.07254906
40	0xbb441122	-0.0029917439
41	0x3958d47f	0.00020678526
42	0x3db54e59	0.08852834
43	0xbd2372ff	-0.03990459
44	0x3d0aedf3	0.033918332
45	0xbc92c132	-0.017914388
46	0xbcefa949	-0.029255526
47	0x3cbb5e20	0.02287203
48	0x3a8217d6	0.0009925317
49	0xbd217ecd	-0.039427567
50	0x3c7a6fac	0.015285414
51	0x3d59ceb5	0.053175647
52	0xbc7b8d6a	-0.01535354
53	0x3b0cdac2	0.0021492695
54	0x3bba7f43	0.0056914403
55	0x3c0f4471	0.008744345
56	0x3d9b15d3	0.07572522
57	0xbce321b0	-0.027726024
58	0xbbf1bd42	-0.0073772976
59	0x3d849a0e	0.06474696
60	0x3d560126	0.05224719
61	0xbd1ed442	-0.038776644
62	0xbd5b9b7a	-0.05361507
63	0xbd408235	-0.046999175

conv2.weight f4 [32, 64, 5, 5]
0	0xba1355e8	-0.0005620406
1	0x3cbb5afc	0.022870533
2	0x3d918877	0.07106107
3	0x3d9a8ba3	0.07546165
4	0xbd752e68	-0.05985871
5	0x3b43cf38	0.002987815
6	0xbcc4b15c	-0.024010353
7	0xb9f01dd3	-0.00045798588
8	0x3ce79231	0.028267952
9	0xbc0b3111	-0.008495585
10	0x3bb701d2	0.005584934
11	0xbc11d141	-0.008899988
12	0x3cb87f4c	0.022521637
13	0x3c83132c	0.016000353
14	0x3d61a56a	0.05508939
15	0xbc9cceb2	-0.019141529
16	0x3c9d4764	0.01919908
17	0x3cdca296	0.026932996
18	0x3ced1d06	0.028944504
19	0x3d813691	0.06309236
20	0xbcacc9fb	-0.021092406
21	0x39c6db6d	0.00037928988
22	0xbd1de47a	-0.03854797
23	0x3ccb4a9a	0.024815846
24	0xbb1275ef	-0.0022348126
25	0xbd2a64fd	-0.041600216
26	0x3ae3b4d7	0.001737262
27	0xbce0efac	-0.027458034
28	0xbd552319	-0.052035425
29	0xbda1b441	-0.07895709
30	0xbd683887	-0.056694534
31	0x3b9f7ad2	0.0048669362
32	0x3cf8496c	0.030308448
33	0x3d0411fb	0.03224371
34	0xbc7a6c70	-0.015284643
35	0xbc09ea95	-0.008417745
36	0xbcedd9b4	-0.029034473
37	0x3d24f7c7	0.04027536
38	0x3d9e540f	0.07730877
39	0x3d995062	0.07486035
40	0xbd55df9f	-0.052215215
41	0xbc813725	-0.015773365
42	0xbcdc9d8d	-0.026930595
43	0x3c660aba	0.014040643
44	0x3b82f47e	0.003996431
45	0xbd8a1634	-0.06742516
46	0x3c35f02b	0.011104624
47	0x3beb9d1d	0.00719036
48	0x3ccb33e3	0.024805015
49	0x3c4ae31a	0.012383247
50	0xbd071368	-0.03297749
51	0xbc363318	-0.01112058
52	0xbd017b78	-0.03161189
53	0x3ccd30b4	0.025047638
54	0xbd34cc6c	-0.044140264
55	0xbcecf59d	-0.028925711
56	0xbd023c28	-0.03179565
57	0x3b7b14f3	0.0038312047
58	0x3d5b6315	0.05356129
59	0xbc28e1dd	-0.010307756
60	0x3ce5a5e7	0.02803321
61	0x3c1634c6	0.009167856
62	0xbcda9824	-0.026683874
63	0xbba589db	-0.005051834
64	0xbd75d42c	-0.060016796
65	0x3a2c1857	0.0006564906
66	0x3d4ad374	0.049518064
67	0x3d0e96ff	0.03481197
68	0x3bfb4335	0.007667924
69	0xbcffd10e	-0.031227615
70	0xbc75bddb	-0.014998878
71	0x3c3038ee	0.010755761
72	0x3c8ed739	0.01743661
73	0x3aba89ca	0.0014231738
74	0x3be86e9d	0.0070932643
75	0x3cd83865	0.026394079
76	0xbbf22125	-0.007389205
77	0xbc397e52	-0.011321621
78	0xbd13879d	-0.036018003
79	0xbd81643c	-0.06317946
80	0x3cb91059	0.022590803
81	0x3cfa705c	0.030571155
82	0xbc916066	-0.017746162
83	0xbcfff8b8	-0.031246528
84	0xbc8f1fc8	-0.01747121
85	0xbbebce8b	-0.0071962527
86	0xbc3f5d36	-0.011679938
87	0xbd1072a3	-0.035265576
88	0x3c8e7a22	0.017392222
89	0xbbf216d1	-0.007387974
90	0xbd0b85f6	-0.034063302
91	0x3b6fcc37	0.0036590227
92	0xbba3f3cf	-0.0050034295
93	0x3d24c929	0.040230904
94	0xba3966e4	-0.0007072522
95	0x3be5af85	0.007009449
96	0x3b815749	0.003947173
97	0x3b8d50f0	0.004312627
98	0xbbf24dd1	-0.0073945303
99	0xbc8b552f	-0.017008392
100	0xbd3a27ca	-0.045448102
101	0xbd1be6d3	-0.038061928
102	0x3ca91534	0.020639993
103	0x3c8ee4f0	0.01744315
104	0xbc36f3a2	-0.011166485
105	0xbc91b2e3	-0.017785495
106	0xbb3025c8	-0.0026877988
107	0x3c378c17	0.011202834
108	0x3a5ab662	0.0008343217
109	0xbcc4d6ef	-0.02402827
110	0xbd549774	-0.05190225
111	0xbcdb1c41	-0.026746871
112	0x3cc7e43d	0.024400825
113	0x3be213ba	0.0068993242
114	0xbd810df2	-0.06301488
115	0xbcf6e4e3	-0.030138439
116	0x3c29b7a0	0.010358721
117	0xbcb0141d	-0.021493966
118	0x3c740132	0.014892863
119	0xbc4001ef	-0.011719211
120	0xbd22bd7d	-0.03973149
121	0xbd1a4260	-0.037660956
122	0xbd6eb1f1	-0.058275167
123	0xbd15b343	-0.03654791
124	0xbc4d1549	-0.012517282
125	0x3dfab477	0.12241452
126	0x3d43a2f3	0.047762822
127	0x3c9b6589	0.018969314
128	0x3da2ed47	0.07955413
129	0xbcea667e	-0.028613325
130	0xbcf671a6	-0.030083489
131	0xbbe4841b	-0.006973756
132	0xbc2c77f7	-0.010526649
133	0xbc295481	-0.010335089
134	0xbc52f66a	-0.0128761325
135	0xbd11442a	-0.035465397
136	0xbbf58d91	-0.0074936827
137	0x3cd6e945	0.026234278
138	0xbc83f2e2	-0.016107026
139	0xbd0b06bf	-0.03394198
140	0x3c8da813	0.017292058
141	0x3d11de42	0.035612352
142	0x3d2c2c2c	0.042034313
143	0x3c8ac341	0.016938807
144	0xbb1481e8	-0.0022660438
145	0xbbb08ca1	-0.005387858
146	0xbc54c6e7	-0.012986875
147	0x3d0da1ff	0.03457832
148	0x3c0cf82e	0.0086040925
149	0xbc9a09fc	-0.018803589
150	0xbc51f649	-0.012815067
151	0xbbb19e62	-0.005420492
152	0xbcb73ea2	-0.022368733
153	0x3c5a5ae2	0.013327332
154	0xbd4f260f	-0.050573405
155	0x3d279966	0.040917777
156	0x3c86802c	0.016418539
157	0xbbe1a1b4	-0.0068857316
158	0xbc0fb7b4	-0.008771826
159	0xb9c538d6	-0.00037617114
160	0x3cacf4cb	0.02111282
161	0xbb1abc0e	-0.0023610624
162	0x3c8776f2	0.01653621
163	0xbbc14471	-0.0058980514
164	0xbcb92050	-0.022598416
165	0x3d63298d	0.055459548
166	0x3ce59fe3	0.028030341
167	0x3ca27c48	0.019834653
168	0x3bac7b03	0.0052636876
169	0x3d26dce9	0.04073802
170	0xba5c8ef0	-0.00084136333
171	0xbc12c58f	-0.008958234
172	0x3bed01ba	0.007232872
173	0xbc35b08a	-0.0110894535
174	0x3c86e1a4	0.016465016
175	0x3d2a7925	0.04161944
176	0x3d738115	0.059449274
177	0x3d2f123f	0.04274201
178	0xbc9aa194	-0.018875875
179	0x3ca56fb9	0.020194875
180	0xbcaaf312	-0.020867858
181	0xbce5caa8	-0.028050736
182	0x3d96d34e	0.07364522
183	0x3d6471c8	0.055772573
184	0x3bca85d2	0.0061805034
185	0xbcaec3dc	-0.021333627
186	0xbcf8ec5b	-0.03038614
187	0xbd6d13c5	-0.05788018
188	0x3d1b1a55	0.03786691
189	0x3d17c096	0.0370489
190	0x3dab345a	0.08359595
191	0x3d878b4f	0.06618368
192	0xbd1d10bd	-0.03834604
193	0x3cb3618b	0.021897098
194	0x3cbc9e5e	0.023024734
195	0x3e5854f1	0.21126153
196	0x3e4a0ccb	0.19731443
197	0x3e11fa5a	0.14255658
198	0x3d5f0156	0.054444633
199	0xbbe2bbfb	-0.0069193817
200	0x3c274341	0.010208906
201	0xbc2e5b48	-0.01064188
202	0xbc6d99a1	-0.01450196
203	0x3c885989	0.016644256
204	0xbbd00f3b	-0.006349472
205	0x3cb847dd	0.022495205
206	0xbce2282d	-0.027607048
207	0xbce575c3	-0.028010255
208	0x3c2afdcf	0.010436489
209	0xbc4d6a32	-0.012537526
210	0xbd16cd44	-0.03681685
211	0xbd72cb83	-0.059276115
212	0xbd3fe792	-0.046851702
213	0xbb2952a6	-0.0025836616
214	0xbc208aa2	-0.009798678
215	0x3bf45b36	0.0074571623
216	0xbc96f11b	-0.018425515
217	0xbc2f28e0	-0.010690898
218	0xbbb781cc	-0.00560019
219	0x3cc2f59a	0.023798753
220	0x3bdd4ee3	0.006753789
221	0x3d472b23	0.048625123
222	0x3c9a76e9	0.018855529
223	0xbc994039	-0.018707382
224	0x3d1fa9b7	0.038980212
225	0x3c006633	0.007836866
226	0x3cb11871	0.0216181
227	0x3c568020	0.013092071
228	0x3c8ba64e	0.017047074
229	0x3cd67977	0.026180966
230	0x3c296637	0.010339311
231	0x3b3aa631	0.0028480405
232	0x3d1601b4	0.036622718
233	0x3d1b5794	0.037925318
234	0x3c668ed5	0.01407214
235	0xbd0b3d3f	-0.033993956
236	0xbcdeff8c	-0.027221464
237	0xbb6deb7a	-0.0036303685
238	0x3c2fd6da	0.010732377
239	0x3b12c201	0.0022393467
240	0xbd2eee2a	-0.0427076
241	0xbcd63039	-0.026146041
242	0xbc5709f5	-0.013124933
243	0xbce1074c	-0.0274693
244	0xbc60e47d	-0.013726351
245	0xbaeff44c	-0.0018307059
246	0xbc59f1db	-0.013302292
247	0xbcbffc1c	-0.023435645
248	0xbcadfc83	-0.021238571
249	0x3c5ab704	0.013349298
250	0xbd35f803	-0.044425976
251	0xbd0b9a61	-0.034082774
252	0xbb8ab4c9	-0.004232977
253	0x3c979562	0.018503848
254	0x3c14abe7	0.009074188
255	0xbd34d743	-0.044150602

conv2.bias f4 [32]
0	0xbb9d85fe	-0.004807233
1	0xbc8d9452	-0.017282639
2	0xbb4300c7	-0.0029755102
3	0x3cbbddb5	0.022932867
4	0x3ced4670	0.028964251
5	0x3ba918e7	0.0051604393
6	0xbbe674b1	-0.0070329537
7	0x3c4c4c1b	0.012469317
8	0x3d248fed	0.04017632
9	0xbc9ed62f	-0.01938924
10	0xbac14bd1	-0.0014747326
11	0xbaa0c5f2	-0.0012266024
12	0x3cea352e	0.028589811
13	0x3b57356b	0.0032838236
14	0x3d4cabb3	0.049968433
15	0xbc826c03	-0.015920645
16	0xbc5a8dea	-0.013339499
17	0xbc40e065	-0.01177225
18	0x3c1900ce	0.009338571
19	0x3cce7f2a	0.02520712
20	0x3d218019	0.039428804
21	0x3bc5309e	0.0060177585
22	0xbc2b1657	-0.010442338
23	0x3c387734	0.011258889
24	0xbb132b4e	-0.0022456232
25	0x3cfd334e	0.030908253
26	0x3cb4d36b	0.022073468
27	0x3c59c694	0.013291974
28	0x3c69036b	0.014222006
29	0xbd0816f2	-0.033225007
30	0xbcd88778	-0.026431784
31	0x3b471f2f	0.0030383577

conv3.weight f4 [1, 32, 5, 5]
0	0x3c2543dc	0.01008698
1	0x3c949787	0.01813866
2	0x3bd67d40	0.0065456927
3	0x3d0568df	0.032570716
4	0x3d0d7c89	0.034542594
5	0xbd033d8e	-0.032041125
6	0x3a9e3bd9	0.0012072279
7	0xbd05b726	-0.032645367
8	0x3a9d7004	0.0012011533
9	0x3bf7ab2d	0.0075582475
10	0xbb938182	-0.0045015225
11	0x3cc2ea31	0.023793312
12	0x3b5864fd	0.0033019178
13	0xbd29d4a4	-0.041462556
14	0xbc2415d3	-0.010014969
15	0xbc77aa7a	-0.015116328
16	0xbcf8f271	-0.030389043
17	0xbc0dab61	-0.008646817
18	0xbd2650cd	-0.0406044
19	0x3c8f961f	0.017527638
20	0x3c0104b7	0.007874659
21	0x3c8b2cb9	0.016989099
22	0x3cbf2927	0.023335053
23	0x3cf6cf89	0.030128257
24	0xbc7635ec	-0.015027504
25	0x3af65007	0.001879216
26	0xbd0a4f72	-0.03376717
27	0x3c0846dd	0.008317676
28	0x3cd83e27	0.026396824
29	0xbcbd17da	-0.023082662
30	0x3ca2d3e3	0.019876426
31	0xbc88fc44	-0.016721852
32	0x3c28c013	0.0102997
33	0xbc81f0e6	-0.01586194
34	0x3bc2bad0	0.00594268
35	0xbd0bdfd7	-0.034149017
36	0x3cd64a69	0.026158528
37	0xbc02a4fa	-0.007973904
38	0x3d0424bc	0.032261595
39	0xbc583169	-0.013195374
40	0x3c750a1c	0.014956024
41	0xbc8e5998	-0.017376706
42	0xbc7ce237	-0.015434793
43	0xbc1fd595	-0.009755512
44	0x3c8999a3	0.016796893
45	0x3c691707	0.014226682
46	0x3ca83b02	0.02053595
47	0xbbc4525e	-0.0059912642
48	0x3b83f1b6	0.004026617
49	0x3cb6a389	0.022294777
50	0xbc625382	-0.013813855
51	0xbc3e4d1d	-0.011615065
52	0x3cdc7e5a	0.026915718
53	0xbcf44a11	-0.029820474
54	0xbc8c2326	-0.017106604
55	0xbca08c12	-0.01959804
56	0xbbf37dea	-0.0074307816
57	0xbcd4d2ca	-0.025979418
58	0x3c06faec	0.008238535
59	0xbcca391c	-0.024685435
60	0xbc7e5ac3	-0.015524569
61	0xbd0cd52f	-0.034382995
62	0x3cc14b9b	0.023595622
63	0xbcb17836	-0.021663766
64	0xbb8ad75a	-0.0042370977
65	0xbcac7fb3	-0.021056985
66	0xbb9f0a43	-0.004853518
67	0xbbdd4b2c	-0.006753346
68	0xbc3c7cdb	-0.011504377
69	0xba049407	-0.0005057458
70	0x3c76b7cd	0.01505847
71	0x3ceeb978	0.029141173
72	0x3cd6efe2	0.026237432
73	0xbcd6ef21	-0.026237072
74	0xbb8627f6	-0.004094119
75	0xbd37304b	-0.04472379
76	0x3c9e9209	0.019356744
77	0x3cf7dd9c	0.030257039
78	0x3bb7648c	0.005596703
79	0x3c021900	0.007940531
80	0x3d388c15	0.045055468
81	0x3c97da9d	0.01853686
82	0xbc50efa4	-0.012752447
83	0xbc80d78f	-0.015727786
84	0xbbb03f47	-0.005378637
85	0x3d2ccec4	0.042189375
86	0x3c8fdaaa	0.017560322
87	0x3cb764d4	0.022386946
88	0xbb335fbd	-0.0027370297
89	0xbc807958	-0.015682861
90	0x3c233e72	0.009963619
91	0xbc1fa357	-0.009743533
92	0xbd4fb019	-0.05070505
93	0xbce3e357	-0.027818365
94	0xbc21902f	-0.009861036
95	0x3b129f37	0.0022372731
96	0xbc46080f	-0.012086882
97	0xbcc666cd	-0.024218941
98	0xbc7acc7d	-0.015307543
99	0x3cee2f25	0.029075215
100	0x3bb88aa3	0.005631761
101	0x3bec3807	0.0072088274
102	0x3c65f4ee	0.014035447
103	0xbb53aac7	-0.0032297836
104	0x3b5aa603	0.003336311
105	0xbc0510c8	-0.008121677
106	0x3d005e8a	0.03134016
107	0xba04a257	-0.0005059591
108	0x3ccb58aa	0.024822552
109	0xbcab6f7d	-0.020927185
110	0xbce677be	-0.02813327
111	0x3b884f65	0.004159855
112	0xbd03761d	-0.032095063
113	0x3ca8228f	0.020524291
114	0x3ca79c68	0.020460322
115	0x3ce7333f	0.028222678
116	0x3d00f8c0	0.031487226
117	0x3c3821b5	0.011238505
118	0x3c596962	0.013269754
119	0xbbb28dec	-0.0054490473
120	0x3d02a134	0.031892017
121	0x3c707d13	0.0146782575
122	0xbc0dd074	-0.008655656
123	0xbd0854c3	-0.03328396
124	0x3b756aba	0.0037447647
125	0x3b9ed47b	0.004847107
126	0x3d114562	0.03546656
127	0x3d00dad4	0.03145869
128	0x3d07347c	0.033009037
129	0x3b3586ba	0.0027698711
130	0x3c3f4647	0.01167447
131	0xbcab5e44	-0.020918973
132	0x3c1d9b6a	0.009619573
133	0x3c205030	0.009784743
134	0xbc8418d8	-0.016125128
135	0xbc94389a	-0.018093396
136	0x3c498fc0	0.012302339
137	0xbccf1fa2	-0.025283638
138	0xbc81accd	-0.015829468
139	0x3ce59382	0.028024439
140	0x3cc6f6dc	0.024287634
141	0xbd0d4b39	-0.034495566
142	0xbd125b5b	-0.035731655
143	0x3cb22d20	0.021750033
144	0xbbca057f	-0.006165206
145	0x3bba2f26	0.00568189
146	0xbcab0557	-0.02087657
147	0xbc4dfb03	-0.012572053
148	0x3ceaccc8	0.0286621
149	0xbca8ef71	-0.020621987
150	0x3c4c1540	0.012456238
151	0x3a757eae	0.0009364885
152	0x3c3bf27c	0.011471387
153	0x3b03b30f	0.002009574
154	0xbbdace90	-0.006677456
155	0x3c54d29e	0.012989668
156	0x3c1f41e6	0.009720301
157	0xbb31ca7f	-0.0027128754
158	0x3cc97754	0.024593033
159	0x3d0551ce	0.03254872
160	0x3c9893ea	0.018625218
161	0xbc2a9871	-0.010412321
162	0xbcd6464b	-0.026156565
163	0xbcc77e34	-0.02435217
164	0xbc8cfbfd	-0.017210001
165	0xbb57cae4	-0.0032927329
166	0x3c94a064	0.018142886
167	0x3c2385e9	0.009980657
168	0x3d0120e8	0.031525522
169	0xbd0fe15c	-0.03512703
170	0xbcaa38da	-0.020779062
171	0x3d03e7d4	0.03220351
172	0xbccb108c	-0.024788164
173	0x3cbb9dad	0.022902334
174	0x3a17813d	0.0005779451
175	0xbb887bb3	-0.0041651367
176	0x3ccbf539	0.024897205
177	0x3cdfc3f1	0.027315112
178	0xbc692eed	-0.014232379
179	0xbafc0ef8	-0.0019230535
180	0x3d07a412	0.033115454
181	0x3cf1be57	0.029509706
182	0x3c6b10d4	0.014347274
183	0xbcacf4c9	-0.021112816
184	0xbcc1d0d7	-0.023659153
185	0x3cd0fc96	0.025511067
186	0x3ca7f5be	0.020502921
187	0xbb75e6f7	-0.00375217
188	0x3d0cd944	0.03438689
189	0x3ccc3274	0.024926402
190	0xbc00e8b4	-0.007867981
191	0x3c7d6d89	0.01546801
192	0x3d0d3109	0.03447059
193	0x3ca8b703	0.02059508
194	0xbc8c3946	-0.017117154
195	0xbd09af9d	-0.033614744
196	0x3c2ea3f6	0.0106592085
197	0x3c58d0e0	0.013233393
198	0xbd0e8e7a	-0.034803845
199	0x3bace4cd	0.0052762986
200	0xbcef4d30	-0.02921161
201	0x3ad574e2	0.0016285444
202	0xbc8b411c	-0.01699882
203	0xbca40289	-0.02002074
204	0x3cd7a935	0.026325801
205	0x3c091c0a	0.008368501
206	0xbc021260	-0.007938951
207	0xbceb201d	-0.028701836
208	0x3c0cbab2	0.0085894335
209	0xbc2fa3d9	-0.010720217
210	0xba51c28b	-0.00080017064
211	0x3d2c5439	0.04207251
212	0x3d9e1cb9	0.07720322
213	0xbbf2a784	-0.0074052233
214	0x3c217d0f	0.009856476
215	0xbc52e6fc	-0.012872454
216	0x3d769d2c	0.060208485
217	0x3d7660b7	0.06015083
218	0xbd0e79cd	-0.034784127
219	0xbcfabfeb	-0.030609092
220	0x3bb5d7cc	0.0055494066
221	0x3be7bc91	0.0070720394
222	0x3cbd37c1	0.023097875
223	0xbcbf44f5	-0.023348311
224	0xbd22f87b	-0.03978775
225	0x3d18b456	0.037281357
226	0xbc04ddeb	-0.00810955
227	0x3c930729	0.01794775
228	0x3cbf194d	0.023327494
229	0x3c47f4c9	0.012204357
230	0x3d08007b	0.033203583
231	0xbccff6a3	-0.02538616
232	0x3ab1bd01	0.0013560356
233	0xbb333f8a	-0.0027351105
234	0x3c898f63	0.016792005
235	0xbc8ac62d	-0.0169402
236	0xbcc0e835	-0.023548225
237	0xbcfc911e	-0.030830916
238	0x3ca9b138	0.020714387
239	0x3c182557	0.009286246
240	0xbd1318a6	-0.03591218
241	0xbb8c5cf8	-0.0042835437
242	0xbd027748	-0.031852037
243	0xbd01f276	-0.03172537
244	0x3caa00e3	0.020752376
245	0xbc95b67a	-0.018275488
246	0x3cb51d97	0.022108836
247	0x3d0d9950	0.03457004
248	0x3be99b95	0.0071291425
249	0x3c8f5ce2	0.017500345
250	0xbcfcd4eb	-0.030863246
251	0xbc76d8df	-0.015066355
252	0xbafc220b	-0.001923622
253	0x3bf8472e	0.0075768447
254	0x3c6a8c16	0.014315626
255	0x3c9c279a	0.019061852
