2021_BOML_srcnn_project/output/epoch_85.pth (torch, 231519 bytes, 5 tensors)

conv1.weight f4 [64, 1, 9, 9]
0	0xbca173cd	-0.019708538
1	0x3ce30d01	0.027716162
2	0xbd3e8391	-0.04651219
3	0x3da312f1	0.07962597
4	0xbd670c4f	-0.056408223
5	0x3dd48b35	0.10378114
6	0xbd795532	-0.060872264
7	0xbbf287c6	-0.0074014394
8	0x3a822f25	0.0009932263
9	0x3daba299	0.083806224
10	0xbcefe617	-0.02928452
11	0x3cb1d591	0.021708282
12	0xbdd6856b	-0.10474666
13	0xbda68621	-0.08131052
14	0xbda4f7f6	-0.08055107
15	0xbd7bf2e2	-0.061510928
16	0xbd95189a	-0.07280083
17	0x3dc49aad	0.095998146
18	0x3c7d541b	0.015461947
19	0x3d4d750f	0.050160464
20	0x3d7ae823	0.06125654
21	0x3c838418	0.016054198
22	0x3cfebca2	0.031095807
23	0x3da7380e	0.081649885
24	0xbdc90fc7	-0.098174624
25	0x3c53989b	0.012914802
26	0xbd758876	-0.059944592
27	0x3d551a84	0.05202724
28	0x3ce8f690	0.028437883
29	0xbe2e7677	-0.17037378
30	0x3db1198c	0.08647451
31	0x3da42e12	0.080166
32	0x3d695f37	0.05697557
33	0x3c4cf177	0.012508742
34	0x3d66acf6	0.056317292
35	0xbd4da46d	-0.050205637
36	0xbdf166ed	-0.1178721
37	0xbda9cc6c	-0.082909435
38	0xbdd2eb00	-0.10298729
39	0x3d9ed852	0.077561036
40	0x3d9f4427	0.07776671
41	0xba39594f	-0.0007070498
42	0xbc2763ab	-0.010216634
43	0x3dcdd8ea	0.10051139
44	0xbcd176f7	-0.025569422
45	0xbbf1e0c6	-0.0073815314
46	0xbd41aeef	-0.04728597
47	0x3ccbc25e	0.024872955
48	0x3e3a3f6a	0.18188253
49	0x3e1506ae	0.1455333
50	0x3d8c2b1f	0.06844162
51	0x3c08e607	0.008355624
52	0x3ce972c6	0.028497111
53	0x3cf9623b	0.030442348
54	0xbb96c3aa	-0.0046009617
55	0xbe0da370	-0.13831878
56	0xbdb48c4f	-0.08815824
57	0x3de7b957	0.11314648
58	0x3bd6ab74	0.0065512005
59	0xbdf21132	-0.11819686
60	0xbc903cee	-0.017607179
61	0x3de68443	0.11255696
62	0xbdba1328	-0.09085685
63	0xbd241ac5	-0.040064592
64	0xbda53a77	-0.08067792
65	0xbd3b3e67	-0.04571381
66	0xbd594f29	-0.05305401
67	0xbd3afc9b	-0.04565106
68	0xbe1bf9e1	-0.1523204
69	0x3c8c5830	0.017131895
70	0x3dfdaf3b	0.12386938
71	0x3d9d4ea1	0.07681013
72	0x3d6878d8	0.05675587
73	0xbd60b7aa	-0.054862656
74	0x3c8331ff	0.016015051
75	0xbc5ff791	-0.013669864
76	0x3d2faf7c	0.042891964
77	0xbde73e4a	-0.112911776
78	0xbcb01142	-0.021492604
79	0x3dc1ebc5	0.094687976
80	0x3c8f4adf	0.017491756
81	0x3d1f3738	0.03887102
82	0x3c675579	0.014119499
83	0x3bbb7e6d	0.0057218582
84	0xbd9fac51	-0.077965386
85	0xbd82be90	-0.06384003
86	0xbdbffbec	-0.09374222
87	0x3dc9659f	0.09833836
88	0x3d388bf0	0.04505533
89	0xbd1a8bee	-0.037731104
90	0xbdac738b	-0.084204756
91	0x3d4d05d5	0.05005439
92	0x3c8cd25e	0.017190155
93	0x3caa47c1	0.020786168
94	0xbdd5d468	-0.10440904
95	0xbcfa2b09	-0.030538099
96	0x3de6e806	0.11274724
97	0x3d918c70	0.071068645
98	0x3d0dee49	0.034651075
99	0xbbe0b307	-0.006857279
100	0x3d86a68c	0.06574735
101	0xbda4b7b5	-0.08042852
102	0xbc08adac	-0.008342188
103	0xbda933ce	-0.08261834
104	0xbd572f11	-0.05253512
105	0x3abca3bd	0.001439206
106	0x3cdf8563	0.027285283
107	0x3d922acf	0.07137071
108	0x3d43364b	0.0476592
109	0xbce440d7	-0.02786295
110	0x3dd8bbe5	0.10582713
111	0xbcf247ef	-0.029575316
112	0x3d9ccf28	0.076566994
113	0xbd2c00c6	-0.041992925
114	0xbc214bc7	-0.009844727
115	0x3c4adcef	0.012381776
116	0xbdf4ef87	-0.11959749
117	0xbb6c40a6	-0.0036049276
118	0x3cd65089	0.026161449
119	0x3e2e6611	0.17031123
120	0x3d59a35a	0.0531343
121	0x3dd8ad9e	0.1057999
122	0x3dcc3e21	0.09972788
123	0xbd144f05	-0.03620817
124	0x3ddb253f	0.107004635
125	0xbdb92591	-0.09040368
126	0x3a0134c1	0.00049288204
127	0xbb4c25e4	-0.0031150514
128	0x3d957a1d	0.07298682
129	0x3e08477d	0.1330852
130	0xbccab05b	-0.024742296
131	0xbc80385e	-0.015651878
132	0x3b370ff6	0.0027933097
133	0xbd6c0938	-0.05762598
134	0xbd2499bf	-0.040185686
135	0xbe0c8b5e	-0.1372504
136	0xbd062db7	-0.03275844
137	0xbb49a95a	-0.0030771107
138	0xbc2c1caf	-0.010504886
139	0xbdab6107	-0.08368116
140	0xbdae1197	-0.08499449
141	0xbd368453	-0.044559788
142	0x3d8dfd30	0.06933057
143	0x3dca2756	0.09870784
144	0x3c2320d6	0.009956559
145	0xbdc5eaf2	-0.09663953
146	0xbda0a256	-0.07843463
147	0xbc8c03da	-0.01709168
148	0xbe05d8a7	-0.13070928
149	0xbe193238	-0.14960563
150	0xbd9275b1	-0.07151354
151	0x3c21f893	0.009885925
152	0xbc7ed5cb	-0.015553902
153	0x3df41437	0.11917918
154	0x3d0989b9	0.03357861
155	0x3de857bb	0.11344858
156	0xbd19bfba	-0.03753636
157	0x3d11366a	0.035452284
158	0xbda60ea0	-0.08108258
159	0x3e046968	0.12930834
160	0x3ddfda40	0.109303
161	0x3dbde314	0.09271827
162	0xbd8dd397	-0.06925123
163	0x3dcc8670	0.099865794
164	0x3de745cf	0.11292612
165	0x3e2ab58c	0.16670817
166	0x3e228175	0.15869696
167	0x3e64a8ac	0.22329968
168	0x3e12eeb4	0.1434887
169	0x3daa4eda	0.08315821
170	0xbd46314c	-0.048386857
171	0xbdb70f7d	-0.08938501
172	0xbcfba5f0	-0.030718774
173	0xbd47920f	-0.048723277
174	0xbe132dc5	-0.14372928
175	0xbdbb1bcf	-0.091361634
176	0xbe02d67f	-0.12777136
177	0xbd86d147	-0.06582885
178	0x3d19aedf	0.037520286
179	0xbd82e305	-0.06390957
180	0x3d2cc873	0.04218335
181	0x3d186a85	0.03721096
182	0x3d774b94	0.06037481
183	0xbdf46b76	-0.11934559
184	0xbda10213	-0.07861724
185	0xbd273742	-0.040824182
186	0xbd98c9d0	-0.07460368
187	0x3d082ee1	0.033247832
188	0x3d4e080a	0.050300635
189	0xbd8d24c3	-0.06891777
190	0xbd5461f4	-0.051851228
191	0xbdb88a44	-0.09010747
192	0x3d72cea7	0.05927911
193	0x3e0f2c0f	0.13981651
194	0xbd767988	-0.060174495
195	0xbd1a4751	-0.03766567
196	0x3d37a336	0.044833384
197	0xbd6133d5	-0.05498107
198	0x3dc767fd	0.09736631
199	0x3d1a22fe	0.037631027
200	0xbcb65d69	-0.022261338
201	0x3d087b0b	0.033320468
202	0x3da456cf	0.0802437
203	0xbcd41918	-0.025890872
204	0xbda837b0	-0.082137465
205	0x3c663ae6	0.014052128
206	0x3c8c5cbf	0.017134069
207	0x3c69c66f	0.014268502
208	0xbac1f93e	-0.0014799011
209	0x3db4c857	0.08827274
210	0x3ad8b913	0.0016534649
211	0x3d17c7d4	0.037055805
212	0x3d9f1ac6	0.077687785
213	0xbd37d080	-0.044876575
214	0x3d82809f	0.06372189
215	0xbbc13597	-0.005896281
216	0x3d4f65b8	0.050634116
217	0xbd96a538	-0.07355732
218	0xbc0aee93	-0.008479732
219	0xbb253da9	-0.0025213754
220	0xbdcf3b55	-0.101187386
221	0xbdbee8f3	-0.09321775
222	0x3d2d3912	0.042290755
223	0xbc8cfbfa	-0.017209996
224	0x3d89b4a1	0.06723905
225	0xbd9b8f7c	-0.07595727
226	0xbd17371c	-0.03691779
227	0xbda86dc6	-0.082240626
228	0x3d2dfd4c	0.04247789
229	0x3bab97b5	0.0052365907
230	0xbc1cdd12	-0.009574192
231	0xbb9cf036	-0.0047893776
232	0xbd90c3a3	-0.07068565
233	0x3d1b8202	0.037965782
234	0x3d49bc79	0.049252007
235	0xbd4129fd	-0.047159184
236	0x3d850d0e	0.064966306
237	0x3c053bb5	0.008131911
238	0xbda6e0e1	-0.08148361
239	0x3d9750a6	0.07388429
240	0x3d83981d	0.06425498
241	0xbd0a04db	-0.033696037
242	0xbdaf5cd2	-0.08562626
243	0xbb4e1990	-0.0031448342
244	0x3d8f8230	0.07007253
245	0x3d9144c3	0.070931934
246	0xbddd4ad1	-0.10805286
247	0xbd59df39	-0.053191397
248	0x3dafe97f	0.08589458
249	0x3d92af2e	0.07162319
250	0x3d81ce10	0.063381314
251	0xbd855ec7	-0.06512218
252	0x3dbd0a29	0.092304535
253	0xbdbd07e0	-0.09230018
254	0xbc495d75	-0.012290348
255	0xba80df4a	-0.000983217

conv1.bias f4 [64]
0	0x3cdd01d2	0.026978407
1	0xbdb81ba7	-0.08989649
2	0x3b35be75	0.002773193
3	0xbd97f4af	-0.074197166
4	0x3d172266	0.03689804
5	0x3c9ceb51	0.019155176
6	0x3d14d7c6	0.03633859
7	0xbc82ed9f	-0.015982447
8	0x3de88404	0.11353305
9	0xbd39aea2	-0.04533256
10	0x3b9fb4f0	0.0048738644
11	0x3cbb5158	0.022865936
12	0xbe2a2bbb	-0.16618244
13	0x3e131ca7	0.14366399
14	0x3d6b3912	0.057427473
15	0xbc0649eb	-0.008196334
16	0xbcaace7d	-0.020850414
17	0xbc9e8ba4	-0.019353695
18	0x3c9f60d7	0.019455357
19	0x3c925b94	0.017865933
20	0x3ce3fcae	0.027830448
21	0xbc8a5d46	-0.01689018
22	0xbd4b3377	-0.049609628
23	0x3d8b67a6	0.06806879
24	0xbe2d4682	-0.16921428
25	0xbc86bf53	-0.016448652
26	0x3d849390	0.06473458
27	0x3c2b2e4e	0.010448052
28	0x3ce6c746	0.028171193
29	0x3d355cba	0.044277884
30	0x3d98e3b2	0.074653044
31	0xbc5ce6c3	-0.013482752
32	0x3cebdb33	0.028791046
33	0x3d253442	0.04033304
34	0x3b320567	0.0027163865
35	0xbd46906a	-0.048477568
36	0xbc3f2d93	-0.011668581
37	0x3d87c66c	0.06629643
38	0xbca205f4	-0.01977823
39	0x3d98ce3d	0.07461212
40	0x3ace97d7	0.0015761805
41	0xbaf87040	-0.0018954352
42	0x3da9069f	0.08253216
43	0xbd25a84c	-0.040443704
44	0x3d03f81a	0.03221903
45	0xbc973d39	-0.01846181
46	0xbcfc1a35	-0.030774215
47	0x3cfdc678	0.030978426
48	0x3998049f	0.00028995142
49	0xbc8970db	-0.016777446
50	0x3ccfa143	0.02534545
51	0x3d323728	0.043509632
52	0xbba4e2b4	-0.005031908
53	0x3b73668f	0.0037139987
54	0x3c61cfbf	0.013782441
55	0x3c342c7a	0.010996932
56	0x3d2b07a5	0.041755337
57	0xbceb3598	-0.028712079
58	0xbbd80807	-0.006592754
59	0x3d5ba5ee	0.05362504
60	0x3d4dcc34	0.05024357
61	0xbce40538	-0.02783452
62	0xbd35182e	-0.044212513
63	0xbd03ac8f	-0.032146987

conv2.weight f4 [32, 64, 5, 5]
0	0xbc8d6ca2	-0.017263714
1	0x3d1b338c	0.037890956
2	0x3dbb40a3	0.09143188
3	0x3d9e05a4	0.077159196
4	0xbd933b7f	-0.07189082
5	0x3bf4217e	0.0074502816
6	0xbc1cf13c	-0.009578999
7	0x3ca22809	0.01979448
8	0x3d25baca	0.04046134
9	0xbbc0d9a5	-0.0058853202
10	0x3babe298	0.005245518
11	0xbc35bd82	-0.011092545
12	0x3c1ed19a	0.009693528
13	0x3b3891d6	0.0028163097
14	0x3d4c9827	0.04994979
15	0xbc656d49	-0.014003106
16	0x3d0187d3	0.031623673
17	0x3cb7b36a	0.022424418
18	0x3d1f4dfb	0.038892727
19	0x3dc8f766	0.098128125
20	0xbcd5d92f	-0.026104538
21	0x3c0049d3	0.007830101
22	0xbd782e80	-0.06059122
23	0x3c9e4e77	0.019324524
24	0x3c9fdc6f	0.01951429
25	0xbd79402d	-0.06085222
26	0x3c9b3a38	0.01894866
27	0xbcd77cea	-0.02630468
28	0xbd4be110	-0.049775183
29	0xbdcda797	-0.10041731
30	0xbdb9db61	-0.09075046
31	0x39a7dd87	0.00032017773
32	0x3d4cafb4	0.04997225
33	0x3d8604a4	0.06543854
34	0xbd038abf	-0.03211474
35	0xbca255bd	-0.019816274
36	0xbcc4e061	-0.024032773
37	0x3d67c9c6	0.05658891
38	0x3dc4d30d	0.09610567
39	0x3d862cf1	0.06551541
40	0xbd958202	-0.07300188
41	0xbbd444f0	-0.0064779446
42	0xbc6d955f	-0.014500945
43	0x3cc520bf	0.024063466
44	0x3c959068	0.018257335
45	0xbda0129d	-0.0781605
46	0x3cd17821	0.025569977
47	0x3ce0b126	0.027428221
48	0x3d3aa28c	0.045565173
49	0x3ce5d479	0.028055416
50	0xbcaab9a9	-0.020840483
51	0x3ccafcbe	0.02477872
52	0x3cda3447	0.026636256
53	0x3da48068	0.08032304
54	0x3b127737	0.002234889
55	0xbc8b3dee	-0.016997304
56	0xbc8a157f	-0.016855953
57	0x3d0e5613	0.034750056
58	0x3d891565	0.06693534
59	0xbc999783	-0.018749004
60	0x3cd5d465	0.026102254
61	0x3bd59375	0.0065178224
62	0xbd1dcb01	-0.038523678
63	0xbd25996a	-0.04042951
64	0xbdde4d5b	-0.10854598
65	0x3cb189a4	0.021672077
66	0x3d9905ce	0.0747181
67	0x3d34f6c0	0.04418063
68	0xbaa5e0d7	-0.0012655508
69	0xbd17c152	-0.0370496
70	0xbd0ee7ba	-0.03488896
71	0xbb6b08e0	-0.0035863444
72	0xba3e00ea	-0.0007248061
73	0xbcc12065	-0.023575017
74	0xbc8b6945	-0.01701797
75	0x3d6f2354	0.0583833
76	0x3ca3f9ff	0.020016668
77	0xbc8343a4	-0.016023465
78	0xbd6742bf	-0.05646014
79	0xbdcb3143	-0.09921505
80	0x3d3dc417	0.046329584
81	0x3d8641a9	0.065554924
82	0xbc16606e	-0.009178264
83	0xbd35e153	-0.04440434
84	0xbce4087b	-0.027836075
85	0xbcbc8dca	-0.023016829
86	0xbbb149a7	-0.0054103914
87	0xbd2a35be	-0.04155516
88	0x3c3dec1d	0.011591938
89	0xb931e702	-0.00016966093
90	0xbd2846de	-0.04108321
91	0x3c631689	0.013860353
92	0xbc26119a	-0.0101360325
93	0x3d303953	0.04302342
94	0x3b8e47f1	0.004342072
95	0xbbc1e81b	-0.0059175617
96	0x3c0e89b9	0.008699828
97	0xbc07ba6c	-0.0082841925
98	0xbc8a5e4e	-0.016890671
99	0xbcb9fc8e	-0.022703435
100	0xbd106c65	-0.035259623
101	0xbc933c60	-0.017973125
102	0x3cc8fe1a	0.024535228
103	0x3c677760	0.014127582
104	0xbc3ecc85	-0.011645441
105	0xbb40e2d1	-0.0029432068
106	0x3c88c5c7	0.01669587
107	0x3c6c5bdb	0.014426197
108	0xbcaf8e92	-0.021430288
109	0xbd8579a9	-0.065173455
110	0xbd6b65a0	-0.057469964
111	0xbc5f5f40	-0.013633549
112	0x3d3808a6	0.044930123
113	0x3bd69062	0.0065479735
114	0xbdb895a0	-0.09012914
115	0xbccd351a	-0.025049735
116	0x3d138043	0.03601099
117	0x3b92135e	0.004457875
118	0x3d014ca5	0.031567235
119	0xbb8c5a09	-0.004283194
120	0xbd1e85bb	-0.038701754
121	0xbd1e0d5e	-0.038586967
122	0xbd9ec8aa	-0.077531174
123	0xbd115deb	-0.035489958
124	0xb930d808	-0.00016865146
125	0x3dfe7d8a	0.124262884
126	0x3d4c5ed6	0.04989513
127	0x3c43e944	0.01195747
128	0x3d691a49	0.056909833
129	0xbd44a152	-0.04800541
130	0xbcf2896f	-0.02960655
131	0xbc40cac7	-0.011767096
132	0xbc62614f	-0.0138171455
133	0xbcb21a97	-0.021741195
134	0xbcab70cb	-0.020927807
135	0xbd1ace4d	-0.0377944
136	0xbbee4d0a	-0.0072723674
137	0x3cf283f0	0.029603928
138	0xbc6af8dd	-0.01434156
139	0xbcf7494b	-0.030186316
140	0x3c9d18e7	0.019176913
141	0x3d2ee84e	0.04270201
142	0x3d30a32b	0.04312436
143	0x3c95f994	0.018307485
144	0x3bbdb59b	0.0057894713
145	0x3cdd32e2	0.027001802
146	0x3c79a885	0.015237932
147	0x3d328ef9	0.04359338
148	0x3c8f0f87	0.017463459
149	0x3a5291f3	0.00080326124
150	0x3c6a7a77	0.014311424
151	0x3c64e1ce	0.013969852
152	0xbc304074	-0.010757554
153	0x3d0bc019	0.034118745
154	0xbd38e820	-0.045143247
155	0x3d868b59	0.06569547
156	0x3cf14bd9	0.029455112
157	0xbc3a2a0a	-0.011362562
158	0xbc3cec99	-0.011531019
159	0xbcb9f208	-0.022698417
160	0x3d123793	0.03569753
161	0x3bd1f195	0.0064069727
162	0x3b936229	0.0044977856
163	0xbc7f2cd2	-0.015574651
164	0xbcd46591	-0.025927337
165	0x3ce7fbd1	0.028318318
166	0x3c650598	0.013978384
167	0x3c65e597	0.014031789
168	0xbbebc054	-0.007194558
169	0x3d8df36a	0.06931193
170	0xbd803e66	-0.062619016
171	0xbd3bfa9c	-0.045893297
172	0x3c5f5680	0.013631463
173	0xbb8778f1	-0.0041342904
174	0x3d0f15a9	0.034932766
175	0x3d9b5000	0.07583618
176	0x3da5fc52	0.08104767
177	0x3da35308	0.07974821
178	0xbc747520	-0.014920503
179	0xbd1d0fff	-0.038345333
180	0xbc36ee3b	-0.011165197
181	0xbcf61d04	-0.030043133
182	0x3db1498c	0.08656606
183	0x3d990529	0.07471687
184	0xbc8a8d57	-0.0169131
185	0xbc893f5c	-0.016753845
186	0xbd3d3a52	-0.046198197
187	0xbd89028e	-0.066899404
188	0x3d69f297	0.057116117
189	0x3d671ace	0.056422047
190	0x3dd96649	0.106152125
191	0x3d6d8e4e	0.05799704
192	0xbd926822	-0.07148768
193	0x3cc5bc16	0.024137538
194	0x3d192795	0.037391264
195	0x3e3f1e2f	0.18663858
196	0x3e604e2a	0.21904817
197	0x3e172c94	0.14763099
198	0x3d7d03c8	0.061771184
199	0x3b6dcc64	0.0036285156
200	0x3ba156ec	0.004923692
201	0xbd5d1d71	-0.053983156
202	0xbd73f5b1	-0.05956048
203	0xbbcd55e9	-0.006266345
204	0xbadb462b	-0.0016729286
205	0x3c96ed67	0.01842375
206	0xbd576db9	-0.052594874
207	0xbd5f0391	-0.05444676
208	0x3c338a13	0.010958212
209	0xbcce35ed	-0.025172198
210	0xbc9e148e	-0.01929691
211	0xbd7897a8	-0.060691506
212	0xbd61a8ea	-0.05509273
213	0x3cbea41f	0.023271618
214	0x3c4a5d0a	0.012351284
215	0xbb29fec9	-0.0025939217
216	0xbc37dbe8	-0.011221863
217	0xbb9a9ed3	-0.0047186404
218	0x3c9ee6ef	0.019397227
219	0x3d21854c	0.039433762
220	0xbaa716a2	-0.0012747834
221	0x3d97b2e9	0.07407171
222	0x3d1c3fe5	0.038146872
223	0x39a60e2e	0.00031672552
224	0x3d4161d6	0.047212444
225	0x3af65a26	0.0018795177
226	0x3c494e8e	0.012286795
227	0x3c19c67d	0.009385702
228	0x3ce35b08	0.027753368
229	0x3d38d294	0.045122698
230	0x3c059c43	0.0081549315
231	0xbbde3478	-0.006781157
232	0x3d187bd1	0.037227456
233	0x3d5f2c07	0.054485347
234	0x3d210c07	0.03931811
235	0xbd422229	-0.04739586
236	0xbd460077	-0.048340287
237	0xbc2aa95a	-0.010416353
238	0x3cf5b019	0.029991196
239	0x3cf2244a	0.02955832
240	0xbcea8531	-0.028627964
241	0xbccecdde	-0.02524465
242	0xbb24582b	-0.0025076966
243	0xbb9fd4ed	-0.0048776777
244	0x3bb5b217	0.0055449116
245	0x3bc07584	0.005873384
246	0xbc6812cc	-0.014164638
247	0xbcd92a4c	-0.026509427
248	0xbc921bc4	-0.017835505
249	0x3c566ea0	0.0130878985
250	0xbd37c499	-0.044865225
251	0xbd1beb98	-0.038066477
252	0xbb0fd0f6	-0.0021944619
253	0x3c958c28	0.018255308
254	0x3bad688e	0.005292005
255	0xbd26115d	-0.040543903

conv2.bias f4 [32]
0	0x3beb95e8	0.007189501
1	0xbc67792d	-0.014128012
2	0xbb7120f6	-0.0036793328
3	0x3cd62112	0.026138816
4	0x3d0c6322	0.034274228
5	0xbbd8d51e	-0.0066172024
6	0xbb2a6064	-0.0025997395
7	0x3c8db423	0.01729781
8	0x3d35728e	0.0442987
9	0xbcb1edc0	-0.021719813
10	0xbac14bd1	-0.0014747326
11	0xbc815ad4	-0.01579038
12	0x3cfc57c4	0.030803569
13	0xbad57caa	-0.0016287763
14	0x3d92ea12	0.071735516
15	0xbc63c467	-0.013901806
16	0xbc5ef276	-0.013607612
17	0xbbbf8577	-0.0058447677
18	0x3abec707	0.0014555164
19	0x3cfb3efe	0.030669685
20	0x3d3c735b	0.04600845
21	0x3c2a5346	0.0103958305
22	0xbc4eea23	-0.012629065
23	0x3c0a0e5b	0.008426274
24	0xbbc95a6c	-0.0061448123
25	0x3cea6d33	0.028616523
26	0x3cc5f209	0.024163263
27	0x3c6dc429	0.0145121
28	0x3ca687db	0.020328453
29	0xbd1707f9	-0.036872838
30	0xbd20db30	-0.039271533
31	0x3c2ce87f	0.010553478

conv3.weight f4 [1, 32, 5, 5]
0	0x3b8eac76	0.004354055
1	0x3c9bcd77	0.019018872
2	0x3c7f6c10	0.015589729
3	0x3d20f3e4	0.039295092
4	0x3d18a96d	0.037270952
5	0xbceeb40d	-0.02913859
6	0x3b885451	0.004160442
7	0xbcd55022	-0.026039187
8	0x38a41ec2	7.8258585e-05
9	0x3b708ac2	0.00367038
10	0xbb8c5304	-0.004282357
11	0x3c9ed3f6	0.01938818
12	0xbb1850d3	-0.0023241534
13	0xbd4a99d9	-0.049463127
14	0xbc7ad3ea	-0.015309313
15	0xbc4f66fd	-0.012658832
16	0xbcfe09f6	-0.03101061
17	0xbc7b2b5d	-0.015330163
18	0xbd35222a	-0.044222035
19	0x3c90e351	0.017686518
20	0x3c2274c2	0.009915533
21	0x3ca11a54	0.019665875
22	0x3cc36050	0.023849636
23	0x3d0a1bfa	0.033718087
24	0xbc03023c	-0.007996138
25	0x3aed2c44	0.0018094857
26	0xbd0b7235	-0.034044463
27	0x3c108fc9	0.008823344
28	0x3cd80c3f	0.026373027
29	0xbcc3affc	-0.023887627
30	0x3ca3a531	0.01997623
31	0xbc86d979	-0.01646112
32	0x3c2ce9f4	0.010553826
33	0xbc8698e6	-0.01643033
34	0x3ba7bfe7	0.005119312
35	0xbd0d67c5	-0.03452279
36	0x3cd60348	0.026124611
37	0xbc007980	-0.007841468
38	0x3d013b8e	0.031550936
39	0xbc63b294	-0.013897557
40	0x3c6f8d80	0.014621139
41	0xbc93492b	-0.017979225
42	0xbc823631	-0.015894981
43	0xbc3208cb	-0.010866354
44	0x3c849cbb	0.016188016
45	0x3c6d48fa	0.014482731
46	0x3ca9aa42	0.020711068
47	0xbbc7db3d	-0.0060991333
48	0x3b59a326	0.0033208816
49	0x3cb85462	0.022501174
50	0xbc625382	-0.013813855
51	0xbc3e4d1d	-0.011615065
52	0x3cdc7e5a	0.026915718
53	0xbcf44a11	-0.029820474
54	0xbc8c2326	-0.017106604
55	0xbca08c12	-0.01959804
56	0xbbf37dea	-0.0074307816
57	0xbcd4d2ca	-0.025979418
58	0x3c06faec	0.008238535
59	0xbcca391c	-0.024685435
60	0xbc7ea397	-0.015541933
61	0xbd0ca93f	-0.034341093
62	0x3cc142dd	0.023591453
63	0xbcb17836	-0.021663766
64	0xbb8ad75a	-0.0042370977
65	0xbcac44e1	-0.021028938
66	0xbb9da8f3	-0.0048114
67	0xbbde2be3	-0.006780134
68	0xbc3c7cdb	-0.011504377
69	0xba049407	-0.0005057458
70	0x3c77bbed	0.015120489
71	0x3ceefd62	0.029173557
72	0x3cd69d4e	0.026198056
73	0xbcd6ef21	-0.026237072
74	0xbb8627f6	-0.004094119
75	0xbd6843d8	-0.056705326
76	0x3c84dbd2	0.0162181
77	0x3ce35945	0.027752528
78	0x3bfc6496	0.0077024205
79	0x3c343a12	0.011000173
80	0x3d246579	0.040135834
81	0x3cbe28a1	0.023212733
82	0xbb742f66	-0.0037259697
83	0xbc2d04f4	-0.010560263
84	0x3939bef3	0.00017714109
85	0x3d4340bf	0.04766917
86	0x3cbb5c9a	0.022871304
87	0x3c83177a	0.016002405
88	0xbc7a9803	-0.0152950315
89	0xbc96a04d	-0.018386984
90	0x3c8d501e	0.017250117
91	0xbbef6f33	-0.007306957
92	0xbd634841	-0.05548883
93	0xbd0cb66e	-0.034353666
94	0xbc1ac4ef	-0.009446367
95	0x3b9ff0d6	0.004881005
96	0xbc566ff8	-0.013088219
97	0xbcb42d48	-0.021994248
98	0xbc29347c	-0.010327455
99	0x3d05a909	0.032631908
100	0x3ba4122e	0.00500705
101	0x3bd86860	0.0066042393
102	0x3c5ffd7d	0.013671276
103	0xbb5e9863	-0.0033965341
104	0x3b5c0f76	0.0033578551
105	0xbc1148cb	-0.008867453
106	0x3cfd1d18	0.030897662
107	0xba3cf5b4	-0.00072082435
108	0x3cca9f9f	0.024734316
109	0xbcaaa00e	-0.020828273
110	0xbceaf519	-0.028681325
111	0x3b7b4ddd	0.003834597
112	0xbd041fcf	-0.032256898
113	0x3ca87366	0.020562839
114	0x3ca99ecb	0.020705601
115	0x3ce2785f	0.027645288
116	0x3cfdfdc0	0.031004786
117	0x3c345870	0.011007413
118	0x3c57076b	0.013124327
119	0xbbb300ab	-0.005462726
120	0x3d017bed	0.031612325
121	0x3c6ae579	0.014336937
122	0xbc13005c	-0.008972254
123	0xbd0a311e	-0.033738248
124	0x3b5d1599	0.0033734797
125	0x3b38d79f	0.0028204692
126	0x3d1c1b8c	0.03811221
127	0x3d183f7c	0.03716992
128	0x3d07d21f	0.03315937
129	0x3a1f97df	0.0006087999
130	0x3c4470f3	0.01198982
131	0xbc820294	-0.01587037
132	0x3c4b640a	0.012413988
133	0x3c1e3c51	0.009657935
134	0xbc4e56d6	-0.0125939455
135	0xbc96a139	-0.018387424
136	0x3c0aeea2	0.008479746
137	0xbcfd739f	-0.030938921
138	0xbca5ba5d	-0.020230466
139	0x3ce54f73	0.027991986
140	0x3c9ffd4d	0.019529963
141	0xbd23964a	-0.03993825
142	0xbd23b185	-0.039964218
143	0x3c97f332	0.018548582
144	0xbb5eeaec	-0.0034014536
145	0x3bfa020d	0.007629639
146	0xbc8e00dd	-0.017334396
147	0xbc144746	-0.009050196
148	0x3cf7e0c6	0.030258548
149	0xbc855b8c	-0.016279005
150	0x3c45340f	0.0120363375
151	0x39ec2d4e	0.00045047182
152	0x3c365b4b	0.011130164
153	0x3ae63879	0.0017564438
154	0xbbdd3c70	-0.0067515895
155	0x3c4b3215	0.012402077
156	0x3c13dc61	0.00902471
157	0xbb4c7ad7	-0.0031201148
158	0x3cc81b23	0.024427002
159	0x3d060344	0.032717958
160	0x3c973667	0.018458558
161	0xbc301424	-0.010746989
162	0xbcd9f850	-0.026607662
163	0xbcc968a4	-0.02458603
164	0xbc8cdff6	-0.017196637
165	0xbb68253c	-0.0035422584
166	0x3c949807	0.018138899
167	0x3c28d6ad	0.010305089
168	0x3d01c174	0.031678632
169	0xbd120cf1	-0.035656873
170	0xbcae595a	-0.02128284
171	0x3d027ccc	0.031857297
172	0xbcc9dddd	-0.024641925
173	0x3cbb59a9	0.022869902
174	0xb826f5e5	-3.980649e-05
175	0xbb90b95a	-0.004416627
176	0x3cca6052	0.024704132
177	0x3cdf2630	0.027239889
178	0xbc69be6f	-0.014266594
179	0xbafd8010	-0.0019340534
180	0x3d06457a	0.0327811
181	0x3cef886f	0.029239861
182	0x3c69981c	0.014257457
183	0xbcad5192	-0.02115706
184	0xbcc2853c	-0.023745172
185	0x3ccdca96	0.025121015
186	0x3ca4f821	0.020137848
187	0xbb7a9150	-0.0038233586
188	0x3d0cfb1d	0.034419168
189	0x3ccbdc30	0.024885267
190	0xbc066f75	-0.008205284
191	0x3c7872cc	0.015164088
192	0x3d0ca7d2	0.034339733
193	0x3ca9161e	0.02064043
194	0xbc8c163f	-0.017100452
195	0xbd0a7e76	-0.03381201
196	0x3c2b8218	0.0104680285
197	0x3c56f53d	0.013119993
198	0xbd0e5bdd	-0.034755576
199	0x3bad32a3	0.0052855774
200	0xbd08e478	-0.03342101
201	0xbc4fe06c	-0.012687784
202	0xbcf49bfd	-0.029859537
203	0xbcbf6e31	-0.023367973
204	0x3c94aed0	0.018149763
205	0x3aa62793	0.0012676589
206	0xbb8edbea	-0.004359712
207	0xbd0cefbd	-0.03440832
208	0x3b40a894	0.0029397355
209	0xbc79d24a	-0.015247891
210	0xbb350a1c	-0.0027624434
211	0x3d75c46c	0.060001776
212	0x3db3a289	0.087712355
213	0xbc3968d7	-0.0113165
214	0x3a7ceb1a	0.000964807
215	0xbcb20a94	-0.02173356
216	0x3d838e10	0.06423581
217	0x3d931a85	0.071827926
218	0xbd18db97	-0.037318792
219	0xbd2eef83	-0.042708885
220	0xbbb2ed40	-0.0054604113
221	0xbb4c54fe	-0.003117859
222	0x3ca0a013	0.01960758
223	0xbc8b16bf	-0.01697862
224	0xbd3c2bfa	-0.045940377
225	0x3d25991b	0.040429216
226	0xbacd4c98	-0.0015663086
227	0x3c934018	0.017974898
228	0x3ca26a83	0.01982618
229	0x3c36a4b2	0.011147665
230	0x3d06ddaa	0.03292624
231	0xbcd26e8f	-0.025687484
232	0xbb4d4c6a	-0.0031326064
233	0xbbb4b30a	-0.005514507
234	0x3c91be30	0.017790884
235	0xbc9e162e	-0.019297685
236	0xbce1da1d	-0.027569825
237	0xbd13c4c1	-0.03607631
238	0x3c934658	0.017977878
239	0x3c192b7b	0.009348745
240	0xbd246c77	-0.040142503
241	0xbbd7dace	-0.006587363
242	0xbd049945	-0.03237273
243	0xbce2d0fe	-0.027687546
244	0x3ca8f968	0.020626739
245	0xbc97d2f1	-0.018533202
246	0x3cd1fb0f	0.02563241
247	0x3d28f608	0.04125026
248	0x3c4ea456	0.012612423
249	0x3c933cbb	0.017973294
250	0xbcfcd4eb	-0.030863246
251	0xbc76d8df	-0.015066355
252	0xbafc220b	-0.001923622
253	0x3bf8472e	0.0075768447
254	0x3c6a8c16	0.014315626
255	0x3c9c279a	0.019061852
