2021_BOML_srcnn_project/output/epoch_63.pth (torch, 231519 bytes, 5 tensors)

conv1.weight f4 [64, 1, 9, 9]
-0.007428485 0.02920675 -0.042176 0.07624469 -0.06489566 0.094966516 -0.06851413 -0.023058264
-0.00428527 0.08393043 -0.039093476 0.019695971 -0.108351484 -0.08567325 -0.08237797 -0.06358993
-0.08265793 0.08850136 0.0100224465 0.03765374 0.05917091 0.016496843 0.033967804 0.088077076
-0.08783199 0.019271951 -0.05502995 0.06029853 0.034526054 -0.1555368 0.09809794 0.09021582
0.067987405 0.027286319 0.068729624 -0.042074703 -0.111512214 -0.07939267 -0.096627094 0.07318479
0.071499586 -0.0026336985 -0.0062959804 0.10086619 -0.026272906 -0.0065576946 -0.053420737 0.019178899
0.16684538 0.13482924 0.06477444 0.009129662 0.023227686 0.027057521 -0.0045598014 -0.14261533
-0.087293416 0.10953493 0.009934235 -0.11297536 -0.0144490935 0.1044254 -0.0969917 -0.041316323
-0.08158376 -0.036654655 -0.050319854 -0.039804697 -0.1476092 0.021504922 0.119963005 0.075855896
0.04034397 -0.06806294 0.021439899 -0.013457868 0.042359818 -0.11457327 -0.014257069 0.10285578
0.034017593 0.025073987 0.011173971 0.0012967001 -0.0758781 -0.06453192 -0.09389538 0.093172014
0.041362196 -0.030923434 -0.08888428 0.053849593 0.017113265 0.029093178 -0.096350215 -0.022654492
0.113131724 0.072855145 0.04219192 -0.0080868695 0.071549825 -0.08026184 -0.0019607611 -0.07657644
-0.04479371 0.00082138693 0.027712975 0.07521768 0.04305868 -0.025472255 0.0991023 -0.03436312
0.07122292 -0.04077198 -0.015564646 0.0080847945 -0.12433998 -0.00308761 0.031408634 0.16236967
0.044925015 0.09792519 0.100857556 -0.038636256 0.108160265 -0.08827143 0.007001109 0.007649708
0.07043264 0.12869745 -0.029061228 -0.011944486 -1.1466078e-05 -0.06127031 -0.04279792 -0.12922113
-0.018533705 0.0031225672 -0.0062373127 -0.079423875 -0.076110765 -0.04598192 0.06376975 0.09461027
0.0109894695 -0.08937686 -0.073659986 -0.0120341135 -0.124757715 -0.14013092 -0.07164858 0.0052216495
-0.014421546 0.10699281 0.029290058 0.109706506 -0.04134078 0.032770183 -0.0790096 0.124226935
0.10090914 0.09283312 -0.07008281 0.10595154 0.11952036 0.1645274 0.14591578 0.208255
0.1342908 0.087215394 -0.047189783 -0.090570755 -0.022994485 -0.03317258 -0.12635641 -0.076637276
-0.11968821 -0.060303256 0.04909823 -0.05926992 0.024972215 0.027276896 0.057539545 -0.12023709
-0.081397615 -0.04464569 -0.077170156 0.035002865 0.04222428 -0.07535715 -0.05383301 -0.086498365
0.061603855 0.13814516 -0.059105888 -0.033017505 0.05299113 -0.058112808 0.09780362 0.040433902
-0.017602665 0.033389732 0.080089174 -0.021791827 -0.077444755 0.01777524 0.0126999505 0.010766221
-0.005267237 0.08468527 -0.006392926 0.030627275 0.072216526 -0.0503302 0.058312405 -0.010696288
0.051772222 -0.07338509 -0.006734962 -0.0015981349 -0.09525378 -0.08983612 0.042082947 -0.0182995
0.06965738 -0.077295475 -0.039304543 -0.08162395 0.04355855 0.00900699 -0.010178902 -0.006478889
-0.07259242 0.037722282 0.048812427 -0.049636602 0.06502151 0.007960289 -0.08067168 0.07410085
0.06682609 -0.029400507 -0.08452474 -0.001989137 0.07240331 0.07891018 -0.10577225 -0.05856553
0.08446928 0.05872154 0.061246425 -0.06566636 0.08933854 -0.097169206 -0.01654053 -0.008714285
00000000: a66a f3bb ff42 ef3c bec0 2cbd 2d26 9c3d
00000010: 04e8 84bd ce7d c23d 2351 8cbd afe4 bcbc
00000020: 736b 8cbb b8e3 ab3d 7b20 20bd 7259 a13c
00000030: 62e7 ddbd 7575 afbd c8b5 a8bd 703b 82bd
00000040: 9048 a9bd 3340 b53d 3035 243c cf3a 1a3d
00000050: 325d 723d 6324 873c d321 0b3d c161 b43d
00000060: 42e1 b3bd 36e0 9d3c 1667 61bd 97fb 763d
00000070: 316b 0d3d 0a45 1fbe 93e7 c83d 12c3 b83d
00000080: fb3c 8b3d 8f87 df3c 1ec2 8c3d 8656 2cbd
00000090: 8460 e4bd a098 a2bd 6de4 c5bd e8e1 953d
000000a0: 606e 923d 219a 2cbb 834e cebb ef92 ce3d
000000b0: 473a d7bc eee1 d6bb b4cf 5abd 111d 9d3c
000000c0: 84d9 2a3e ad10 0a3e 76a8 843d 9494 153c
000000d0: fd47 be3c bca7 dd3c 636a 95bb c109 12be
000000e0: e4c6 b2bd d953 e03d 34c3 223c a05f e7bd
000000f0: e4bb 6cbc fcdc d53d 96a3 c6bd 4e3b 29bd
00000100: 6315 a7bd 3123 16bd 311c 4ebd 400a 23bd
00000110: de26 17be 172b b03c 2aaf f53d 565a 9b3d
00000120: b83f 253d 9564 8bbd baa2 af3c 647e 5cbc
00000130: 7d81 2d3d 64a5 eabd 7b96 69bc 0da6 d23d
00000140: 0856 0b3d f667 cd3c 0813 373c 09f6 a93a
00000150: fa65 9bbd 5029 84bd 394c c0bd f8d0 be3d
00000160: 686b 293d 2453 fdbc f608 b6bd 6491 5c3d
00000170: 1e31 8c3c d154 ee3c 4353 c5bd ea95 b9bc
00000180: 9bb1 e73d 1435 953d 6fd1 2c3d ca7e 04bc
00000190: b788 923d 5260 a4bd 1d80 00bb 1cd4 9cbd
000001a0: 9c79 37bd 5852 573a 5206 e33c ba0b 9a3d
000001b0: 4c5e 303d 31ab d0bc 26f6 ca3d 58c0 0cbd
000001c0: 53dd 913d 8500 27bd db02 7fbc 1676 043c
000001d0: f6a5 febd 8059 4abb 57a6 003d 3c44 263e
000001e0: 4b03 383d 018d c83d 688e ce3d 0d41 1ebd
000001f0: 2183 dd3d a7c7 b4bd 8f69 e53b 67aa fa3b
00000200: fd3e 903d 44c9 033e d011 eebc ceb2 43bc
00000210: 6e5e 40b7 94f6 7abd df4c 2fbd 8b52 04be
00000220: ffd3 97bc fca3 4c3b 5f62 ccbb fca8 a2bd
00000230: f6df 9bbd 8a57 3cbd b799 823d 07c3 c13d
00000240: 2d0d 343c 370b b7bd 0cdb 96bd bb2a 45bc
00000250: f980 ffbd 7b7e 0fbe 7ebc 92bd 5f1a ab3b
00000260: 5948 6cbc 0c1f db3d b4f1 ef3c cead e03d
00000270: f354 29bd 073a 063d c9cf a1bd b16a fe3d
00000280: 74a9 ce3d 4a1f be3d 9487 8fbd 1ffd d83d
00000290: 17c7 f43d df79 283e f26a 153e cc40 553e
000002a0: 8783 093e fc9d b23d 134a 41bd 297d b9bd
000002b0: ee5e bcbc f9df 07bd 9363 01be 01f4 9cbd
000002c0: 181f f5bd 8c00 77bd 3a1b 493d 04c5 72bd
000002d0: 8892 cc3c cc73 df3c 96ae 6b3d dd3e f6bd
000002e0: cbb3 a6bd 66de 36bd 630b 9ebd 2a5f 0f3d
000002f0: 5ef3 2c3d d954 9abd 0180 5cbd 0e26 b1bd
00000300: 5354 7c3d ed75 0d3e 0419 72bd 5d3d 07bd
00000310: 3a0d 593d b207 6ebd 444d c83d 059e 253d
00000320: 7733 90bc acc3 083d cb05 a43d c684 b2bc
00000330: 5b9b 9ebd 619d 913c 7413 503c ce64 303c
00000340: c998 acbb 796f ad3d c07b d1bb 0de6 fa3c
00000350: 42e6 933d 0a27 4ebd fdd8 6e3d 7c3f 2fbc
00000360: 1c0f 543d ec4a 96bd f5b0 dcbb 8278 d1ba
00000370: 6a14 c3bd 00fc b7bd 2b5f 2c3d d5e8 95bc
00000380: 87a8 8e3d 174d 9ebd cdfd 20bd 752a a7bd
00000390: 736a 323d 0e92 133c 69c5 26bc dc4c d4bb
000003a0: 56ab 94bd ae82 1a3d 8aef 473d c04f 4bbd
000003b0: ff29 853d df6b 023c 3237 a5bd 30c2 973d
000003c0: 1edc 883d 55d9 f0bc 4f1b adbd 2e5c 02bb
000003d0: 3048 943d a99b a13d 1f9f d8bd 69e2 6fbd
000003e0: 3bfe ac3d ff85 703d 88dd 7a3d 167c 86bd
000003f0: 20f7 b63d a600 c7bd 0180 87bc 5cc6 0ebc

conv1.bias f4 [64]
0.023398759 -0.09022348 0.0010660023 -0.058651965 0.041708007 0.019608008 0.04267446 -0.016712412
0.11296237 -0.044128988 0.0065573244 0.0248526 -0.14760105 0.12437839 0.056735013 -0.0057214946
-0.02527419 -0.026705319 0.0269247 0.020458486 0.02867972 -0.014810389 -0.054782122 0.07245776
-0.14166723 -0.015249372 0.056170065 0.0128548965 0.025787877 0.049381193 0.08674665 -0.012354738
0.033129636 0.044807777 0.004377068 -0.054242756 -0.006419417 0.06333738 -0.022975536 0.07423816
0.00017607298 -0.00039397637 0.08151818 -0.041728005 0.032703467 -0.019422987 -0.02820188 0.026967922
0.0021480927 -0.03245314 0.020448744 0.049715236 -0.012134118 0.003635818 0.008546584 0.010081709
0.06001921 -0.026609365 -0.005725892 0.061023057 0.04838525 -0.03282898 -0.04953827 -0.043037873
00000000: c1ae bf3c 16c7 b8bd 1ab9 8b3a 0b3d 70bd
00000010: 04d6 2a3d f9a0 a03c 6acb 2e3d 78e8 88bc
00000020: d158 e73d 99c0 34bd d3de d63b ae97 cb3c
00000030: bb24 17be 19ba fe3d f962 683d 607b bbbb
00000040: d10b cfbc 1dc5 dabc 3091 dc3c 8e98 a73c
00000050: bbf1 ea3c 46a7 72bc 3863 60bd bc64 943d
00000060: 3711 11be 81d8 79bc 9512 663d 589d 523c
00000070: 1941 d33c ef43 4a3d 3aa8 b13d 876b 4abc
00000080: f1b2 073d 5c88 373d 826d 8f3b a72d 5ebd
00000090: f959 d2bb 07b7 813d 3137 bcbc 2d0a 983d
000000a0: 3ba0 3839 9d8e ceb9 01f3 a63d fcea 2abd
000000b0: 12f4 053d f51c 9fbc a107 e7bc d5eb dc3c
000000c0: 04c7 0c3b 95ed 04bd 2084 a73c 34a2 4b3d
000000d0: 2ece 46bc e746 6e3b f906 0c3c c12d 253c
000000e0: b4d6 753d e2fb d9bc 43a0 bbbb 50f3 793d
000000f0: 9d2f 463d ae77 06bd a4e8 4abd 7b48 30bd

conv2.weight f4 [32, 64, 5, 5]
-0.006559439 0.03137592 0.08273907 0.07707652 -0.06381713 0.005121592 -0.017216818 0.010249683
0.03445805 -0.0055935495 0.0034113044 -0.010820526 0.017479146 0.010306625 0.052597713 -0.017986558
0.024089351 0.025553169 0.032793153 0.07493282 -0.021767596 0.0054143406 -0.04646573 0.025810748
0.008878897 -0.04963313 0.00791151 -0.028636526 -0.04944555 -0.08551471 -0.065026365 0.0056783846
0.03843183 0.045988224 -0.021315847 -0.008213297 -0.025973283 0.049896173 0.08864249 0.07580907
-0.060915563 -0.013529241 -0.021453556 0.018468324 0.0082741035 -0.072044834 0.016803494 0.01614059
0.035506852 0.018865943 -0.0275891 0.0011439737 -0.006770808 0.051771145 -0.025071802 -0.021828748
-0.028098837 0.016021995 0.061713513 -0.011506821 0.029818516 0.0074231303 -0.032414835 -0.020668196
-0.08020766 0.008741504 0.058258936 0.03832759 0.003049716 -0.03447042 -0.021911968 0.00538382
0.012239173 -0.0067246575 -0.0019602317 0.042645272 0.0038778766 -0.011021148 -0.042945307 -0.07808169
0.033038925 0.040814757 -0.016362421 -0.038046755 -0.023464998 -0.014640259 -0.012363306 -0.039790638
0.013369955 -0.004703961 -0.039854784 0.0070074494 -0.0066385195 0.042398106 0.0005636454 0.0045623244
0.007855785 0.0015350078 -0.009342069 -0.020021668 -0.039598815 -0.028281782 0.025061404 0.01861005
-0.011559036 -0.012084357 0.005289056 0.010842439 -0.010068351 -0.041009676 -0.05515724 -0.021775484
0.029413207 0.0051054456 -0.073269576 -0.026912306 0.021724412 -0.0139888385 0.02093177 -0.008141853
-0.039369 -0.038518243 -0.06776343 -0.034607463 -0.005992822 0.12454315 0.04828956 0.018180259
0.07011572 -0.03573438 -0.033138108 -0.011556695 -0.012933861 -0.015417043 -0.016290156 -0.03498995
-0.005149659 0.030186394 -0.013107533 -0.03097515 0.019106157 0.0411262 0.044354912 0.019465223
0.0016484616 0.0077453675 -0.0005425952 0.03981695 0.013922497 -0.0107124075 -0.0039872923 0.00029745646
-0.018647032 0.021973198 -0.04757312 0.050564658 0.020664806 -0.007467204 -0.008027315 -0.0074200514
0.02632557 0.0005630853 0.01374596 -0.008467487 -0.02153577 0.046298496 0.022853514 0.019231034
0.00020925839 0.0506282 -0.026833821 -0.028537001 0.0052858545 -0.015452989 0.018835323 0.05592
0.06674324 0.057918273 -0.017901216 -0.0062670493 -0.01569288 -0.029321529 0.08038885 0.06836864
-0.0010961618 -0.013390965 -0.034205083 -0.06080933 0.05217245 0.051991623 0.099907584 0.06685572
-0.056286067 0.020894498 0.032123588 0.20693569 0.21157251 0.1443907 0.054786786 -0.0069168047
0.01023199 -0.025080424 -0.029265607 0.010423147 -0.010034309 0.019729448 -0.039217427 -0.041077424
0.009299712 -0.023167549 -0.032204747 -0.06171684 -0.05334932 0.003750203 -0.004916118 0.0036183393
-0.015652856 -0.0100229215 0.00263764 0.031550877 0.0038418518 0.06091052 0.028493823 -0.011317212
0.04276948 0.006632956 0.021282341 0.013689229 0.023174351 0.034591485 0.009718188 -0.00036300425
0.036366217 0.04402009 0.022978546 -0.040992986 -0.037720017 -0.009007509 0.01696765 0.0118831685
-0.036702096 -0.026962154 -0.01115601 -0.01912176 -0.0057486687 0.002395023 -0.013963785 -0.024861485
-0.017818287 0.017488644 -0.043777626 -0.034479387 -0.0025937408 0.019878032 0.008569351 -0.041011244
00000000: 90f0 d6bb 0984 003d 1a73 a93d 4bda 9d3d
00000010: 8eb2 82bd 07d3 a73b 490a 8dbc 49ee 273c
00000020: e223 0d3d 184a b7bb 3190 5f3b 9348 31bc
00000030: 6d30 8f3c 1edd 283c b370 573d 8c58 93bc
00000040: 0857 c53c e154 d13c 1d52 063d 6176 993d
00000050: f551 b2bc c86a b13b d952 3ebd 1071 d33c
00000060: cb78 113c 1c4c 4bbd 479f 013c 2697 eabc
00000070: 6b87 4abd 5622 afbd 8b2c 85bd be11 ba3b
00000080: b26a 1d3d 265e 3c3d 929e aebc 1191 06bc
00000090: ecc5 d4bc ee5f 4c3d 328a b53d c941 9b3d
000000a0: 9982 79bd c0a9 5dbc 5ebf afbc e24a 973c
000000b0: 1b90 073c 3e8c 93bd 7ba7 893c 4539 843c
000000c0: a26f 113d c08c 9a3c 8902 e2bc 63f1 953a
000000d0: a7dd ddbb fb0d 543d 6163 cdbc 34d2 b2bc
000000e0: 882f e6bc 8f40 833c 4fc7 7c3d 1b87 3cbc
000000f0: f645 f43c bb3d f33b 6bc5 04bd 5950 a9bc
00000100: ea43 a4bd 8638 0f3c eca0 6e3d 64fd 1c3d
00000110: bedd 473b db30 0dbd ba80 b3bc c16a b03b
00000120: d086 483c 845a dcbb 3b77 00bb cfac 2e3d
00000130: f923 7e3b 0c92 34bc 6be7 2fbd 4be9 9fbd
00000140: d353 073d 602d 273d 7c0a 86bc ead6 1bbd
00000150: ab39 c0bc b2dd 6fbc 778f 4abc 82fb 22bd
00000160: a80d 5b3c af23 9abb c53e 23bd bf9e e53b
00000170: f087 d9bb a3a9 2d3d 9ac1 133a 8d7f 953b
00000180: 8db5 003c 5132 c93a 7a0f 19bc 7b04 a4bc
00000190: 5e32 22bd 32af e7bc 934d cd3c 1b74 983c
000001a0: 1c62 3dbc 78fd 45bc d14f ad3b 7ca4 313c
000001b0: baf5 24bc c3f9 27bd 8fec 61bd 8062 b2bc
000001c0: f7f3 f03c 954b a73b 5c0e 96bd 3277 dcbc
000001d0: 65f7 b13c 7131 65bc 1a79 ab3c 6865 05bc
000001e0: 6341 21bd 4ec5 1dbd 8ec7 8abd 8ec0 0dbd
000001f0: 6f5f c4bb 7b10 ff3d 46cb 453d c4ee 943c
00000200: d598 8f3d 375e 12bd d3bb 07bd 4b58 3dbc
00000210: 8ce8 53bc c497 7cbc ef72 85bc 9f51 0fbd
00000220: 78be a8bb 7549 f73c fac0 56bc 99bf fdbc
00000230: 8484 9c3c f273 283d 7fad 353d 8875 9f3c
00000240: 3111 d83a dacc fd3b f33c 0eba 1917 233d
00000250: 2f1b 643c 1883 2fbc d5a7 82bb eef3 9b39
00000260: a9c1 98bc 2301 b43c 08dc 42bd e31c 4f3d
00000270: 3d49 a93c 72af f4bb 0085 03bc e723 f3bb
00000280: b9a8 d73c 049c 133a bc36 613c 37bb 0abc
00000290: c86b b0bc 7ea3 3d3d 4b37 bb3c 678a 9d3c
000002a0: 5f6c 5b39 845f 4f3d 9ad2 dbbc 6ec6 e9bc
000002b0: f634 ad3b 892e 7dbc 894c 9a3c 5f0c 653d
000002c0: aeb0 883d b63b 6d3d 92a5 92bc d25b cdbb
000002d0: 5b8e 80bc b433 f0bc e9a2 a43d dc04 8c3d
000002e0: 16ad 8fba c765 5bbc a11a 0cbd 3413 79bd
000002f0: c7b2 553d 2bf5 543d 599c cc3d a7eb 883d
00000300: 388c 66bd f02a ab3c 0694 033d f3e6 533e
00000310: 77a6 583e 28db 133e 1c68 603d 5da6 e2bb
00000320: 14a4 273c 7675 cdbc 6dbe efbc d9c5 2a3c
00000330: f166 24bc a79f a13c 74a2 20bd cd40 28bd
00000340: d25d 183c dfc9 bdbc 20e9 03bd ccca 7cbd
00000350: d184 5abd f7c5 753b 6317 a1bb a921 6d3b
00000360: 6b3a 80bc 2e37 24bc 42dc 2c3b 7e3b 013d
00000370: 94c7 7b3b 4f7d 793d e16b e93c d46b 39bc
00000380: 0d2f 2f3d 4559 d93b 4e58 ae3c ca48 603c
00000390: 23d8 bd3c cdaf 0d3d 0939 1f3c 9b51 beb9
000003a0: bef4 143d 694e 343d 813d bc3c 43e8 27bd
000003b0: 4e80 1abd 3b94 13bc beff 8a3c 9fb1 423c
000003c0: f054 16bd bcdf dcbc b3c7 36bc 3da5 9cbc
000003d0: 545f bcbb d1f5 1c3b 5cc8 64bc 50aa cbbc
000003e0: a8f7 91bc 5844 8f3c 2b50 33bd 423a 0dbd
000003f0: c0fb 29bb 41d7 a23c 7766 0c3c 68fb 27bd

conv2.bias f4 [32]
0.00036977822 -0.015729988 -0.0029755102 0.024763748 0.031257983 0.0010640343 -0.004599827 0.014724595
0.044100206 -0.019792493 -0.0014747326 -0.0064250347 0.029825108 0.0025267154 0.058029838 -0.014956684
-0.013083588 -0.009481846 0.0062461346 0.027214626 0.04234524 0.008353491 -0.012138934 0.010748167
-0.0048539685 0.031046987 0.02323155 0.0134945735 0.016487781 -0.034931384 -0.030984899 0.0060236603
00000000: cbde c139 2ddc 80bc c700 43bb 58dd ca3c
00000010: 5f08 003d 1177 8b3a 25ba 96bb 6d3f 713c
00000020: 6ba2 343d de23 a2bc d14b c1ba 1989 d2bb
00000030: c953 f43c 4097 253b b2b0 6d3d e10c 75bc
00000040: 8c5c 56bc bf59 1bbc 60ac cc3b 35f1 de3c
00000050: 3472 2d3d 15dd 083c 61e2 46bc 1419 303c
00000060: 0a0e 9fbb 4056 fe3c 1750 be3c 5818 5d3c
00000070: 6211 873c 3614 0fbd 0bd4 fdbc 2062 c53b

conv3.weight f4 [1, 32, 5, 5]
0.007574046 0.0186045 0.010364701 0.035705455 0.035967235 -0.03126008 0.0023809134 -0.030294811
0.0009409375 0.0062737684 -0.004529708 0.022106746 0.0008546754 -0.04484601 -0.0123556405 -0.014498145
-0.030881565 -0.0112082455 -0.042463657 0.016939107 0.008943374 0.01844469 0.024121094 0.031506047
-0.012789812 0.0018524313 -0.0338788 0.008449746 0.026379881 -0.023390021 0.01982606 -0.016668549
0.010382967 -0.016050532 0.0056255283 -0.03431162 0.026137399 -0.007905044 0.032028984 -0.013484294
0.014786242 -0.017587723 -0.01556605 -0.010129648 0.016568491 0.014241205 0.02056228 -0.0060132947
0.0038219274 0.022381807 -0.013813855 -0.011615065 0.026915718 -0.029820474 -0.017106604 -0.01959804
-0.0074307816 -0.025979418 0.008238535 -0.024685435 -0.015524569 -0.034382995 0.023595622 -0.021663766
-0.0042370977 -0.021056985 -0.004853518 -0.006753346 -0.011504377 -0.0005057458 0.01505847 0.029141173
0.026237432 -0.026237072 -0.004094119 -0.049072877 0.018360743 0.029845461 0.006320205 0.008968531
0.043188818 0.020896718 -0.009212735 -0.014014819 -0.0034608413 0.044613946 0.019824993 0.020281358
-0.0073040673 -0.016712768 0.012516657 -0.009245361 -0.053112645 -0.030541994 -0.00892152 0.0030267898
-0.012873048 -0.023858706 -0.0133702075 0.031944122 0.0054000886 0.0069818757 0.0139109995 -0.0032821775
0.0033470239 -0.0083719455 0.031177843 -0.00059215253 0.024770578 -0.020906355 -0.028317098 0.0040366203
-0.032151405 0.020530123 0.020541234 0.028024064 0.03130383 0.011138604 0.013195689 -0.005463114
0.031797122 0.014558418 -0.008773569 -0.033481244 0.0035893759 0.0042125103 0.03677387 0.03375327
0.033074785 0.0020457373 0.011648625 -0.018955812 0.010783119 0.009946694 -0.0148025 -0.018522386
0.010712701 -0.027509842 -0.017326934 0.028257638 0.022402145 -0.036805533 -0.03759141 0.020531062
-0.005137952 0.0063300687 -0.019721506 -0.011343708 0.029267423 -0.019062914 0.012296967 0.00074658863
0.011362966 0.0019359529 -0.006692895 0.012842048 0.009517315 -0.002797698 0.024580747 0.032646924
0.01857133 -0.010545586 -0.026306853 -0.024432788 -0.017190292 -0.0033688098 0.018114537 0.010080557
0.031562667 -0.03537796 -0.020906342 0.032094717 -0.02476847 0.022852875 0.00028585378 -0.0042589908
0.024833817 0.02729153 -0.014239319 -0.0019181645 0.033017058 0.029435316 0.014317381 -0.021130929
-0.02368162 0.025394946 0.020393996 -0.0037766655 0.034394845 0.024917187 -0.00797903 0.015369123
0.034418132 0.020601641 -0.017119257 -0.033679213 0.010589519 0.013176252 -0.03480674 0.00525683
-0.03105059 -0.0040574227 -0.022077544 -0.021934643 0.02305406 0.006036282 -0.0071797273 -0.031018667
0.0057447557 -0.013178588 -0.002267146 0.048584163 0.08208124 -0.0095460825 0.004769775 -0.016748494
0.060834978 0.06468669 -0.036406863 -0.035605878 0.00047809994 0.0038800214 0.021827433 -0.0226785
-0.043065216 0.03850033 -0.005775179 0.01838923 0.022268223 0.01238606 0.032844055 -0.025954483
-0.0004296963 -0.0043516043 0.017274683 -0.017797101 -0.024630507 -0.032550953 0.019497128 0.009731463
-0.037605025 -0.005057491 -0.03241321 -0.030939914 0.02135338 -0.018596906 0.023238935 0.036643147
0.008935452 0.018447138 -0.030863246 -0.015066355 -0.001923622 0.0075768447 0.014315626 0.019061852
00000000: b42f f83b 7768 983c b5d0 293c e23f 123d
00000010: 6152 133d 920a 00bd 1909 1c3b d32c f8bc
00000020: 3fa9 763a 2f94 cd3b f26d 94bb 3519 b53c
00000030: 4c0c 603a 73b0 37bd 506f 4abc a189 6dbc
00000040: 56fb fcbc caa2 37bc 5fee 2dbd e2c3 8a3c
00000050: 3b87 123c 5219 973c 9a99 c53c 7c0c 013d
00000060: 5c8c 51bc 48cd f23a 7fc4 0abd ce70 0a3c
00000070: 9f1a d83c 6e9c bfbc 436a a23c 7b8c 88bc
00000080: 521d 2a3c 687c 83bc 5a56 b83b 578a 0cbd
00000090: 191e d63c 2884 01bc d330 033d 3aed 5cbc
000000a0: fe41 723c 2114 90bc bf08 7fbc d3f6 25bc
000000b0: a5ba 873c f153 693c 3a72 a83c 2c0b c5bb
000000c0: 4d79 7a3b 0d5a b73c 8253 62bc 1d4d 3ebc
000000d0: 5a7e dc3c 114a f4bc 2623 8cbc 128c a0bc
000000e0: ea7d f3bb cad2 d4bc ecfa 063c 1c39 cabc
000000f0: c35a 7ebc 2fd5 0cbd 9b4b c13c 3678 b1bc
00000100: 5ad7 8abb b37f acbc 430a 9fbb 2c4b ddbb
00000110: db7c 3cbc 0794 04ba cdb7 763c 78b9 ee3c
00000120: e2ef d63c 21ef d6bc f627 86bb a400 49bd
00000130: 4569 963c 787e f43c b919 cf3b bff0 123c
00000140: c2e6 303d 982f ab3c 03f1 16bc 699e 65bc
00000150: 48cf 62bb 1dbd 363d 0668 a23c 1725 a63c
00000160: f556 efbb 37e9 88bc aa12 4d3c db79 17bc
00000170: a58c 59bd 3433 fabc 912b 12bc 1b5d 463b
00000180: 7ae9 52bc 5573 c3bc b70e 5bbc d7d7 023d
00000190: 3af3 b03b 38c8 e43b f6ea 633c cd19 57bb
000001a0: be59 5b3b 7c2a 09bc ad68 ff3c af3a 1bba
000001b0: abeb ca3c ce43 abbc 42f9 e7bc a045 843b
000001c0: 31b1 03bd ca2e a83c 1746 a83c b992 e53c
000001d0: 7238 003d b17e 363c bb32 583c ec03 b3bb
000001e0: b33d 023d 6e86 6e3c 04bf 0fbc a123 09bd
000001f0: bc3b 6b3b 1909 8a3b 33a0 163d de40 0a3d
00000200: 6d79 073d c711 063b e0d9 3e3c 3849 9bbc
00000210: aeab 303c 75f7 223c 2f86 72bc 42bc 97bc
00000220: 5384 2f3c 525c e1bc 37f1 8dbc 907c e73c
00000230: b484 b73c 66c1 16bd 73f9 19bd c230 a83c
00000240: 445c a8bb 776c cf3b ff8e a1bc f6da 39bc
00000250: 3cc2 ef3c d429 9cbc 3879 493c b7b6 433a
00000260: bc2b 3a3c cdbf fd3a 1350 dbbb 7467 523c
00000270: 83ee 1b3c 9559 37bb 905d c93c c8b8 053d
00000280: e722 983c 65c7 2cbc 7881 d7bc 4527 c8bc
00000290: a8d2 8cbc 40c7 5cbb f064 943c ec28 253c
000002a0: db47 013d 7be8 10bd c743 abbc c075 033d
000002b0: 3fe7 cabc f435 bb3c a5de 9539 018f 8bbb
000002c0: 4a70 cb3c 7d92 df3c 084c 69bc ec6a fbba
000002d0: e53c 073d 5522 f13c 7393 6a3c c51a adbc
000002e0: f5ff c1bc 1009 d03c 4f11 a73c ef81 77bb
000002f0: 9ce1 0c3d 211f cc3c 7aba 02bc c6ce 7b3c
00000300: 07fa 0c3d c6c4 a83c af3d 8cbc 37f3 09bd
00000310: a97f 2d3c 35e1 573c 8391 0ebd 7c41 ac3b
00000320: cf5d febc 21f4 84bb f7db b4bc 48b0 b3bc
00000330: dedb bc3c 01cc c53b eb43 ebbb dc1a febc
00000340: 813e bc3b 01eb 57bc 6694 14bb 3000 473d
00000350: 361a a83d 2c67 1cbc c64b 9c3b 2334 89bc
00000360: 192e 793d 757a 843d 5d1f 15bd 78d7 11bd
00000370: 7da9 fa39 f547 7e3b 72cf b23c 43c8 b9bc
00000380: 2765 30bd 86b2 1d3d b63d bdbb 03a5 963c
00000390: d96b b63c e7ee 4a3c 7d87 063d 7f9e d4bc
000003a0: dc48 e1b9 e797 8ebb a383 8d3c 3acb 91bc
000003b0: ebc5 c9bc 2654 05bd 71b8 9f3c b770 1f3c
000003c0: ba07 1abd 4fb9 a5bb b7c3 04bd b475 fdbc
000003d0: 49ed ae3c 8a58 98bc 945f be3c 2017 163d
000003e0: 0166 123c 741e 973c ebd4 fcbc dfd8 76bc
000003f0: 0b22 fcba 2e47 f83b 168c 6a3c 9a27 9c3c
