2021_BOML_srcnn_project/output/epoch_266.pth (torch, 231519 bytes, 5 tensors)

conv1.weight f4 [64, 1, 9, 9]
-0.031112675 0.0066837873 -0.08676486 0.08045421 -0.021499585 0.115315236 -0.06316471 0.051629074
-0.042083178 0.054423846 -0.007947281 0.017701311 -0.09069966 -0.048345353 -0.061705425 -0.040715866
0.024334861 0.13376132 0.019369744 0.097015746 0.0598649 -0.0039076395 0.0005432025 0.03837896
-0.16170606 0.0040841126 -0.07135298 0.06924561 0.055899736 -0.19727512 0.058563694 0.04896501
0.026058579 -0.041903615 0.042349182 -0.029557137 -0.12578292 -0.0697005 -0.12358225 0.09656004
0.10324796 0.00994225 -0.029877212 0.112572044 -0.0037198267 -0.03302565 -0.04195769 0.033680916
0.22829342 0.1738973 0.07383059 -0.020651758 0.023165362 0.004870568 -0.027346002 -0.15232703
-0.10749005 0.120218575 -0.017614048 -0.13422112 -0.02826126 0.14786662 -0.07746325 -0.029173365
-0.07890283 -0.07739146 -0.06273436 -0.073079936 -0.15264885 0.015901087 0.169709 0.11678676
0.09740509 0.008069245 0.020983482 0.0021502553 0.054222956 -0.10095276 -0.059929334 0.040108692
-0.04317432 0.08302403 0.01262789 0.0066532446 -0.11284044 -0.06110357 -0.086738415 0.113306426
0.05571038 -0.050479177 -0.051085867 0.052492857 0.017479753 -0.030040672 -0.1323773 -0.04024048
0.11706919 0.06321323 0.011235066 0.02041787 0.08296286 -0.06321363 -0.03501649 -0.088944785
-0.05274765 0.017514208 0.036098093 0.06831927 0.03443414 -0.04093209 0.12419756 -0.039789032
0.085400105 -0.054703724 -0.0033689379 0.024427334 -0.08106804 -0.031822722 0.003280269 0.21166773
0.08889963 0.1525195 0.12090099 -0.02242376 0.10089079 -0.08409648 -0.030979 -0.034363806
0.11083542 0.16900316 0.004887896 -0.010996923 0.005990274 -0.071132146 -0.05957428 -0.15028214
-0.05295517 -0.0059753032 -0.029025622 -0.12124601 -0.11592835 -0.025701238 0.10025487 0.1160427
-0.0086182095 -0.10068324 -0.0794806 -0.037691172 -0.1802661 -0.18692231 -0.06769043 0.04150006
-0.0012141869 0.15188758 0.088112205 0.16806264 -0.0032050016 0.018003033 -0.1268102 0.09692441
0.104000315 0.07009829 -0.026411263 0.104317516 0.10023795 0.18070783 0.21996082 0.26887763
0.17801459 0.07422923 -0.00848033 -0.07624201 -0.05406038 -0.12064568 -0.24374528 -0.18238704
-0.20400202 -0.10639707 -0.015730917 -0.06088008 0.057223093 0.04587173 0.050635308 -0.13842365
-0.0839379 -0.05078047 -0.08410978 0.0063642673 0.08107199 -0.060599495 -0.04207413 -0.08837193
0.069685586 0.17231686 -0.038431037 -0.037177905 0.022441506 -0.02433554 0.09099457 0.030692812
-0.036128778 0.035374194 0.09234944 -0.022089748 -0.09569762 -0.01679368 0.021487067 0.030125132
0.019299775 0.100635946 0.036070537 0.07254472 0.124872155 -0.022157747 0.057266615 -0.022309126
0.037379347 -0.08675677 -0.041098617 -0.024362514 -0.13453141 -0.08830609 0.03726487 -0.040803883
0.021033404 -0.059887886 -0.0051406254 -0.0690037 0.05534714 0.0045338497 0.028564354 0.017151125
-0.05032525 0.046349652 0.01803195 -0.031124113 0.07255703 0.0051527605 -0.1031798 0.07112915
0.039793197 -0.031448513 -0.061803266 -0.053438187 0.04815941 0.030387504 -0.106040165 -0.04489762
0.08874394 0.11101236 0.078047685 -0.008623959 0.07088389 -0.076342136 -0.013765732 0.024337538
00000000: 02e0 febc ac03 db3b c6b1 b1bd 2dc5 a43d
00000010: e61f b0bc 652a ec3d 805c 81bd 0279 533d
00000020: 695f 2cbd 8aeb 5e3d 5035 02bc 5702 913c
00000030: bec0 b9bd c705 46bd d4be 7cbd aec5 26bd
00000040: e759 c73c baf8 083e 4cad 9e3c 31b0 c63d
00000050: e634 753d a80b 80bb b465 0e3a 4233 1d3d
00000060: 4696 25be 05d4 853b 8321 92bd a4d0 8d3d
00000070: 1ff7 643d 7d02 4abe 7ce0 6f3d 898f 483d
00000080: cd78 d53c 20a3 2bbd 5676 2d3d cf21 f2bc
00000090: 3dcd 00be 23bf 8ebd b118 fdbd 45c1 c53d
000000a0: ab73 d33d d2e4 223c 0ec1 f4bc 2c8c e63d
000000b0: 56c8 73bb e745 07bd d4db 2bbd 00f5 093d
000000c0: c0c5 693e 2212 323e 7e34 973d e02d a9bc
000000d0: 49c5 bd3c 4999 9f3b b904 e0bc 9efb 1bbe
000000e0: be23 dcbd 2835 f63d 564b 90bc 4371 09be
000000f0: 2884 e7bc 596a 173e 0da5 9ebd fbfc eebc
00000100: cf97 a1bd 6a7f 9ebd df7a 80bd efaa 95bd
00000110: fb4f 1cbe ff42 823c 32c8 2d3e e62d ef3d
00000120: 527c c73d de34 043c 8de5 ab3c 4ceb 0c3b
00000130: e418 5e3d 52c0 cebd 7678 75bd 0349 243d
00000140: 8ed7 30bd 8108 aa3d 36e5 4e3c 7603 da3b
00000150: e318 e7bd bd47 7abd e9a3 b1bd 330d e83d
00000160: 9130 643d 41c3 4ebd 6a3f 51bd c002 573d
00000170: b331 8f3c db17 f6bc ea8d 07be 34d3 24bd
00000180: f9c1 ef3d f075 813d 4813 383c 6043 a73c
00000190: 6fe8 a93d 2676 81bd 736d 0fbd af28 b6bd
000001a0: eb0d 58bd f579 8f3c 98db 133d f9ea 8b3d
000001b0: d00a 0d3d 68a8 27bd 4a5b fe3d d3f9 22bd
000001c0: 40e6 ae3d 0311 60bd 66c9 5cbb d51b c83c
000001d0: 0007 a6bd 8b58 02bd c8f9 563b 6dbf 583e
000001e0: 0211 b63d 122e 1c3e f09a f73d 08b2 b7bc
000001f0: d59f ce3d c63a acbd acc7 fdbc 10c1 0cbd
00000200: aefd e23d 2a0f 2d3e a52a a03b 702c 34bc
00000210: 0f4a c43b bbad 91bd 2904 74bd 90e3 19be
00000220: 85e7 58bd 7acc c3bb 24c7 edbc d44f f8bd
00000230: d86b edbd 678b d2bc 6d52 cd3d cca7 ed3d
00000240: 6433 0dbc 0433 cebd bac6 a2bd 0f62 1abd
00000250: ad97 38be 9068 3fbe 48a1 8abd f8fb 293d
00000260: 5a25 9fba 6b88 1b3e 2c74 b43d 9d18 2c3e
00000270: 010b 52bb 197b 933c 88da 01be 4e80 c63d
00000280: 1efe d43d b18f 8f3d 6f5c d8bc 6ca4 d53d
00000290: 8e49 cd3d 790b 393e 693d 613e 54aa 893e
000002a0: 7549 363e 7f05 983d 15f1 0abc c524 9cbd
000002b0: 6b6e 5dbd 1515 f7bd 5d98 79be abc3 3abe
000002c0: e8e5 50be b5e6 d9bd 20de 80bc 645d 79bd
000002d0: c362 6a3d ffe3 3b3d f866 4f3d eebe 0dbe
000002e0: a2e7 abbd 2fff 4fbd c041 acbd 588b d03b
000002f0: 1209 a63d 2d37 78bd ec55 2cbd 58fc b4bd
00000300: 51b7 8e3d d573 303e dd69 1dbd dc47 18bd
00000310: 40d7 b73c 545b c7bc 5c5b ba3d 7e6f fb3c
00000320: c5fb 13bd 88e4 103d b421 bd3d 8ff5 b4bc
00000330: 1dfd c3bd e692 89bc a505 b03c fbc8 f63c
00000340: 901a 9e3c 381a ce3d b3be 133d 5392 943d
00000350: f9bc ff3d 2a84 b5bc 6690 6a3d a1c1 b6bc
00000360: 161b 193d 89ad b1bd 0657 28bd e593 c7bc
00000370: 9ac2 09be d3d9 b4bd 0ca3 183d f921 27bd
00000380: 3f4e ac3c 004d 75bd b172 a8bb d051 8dbd
00000390: afb3 623d b090 943b cbff e93c 8480 8c3c
000003a0: d921 4ebd 22d9 3d3d bdb7 933c fff7 febc
000003b0: c898 943d 7dd8 a83b ee4f d3bd 29ac 913d
000003c0: 31fe 223d 28d0 00bd 6c25 7dbd 00e2 5abd
000003d0: cd42 453d 37ef f83c 962b d9bd 91e6 37bd
000003e0: 62bf b53d 735a e33d 77d7 9f3d 814b 0dbc
000003f0: 932b 913d 4459 9cbd aa89 61bc 845f c73c

conv1.bias f4 [64]
0.020492125 -0.13533881 0.017668705 -0.14354311 0.026959842 0.014851724 0.048024077 -0.008938591
0.06748855 -0.025125295 -0.012363258 0.018827597 -0.20521641 0.24771935 0.07194615 -0.005330573
-0.004762101 -0.0013615614 0.0005708608 0.012500859 0.017865952 -0.021383561 -0.027964417 0.050761018
-0.32674128 -0.026372015 0.06546435 0.009412172 0.033161644 0.015650256 0.025545895 -0.00815666
0.04543501 0.02328784 0.0016864354 -0.045063976 -0.0074891434 0.083320834 -0.016848532 0.031832915
0.0045608645 -0.0005516253 0.09289349 -0.022320041 0.046716537 -0.010697569 -0.03499708 0.024908775
-0.0030694676 0.008506009 0.016577702 0.018492378 0.010092635 -0.0086688185 0.012332358 0.015551372
0.012269809 -0.014055154 0.0011145606 0.047798 0.044975474 -0.008663012 -0.032060396 -0.001800379
00000000: 1adf a73c 4296 0abe f6bd 903c f7fc 12be
00000010: e3da dc3c a554 733c e5b4 443d 2b73 12bc
00000020: 7037 8a3d 90d3 cdbc 438f 4abc 553c 9a3c
00000030: 4024 52be 24aa 7d3e 8158 933d 16ac aebb
00000040: 660b 9cbb 6b76 b2ba d2a5 153a 67d0 4c3c
00000050: 9e5b 923c 942c afbc a215 e5bc c9ea 4f3d
00000060: a24a a7be 200a d8bc 2c12 863d 8335 1a3c
00000070: 81d4 073d f734 803c a045 d13c 83a3 05bc
00000080: 101a 3a3d 24c6 be3c 620b dd3a 0195 38bd
00000090: 7d67 f5bb 1da4 aa3d ef05 8abc 3b63 023d
000000a0: 4e73 953b f29a 10ba f13e be3d 85d8 b6bc
000000b0: d759 3f3d db44 2fbc 1959 0fbd 7d0d cc3c
000000c0: 1f29 49bb ca5c 0b3c f6cd 873c 547d 973c
000000d0: 945b 253c a907 0ebc a90d 4a3c 2fcb 7e3c
000000e0: 4f07 493c 9747 66bc 7316 923a d6c7 433d
000000f0: 3438 383d 4eef 0dbc c351 03bd b2fa ebba

conv2.weight f4 [32, 64, 5, 5]
0.016756631 0.0783684 0.063501924 0.04850148 -0.025295675 0.040394846 0.0060157473 -0.009570549
0.03287273 0.002287438 0.04218349 0.015427025 0.012912025 -0.02698815 0.015807189 0.038003154
0.07637215 0.0013456143 0.0039919065 0.12667891 -0.0065997327 0.030296464 -0.09429815 -0.022018546
0.005546866 -0.084852524 0.02312394 -0.016266774 -0.075705044 -0.08861252 -0.1598863 -0.030549152
0.0985887 0.070294976 -0.019928852 -0.053473752 -0.035513636 0.071374886 0.09671244 0.05808583
-0.13627149 -0.0051112287 -0.016032333 0.008157592 0.029724592 -0.087604545 0.069992185 0.037663516
0.051414143 0.06773593 0.017584806 0.07084808 0.055496257 0.1413044 0.12457031 0.024285218
0.021746123 0.022287412 0.026353978 -0.04894487 0.068395905 0.07641559 0.0061363173 -0.039795827
-0.12363122 0.023581937 0.09909638 0.061218034 -0.015322841 -0.051283937 -0.09426203 -0.037961707
-0.037323542 -0.050077535 -0.013686134 0.05126271 0.005660781 0.05479063 -0.016003752 -0.024765806
-0.02731363 0.02969778 0.020410957 -0.0071087135 -0.06199851 -0.0032814785 -0.037970327 -0.041598838
-0.050307907 -0.12998557 -0.008756898 -0.0046395534 0.00042203255 0.0589653 0.022878535 -0.015219967
-0.022420298 0.0047868146 0.08314828 0.083303675 -0.030193033 -0.025464477 -0.0340937 -0.03680402
-0.020616457 0.07512638 0.063553385 0.028672395 -0.027474683 -0.107193336 -0.075298496 -0.035251204
0.054666553 -0.015422258 -0.18236825 -0.02214198 0.0691585 0.07809489 0.07617487 0.004201478
-0.04226842 -0.0301297 -0.076805286 -0.047113944 -0.009576086 0.15190011 0.076721 0.014050995
0.014778552 -0.09052665 0.035398133 0.030081598 0.018630087 -0.047246084 -0.05725954 -0.033952046
0.005689411 0.03080543 -0.044534482 -0.04829325 -0.0037454118 0.033845585 0.03122818 -0.013986713
0.002059237 0.08433 0.04630756 0.039350152 -0.003382264 -0.0017690356 0.021543646 0.03113917
0.032069344 0.083460554 -0.06788401 0.08574338 0.071345046 0.015044316 -0.026374765 -0.07225688
0.11355306 0.06236071 0.013743082 -0.008207687 -0.0071043377 -0.023630511 -0.028247152 -0.05623284
-0.079309076 0.116337076 -0.21217428 -0.09862943 0.013165838 0.043972936 0.12150062 0.13577545
0.16167104 0.16491628 0.020210216 -0.06326121 -0.04325518 -0.0466955 0.119365685 0.06679429
-0.06998067 -0.09091493 -0.11083154 -0.040525425 0.08194144 0.070142 0.08869305 0.008654781
-0.05385474 0.053449657 -0.01724603 0.112997636 0.24638379 0.15083985 0.054149386 0.0051685125
0.04675298 -0.08438181 -0.11248718 -0.0011396509 0.09066025 0.045565154 -0.07088934 -0.090517804
-0.007002375 -0.032616884 0.09478052 0.023856457 -0.01449779 0.07914694 0.090027586 -0.00021289707
0.04144649 0.032512758 0.063056625 0.0011955774 -0.02166259 0.13459282 0.037036728 0.028551875
-0.042198587 0.022829998 -0.045011103 -0.05650023 -0.007599567 0.021511644 0.057996202 -0.036296785
-0.019452069 0.034649055 0.061080344 0.011633588 -0.03730424 0.0005500363 0.049987704 0.06355966
-0.0042279344 -0.031117909 0.0068396167 0.01625069 0.026387945 -0.0013399557 -0.01566927 -0.008643235
0.023709232 -0.0039012984 -0.028856272 -0.038661506 0.004704736 0.015815767 -0.005451196 -0.034611557
00000000: 3445 893c 9d7f a03d 4c0d 823d 7da9 463d
00000010: e038 cfbc 1175 253d bf1f c53b cbcd 1cbc
00000020: 8ea5 063d d7e8 153b 98c8 2c3d a2c1 7c3c
00000030: f58c 533c 4116 ddbc 147e 813c 32a9 1b3d
00000040: 0069 9c3d 535f b03a 8ace 823b 1eb8 013e
00000050: 9242 d8bb 4a30 f83c 631f c1bd 3d60 b4bc
00000060: 7cc2 b53b 29c7 adbd 6b6e bd3c e641 85bc
00000070: 3f0b 9bbd 7b7a b5bd 3cb9 23be 3742 fabc
00000080: dfe8 c93d d0f6 8f3d d541 a3bc 4b07 5bbd
00000090: bf76 11bd ff2c 923d 2c11 c63d 68eb 6d3d
000000a0: c18a 0bbe 187c a7bb 3d56 83bc 6ca7 053c
000000b0: fd80 f33c 036a b3bd 1058 8f3d 0f45 1a3d
000000c0: a397 523d 23b9 8a3d 030e 903c cc18 913d
000000d0: 0b50 633d 1ab2 103e b81e ff3d cbf1 c63c
000000e0: ed24 b23c 1794 b63c 4ce4 d73c 6a7a 48bd
000000f0: 2713 8c3d c77f 9c3d 2913 c93b f300 23bd
00000100: 5d32 fdbd e82e c13c 0bf3 ca3d c3bf 7a3d
00000110: a70c 7bbc 1b0f 52bd 740c c1bd bc7d 1bbd
00000120: 92e0 18bd 1a1e 4dbd ce3b 60bc d9f8 513d
00000130: 137e b93b 246c 603d 4d1a 83bc a9e1 cabc
00000140: d5c0 dfbc c248 f33c e134 a73c 36f0 e8bb
00000150: 26f2 7dbd 130e 57bb c686 1bbd 8b63 2abd
00000160: aa0f 4ebd f01a 05be 1879 0fbc 6507 98bb
00000170: 4044 dd39 9985 713d c46b bb3c 2b5d 79bc
00000180: c6aa b7bc b6da 9c3b a549 aa3d 1e9b aa3d
00000190: 6157 f7bc e19a d0bc d6a5 0bbd d0bf 16bd
000001a0: d8e3 a8bc dcdb 993d 4728 823d 5fe2 ea3c
000001b0: 9612 e1bc 2e88 dbbd 1936 9abd 9163 10bd
000001c0: 09ea 5f3d a3ad 7cbc bebe 3abe 1963 b5bc
000001d0: f9a2 8d3d 37f0 9f3d 9201 9c3d 8dac 893b
000001e0: a721 2dbd 90d2 f6bc 174c 9dbd 8dfa 40bd
000001f0: 04e5 1cbc b48b 1b3e e61f 9d3d 2536 663c
00000200: bd21 723c 0966 b9bd a2fd 103d af6d f63c
00000210: 209e 983c 1c85 41bd fb88 6abd 4d11 0bbd
00000220: 3d6e ba3b ab5b fc3c ca69 36bd 25cf 45bd
00000230: 9575 75bb aba1 0a3d 3dd2 ff3c 8728 65bc
00000240: 44f4 063b 35b5 ac3d ffac 3d3d a02d 213d
00000250: f9a8 5dbb fcde e7ba 4d7c b03c 9317 ff3c
00000260: 255b 033d 5eed aa3d c606 8bbd 3a9a af3d
00000270: 5a1d 923d 6f7c 763c e40f d8bc 6afb 93bd
00000280: 828e e83d f26d 7f3d aa2a 613c 8979 06bc
00000290: 81cb e8bb c694 c1bc 9266 e7bc 6854 66bd
000002a0: cc6c a2bd 2242 ee3d 3744 59be 3afe c9bd
000002b0: 87b5 573c f71c 343d 51d5 f83d b808 0b3e
000002c0: 188d 253e d0df 283e e58f a53c 188f 81bd
000002d0: 582c 31bd c843 3fbd ff75 f43d 72cb 883d
000002e0: 0752 8fbd 9b31 babd a5fb e2bd fdfd 25bd
000002f0: ead0 a73d 9ca6 8f3d b4a4 b53d c8cc 0d3c
00000300: ca96 5cbd 07ee 5a3d 8c47 8dbc 4e6b e73d
00000310: 084c 7c3e c375 1a3e bfcb 5d3d a05c a93b
00000320: 0e80 3f3d 5fd0 acbd ae5f e6bd 5760 95ba
00000330: 15ac b93d 87a2 3a3d 6e2e 91bd 6661 b9bd
00000340: 2e74 e5bb 4899 05bd 4a1c c23d 9e6e c33c
00000350: 2388 6dbc ca17 a23d 6260 b83d 1f3d 5fb9
00000360: cbc3 293d 192c 053d d523 813d ecb4 9c3a
00000370: be75 b1bc b3d2 093e d3b3 173d 9fe5 e93c
00000380: 6dd8 2cbd fa05 bb3c 905d 38bd c96c 67bd
00000390: ca05 f9bb 3039 b03c 6d8d 6d3d f0ab 14bd
000003a0: f259 9fbc 2bec 0d3d 622f 7a3d ce9a 3e3c
000003b0: 55cc 18bd 5030 103a e8bf 4c3d 912b 823d
000003c0: 7c8a 8abb fcea febc dd1e e03b 2b20 853c
000003d0: 882b d83c 74a1 afba d75c 80bc 5b9c 0dbc
000003e0: dd39 c23c edac 7fbb fd63 ecbc 875b 1ebd
000003f0: 302a 9a3b 1190 813c f29f b2bb d9c4 0dbd

conv2.bias f4 [32]
0.030298071 -0.004621829 0.0062751686 0.02412345 0.041271396 -0.036546983 0.0025598132 0.02304072
0.023879232 -0.041022167 -0.0030877371 -0.064312436 0.03946456 -0.06666369 0.105694294 0.024988566
-0.017352298 0.010351363 -0.0125366105 0.051325284 0.04777478 0.031884342 -0.041846447 0.012434626
-0.012858645 0.055643953 0.021666091 0.038422775 0.030487176 -0.04155366 -0.072774835 0.026607687
00000000: a933 f83c b672 97bb ee9f cd3b 8b9e c53c
00000010: 320c 293d 4ab2 15bd 8ac2 273b e4bf bc3c
00000020: 619e c33c dc06 28bd a25b 4abb 3db6 83bd
00000030: 97a5 213d f986 88bd 4076 d83d d2b4 cc3c
00000040: 6826 8ebc c398 293c 5b66 4dbc 763a 523d
00000050: 7daf 433d 2899 023d 2e67 2bbd 9aba 4b3c
00000060: 11ad 52bc eaea 633d 167d b13c 3361 1d3d
00000070: 3ec0 f93c 2c34 2abd f90a 95bd 5df8 d93c

conv3.weight f4 [1, 32, 5, 5]
-0.009723199 0.02065893 0.026823845 0.04304261 0.03412369 -0.018857973 0.005455221 -0.0043622055
-0.002956696 -0.0014853973 -0.007584054 0.0007293359 -0.014888044 -0.062134136 -0.019916892 -0.00092747016
-0.016574174 -0.022612887 -0.042032905 0.017021408 0.00820058 0.020764628 0.021899447 0.030562792
0.004452844 0.0045488626 -0.034301892 0.011601682 0.024001844 -0.024961084 0.019702379 -0.0127213085
0.014038108 -0.017851854 0.0021102577 -0.040653393 0.024961762 -0.0046224203 0.027322553 -0.016248193
0.012656313 -0.022967814 -0.020513669 -0.016267719 0.014687236 0.025776122 0.02790034 -0.006051596
0.00034298064 0.025604801 -0.009338225 0.03459732 0.04636359 -0.027336556 -0.022927366 -0.03619786
-0.004199357 -0.014783872 0.014116062 -0.025032926 -0.0488497 -0.025109624 0.054239176 0.0002726951
-0.0107160015 -0.031735435 0.03045896 0.015326884 -0.0015207082 0.0007919414 -0.003977901 0.04462362
0.03508286 -0.023168724 -0.016978491 -0.0655025 -0.005149369 0.012182435 0.015574267 0.009352313
0.017995303 0.032736916 0.028229874 0.008630334 0.0039829058 0.062416248 0.031305935 -0.008727157
-0.050590545 -0.013606826 0.036449254 -0.006796277 -0.06363055 -0.04519819 -0.0043003936 0.004025667
-0.013501531 -0.013429792 0.0053193583 0.029498167 0.002357718 0.0043399916 0.012432746 -0.004383439
0.0035726342 -0.012339557 0.028919268 -0.0013687342 0.024735967 -0.020987373 -0.0310757 0.002053549
-0.033265445 0.020777445 0.021279624 0.024487976 0.028313393 0.009876017 0.011940368 -0.006139036
0.03008598 0.012218676 -0.010068008 -0.03526662 0.002345205 -0.007187527 0.036450166 0.05015992
0.03225202 -0.006852396 0.015178195 0.0046051894 0.024554126 0.005447316 -0.0031635673 -0.009265956
0.003455251 -0.044766717 -0.031551234 0.0227437 0.009351622 -0.04744397 -0.046221096 0.010948446
0.00624452 0.012561133 -0.00973074 -0.00010002977 0.027136968 -0.009062378 0.009932305 -0.0016749855
0.010384102 0.002145435 -0.0064670243 0.008802948 0.0046586674 -0.0068144905 0.021412775 0.031329695
0.017042255 -0.012689488 -0.028844755 -0.026988821 -0.019684192 -0.006239402 0.017047856 0.011729207
0.03265902 -0.038127165 -0.023990927 0.030942738 -0.022259783 0.024285266 -0.00023537914 -0.0052100215
0.024032533 0.026955841 -0.013751625 -0.0014132772 0.031055054 0.027476827 0.013157691 -0.021163128
-0.023893565 0.02304682 0.017878484 -0.0052258037 0.03406704 0.0243649 -0.009452149 0.013710355
0.033148587 0.020343684 -0.017212803 -0.034346115 0.010012934 0.012878343 -0.034491006 0.0056140604
-0.043556746 -0.02930416 -0.05118033 -0.029707652 -0.0008740372 -0.025552345 0.01722186 -0.037503544
-0.01678757 -0.010954294 -0.0058492585 0.103260055 0.101133086 -0.016990885 0.00049263967 -0.048818234
0.08030668 0.11402006 -0.010197888 -0.05412755 -0.04837206 -0.032968335 0.010191795 -0.015064006
-0.06243722 0.046921443 0.016764162 0.015024973 0.028356547 0.020859841 0.025457254 -0.01840627
-0.025780786 -0.008105891 0.020500474 -0.026582785 -0.05908236 -0.0642828 -0.009265716 0.011515008
-0.018807262 -0.013917004 -0.022948282 -0.013847951 0.031188242 0.028819017 0.031805 0.040062055
0.016325483 0.013349861 -0.030863246 -0.015063042 -0.0019359153 0.007574377 0.014315485 0.019061852
00000000: 0d4e 1fbc eb3c a93c aebd db3c 734d 303d
00000010: 48c5 0b3d 097c 9abc b6c1 b23b d5f0 8ebb
00000020: 21c5 41bb aab1 c2ba a883 f8bb e730 3f3a
00000030: fcec 73bc 5d80 7ebd c028 a3bc 7821 73ba
00000040: 90c6 87bc a93e b9bc b22a 2cbd 7b70 8b3c
00000050: ba5b 063c 951a aa3c 7866 b33c d25e fa3c
00000060: 2ae9 913b a00e 953b 2480 0cbd fb14 3e3c
00000070: 849f c43c 307b ccbc e266 a13c 096d 50bc
00000080: 1800 663c 0d3e 92bc 404c 0a3b 2c84 26bd
00000090: 9c7c cc3c ac77 97bb 8cd3 df3c ee1a 85bc
000000a0: 6d5c 4f3c ff26 bcbc 480c a8bc e143 85bc
000000b0: bca2 703c 7228 d33c 418f e43c 774c c6bb
000000c0: 15d2 b339 29c1 d13c 5bff 18bc ebb5 0d3d
000000d0: bfe7 3d3d eaf0 dfbc 2cd2 bbbc 3544 14bd
000000e0: c29a 89bb 0e38 72bc 0e47 673c da11 cdbc
000000f0: 9f16 48bd b3b2 cdbc e629 5e3d 84f8 8e39
00000100: 2b92 2fbc 04fd 01bd 1285 f93c 9c1d 7b3c
00000110: 8052 c7ba 4a9a 4f3a 0d59 82bb 42c7 363d
00000120: 0cb3 0f3d 56cc bdbc 7a16 8bbc 2d26 86bd
00000130: 0abc a8bb d698 473c 362b 7f3c 723a 193c
00000140: e36a 933c 2517 063d 5642 e73c 3f66 0d3c
00000150: 0983 823b 2ea8 7f3d a73a 003d 59fc 0ebc
00000160: 0838 4fbd 2aef 5ebc d04b 153d 4eb3 debb
00000170: bc50 82bd bd21 39bd 51ea 8cbb bee9 833b
00000180: 8735 5dbc a108 5cbc 034e ae3b 24a6 f13c
00000190: f283 1a3b 7d36 8e3b b7b2 4b3c f4a2 8fbb
000001a0: db22 6a3b da2b 4abc 1ae8 ec3c 1967 b3ba
000001b0: 15a3 ca3c b6ed abbc 7792 febc d694 063b
000001c0: 5941 08bd 7635 aa3c 9b52 ae3c 029b c83c
000001d0: 7df1 e73c 05cf 213c 89a1 433c f729 c9bb
000001e0: e076 f63c d730 483c 49f4 24bc bb73 10bd
000001f0: 03b2 193b 5985 ebbb c54c 153d 7d74 4d3d
00000200: b21a 043d 108a e0bb f7ad 783c 21e7 963b
00000210: bc25 c93c 667f b23b da53 4fbb 3cd0 17bc
00000220: 7e71 623b 4e5d 37bd de3b 01bd ff50 ba3c
00000230: 8c37 193c 9c54 42bd 5552 3dbd 1c61 333c
00000240: d59e cc3b 36cd 4d3c af6d 1fbc 13c7 d1b8
00000250: 594e de3c 5e7a 14bc 1bbb 223c 308b dbba
00000260: 1522 2a3c 6d9a 0c3b 55e9 d3bb 3d3a 103c
00000270: bca7 983b 174c dfbb d869 af3c 9153 003d
00000280: 339c 8b3c 92e7 4fbc d64b ecbc a917 ddbc
00000290: be40 a1bc e673 ccbb f2a7 8b3c dc2b 403c
000002a0: 77c5 053d 3b2b 1cbd 9f88 c4bc a07b fd3c
000002b0: 265a b6bc e5f1 c63c 1bd0 76b9 d4b8 aabb
000002c0: e0df c43c 7fd2 dc3c 7f4e 61bc b73d b9ba
000002d0: 2b67 fe3c 1517 e13c 5b93 573c 4c5e adbc
000002e0: 70bc c3bc afcc bc3c e675 923c 383d abbb
000002f0: e189 0b3d e698 c73c 30dd 1abc 66a1 603c
00000300: d0c6 073d cca7 a63c dd01 8dbc 83ae 0cbd
00000310: 4a0d 243c b0ff 523c 7146 0dbd 27f6 b73b
00000320: 8f68 32bd 470f f0bc 77a2 51bd 765d f3bc
00000330: a51f 65ba 2753 d1bc dc14 8d3c 519d 19bd
00000340: 1686 89bc a479 33bc 23ab bfbb 027a d33d
00000350: dd1e cf3d 7830 8bbc 7d24 013a a1f5 47bd
00000360: d477 a43d 5983 e93d 0b15 27bc dab4 5dbd
00000370: c821 46bd ce09 07bd 7dfb 263c 05cf 76bc
00000380: 2cbe 7fbd b330 403d ff54 893c 4e2b 763c
00000390: fd4b e83c 42e2 aa3c bb8b d03c bfc8 96bc
000003a0: 3a32 d3bc 92ce 04bc 9cf0 a73c 24c4 d9bc
000003b0: 5800 72bd b3a6 83bd 3bcf 17bc 72a9 3c3c
000003c0: b011 9abc 2504 64bc 09fe bbbc 84e2 62bc
000003d0: 7c7e ff3c dc15 ec3c f645 023d 1c18 243d
000003e0: 05bd 853c 60b9 5a3c ebd4 fcbc faca 76bc
000003f0: 8abe fdba 7b32 f83b 7f8b 6a3c 9a27 9c3c
