2021_BOML_srcnn_project/output/epoch_267.pth (torch, 231519 bytes, 5 tensors)

conv1.weight f4 [64, 1, 9, 9]
-0.030799787 0.0068504987 -0.0865456 0.0807124 -0.021257997 0.11518685 -0.06373872 0.051305745
-0.04247357 0.054781873 -0.007351859 0.018268628 -0.090228766 -0.047954347 -0.061627243 -0.040972352
0.024446836 0.13390177 0.020044792 0.09796429 0.060622636 -0.003383399 0.00089877786 0.038463343
-0.16199648 0.0041527986 -0.07090462 0.07012026 0.05681694 -0.19668476 0.058985155 0.049256623
0.02618848 -0.042142518 0.042420283 -0.028919183 -0.1253439 -0.0692587 -0.12346191 0.09666234
0.10326827 0.009805551 -0.030369934 0.11234613 -0.0034864412 -0.03283572 -0.0418178 0.033570193
0.2282012 0.17370594 0.07357081 -0.021293296 0.022762343 0.004818925 -0.02717473 -0.15238321
-0.10790768 0.11982607 -0.018127123 -0.13461122 -0.028875763 0.14758436 -0.077463344 -0.028822375
-0.07890555 -0.07793045 -0.06325288 -0.0736952 -0.15301672 0.015340272 0.16947298 0.11691816
0.09788483 0.00846478 0.020782355 0.0019097385 0.0538716 -0.10118565 -0.060553808 0.039532248
-0.04327215 0.08297276 0.01275556 0.0071947607 -0.11267429 -0.0609102 -0.08672248 0.113317385
0.055590205 -0.05072025 -0.05135996 0.052402843 0.01768244 -0.03019379 -0.13247712 -0.040480558
0.116854 0.06279448 0.010634273 0.020104418 0.0830649 -0.062812716 -0.034885097 -0.08874946
-0.05271504 0.017549122 0.035926905 0.067940325 0.03383789 -0.041125126 0.1243846 -0.039813522
0.085448705 -0.054883756 -0.0035004648 0.024215471 -0.081331775 -0.03226904 0.0032238811 0.21214642
0.089325376 0.15298043 0.12116757 -0.02230574 0.10076448 -0.084417574 -0.031582393 -0.034570035
0.11113921 0.16929138 0.0050441194 -0.011050223 0.0058059506 -0.07153297 -0.060335167 -0.15060008
-0.052853413 -0.005630871 -0.028825535 -0.12137523 -0.11614571 -0.025864072 0.10007287 0.11539085
-0.008798187 -0.10027021 -0.07884806 -0.0371805 -0.18012936 -0.18681394 -0.06754319 0.0418017
-0.0013833962 0.15181568 0.08862656 0.1687728 -0.002614714 0.018144794 -0.12689233 0.09678387
0.10409029 0.06972487 -0.026167378 0.1044318 0.100584105 0.18092252 0.22045068 0.26948774
0.17872517 0.07459893 -0.008266601 -0.07620461 -0.054121766 -0.12059046 -0.24406874 -0.18258329
-0.20392032 -0.106027626 -0.015549536 -0.0608188 0.057305656 0.04609885 0.051128145 -0.13826658
-0.08372132 -0.050421946 -0.08365524 0.00663195 0.08130853 -0.060517546 -0.04177811 -0.08774637
0.07009672 0.17280078 -0.03781714 -0.03660213 0.022792112 -0.023976736 0.09082648 0.0307166
-0.03580093 0.035575986 0.09266496 -0.021654738 -0.09537469 -0.016730968 0.02158367 0.029880678
0.019247402 0.10087705 0.036280084 0.072904035 0.12540239 -0.021852601 0.057162154 -0.022491334
0.036959413 -0.086967885 -0.041048933 -0.024407065 -0.13446137 -0.08798855 0.03734257 -0.04112169
0.020557689 -0.06011702 -0.00517489 -0.06893576 0.05522992 0.0044944435 0.028788015 0.017193355
-0.050346795 0.04622328 0.017850917 -0.03094403 0.07285873 0.005257535 -0.10300397 0.071583465
0.04013846 -0.03080801 -0.06117122 -0.052702464 0.048213776 0.030423097 -0.1059587 -0.044710178
0.08869017 0.110915214 0.07733945 -0.008938269 0.07139933 -0.076442145 -0.013763663 0.024313921
00000000: d64f fcbc 267a e03b d23e b1bd 8b4c a53d
00000010: 4025 aebc 15e7 eb3d 7289 82bd f925 523d
00000020: c4f8 2dbd f562 603d dde7 f0bb 17a8 953c
00000030: dcc9 b8bd c76b 44bd d96c 7cbd a0d2 27bd
00000040: bb44 c83c 8c1d 093e fa34 a43c 80a1 c83d
00000050: 714f 783d 04bc 5dbb f69b 6b3a bd8b 1d3d
00000060: 68e2 25be 3314 883b 7136 91bd 369b 8f3d
00000070: e1b8 683d bb67 49be 6b9a 713d 50c1 493d
00000080: 3989 d63c a29d 2cbd e4c0 2d3d ece7 ecbc
00000090: 275a 00be 81d7 8dbd 99d9 fcbd e8f6 c53d
000000a0: 517e d33d 76a7 203c 5eca f8bc ba15 e63d
000000b0: c77c 64bb bf7e 06bd 2449 2bbd e680 093d
000000c0: 93ad 693e f8df 313e 4bac 963d 476f aebc
000000d0: 1878 ba3c 13e8 9d3b 8a9d debc 580a 1cbe
000000e0: b4fe dcbd 5f67 f53d 557f 94bc 86d7 09be
000000f0: dd8c ecbc 5b20 173e 1aa5 9ebd e71c ecbc
00000100: 3c99 a1bd 009a 9fbd ba8a 81bd 82ed 96bd
00000110: 6ab0 1cbe c455 7b3c 538a 2d3e ca72 ef3d
00000120: d777 c83d dcaf 0a3c c23f aa3c 3150 fa3a
00000130: 78a8 5c3d 6c3a cfbd 4507 78bd 91ec 213d
00000140: 233e 31bd 9fed a93d b2fc 503c 07c2 eb3b
00000150: c7c1 e6bd f97c 79bd 8e9b b1bd f212 e83d
00000160: 8eb2 633d 09c0 4fbd d25e 52bd 5da4 563d
00000170: c4da 903c f858 f7bc 15a8 07be f1ce 25bd
00000180: 2651 ef3d 649a 803d 603b 2e3c 05b2 a43c
00000190: ee1d aa3d f4a3 80bd ade3 0ebd 47c2 b5bd
000001a0: baeb 57bd 2dc3 8f3c 1728 133d 4c24 8b3d
000001b0: 9999 0a3d d272 28bd 5abd fe3d 8113 23bd
000001c0: bbff ae3d cacd 60bd 0e68 65bb 865f c63c
000001d0: 4691 a6bd 8a2c 04bd c047 533b e93c 593e
000001e0: 39f0 b63d e7a6 1c3e b426 f83d 87ba b6bc
000001f0: 9c5d ce3d 1fe3 acbd 8a5c 01bd 4f99 0dbd
00000200: f49c e33d b85a 2d3e 2449 a53b ff0b 35bc
00000210: d83f be3b e17f 92bd 0222 77bd e836 1abe
00000220: d27c 58bd 2b83 b8bb 8723 ecbc 9493 f8bd
00000230: cddd edbd e4e0 d3bc 01f3 cc3d 0a52 ec3d
00000240: 4526 10bc 785a cdbd 177b a1bd 944a 18bd
00000250: d573 38be 274c 3fbe 1654 8abd 4238 2b3d
00000260: 1353 b5ba 9275 1b3e d881 b53d c7d2 2c3e
00000270: 9f5b 2bbb 64a4 943c 10f0 01be 9f36 c63d
00000280: 4a2d d53d eacb 8e3d f85c d6bc 57e0 d53d
00000290: 0aff cd3d c143 393e d3bd 613e 4cfa 893e
000002a0: bb03 373e 53c7 983d a370 07bc 2a11 9cbd
000002b0: c9ae 5dbd 22f8 f6bd 28ed 79be 1df7 3abe
000002c0: 7dd0 50be 0325 d9bd 7bc3 7ebc 221d 79bd
000002d0: 56b9 6a3d 26d2 3c3d bf6b 513d c195 0dbe
000002e0: 1576 abbd 3e87 4ebd 7053 abbd d450 d93b
000002f0: 1685 a63d 3fe1 77bd 861f 2bbd 5eb4 b3bd
00000300: de8e 8f3d b0f2 303e 25e6 1abd 1dec 15bd
00000310: 86b6 ba3c dc6a c4bc 3c03 ba3d 61a1 fb3c
00000320: ffa3 12bd 20b8 113d 20c7 bd3d 4765 b1bc
00000330: ce53 c3bd 620f 89bc 3dd0 b03c 53c8 f43c
00000340: baac 9d3c a098 ce3d 6d9a 143d b64e 953d
00000350: 7c69 003e 3a04 b3bc dd22 6a3d bf3f b8bc
00000360: c162 173d 381c b2bd ed22 28bd 53f1 c7bc
00000370: 3eb0 09be 5733 b4bd 86f4 183d 386f 28bd
00000380: 9968 a83c 443d 76bd 2092 a9bb 312e 8dbd
00000390: c538 623d 2046 933b d8d4 eb3c 14d9 8c3c
000003a0: 7138 4ebd 9f54 3d3d 163c 923c 567e fdbc
000003b0: f536 953d 6647 ac3b bff3 d2bd 5a9a 923d
000003c0: 3a68 243d 1461 fcbc ac8e 7abd 8ade 57bd
000003d0: cf7b 453d dc39 f93c e000 d9bd 0522 37bd
000003e0: 31a3 b53d 8427 e33d 2564 9e3d d171 12bc
000003f0: d039 923d b38d 9cbd fd80 61bc fd2d c73c

conv1.bias f4 [64]
0.020723157 -0.13537203 0.017954685 -0.14384778 0.02739974 0.014548498 0.047918405 -0.00876477
0.067283936 -0.025641527 -0.0124095855 0.018428113 -0.20485705 0.24781689 0.07239861 -0.00552062
-0.004522434 -0.0013190238 0.000305726 0.0127156945 0.01819022 -0.021764645 -0.027818844 0.050913807
-0.32729605 -0.026680466 0.06542409 0.010002006 0.032955926 0.01571993 0.025340851 -0.008605224
0.04516686 0.022604708 0.0015721841 -0.045447923 -0.0077742888 0.08355749 -0.017207868 0.03208258
0.0043691434 -0.0006487366 0.09337241 -0.022222882 0.04646935 -0.010652578 -0.034989644 0.02431932
-0.0027894336 0.009003254 0.016962059 0.017671976 0.01025159 -0.008510405 0.011884252 0.0154887475
0.012426873 -0.013629191 0.000870272 0.047483962 0.044557594 -0.008467005 -0.03257112 -0.002036092
00000000: 9cc3 a93c f79e 0abe b415 933c d54c 13be
00000010: 6b75 e03c d35c 6e3c 1746 443d 1c9a 0fbc
00000020: 29cc 893d 2e0e d2bc 9351 4bbc 8ef6 963c
00000030: 0cc6 51be b6c3 7d3e b945 943d 51e6 b4bb
00000040: ed30 94bb 18e3 acba d949 a039 7d55 503c
00000050: a803 953c c54b b2bc 58e4 e3bc ff8a 503d
00000060: 5993 a7be fe90 dabc 11fd 853d 74df 233c
00000070: cbfc 063d 15c7 803c 9e97 cf3c edfc 0cbc
00000080: e300 393d 822d b93c bf11 ce3a 9a27 3abd
00000090: 76bf febb 3020 ab3d 84f7 8cbc 0669 033d
000000a0: 082b 8f3b fa0f 2aba 093a bf3d c30c b6bc
000000b0: a556 3e3d 2788 2ebc 4d51 0fbd 5039 c73c
000000c0: eece 36bb 6282 133c 04f4 8a3c d2c4 903c
000000d0: 49f6 273c 3a6f 0bbc 2ab6 423c 84c4 7d3c
000000e0: 159a 4b3c f84c 5fbc f722 643a 8b7e 423d
000000f0: 0682 363d 31b9 0abc 4b69 05bd f56f 05bb

conv2.weight f4 [32, 64, 5, 5]
0.017468335 0.07804757 0.062962435 0.04713721 -0.02641176 0.040509436 0.005741644 -0.009719141
0.03227421 0.0014558021 0.042040367 0.01524559 0.013376968 -0.026922632 0.015309255 0.038267683
0.0764063 0.001720338 0.0042453385 0.12697046 -0.0062636435 0.030252384 -0.0941127 -0.021715682
0.0059130453 -0.084538266 0.022969361 -0.016705886 -0.076660536 -0.08941103 -0.15962148 -0.030702038
0.09848723 0.06975892 -0.020750035 -0.053568676 -0.03594863 0.07124928 0.09690862 0.058095016
-0.13619928 -0.0053638327 -0.01613816 0.008386727 0.030003168 -0.0874165 0.06968312 0.037246883
0.05138028 0.067903385 0.017889433 0.07090765 0.055588808 0.14176482 0.12525526 0.024108768
0.020974955 0.021258332 0.025185203 -0.049905024 0.06816711 0.07620975 0.0059982142 -0.0398532
-0.12359825 0.023303892 0.09902409 0.061557774 -0.014905391 -0.05088244 -0.09452283 -0.03821379
-0.03725253 -0.049542658 -0.013007915 0.05185202 0.005470744 0.05524599 -0.015541723 -0.024274385
-0.026983572 0.029415093 0.020561688 -0.007355186 -0.0630834 -0.0019106772 -0.037576955 -0.040327925
-0.049390607 -0.1301264 -0.008799275 -0.0051023895 0.0013808481 0.060123302 0.023504544 -0.015385944
-0.023367967 0.005455614 0.08461063 0.08432035 -0.029909763 -0.025306566 -0.03381817 -0.03689783
-0.020614376 0.07474981 0.06319204 0.02863762 -0.027674006 -0.10742665 -0.07647777 -0.036235787
0.054156866 -0.015960142 -0.1829187 -0.022351142 0.06907194 0.07821227 0.076101065 0.0041316547
-0.042234153 -0.030012332 -0.076520264 -0.047072127 -0.009505534 0.15137416 0.07613521 0.013771149
0.014237492 -0.090890184 0.035364453 0.029879084 0.018635046 -0.04756731 -0.057671737 -0.033951774
0.005719315 0.030982666 -0.044545557 -0.048379473 -0.0041803587 0.03347344 0.031041212 -0.014228009
0.0017484522 0.08440173 0.04623559 0.03932598 -0.0034002198 -0.00171618 0.022133827 0.031448763
0.032649353 0.08382383 -0.06777424 0.085741736 0.07124395 0.015391219 -0.026612377 -0.072513804
0.11403807 0.062855095 0.014681491 -0.007690316 -0.006509108 -0.023786882 -0.028491538 -0.056140076
-0.07971447 0.116698645 -0.21285836 -0.09956853 0.012435721 0.0428006 0.12089878 0.13614115
0.16187261 0.16496031 0.020117225 -0.0635845 -0.043557245 -0.04683504 0.11951647 0.066705994
-0.07029183 -0.09195326 -0.1118233 -0.04075404 0.08168697 0.069771744 0.08879869 0.008273307
-0.053409208 0.053893104 -0.017340422 0.11364108 0.24692579 0.15131874 0.054651078 0.005481608
0.047166545 -0.08414044 -0.112667784 -0.0007356056 0.09088512 0.045298886 -0.071660124 -0.0916205
-0.007350578 -0.032839425 0.09485418 0.023984892 -0.014645121 0.079392105 0.09050236 -0.00060189416
0.04137263 0.03233105 0.06315177 0.0009273223 -0.022412041 0.13434441 0.03662257 0.02841255
-0.042719744 0.023038309 -0.044984687 -0.056494646 -0.007818485 0.021096488 0.058298673 -0.036226954
-0.019473854 0.034505557 0.060838863 0.011907008 -0.037475217 0.00027269035 0.04958906 0.06312454
-0.0037702352 -0.031012287 0.0068520065 0.016499091 0.026777461 -0.0009452814 -0.015463639 -0.008502333
0.024152188 -0.0036139858 -0.028469047 -0.038310282 0.0049286233 0.016170306 -0.005273435 -0.034492448
00000000: c119 8f3c 68d7 9f3d 73f2 803d f212 413d
00000010: 7a5d d8bc 39ed 253d 6724 bc3b 083d 1fbc
00000020: f631 043d 9dd0 be3a 8532 2c3d a4c8 793c
00000030: 122b 5b3c da8c dcbc abd3 7a3c 93be 1c3d
00000040: e87a 9c3d f77c e13a 7b1c 8b3b 8b04 023e
00000050: 403f cdbb d9d3 f73c 29be c0bd 16e5 b1bc
00000060: 38c2 c13b 6622 adbd 3e2a bc3c c8da 88bc
00000070: 3300 9dbd 211d b7bd d073 23be d782 fbbc
00000080: acb3 c93d c4dd 8e3d fafb a9bc d46a 5bbd
00000090: df3e 13bd 24eb 913d 0778 c63d 0af5 6d3d
000000a0: d377 0bbe 17c3 afbb 2d34 84bc 7c68 093c
000000b0: 34c9 f53c 6c07 b3bd 06b6 8e3d 3090 183d
000000c0: 2174 523d ee10 8b3d dc8c 923c 0838 913d
000000d0: 17b1 633d cc2a 113e ea42 003e c07f c53c
000000e0: abd3 ab3c f425 ae3c 3351 ce3c 3669 4cbd
000000f0: 339b 8b3d db13 9c3d ab8c c43b 1c3d 23bd
00000100: 1421 fdbd cee7 be3c 24cd ca3d 0124 7c3d
00000110: be35 74bc 1b6a 50bd 2f95 c1bd 1086 1cbd
00000120: 1c96 18bd 3eed 4abd 261f 55bc c962 543d
00000130: ed43 b33b 9f49 623d b6a2 7ebc 13db c6bc
00000140: a70c ddbc ecf7 f03c fc70 a83c c603 f1bb
00000150: df31 81bd b06f faba 4bea 19bd e52e 25bd
00000160: ce4d 4abd db3f 05be d62a 10bc f231 a7bb
00000170: 93fd b43a da43 763d 9a8c c03c 5415 7cbc
00000180: 2e6e bfbc 02c5 b23b 5748 ad3d 26b0 ac3d
00000190: 5205 f5bc b74f cfbc ec84 0abd 2e22 17bd
000001a0: 7bdf a8bc 6e16 993d d46a 813d 7199 ea3c
000001b0: 99b4 e2bc 8102 dcbd 61a0 9cbd fa6b 14bd
000001c0: 97d3 5d3d d8be 82bc 0a4f 3bbe be19 b7bc
000001d0: 9775 8d3d c12d a03d e0da 9b3d d562 873b
000001e0: b8fd 2cbd 6cdc f5bc a8b6 9cbd b4ce 40bd
000001f0: 19bd 1bbc d401 1b3e c7ec 9b3d 63a0 613c
00000200: 5f44 693c a224 babd 51da 103d fbc4 f43c
00000210: 86a8 983c f1d5 42bd 3339 6cbd 0411 0bbd
00000220: 1769 bb3b 5ccf fd3c 6775 36bd 8e29 46bd
00000230: 64fb 88bb 721b 093d 244a fe3c 981c 69bc
00000240: 522c e53a d0da ac3d 8861 3d3d 4714 213d
00000250: 39d6 5ebb 72f1 e0ba 0052 b53c 6bd0 003d
00000260: 54bb 053d d4ab ab3d 39cd 8abd 5d99 af3d
00000270: 59e8 913d 742b 7c3c 3302 dabc 1e82 94bd
00000280: cb8c e93d 2cba 803d a38a 703c 0cff fbbb
00000290: 5b4a d5bb b5dc c2bc 1667 e9bc 23f3 65bd
000002a0: 5741 a3bd b3ff ee3d 8bf7 59be 96ea cbbd
000002b0: 32bf 4b3c af4f 2f3d c899 f73d 9668 0b3e
000002c0: efc1 253e 5beb 283e e1cc a43c 9738 82bd
000002d0: 1569 32bd 19d6 3fbd 0dc5 f43d 279d 883d
000002e0: 2af5 8fbd fe51 bcbd 9d03 e5bd b5ed 26bd
000002f0: 804b a73d 7de4 8e3d 16dc b53d c48c 073c
00000300: 9dc3 5abd 04bf 5c3d 800d 8ebc a8bc e83d
00000310: 1dda 7c3e 4df3 1a3e cfd9 5f3d 109f b33b
00000320: b531 413d d351 acbd 5ebe e6bd a8d5 40ba
00000330: fa21 ba3d 538b 393d 8bc2 92bd 87a3 bbbd
00000340: 1edd f0bb a282 06bd e942 c23d f77b c43c
00000350: 17f2 6fbc 5498 a23d 4d59 b93d 6fc8 1dba
00000360: 5976 293d 906d 043d b755 813d 8c17 733a
00000370: 7599 b7bc 9591 093e 8c01 163d 70c1 e83c
00000380: e6fa 2ebd d6ba bc3c dd41 38bd ee66 67bd
00000390: 1a19 00bc 8bd2 ac3c 97ca 6e3d b762 14bd
000003a0: a287 9fbc b355 0d3d 2c32 793d 9c15 433c
000003b0: 9d7f 19bd e1f7 8e39 e61d 4b3d 7047 813d
000003c0: 0d16 77bb 7b0d febc cc86 e03b 1a29 873c
000003d0: 685c db3c c3cc 77ba 345b 7dbc 5f4d 0bbc
000003e0: cfda c53c 9fd8 6cbb eb37 e9bc 3eeb 1cbd
000003f0: 4a80 a13b 9777 843c c7cc acbb f447 0dbd

conv2.bias f4 [32]
0.030347062 -0.004318157 0.0063327337 0.024090094 0.041311093 -0.03700235 0.0026654755 0.023086157
0.023385882 -0.04117699 -0.0030877371 -0.06436322 0.039568186 -0.06714833 0.105297714 0.025312934
-0.017555889 0.010422998 -0.0130919125 0.051356297 0.047585137 0.032348394 -0.041877434 0.012690087
-0.013183842 0.05577552 0.021536848 0.03882171 0.030547265 -0.041612174 -0.072680146 0.02672096
00000000: 679a f83c 547f 8dbb d282 cf3b 9758 c53c
00000010: d235 293d c78f 17bd 42af 2e3b 2e1f bd3c
00000020: c093 bf3c 34a9 28bd a25b 4abb ddd0 83bd
00000030: 4012 223d 1085 89bd 54a6 d73d 125d cf3c
00000040: 5ed1 8fbc 39c5 2a3c 767f 56bc fb5a 523d
00000050: a2e8 423d c07f 043d ac87 2bbd 15ea 4f3c
00000060: 0b01 58bc df74 643d 0b6e b03c 8303 1f3d
00000070: 423e fa3c 8771 2abd 54d9 94bd eae5 da3c

conv3.weight f4 [1, 32, 5, 5]
-0.009806568 0.02071147 0.026947305 0.043103337 0.034098234 -0.018909527 0.005406248 -0.004263882
-0.0029377558 -0.0014728251 -0.007646355 0.00062472495 -0.014926182 -0.062144417 -0.019900579 -0.000926125
-0.016506216 -0.022566564 -0.041989934 0.01700153 0.008143854 0.020735705 0.021956764 0.030568374
0.0045384797 0.00459472 -0.03427575 0.011617152 0.02398617 -0.024942786 0.019709516 -0.0127020655
0.0140379565 -0.017865751 0.0020764044 -0.040681686 0.024942363 -0.004621287 0.027297292 -0.016268816
0.01265485 -0.023006532 -0.0205506 -0.016279625 0.014684853 0.025870781 0.027956538 -0.006053809
0.00033580343 0.02560974 -0.009014499 0.03540366 0.04639999 -0.02784176 -0.023174014 -0.03637607
-0.0042930213 -0.014478911 0.013815625 -0.025114723 -0.049624365 -0.025121553 0.054525167 0.00024452567
-0.011095068 -0.03214829 0.031217791 0.0154009545 -0.0020486568 0.0005490024 -0.0042273463 0.04479548
0.034685917 -0.023636017 -0.017301373 -0.065393396 -0.0050680493 0.01219574 0.015619557 0.009331489
0.017943993 0.03284182 0.028302971 0.008646139 0.0039124102 0.062481813 0.03130042 -0.0088792555
-0.05068958 -0.013684476 0.036567118 -0.00688523 -0.06369046 -0.045243595 -0.004342878 0.0040471074
-0.013520178 -0.013419532 0.0053600874 0.029495286 0.0023435631 0.0043310914 0.012427568 -0.004396439
0.0035661038 -0.012356193 0.028912552 -0.0013694068 0.024732409 -0.020991946 -0.031081324 0.0020522582
-0.033264253 0.020778127 0.021278087 0.024481859 0.028311115 0.009879687 0.01193449 -0.00614803
0.030082889 0.012216364 -0.010065986 -0.035275087 0.0023344636 -0.007218026 0.036463287 0.050175447
0.032184854 -0.0068820342 0.015203834 0.004751475 0.024652934 0.0054534883 -0.0030840242 -0.009231059
0.0034738858 -0.04476829 -0.031537443 0.022745654 0.009286693 -0.047451936 -0.046239316 0.010917936
0.0062539103 0.012569888 -0.009713459 -8.646055e-05 0.0270823 -0.009103475 0.009931728 -0.0016870651
0.010366488 0.0021256506 -0.0064744335 0.008799697 0.0046562576 -0.0068234154 0.021391595 0.031316046
0.017053531 -0.012676706 -0.028840994 -0.026990667 -0.019692866 -0.0062534986 0.017041674 0.011724992
0.03265257 -0.038153924 -0.02400222 0.03093815 -0.022254702 0.02428618 -0.0002441989 -0.005214894
0.024034798 0.026952654 -0.013756895 -0.001419348 0.031042391 0.027471282 0.013150543 -0.021169376
-0.023903199 0.023040297 0.017874788 -0.005230628 0.034064494 0.024355225 -0.009451905 0.013710826
0.033146203 0.020343572 -0.017218418 -0.03434514 0.010017084 0.012879465 -0.034492627 0.005606505
-0.043712992 -0.02932009 -0.05128998 -0.029630417 -0.00093332847 -0.025653157 0.017253205 -0.0375015
-0.016778618 -0.010944127 -0.0059101237 0.103410125 0.10114482 -0.016962403 0.00040176552 -0.04889902
0.08033346 0.11417411 -0.009979557 -0.054073513 -0.04854678 -0.033051707 0.010146052 -0.015073184
-0.06246053 0.04673381 0.016658025 0.015001376 0.028307244 0.020913403 0.025258914 -0.018420221
-0.025887722 -0.008201658 0.02046516 -0.026628494 -0.059177604 -0.06443676 -0.009510121 0.011479858
-0.018608466 -0.013832141 -0.022941867 -0.013877377 0.031217696 0.029057398 0.031789944 0.03992933
0.016220959 0.013276428 -0.030863246 -0.015063042 -0.0019359153 0.007574377 0.014315485 0.019061852
00000000: baab 20bc 1aab a93c 98c0 dc3c 208d 303d
00000010: 97aa 0b3d 27e8 9abc e526 b13b 09b8 8bbb
00000020: 5d87 40bb cf0b c1ba 468e fabb 95c4 233a
00000030: f28c 74bc 258b 7ebd 8a06 a3bc 32c7 72ba
00000040: 0b38 87bc 84dd b8bc a3fd 2bbd cb46 8b3c
00000050: cd6d 053c eddd a93c acde b33c 876a fa3c
00000060: 87b7 943b 4e8f 963b bb64 0cbd de55 3e3c
00000070: a57e c43c d054 ccbc da75 a13c 531c 50bc
00000080: 75ff 653c 325b 92bc 4914 083b d7a1 26bd
00000090: ed53 cc3c 2a6e 97bb 929e df3c 2e46 85bc
000000a0: 4a56 4f3c 3278 bcbc bb59 a8bc d95c 85bc
000000b0: bd98 703c f6ee d33c 1c05 e53c 085f c6bb
000000c0: c60e b039 84cb d13c 8db1 13bc 6e03 113d
000000d0: ea0d 3e3d 6714 e4bc 6ed7 bdbc 13ff 14bd
000000e0: 79ac 8cbb f438 6dbc ee5a 623c 64bd cdbc
000000f0: eb42 4bbd b7cb cdbc c855 5f3d ae33 8039
00000100: 17c8 35bc edad 03bd 74bc ff3c 4954 7c3c
00000110: c242 06bb edea 0f3a 8d85 8abb 777b 373d
00000120: d212 0e3d 52a0 c1bc 9cbb 8dbc f9ec 85bd
00000130: e111 a6bb a4d0 473c 2ce9 7f3c 1ae3 183c
00000140: 48ff 923c 2585 063d a2db e73c 89a8 0d3c
00000150: ad33 803b eeec 7f3d df34 003d 4c7a 11bc
00000160: e19f 4fbd da34 60bc 67c7 153d 7f9d e1bb
00000170: 2570 82bd 5951 39bd b34e 8ebb 999d 843b
00000180: bd83 5dbc 99dd 5bbc aca3 af3b 19a0 f13c
00000190: 7796 193b d4eb 8d3b 009d 4b3c 0110 90bb
000001a0: 4bb5 693b a171 4abc 04da ec3c ab7d b3ba
000001b0: 9f9b ca3c 4df7 abbc 439e febc 2e7f 063b
000001c0: 1940 08bd e436 aa3c 624f ae3c 2e8e c83c
000001d0: b6ec e73c 69de 213c e188 433c 6a75 c9bb
000001e0: 6470 f63c 2527 483c ceeb 24bc 9c7c 10bd
000001f0: cdfd 183b 3185 ecbb 875a 153d c584 4d3d
00000200: 44d4 033d b082 e1bb 8019 793c 43b2 9b3b
00000210: f3f4 c93c 2db3 b23b 571d 4abb de3d 17bc
00000220: 22aa 633b f45e 37bd 682d 01bd 1855 ba3c
00000230: 3727 183c f65c 42bd 7065 3dbd 25e1 323c
00000240: 9aed cc3b eef1 4d3c 3325 1fbc 2852 b5b8
00000250: b3db dd3c be26 15bc b0b8 223c 8320 ddba
00000260: 34d8 293c 804e 0b3b 7c27 d4bb 9b2c 103c
00000270: 8593 983b f596 dfbb 6d3d af3c 4145 003d
00000280: d9b3 8b3c f5b1 4fbc f343 ecbc 881b ddbc
00000290: ef52 a1bc 26ea ccbb fb9a 8b3c 2e1a 403c
000002a0: b4be 053d 4a47 1cbd 4ea0 c4bc 0172 fd3c
000002b0: 7e4f b6bc d0f3 c63c d207 80b9 b4e1 aabb
000002c0: a0e4 c43c d0cb dc3c 9a64 61bc 6a09 baba
000002d0: 9d4c fe3c 740b e13c 6075 573c 666b adbc
000002e0: a4d0 c3bc 01bf bc3c 266e 923c b065 abbb
000002f0: 3687 0b3d 9c84 c73c 2adc 1abc 5fa3 603c
00000300: 50c4 073d 90a7 a63c a40d 8dbc 7dad 0cbd
00000310: b21e 243c 6404 533c 2448 0dbd c6b6 b73b
00000320: 650c 33bd af30 f0bc 7115 52bd 7dbb f2bc
00000330: 9daa 74ba 9226 d2bc 9856 8d3c 2c9b 19bd
00000340: 5073 89bc ff4e 33bc b6a9 c1bb b0c8 d33d
00000350: 0425 cf3d bdf4 8abc 0ea4 d239 574a 48bd
00000360: de85 a43d 1ed4 e93d 4c81 23bc 307c 5dbd
00000370: fdd8 46bd 3a61 07bd a03b 263c 84f5 76bc
00000380: 9dd6 7fbd f46b 3f3d 6976 883c 55c8 753c
00000390: 98e4 e73c 9652 ab3c c8eb ce3c 01e6 96bc
000003a0: 7d12 d4bc 3f60 06bc 8da6 a73c 0024 dabc
000003b0: 3764 72bd 6cf7 83bd 57d0 1bbc 0416 3c3c
000003c0: c870 98bc 34a0 62bc 95f0 bbbc f05d 63bc
000003d0: 41bc ff3c c809 ee3c 2c36 023d f08c 233d
000003e0: d1e1 843c 6085 593c ebd4 fcbc faca 76bc
000003f0: 8abe fdba 7b32 f83b 7f8b 6a3c 9a27 9c3c
