2021_BOML_srcnn_project/output/epoch_223.pth (torch, 231519 bytes, 5 tensors)

conv1.weight f4 [64, 1, 9, 9]
000000 55 79 15 bd aa 50 0e 3c 50 55 a2 bd be 5e a4 3d
       -0.036492664 0.008686224 -0.07926428 0.08025883
000010 b6 5d e7 bc 11 03 ea 3d 64 53 72 bd d2 da 29 3d
       -0.028242927 0.11426366 -0.05916156 0.04146845
000020 87 19 d7 bc e0 93 82 3d b1 3b 10 bc 66 b6 ae 3c
       -0.02625729 0.06375861 -0.008803294 0.021327209
000030 c7 ed b9 bd 3b 7c 5a bd d2 8a 82 bd 95 db 2a bd
       -0.090785556 -0.05334113 -0.06374134 -0.041713316
000040 db 15 76 3b f6 5c 06 3e 2c 25 c3 3c 54 ad b8 3d
       0.0037549648 0.131214 0.023821436 0.09017435
000050 63 6a 79 3d 1c 3e a5 ba 78 a2 84 3b 48 9e 3a 3d
       0.060892474 -0.0012607011 0.004047688 0.045561105
000060 44 54 18 be 1c a4 66 b9 79 d3 94 bd fd 3e 87 3d
       -0.14875895 -0.00021995645 -0.07266898 0.06603811
000070 b4 d0 48 3d 71 56 47 be 7b e1 75 3d a4 4f 50 3d
       0.04902716 -0.19466569 0.060029488 0.0508572
000080 96 e8 f4 3c 2d 59 f5 bc bd b2 27 3d 7a 2c 17 bd
       0.029896062 -0.029949749 0.040941942 -0.03690765
000090 43 10 fc bd 1a c2 94 bd f3 ec f5 bd 69 6f bc 3d
       -0.12307789 -0.072635844 -0.12008085 0.09200937
0000a0 df 0a c7 3d ed 3f fb 3b dd 3c be bc 9b cc de 3d
       0.0971887 0.0076675327 -0.023222381 0.10878869
0000b0 e1 04 f5 bb 09 1b f4 bc 92 7e 38 bd fb af 05 3d
       -0.0074773883 -0.029798048 -0.04504258 0.03263853
0000c0 6a 8d 62 3e 58 99 2d 3e 18 80 91 3d 6e 07 65 bc
       0.22124258 0.16953027 0.0710451 -0.013978822
0000d0 10 b1 b3 3c 00 3f 15 3c 86 c6 c2 bc e0 f4 19 be
       0.021935016 0.009109259 -0.023776304 -0.15034819
0000e0 6d a8 ce bd f0 73 fa 3d 83 df 34 bc 98 6b 09 be
       -0.100907184 0.122291446 -0.0110396175 -0.1341995
0000f0 0a 0e d9 bc 2b 41 0d 3e b1 40 a3 bd 5c 4e 01 bd
       -0.026495952 0.13794391 -0.07971323 -0.03156887
000100 ca 0d a8 bd 67 e8 8d bd 06 3c 64 bd d9 c1 81 bd
       -0.08205755 -0.06929093 -0.055721305 -0.06335802
000110 38 0c 1d be c0 34 8e 3c 09 82 23 3e b1 c1 e2 3d
       -0.15336692 0.017359138 0.15967573 0.110721
000120 e9 e6 bd 3d 3d c5 19 bc de ec 8b 3c dc 0e 37 b7
       0.09272558 -0.009385404 0.01708072 -1.091111e-05
000130 c2 c8 5d 3d 0a 69 d6 bd 2a f3 56 bd 92 e3 48 3d
       0.054146536 -0.10469253 -0.052477993 0.049045153
000140 14 6d 17 bd b6 4e a0 3d a6 15 87 3c 93 9b db 3b
       -0.03696926 0.07827513 0.016489815 0.0067018955
000150 d4 71 d2 bd 39 88 76 bd 49 b4 af bd d9 a9 e2 3d
       -0.10275617 -0.060188506 -0.085793085 0.11067552
000160 d3 4a 5b 3d 62 17 5b bd 84 fd 76 bd 40 ad 52 3d
       0.053538155 -0.053489096 -0.060300365 0.051434755
000170 40 ad 81 3c 35 e5 9f bc 3d a5 03 be 40 2a 1f bd
       0.015829682 -0.019518474 -0.12856002 -0.038858652
000180 cd 11 ec 3d 1d e7 85 3d dd 17 67 3c 6b ff 78 3c
       0.11526833 0.06538222 0.014104811 0.015197615
000190 c8 d2 a1 3d 2b df 8b bd 70 40 fc bc 60 69 ba bd
       0.079015315 -0.06829675 -0.030792445 -0.0910213
0001a0 a0 5b 5e bd 76 3a 57 3c 55 10 10 3d b3 8d 8f 3d
       -0.0542866 0.013136497 0.035171825 0.07009449
0001b0 f3 c8 23 3d bb 73 17 bd b3 fb fa 3d ce 0a 0c bd
       0.039986562 -0.036975604 0.12255039 -0.03418999
0001c0 b6 c2 ae 3d 85 1b 4b bd 18 c3 2f bb 8b 4b b8 3c
       0.08533232 -0.04958679 -0.0026819166 0.02249696
0001d0 c6 09 b6 bd 05 fc c3 bc 5a 71 0d 3c 7b ed 4f 3e
       -0.08888583 -0.023923883 0.008632982 0.20305435
0001e0 6c 51 a7 3d 7e 6b 10 3e c6 2d e9 3d d7 f1 da bc
       0.08169827 0.14103505 0.11385684 -0.026726646
0001f0 6a 0a ce 3d 5f ee b0 bd 99 41 bd bc 15 07 dd bc
       0.1006058 -0.08639216 -0.023102568 -0.026980916
000200 cb 65 d4 3d 2c 9b 25 3e fb c5 88 ba a9 a2 56 bc
       0.10370978 0.16172475 -0.0010434979 -0.013100305
000210 f5 08 d2 3b 91 95 87 bd a7 e3 52 bd 99 81 19 be
       0.006409759 -0.066203244 -0.051486637 -0.14990844
000220 9a 41 52 bd 3b be d1 bb 94 ed c7 bc b9 30 e2 bd
       -0.051332094 -0.006400851 -0.024405278 -0.11044449
000230 e6 70 de bd 34 de de bc 33 bb c6 3d a1 74 f5 3d
       -0.108613774 -0.027205564 0.09703674 0.11985136
000240 7b e1 1e bc 95 27 d6 bd 2b 8e aa bd 47 98 18 bd
       -0.009697313 -0.104567684 -0.08327898 -0.037254598
000250 e3 f0 2f be 0f 72 3c be 42 2f 94 bd 97 27 e4 3c
       -0.17181735 -0.18402885 -0.07235576 0.02785091
000260 5b 45 a5 bb 78 fa 16 3e 5f f2 a4 3d 88 b2 24 3e
       -0.005043668 0.14743984 0.08054041 0.1608373
000270 29 5c b9 bb 73 33 eb 3c 5b 9d e6 bd ef a0 dc 3d
       -0.0056567383 0.028711056 -0.11260482 0.10772883
000280 59 bb d0 3d 4c 17 9a 3d 66 8c 22 bd 2b b1 c8 3d
       0.10191984 0.07523975 -0.039684676 0.09799417
000290 fe 72 c4 3d f6 d2 35 3e 16 56 55 3e 2a 30 86 3e
       0.095922455 0.17756256 0.2083362 0.2620862
0002a0 75 06 2c 3e b4 c9 96 3d a7 aa 7c bc e0 35 9e bd
       0.16799338 0.073626906 -0.015421546 -0.077251196
0002b0 69 34 47 bd 07 5a dc bd 78 ed 60 be 14 1f 26 be
       -0.048633967 -0.10759359 -0.21965587 -0.16222793
0002c0 6f cb 3f be 09 8b d0 bd ea b6 09 bc 3c f3 7b bd
       -0.18729948 -0.10182769 -0.0084054265 -0.061511263
0002d0 fb 3d 6b 3d fd f2 2e 3d f7 c0 43 3d c3 53 08 be
       0.057432156 0.0427122 0.047791447 -0.13313203
0002e0 be b8 a6 bd 9a 6c 3f bd 6f 49 ab bd 32 ee 22 3c
       -0.081407055 -0.04673443 -0.08363616 0.0099444855
0002f0 8c ec 99 3d 9c c4 77 bd f6 9f 3c bd f7 a3 c1 bd
       0.07515821 -0.060490236 -0.04605099 -0.09455102
000300 2d aa 8a 3d e1 ff 2a 3e 7b 5d 2d bd 59 fe 1f bd
       0.0677074 0.16699173 -0.042325478 -0.039060924
000310 c4 b7 d1 3c 1b 4d ed bc 0a a2 c7 3d ae df 0d 3d
       0.025600322 -0.02896743 0.097477034 0.034637146
000320 53 b4 0f bd f2 88 14 3d aa d9 b5 3d 6e 09 cf bc
       -0.03508408 0.036263414 0.08879407 -0.025273051
000330 2e 9b c3 bd 21 d0 29 bc cb 3f bc 3c 7f ad 11 3d
       -0.095510826 -0.010364563 0.022979638 0.03556585
000340 42 ac b6 3c 06 60 d0 3d 3e a5 07 3d 75 39 86 3d
       0.022298936 0.10174565 0.03311657 0.06553928
000350 28 29 ec 3d 15 66 cf bc be 95 82 3d 15 49 69 bc
       0.115312874 -0.025317231 0.06376217 -0.0142386155
000360 b0 dd 42 3d 3b 13 a0 bd 54 69 04 bd 26 61 8d bc
       0.0475747 -0.07816168 -0.03232701 -0.017258238
000370 b7 3f 03 be 22 4b b4 bd d6 2d 2e 3d c7 d0 e4 bc
       -0.12817274 -0.08803393 0.04252418 -0.027931584
000380 8a 37 1a 3d f6 ff 8c bd 4d ac 8c bc 92 df 9e bd
       0.037650622 -0.06884758 -0.017172003 -0.077574864
000390 f5 58 49 3d 0c fd 85 3a de ac a8 3c 50 d4 75 3c
       0.0491571 0.0010222509 0.020590242 0.0150042325
0003a0 f1 82 6a bd 62 2c 27 3d 40 7e ca 3c 18 7e 0e bd
       -0.05725378 0.04081381 0.024718404 -0.03478822
0003b0 1c b2 8e 3d 68 52 e8 3b 8b fc c6 bd 1c d1 96 3d
       0.069675654 0.0070899017 -0.097161375 0.07364103
0003c0 25 b8 43 3d ad 3d 1e bd 80 50 97 bd 40 0a 57 bd
       0.047783036 -0.038633037 -0.07388401 -0.05250001
0003d0 1b 6d 58 3d 0e 46 18 3d ee be d7 bd 48 e8 3c bd
       0.052838426 0.037176184 -0.10534464 -0.04611996
0003e0 98 4b b6 3d 86 11 d0 3d d7 5c 9f 3d 42 6c 9b bc
       0.08901137 0.10159592 0.0778138 -0.01897252
0003f0 e6 c6 90 3d 6f a0 9a bd f3 e5 4f bc dd 87 b7 3c
       0.07069187 -0.075501315 -0.0126891015 0.022403652

conv1.bias f4 [64]
000000 5c 78 c0 3c 02 f2 ff bd c8 f3 6b 3c a6 e8 0a be
       0.023494892 -0.12497331 0.014401384 -0.13565311
000010 2c a6 e3 3c 90 a4 87 3c 80 0a 40 3d d1 77 1f bc
       0.027789198 0.016557962 0.046885014 -0.009733156
000020 5a c2 93 3d 7c e6 eb bc 39 f2 0d bc 3e 12 a2 3c
       0.07214804 -0.028796427 -0.008663707 0.01978409
000030 72 18 4c be 81 92 6c 3e d0 a2 8b 3d a0 8e ce bb
       -0.199312 0.23102762 0.068181634 -0.0063036233
000040 e2 b5 11 bc d8 49 05 bb eb 9e 9f 3b aa 4f 51 3c
       -0.008893462 -0.0020338204 0.0048712394 0.012775341
000050 72 e7 98 3c 62 be bd bc fe ea 02 bd 82 eb 53 3d
       0.01866505 -0.02316207 -0.031962387 0.05173827
000060 c0 3c 91 be 1f 96 ce bc 6b 3c 87 3d e6 20 14 3c
       -0.2836666 -0.025218068 0.06603321 0.009041047
000070 79 5c 05 3d a2 41 8e 3c a4 35 f6 3c 26 d0 1f bc
       0.032558892 0.01736528 0.030054875 -0.009754216
000080 04 11 33 3d bc 59 c7 3c 50 cd cd 3a 2c 18 3c bd
       0.0437174 0.02433478 0.0015701447 -0.04592149
000090 ef 05 23 bc c9 b3 a5 3d 6d c8 8d bc 23 b9 1c 3d
       -0.009950145 0.08090932 -0.017307485 0.038262498
0000a0 dc 73 96 3b bb 76 17 3b 71 98 c2 3d 0a 57 bd bc
       0.004591448 0.002311154 0.09501732 -0.023112793
0000b0 aa ff 44 3d 58 ca 43 bc 7e 6a 0f bd 60 6e da 3c
       0.048095383 -0.011950098 -0.03501367 0.026663959
0000c0 4a 9c 6c bb 2d e1 27 3c 90 a3 b0 3c 2c 98 ba 3c
       -0.0036103898 0.010246557 0.021562368 0.02277764
0000d0 c3 c5 0c 3c 94 44 ca bb 67 0f 5d 3c 1e 28 75 3c
       0.008592072 -0.006172726 0.013492442 0.014963178
0000e0 21 fc 4b 3c d6 b4 87 bc 5d 26 ce 39 5c 86 43 3d
       0.012450249 -0.016565721 0.00039319965 0.047735557
0000f0 33 cf 36 3d c7 42 1a bc 24 12 06 bd 15 65 af bb
       0.044631194 -0.009415335 -0.032732144 -0.005352626

conv2.weight f4 [32, 64, 5, 5]
000000 11 5d dc 39 e6 86 8c 3d c5 2a 84 3d be 61 5f 3d
       0.0004203101 0.06861667 0.0645347 0.054536574
000010 25 aa 30 bd 7f 38 0e 3d c9 c5 d7 3a b2 d3 02 bb
       -0.043131012 0.034721848 0.0016462143 -0.0019962606
000020 e6 3c 11 3d 5a 1b 04 bb f7 8d 44 3d 97 2d 82 3c
       0.035458468 -0.0020157904 0.04798695 0.01589088
000030 51 f1 80 3c d0 c4 8d bc bf dd f5 3c ad cc 01 3d
       0.015740069 -0.017305762 0.030012963 0.031689335
000040 ed 0b 8e 3d b7 d0 2a 3b 8a 8b 5a 3c fd ad 00 3e
       0.069358684 0.0026064345 0.013338933 0.12566371
000050 7b 7a 2a bc be 82 c7 3c 03 a0 c3 bd b1 10 8c bc
       -0.010405178 0.024354335 -0.09552004 -0.017097803
000060 df ce b6 3b 49 18 a8 bd 8b 41 df 3c 2a ba 86 bc
       0.00557886 -0.08207757 0.027252933 -0.016446192
000070 3b f1 89 bd bf db bb bd 3a 3c 22 be 46 27 e7 bc
       -0.06735464 -0.091727726 -0.15843287 -0.02821697
000080 21 b2 b4 3d df b2 91 3d f4 94 b4 bc 6e a0 4e bd
       0.08823038 0.07114195 -0.022043683 -0.050445966
000090 cb ce cd bc 5b eb 98 3d 9f 24 c3 3d c2 80 60 3d
       -0.02512302 0.074667655 0.09528469 0.054810293
0000a0 4f d1 06 be 07 5a 0f bb 58 de 44 bc 24 f9 1e 3c
       -0.13165782 -0.002187373 -0.0120159015 0.009702954
0000b0 8c 91 c0 3c 66 11 af bd 95 11 93 3d 3f d3 3f 3d
       0.023506902 -0.0854824 0.07181088 0.04683232
0000c0 c8 5d 68 3d 0d 3b 84 3d cb 57 23 3b ac 20 85 3d
       0.05673006 0.064565755 0.0024924155 0.06500372
0000d0 be c3 5c 3d 76 aa 00 3e c0 ac c9 3d 14 23 1a 3c
       0.05389761 0.12565026 0.098474026 0.009407777
0000e0 57 e8 d4 3c 56 28 1d 3d d9 68 2d 3d eb 71 2a bd
       0.025989695 0.038368545 0.04233632 -0.041612547
0000f0 22 ac 46 3d ae 8a 75 3d 87 a1 8b bb 94 c1 5a bd
       0.048504002 0.05994671 -0.004261199 -0.053407267
000100 1a 4a 14 be ca 00 d1 3c 43 f8 cb 3d 40 33 60 3d
       -0.14481393 0.025513072 0.099594615 0.054736376
000110 9b aa b3 bc 58 02 73 bd 38 ac bb bd b1 65 25 bd
       -0.021931937 -0.059328407 -0.091637075 -0.040380184
000120 45 bb 38 bd b4 bc 81 bd 83 f6 fc bc 0b d0 8d 3d
       -0.04510047 -0.063348204 -0.030879265 0.06924447
000130 89 7e a0 3c 2d c5 46 3d 5b ce 1c bd 6f 5b 63 bd
       0.019591587 0.048527885 -0.038282733 -0.05550712
000140 b8 d8 20 bc 6d 01 28 3d 0d f1 71 3c e0 b0 81 bc
       -0.009817295 0.041016985 0.014766944 -0.01583141
000150 8d 50 11 bd 35 6b 01 bd 9f a5 2d bd 04 c4 5d bd
       -0.03547721 -0.03159638 -0.042394277 -0.054142013
000160 a9 8e 34 bd 7a 2c b8 bd 74 db 1b bc ea c9 34 3b
       -0.044081364 -0.08992858 -0.009512771 0.002758617
000170 14 cc 06 bc fd fd 40 3d 1b e4 c9 3c 80 33 cc bb
       -0.008227367 0.047117222 0.024644902 -0.006231725
000180 8b 84 99 3b 14 1e 7d 3a fe b5 37 3d f3 e4 5b 3d
       0.00468499 0.0009655666 0.044851296 0.05368514
000190 51 97 05 bd 6e 92 b5 bc 5f 10 a8 bc 4d 1f ce bc
       -0.03261501 -0.02216455 -0.020515619 -0.02516141
0001a0 fd c1 a0 bc 96 fe 89 3d ed 2b 6b 3d 67 9d f0 3c
       -0.01962375 0.067380115 0.057414938 0.02937193
0001b0 17 61 ee bc e2 0e df bd 78 a5 80 bd e8 1e dd bc
       -0.02909903 -0.108915105 -0.06281561 -0.026992276
0001c0 f5 41 62 3d 5d 2a 55 bc b5 50 30 be cb 05 b2 bc
       0.055238683 -0.0130105885 -0.17218287 -0.021731278
0001d0 27 53 82 3d 06 6c 82 3d 43 61 88 3d ae 59 de 3a
       0.06363516 0.0636826 0.06659176 0.0016963982
0001e0 d9 d1 2a bd 86 7f e8 bc f2 07 a5 bd 4e 3f 37 bd
       -0.041704033 -0.02838112 -0.08058156 -0.044738106
0001f0 52 6b eb bb 20 74 15 3e 55 1c 98 3d b2 e6 23 3c
       -0.0071844244 0.1459508 0.07427279 0.0100037325
000200 2f e6 b4 3c 0e 37 a8 bd 10 47 b4 3c e4 75 ac 3c
       0.022082416 -0.08213626 0.022006541 0.021052308
000210 c2 20 2e 3c 1e 28 31 bd ae 09 4e bd bd b5 22 bd
       0.010627927 -0.04325115 -0.0503022 -0.0397241
000220 e8 46 3a ba 78 11 d7 3c 48 d1 30 bd ad 92 43 bd
       -0.0007105903 0.026253447 -0.043168336 -0.047747303
000230 dd e7 a0 3b 6c 8f 1e 3d 45 4f 0b 3d dd f3 0e bc
       0.0049104528 0.038710997 0.034011144 -0.008725134
000240 62 26 8c 3b 11 d5 a3 3d f2 14 41 3d d5 4a 26 3d
       0.0042770365 0.079996236 0.047139116 0.04059871
000250 d0 9a 25 3b 5a fa b9 3b 54 72 ad 3c db e0 ed 3c
       0.0025269277 0.005675596 0.02117268 0.029037884
000260 b7 b2 af 3c 69 3b 8b 3d 90 21 8a bd fe ca c6 3d
       0.021447523 0.06798441 -0.06744683 0.097066864
000270 56 f1 a3 3d 4f dd 88 3c b1 0d 8f bc f1 7a 77 bd
       0.080050156 0.01670709 -0.017462583 -0.06041998
000280 93 83 d9 3d 60 5c 4e 3d 9e c4 f7 3b 6b 0e 84 bc
       0.10620799 0.050381064 0.0075612804 -0.016120156
000290 ba 7a 34 bc 3a 1e 8d bc b8 d0 fb bc 05 b1 43 bd
       -0.011015588 -0.017226327 -0.030739173 -0.04777624
0002a0 7b c4 8d bd ff 25 e4 3d d6 4c 4a be a9 cf c0 bd
       -0.06922241 0.1114006 -0.19755873 -0.09414608
0002b0 b0 00 c1 3c ee be 4b 3d 39 0b f8 3d 0a 4d 04 3e
       0.023559898 0.04974263 0.121115156 0.12920013
0002c0 3f bd 18 3e 8c b6 1e 3e 99 4c 6e 3c 7f 4e 8b bd
       0.14915942 0.15499324 0.0145446295 -0.06802081
0002d0 51 b2 0e bd 4f 8a 34 bd 12 07 e3 3d 22 83 90 3d
       -0.034838025 -0.044077214 0.11085333 0.070562616
0002e0 1a c8 80 bd 7e d4 99 bd 80 e2 c6 bd 89 dd 53 bd
       -0.06288166 -0.07511233 -0.0971117 -0.051724944
0002f0 e4 c0 9f 3d 37 a0 8c 3d 7d ed c1 3d 80 83 83 3c
       0.07800463 0.06866496 0.094691254 0.016053915
000300 bd 01 84 bd 88 10 54 3d b4 7a 19 bb e2 10 0b 3e
       -0.06445644 0.051773578 -0.0023419084 0.13580659
000310 52 61 81 3e 74 61 21 3e ae 8f 76 3d db 88 4f 3c
       0.25269562 0.15759832 0.060195617 0.012666906
000320 82 51 4f 3d 03 6d aa bd 3b 8e dc bd ee 7b 9f bb
       0.05061484 -0.083215736 -0.10769316 -0.0048670685
000330 32 0f a8 3d 23 c1 50 3d 82 98 83 bd 3d 1a 9c bd
       0.08206023 0.05096544 -0.06425573 -0.07622192
000340 16 8d 76 3a d0 fc 0c bd ff 6d 9e 3d 34 b8 40 3b
       0.0009405179 -0.03442079 0.07735824 0.0029406669
000350 c7 49 b9 bc d6 4a 95 3d a5 7a 8c 3d 90 54 90 3b
       -0.022618188 0.072896644 0.0685933 0.004404612
000360 07 7c 08 3d fa f2 f9 3c b1 fe 81 3d d6 41 60 3c
       0.033321407 0.030511368 0.06347407 0.0136875715
000370 0f d4 ac bb 1a be 02 3e b2 1c 25 3d 6d e6 e3 3c
       -0.005274303 0.1276783 0.04031057 0.027819837
000380 a5 3f ba bc 1b 66 b6 3c e8 78 08 bd 0e ac 37 bd
       -0.022735426 0.022265485 -0.03331843 -0.04484182
000390 af 9a f8 ba 35 e2 c4 3c 17 b6 2d 3d 66 99 13 bd
       -0.0018966998 0.024033645 0.042409983 -0.036034964
0003a0 b7 54 2a bc a5 84 26 3d 05 70 77 3d 6f a6 7f bc
       -0.010396174 0.040653843 0.060409565 -0.015603646
0003b0 6e 69 38 bd 1f 8e ee 3a 7f 50 5c 3d 89 ef 82 3d
       -0.04502242 0.0018200314 0.053787705 0.06393344
0003c0 a7 f4 65 bc bf de d4 bc 27 66 4e 3c f8 f1 57 3c
       -0.01403538 -0.02598512 0.012597597 0.013180248
0003d0 5f 9d 8a 3c 3e 2c f9 bb 45 5e 6d bc b5 a2 04 bc
       0.016920744 -0.007604151 -0.014487808 -0.008095433
0003e0 ae 55 1d 3c 9d 75 54 bc 8e 35 12 bd a7 01 32 bd
       0.009602947 -0.012967494 -0.035695605 -0.043458607
0003f0 2a 91 05 3a e8 47 4a 3c fe cc d4 bb da f1 16 bd
       0.00050951785 0.012346245 -0.0064941635 -0.03685174

conv2.bias f4 [32]
000000 d9 63 d4 3c fa fa 6d bb 2a 6f 73 3b c8 63 b6 3c
       0.025926517 -0.0036312924 0.0037145116 0.022264376
000010 8b 42 23 3d c0 b8 01 bd 90 b4 48 3b ff 8e af 3c
       0.039858382 -0.031670332 0.0030625202 0.02143049
000020 2a ef dc 3c b2 b7 06 bd a2 5b 4a bb 46 33 62 bd
       0.026969511 -0.03289003 -0.0030877371 -0.05522468
000030 dc 61 1d 3d 8e 70 5c bd 2c e3 db 3d 1c 6c 86 3c
       0.038423404 -0.053818278 0.10736689 0.016408972
000040 77 44 9a bc a8 40 cf 3b 3c 02 45 bc 61 03 3f 3d
       -0.018831475 0.0063248463 -0.0120244585 0.04663408
000050 69 a2 32 3d 8c 38 c8 3c 4f 02 10 bd 14 31 f6 3b
       0.043611918 0.024441026 -0.03515845 0.007513175
000060 21 6e 26 bc 53 a3 50 3d 26 2c bc 3c 6c d8 f8 3c
       -0.010158093 0.050937008 0.02297027 0.030376635
000070 74 9e e9 3c ab 6a 18 bd f8 62 90 bd 58 a0 c6 3c
       0.02851794 -0.0372111 -0.07050127 0.02424638

conv3.weight f4 [1, 32, 5, 5]
000000 f6 52 f5 bb 96 b6 a8 3c 99 53 d5 3c 4d b8 30 3d
       -0.0074866964 0.020594876 0.026040839 0.043144513
000010 01 5f 0f 3d d8 f4 a9 bc 0c 80 ad 3b f4 86 00 bc
       0.035002712 -0.020746633 0.0052948054 -0.007844675
000020 8a a0 30 bb e6 f5 cc ba c4 d8 c3 bb 3a 7f 88 3b
       -0.0026951157 -0.0015637248 -0.005976768 0.004165557
000030 98 f3 4b bc 3a 79 78 bd 5f 60 a3 bc 35 c4 f9 ba
       -0.012448214 -0.060662486 -0.019943414 -0.0019055667
000040 ea 9a a5 bc c4 a3 be bc 84 8a 31 bd 0e 13 98 3c
       -0.02021547 -0.023271449 -0.04334499 0.018563773
000050 32 37 10 3c c6 13 ac 3c 61 1e ad 3c 0d e3 03 3d
       0.008802222 0.021005522 0.02113265 0.032198954
000060 2b d6 6e 3b 79 b0 5d 3b e7 01 0e bd e4 1c 35 3c
       0.0036443572 0.003382711 -0.034669783 0.011054251
000070 75 e8 c8 3c 89 8e cf bc ce 0c a4 3c eb 90 60 bc
       0.024524907 -0.02533652 0.020025637 -0.013706426
000080 f9 63 59 3c 3f df 92 bc cc 62 27 3b 52 2f 1f bd
       0.013268464 -0.017928718 0.0025541065 -0.038863488
000090 ff 7a d3 3c 28 87 ae bb a0 fa e6 3c bb b1 83 bc
       0.025815485 -0.0053261705 0.02819568 -0.01607596
0000a0 f1 fe 5f 3c 55 ba aa bc 01 cf 9b bc c3 dd 77 bc
       0.013671623 -0.020840803 -0.019019606 -0.015128556
0000b0 0c 30 74 3c f9 1b b8 3c c1 26 d4 3c 25 3c c9 bb
       0.014904033 0.022474276 0.025897386 -0.006141203
0000c0 23 02 2f 3a 0a 57 cd 3c d4 2e 64 bc 7e af 2c bc
       0.00066760386 0.025065918 -0.01392718 -0.0105398875
0000d0 3a d3 e4 3c 9c 2a f4 bc 2f 0c 8d bc 2c 3f 9d bc
       0.027932752 -0.029805474 -0.017217724 -0.019195162
0000e0 aa 06 d8 bb f1 2a d6 bc fc 73 08 3c e0 0d cb bc
       -0.0065925913 -0.026143523 0.008328434 -0.02478689
0000f0 63 eb 8c bc 3b 0a 02 bd e0 f3 e5 3c da 87 a9 bc
       -0.017202085 -0.031748038 0.02807039 -0.020694662
000100 bf a2 80 bb 9a 12 8b bc e1 57 bf ba 06 af b4 bb
       -0.003925651 -0.016976643 -0.0014598334 -0.0055140285
000110 a8 81 1a bc f4 03 bf 3a a7 0c 93 3c f0 d2 04 3d
       -0.0094303265 0.0014573322 0.017950369 0.03242773
000120 e2 cc eb 3c 2e e9 c5 bc d0 96 46 bb 95 c5 8e bd
       0.02878422 -0.02415904 -0.0030302294 -0.069712795
000130 10 83 23 bb ab c0 6e 3c dc 0a 7a 3c 2c 8c 2f 3c
       -0.0024949946 0.014572303 0.015261378 0.010714572
000140 12 cd b1 3c 3b e3 f2 3c 80 44 ba 3c 6e 47 d4 3b
       0.02170423 0.029649368 0.022737741 0.0064782416
000150 a6 da b5 3b da 6e 7c 3d 96 de fb 3c 1f 6b 81 bb
       0.0055497466 0.061629154 0.030745786 -0.0039495374
000160 63 9d 41 bd 60 db 68 bc 10 16 0a 3d e0 63 b4 bb
       -0.047269236 -0.014212459 0.033712447 -0.00550507
000170 6d 04 81 bd 1b 45 3a bd d1 2e c8 bb 51 3e c2 3b
       -0.06299672 -0.04547606 -0.0061090966 0.005927839
000180 60 38 54 bc a7 8b 71 bc 48 95 45 3b 12 16 f0 3c
       -0.012952894 -0.014742768 0.0030148793 0.029307399
000190 50 16 40 3b 62 16 a0 3b a4 fa 4f 3c c8 f3 88 bb
       0.0029310174 0.0048854807 0.012694035 -0.0041794516
0001a0 35 21 63 3b 25 79 3f bc 13 1e f0 3c 11 7e a6 ba
       0.0034657244 -0.011686598 0.029311216 -0.0012702366
0001b0 84 8e ca 3c 66 75 ab bc 8c 0f fb bc 57 30 20 3b
       0.02472616 -0.020930003 -0.030647062 0.0024442875
0001c0 c0 92 07 bd f9 c0 a9 3c 69 c9 ad 3c 82 c1 cd 3c
       -0.033098936 0.0207219 0.021214204 0.025116686
0001d0 40 00 ed 3c 88 29 25 3c 36 95 48 3c ef b2 c1 bb
       0.028930783 0.010080703 0.012242606 -0.005911223
0001e0 b7 46 f8 3c 75 3d 4f 3c b9 cc 22 bc 47 39 0f bd
       0.030307157 0.01264893 -0.009936505 -0.034966733
0001f0 6f b6 29 3b 86 f1 ad bb d3 29 19 3d f1 4d 47 3d
       0.0025896092 -0.005308333 0.037393402 0.048658315
000200 f5 5e 07 3d cd 25 c2 bb 8a 28 6f 3c c9 da 15 3a
       0.033049542 -0.0059249164 0.014597068 0.00057165005
000210 e4 7f af 3c d3 d4 c7 3b 5f 6f 9c bb ea dd 3e bc
       0.021423288 0.0060983687 -0.0047740187 -0.011649588
000220 cd 77 82 3b 48 b5 2f bd 0a 91 f4 bc 9a 38 c8 3c
       0.0039815665 -0.042897493 -0.029854316 0.024441052
000230 54 8d 32 3c ed d2 40 bd 03 f2 3a bd ac 0c 51 3c
       0.010897953 -0.047076155 -0.045640957 0.012759369
000240 aa ff a9 3b 08 43 4b 3c 0c d4 21 bc 29 e9 7a ba
       0.0051879482 0.012406118 -0.009877216 -0.0009571487
000250 7c 2d e7 3c 16 ef 28 bc 67 2e 2a 3c b5 13 9f ba
       0.02821993 -0.010310909 0.01038704 -0.001213661
000260 bd 58 28 3c 39 69 e9 3a b7 27 df bb 7d 00 1b 3c
       0.010275063 0.0017807848 -0.0068101543 0.009460566
000270 c2 56 b1 3b 5a c3 cb bb d4 7e b4 3c 70 7d 01 3d
       0.0054119537 -0.006218356 0.022033133 0.031613767
000280 98 de 8c 3c ba f6 4b bc bb 1a ea bc 98 a3 d9 bc
       0.017195985 -0.012448961 -0.0285772 -0.026567265
000290 78 be 9c bc f2 b6 b8 bb 62 5c 8e 3c eb 44 3c 3c
       -0.019133791 -0.005637043 0.017378036 0.011491041
0002a0 93 95 05 3d fe f9 18 bd 8b ca c1 bc 1a c6 fd 3c
       0.03261335 -0.037347786 -0.02365615 0.030978251
0002b0 e0 0d bc bc 87 e9 c3 3c 8c 13 a0 b9 ee 14 a5 bb
       -0.022955835 0.023915065 -0.00030532142 -0.0050378954
0002c0 91 4a c6 3c f2 ec dd 3c ff 6c 63 bc 0e e4 cf ba
       0.024205478 0.027090523 -0.013880967 -0.0015860812
0002d0 e5 e5 00 3d b0 80 e4 3c 8b 27 5d 3c c3 b3 ac bc
       0.031469245 0.027893394 0.013498197 -0.02108181
0002e0 c8 57 c3 bc c8 a0 c0 3c 8c bc 96 3c 20 1a 9e bb
       -0.023845568 0.023514166 0.018400453 -0.0048248917
0002f0 97 12 0c 3d 6f 89 c8 3c 3b e5 16 bc 4e b6 65 3c
       0.034197416 0.024479596 -0.009209926 0.014020516
000300 09 fd 08 3d 43 43 a7 3c 52 02 8d bc 2b 64 0c bd
       0.033444438 0.020417815 -0.01721302 -0.034275215
000310 2c d9 24 3c 7b bf 53 3c 62 76 0d bd d0 08 b5 3b
       0.010061543 0.0129240705 -0.034536727 0.005524732
000320 28 4f 38 bd 21 db f2 bc 7a e2 4f bd 27 8f e8 bc
       -0.044997364 -0.029645504 -0.050753094 -0.028388573
000330 3d a0 1f 3b 75 a4 a9 bc 0d 7c 73 3c e5 15 21 bd
       0.0024356984 -0.020708302 0.014861119 -0.03932752
000340 d0 ee 6f bc e9 b8 36 bc 20 76 bc bb e1 a2 c5 3d
       -0.01464434 -0.011152484 -0.0057513863 0.09650207
000350 7d 87 cc 3d 3b 04 98 bc 79 08 79 3a 68 18 23 bd
       0.0998678 -0.018556705 0.0009499859 -0.039818197
000360 77 40 a6 3d 2b 81 df 3d b2 69 90 bc 47 85 58 bd
       0.081177644 0.10913309 -0.017628524 -0.05286148
000370 f0 ff 26 bd 11 3b f4 bc d4 3c 19 3c 89 b2 8e bc
       -0.040771425 -0.029813321 0.009352881 -0.017419117
000380 82 07 77 bd b3 bd 44 3d d1 97 80 3c 91 51 48 3c
       -0.060309894 0.048032474 0.015697392 0.012226478
000390 73 41 db 3c 7f 6e 91 3c ce 77 eb 3c 31 f4 a6 bc
       0.026764607 0.017752884 0.02874365 -0.020380111
0003a0 47 b3 c5 bc 23 e3 f8 bb fc 51 a4 3c cc aa ce bc
       -0.024133338 -0.007595436 0.020058624 -0.025227927
0003b0 9c 00 5d bd da 58 79 bd 35 51 35 bb a0 f4 28 3c
       -0.05395566 -0.06087575 -0.0027666811 0.010312229
0003c0 0c c8 ca bc a2 46 72 bc 6d 93 d6 bc a6 f0 6e bc
       -0.024753593 -0.014787348 -0.026193345 -0.014583742
0003d0 72 69 ee 3c c3 2d aa 3c e1 62 09 3d 15 a8 32 3d
       0.029103015 0.020773774 0.033541564 0.043617327
0003e0 35 fa 91 3c 2a 6d 69 3c eb d4 fc bc fa ca 76 bc
       0.017819503 0.014247218 -0.030863246 -0.015063042
0003f0 8a be fd ba 7b 32 f8 3b 7f 8b 6a 3c 9a 27 9c 3c
       -0.0019359153 0.007574377 0.014315485 0.019061852
