2021_BOML_srcnn_project/output/epoch_67.pth (torch, 231519 bytes, 5 tensors)

conv1.weight f4 [64, 1, 9, 9]
0	0xbc165d75	-0.009177555
1	0x3cf5d793	0.03001002
2	0xbd2a5eff	-0.0415945
3	0x3da07814	0.07835403
4	0xbd7e470e	-0.06207948
5	0x3dc84bfe	0.09780119
6	0xbd874b3c	-0.06606147
7	0xbc9aa62f	-0.01887807
8	0xbb0c066a	-0.0021366128
9	0x3dac5a91	0.08415712
10	0xbd182aba	-0.037150122
11	0x3ca5d298	0.02024202
12	0xbddc2bfe	-0.10750578
13	0xbdadd726	-0.08488302
14	0xbda81a91	-0.08208192
15	0xbd81cca3	-0.063378595
16	0xbda57add	-0.08080075
17	0x3db7d2cd	0.08975754
18	0x3c31782e	0.010831876
19	0x3d228ad4	0.039683178
20	0x3d73137c	0.059344754
21	0x3c86eb6e	0.016469683
22	0x3d09763b	0.03356002
23	0x3db28c83	0.08718207
24	0xbdb76da4	-0.08956459
25	0x3c963d5d	0.018339807
26	0xbd65b388	-0.056079417
27	0x3d6d35b2	0.057912536
28	0x3d04f775	0.032462556
29	0xbe22cddc	-0.15898842
30	0x3dc435c7	0.0958057
31	0x3db55f97	0.08856123
32	0x3d882269	0.06647188
33	0x3ccb81f5	0.024842242
34	0x3d888482	0.06665899
35	0xbd33e9e7	-0.04392424
36	0xbde73369	-0.112891026
37	0xbda486fc	-0.08033559
38	0xbdc8385c	-0.09776375
39	0x3d98ce7a	0.07461257
40	0x3d964ef4	0.07339278
41	0xbaaa63f5	-0.001299976
42	0xbbd14ad3	-0.0063870936
43	0x3dcf9abd	0.10136936
44	0xbcd5f7ec	-0.026119195
45	0xbbdecb75	-0.0067991563
46	0xbd576b6f	-0.05259269
47	0x3ca5026c	0.020142756
48	0x3e2e02fe	0.16993329
49	0x3e0c69ed	0.13712282
50	0x3d87288e	0.06599532
51	0x3c176a47	0.009241647
52	0x3ccafdee	0.024779286
53	0x3ce3d929	0.027813511
54	0xbb911605	-0.0044276738
55	0xbe11843a	-0.14210597
56	0xbdb3733d	-0.08762214
57	0x3de2007f	0.11035251
58	0x3c1acb83	0.009447935
59	0xbde8cfd0	-0.11367762
60	0xbc765c2d	-0.015036625
61	0x3dd9a127	0.106264405
62	0xbdc4dd42	-0.09612514
63	0xbd26ede4	-0.040754214
64	0xbda7a18e	-0.08185111
65	0xbd1f2f08	-0.038863212
66	0xbd51308c	-0.05107169
67	0xbd285ceb	-0.04110424
68	0xbe18258a	-0.1485807
69	0x3ca5ced1	0.02024022
70	0x3df667d3	0.12031522
71	0x3d990ec4	0.074735194
72	0x3d3784a4	0.04480423
73	0xbd861805	-0.0654755
74	0x3ca4a908	0.020100132
75	0xbc5dff97	-0.013549707
76	0x3d2e105a	0.042496063
77	0xbde95803	-0.1139374
78	0xbc7fc350	-0.015610531
79	0x3dcf8a80	0.10133839
80	0x3cf4d5ad	0.029887045
81	0x3ce1b819	0.027553605
82	0x3c420849	0.011842796
83	0x3b38e9c3	0.0028215505
84	0xbd9b0f62	-0.075712934
85	0xbd8361be	-0.06415127
86	0xbdbf7d03	-0.09350016
87	0x3dc1f3ec	0.094703525
88	0x3d2da926	0.04239764
89	0xbd03a1b5	-0.032136638
90	0xbdb4f767	-0.08836251
91	0x3d58c1d4	0.052919224
92	0x3c8e801b	0.01739507
93	0x3ce48047	0.027893199
94	0xbdc7f1d1	-0.0976292
95	0xbcc29612	-0.0237532
96	0x3de8e9c7	0.113727145
97	0x3d957f5f	0.07299685
98	0x3d277ec8	0.040892392
99	0xbc08c452	-0.008347588
100	0x3d8f9dbd	0.07012508
101	0xbda40f05	-0.08010677
102	0xbb3b60d1	-0.0028591643
103	0xbd9ed289	-0.07755
104	0xbd3bca3d	-0.045847166
105	0x3acea226	0.0015764877
106	0x3ce5b840	0.028041959
107	0x3d99030d	0.07471285
108	0x3d34a091	0.04409844
109	0xbcd361b5	-0.025803426
110	0x3dce55b6	0.10074942
111	0xbd06f2cd	-0.032946397
112	0x3d949b3b	0.0725617
113	0xbd25a714	-0.04044254
114	0xbc616639	-0.013757282
115	0x3c1bffe1	0.0095214555
116	0xbdfbb633	-0.12290611
117	0xbb3c28cb	-0.0028710838
118	0x3cfb80fc	0.030701153
119	0x3e28621b	0.16443674
120	0x3d4143f0	0.04718393
121	0x3dcc912d	0.099886276
122	0x3dcf2441	0.10114337
123	0xbd19c8a0	-0.037544847
124	0x3dde6845	0.108597316
125	0xbdb417ef	-0.087936275
126	0x3bbf39be	0.005835741
127	0x3bb4b93c	0.0055152457
128	0x3d917de1	0.071040876
129	0x3e050601	0.12990572
130	0xbce49a13	-0.0279055
131	0xbc485afe	-0.0122287255
132	0x3a8b1772	0.0010611846
133	0xbd753ae8	-0.05987063
134	0xbd29a4b9	-0.041416857
135	0xbe05f09c	-0.13080066
136	0xbcb0db8b	-0.021589061
137	0x3ae43b2a	0.0017412652
138	0xbbe5cd17	-0.007012974
139	0xbda442a9	-0.08020527
140	0xbd9f126e	-0.07767187
141	0xbd3aa542	-0.04556776
142	0x3d856cd5	0.06514899
143	0x3dc44035	0.09582559
144	0x3c3cd8e3	0.011526319
145	0xbdb93c8f	-0.09044754
146	0xbd98331a	-0.07431622
147	0xbc4e07ef	-0.012575134
148	0xbe007a37	-0.12546621
149	0xbe10d33c	-0.1414308
150	0xbd91c351	-0.07117332
151	0x3bdb08bc	0.006684391
152	0xbc68fe50	-0.014220789
153	0x3de15974	0.1100339
154	0x3cf79568	0.03022261
155	0x3de1f87e	0.11033724
156	0xbd25c129	-0.040467415
157	0x3d099abe	0.03359484
158	0xbda16668	-0.078808606
159	0x3e00cfb3	0.12579231
160	0x3dd357f1	0.10319508
161	0x3dbee881	0.0932169
162	0xbd8e5d9d	-0.06951449
163	0x3dd76cd0	0.10518801
164	0x3df28a1b	0.11842748
165	0x3e2946c3	0.165309
166	0x3e189182	0.14899257
167	0x3e58f6b6	0.21187863
168	0x3e0be78a	0.13662544
169	0x3db0d6db	0.086347304
170	0xbd46692c	-0.048440143
171	0xbdb83204	-0.08993915
172	0xbcc5a73b	-0.024127593
173	0xbd1401cb	-0.036134522
174	0xbe04aa9b	-0.12955706
175	0xbda1f77f	-0.07908534
176	0xbdf76f8e	-0.12081824
177	0xbd79e04b	-0.061004918
178	0x3d3f8657	0.046758976
179	0xbd79c477	-0.06097838
180	0x3ce9a267	0.028519822
181	0x3cf19c47	0.029493464
182	0x3d6e376b	0.05815832
183	0xbdf592b4	-0.11990872
184	0xbda50c03	-0.08058932
185	0xbd325b4d	-0.043544102
186	0xbd9bee34	-0.07613793
187	0x3d0f743a	0.03502295
188	0x3d3326d5	0.043738205
189	0xbd9781da	-0.07397814
190	0xbd59cf9c	-0.053176507
191	0xbdb25f1d	-0.08709548
192	0x3d7af805	0.061271686
193	0x3e0e0f54	0.13873035
194	0xbd712700	-0.058875084
195	0xbd07d717	-0.03316411
196	0x3d562d10	0.05228907
197	0xbd685ca7	-0.056728985
198	0x3dc80f10	0.09768498
199	0x3d23c122	0.039979108
200	0xbc9728f2	-0.018452141
201	0x3d098ff7	0.03358456
202	0x3da4baf2	0.080434695
203	0xbcb55b4d	-0.022138262
204	0xbd9ed97e	-0.07756327
205	0x3c93f3cc	0.018060587
206	0x3c6f6ad5	0.014612873
207	0x3c37b615	0.011212845
208	0xbb9ac34a	-0.0047229873
209	0x3dae8572	0.085215464
210	0xbb9fd395	-0.0048775175
211	0x3d026b25	0.031840462
212	0x3d962e42	0.07333042
213	0xbd482a6c	-0.04886858
214	0x3d75e936	0.06003686
215	0xbc0faf12	-0.008769767
216	0x3d51a211	0.05117995
217	0xbd971f83	-0.07379057
218	0xbbf28b79	-0.0074018803
219	0xbb07ef26	-0.0020741909
220	0xbdc65a9f	-0.09685253
221	0xbdba4cc7	-0.09096675
222	0x3d2c096d	0.042001177
223	0xbc931f44	-0.017959245
224	0x3d8e9bf5	0.0696334
225	0xbd9df34a	-0.07712419
226	0xbd1ffe02	-0.0390606
227	0xbda7c2fc	-0.08191487
228	0x3d30b9ff	0.04314613
229	0x3bff4e79	0.007791337
230	0xbc2eb4a2	-0.010663183
231	0xbbd4a500	-0.006489396
232	0xbd945cc2	-0.07244255
233	0x3d1a2928	0.037636906
234	0x3d4ac581	0.04950476
235	0xbd488683	-0.048956405
236	0x3d8582d5	0.06519095
237	0x3c062a4b	0.008188794
238	0xbda5af92	-0.08090128
239	0x3d976768	0.0739277
240	0x3d8824f0	0.0664767
241	0xbcf67115	-0.030083219
242	0xbdad8bee	-0.08473955
243	0xbabbfb56	-0.0014341872
244	0x3d942e71	0.072354205
245	0x3d9f97b0	0.07792604
246	0xbdda2e09	-0.10653312
247	0xbd68f5d3	-0.05687506
248	0x3daf3a96	0.08556096
249	0x3d7ca4cb	0.061680596
250	0x3d8053a2	0.06265952
251	0xbd862b05	-0.06551174
252	0x3dbae0cd	0.091249086
253	0xbdc31eff	-0.095273964
254	0xbc718e10	-0.014743343
255	0xbbe62222	-0.007023112

conv1.bias f4 [64]
0	0x3cc933b7	0.024560792
1	0xbdb68cfc	-0.089136094
2	0x3a59086c	0.0008279148
3	0xbd78ec2e	-0.060772114
4	0x3d26cac7	0.040720727
5	0x3ca2df3e	0.01988184
6	0x3d26bf34	0.04070969
7	0xbc87aa86	-0.016560804
8	0x3de90d5f	0.113795035
9	0xbd391ccc	-0.04519348
10	0x3bccb9ec	0.0062477496
11	0x3cc4cd9b	0.024023822
12	0xbe1b1d24	-0.15147835
13	0x3e025701	0.12728502
14	0x3d6aade4	0.05729474
15	0xbbcc4efa	-0.0062350007
16	0xbcc7fe4c	-0.02441325
17	0xbccfdf32	-0.025374983
18	0x3cca33e9	0.024682956
19	0x3c9f6f62	0.019462291
20	0x3ced04a8	0.028932884
21	0xbc794680	-0.015214562
22	0xbd5c9086	-0.053848766
23	0x3d91d59e	0.07120822
24	0xbe181049	-0.14849962
25	0xbc74b332	-0.014935302
26	0x3d6db3c0	0.05803275
27	0x3c4b511d	0.012409476
28	0x3cd67227	0.026177479
29	0x3d46ae9b	0.04850636
30	0x3daee3ed	0.08539567
31	0xbc4e3b18	-0.012587331
32	0x3d02bf93	0.03192098
33	0x3d3311d8	0.04371819
34	0x3b94de18	0.004543077
35	0xbd576550	-0.052586854
36	0xbc00256b	-0.007821421
37	0x3d828dea	0.06374724
38	0xbcb720ac	-0.022354446
39	0x3d992710	0.07478154
40	0x3a8c1011	0.001068594
41	0xba5c1071	-0.0008394784
42	0x3da4b709	0.08042724
43	0xbd2bc64f	-0.04193717
44	0x3d0439ec	0.0322818
45	0xbca7e1e2	-0.020493452
46	0xbce9f08a	-0.02855708
47	0x3ce055ab	0.0273846
48	0x3aef85ab	0.0018274089
49	0xbceba22e	-0.028763857
50	0x3cb1b7ba	0.021694053
51	0x3d4b2acd	0.049601365
52	0xbc2044f3	-0.009782064
53	0x3b7ece62	0.0038880338
54	0x3c1b72fd	0.009487865
55	0x3c279df8	0.010230534
56	0x3d635fd0	0.055511296
57	0xbcdb07b5	-0.026737073
58	0xbbc8e9e7	-0.006131399
59	0x3d746c63	0.059673678
60	0x3d485d08	0.048916847
61	0xbcfb60e8	-0.030685857
62	0xbd489c9c	-0.04897748
63	0xbd29cc6d	-0.04145472

conv2.weight f4 [32, 64, 5, 5]
0	0xbc17b1d0	-0.009258702
1	0x3d066ae2	0.032816775
2	0x3dae7a71	0.085194476
3	0x3d9dfd8e	0.07714377
4	0xbd86c254	-0.06580034
5	0x3bb5c2a9	0.005546887
6	0xbc7aba0c	-0.015303146
7	0x3c582312	0.013191955
8	0x3d15af73	0.036544275
9	0xbb99cd2d	-0.0046936483
10	0x3b35df6b	0.0027751576
11	0xbc3ac291	-0.011398927
12	0x3c81493b	0.01578199
13	0x3c0ed247	0.008717126
14	0x3d563c75	0.05230375
15	0xbc9254da	-0.017862726
16	0x3ccf238f	0.02528551
17	0x3ccb212f	0.024796097
18	0x3d0ab7a7	0.03386655
19	0x3da25ac5	0.07927469
20	0xbcbe03fe	-0.023195263
21	0x3bb6f4fe	0.0055834046
22	0xbd4a9042	-0.04945398
23	0x3ccdf204	0.025139816
24	0x3c3d6edd	0.011562076
25	0xbd574f58	-0.052565902
26	0x3c0cb1d7	0.008587322
27	0xbcf95048	-0.030433789
28	0xbd50b649	-0.05095509
29	0xbdb8caad	-0.09023032
30	0xbd8f8c62	-0.07009198
31	0x3b90aef5	0.0044153878
32	0x3d24913d	0.040177573
33	0x3d4bda4e	0.04976874
34	0xbcc83f25	-0.024444172
35	0xbc1afb5d	-0.009459344
36	0xbcd0ae2c	-0.025473677
37	0x3d53bb0e	0.05169206
38	0x3db9c6f4	0.090711504
39	0x3d97e93e	0.07417534
40	0xbd81a2eb	-0.06329902
41	0xbc4f562e	-0.012654824
42	0xbca26661	-0.019824209
43	0x3c9d070b	0.019168397
44	0x3c15ae7f	0.009135841
45	0xbd965120	-0.07339692
46	0x3c961b3d	0.018323535
47	0x3c9b41f7	0.018952353
48	0x3d1bc86e	0.03803294
49	0x3ca5a188	0.020218626
50	0xbce9f476	-0.02855895
51	0x3b680db8	0.0035408568
52	0xbb0a3fa6	-0.0021095066
53	0x3d648173	0.055787515
54	0xbcb29fa5	-0.02180464
55	0xbcb6f4fe	-0.022333618
56	0xbce343f0	-0.027742356
57	0x3c951059	0.018196272
58	0x3d7ea2ca	0.062166966
59	0xbc54f9e6	-0.012999034
60	0x3cf23297	0.029565139
61	0x3bf3fc6b	0.007445862
62	0xbd0a7784	-0.033805385
63	0xbcca7e64	-0.02471847
64	0xbdaea5b6	-0.085277006
65	0x3c411e8c	0.011787068
66	0x3d7c6c5c	0.061626777
67	0x3d222a9c	0.039591417
68	0x3b1099d3	0.0022064343
69	0xbd0d1e9c	-0.03445302
70	0xbcc9e441	-0.024644973
71	0x3b3635aa	0.0027802982
72	0x3c15822f	0.0091252765
73	0xbc2d90f2	-0.01059364
74	0xbbb7a5a4	-0.0056044627
75	0x3d3ad8e2	0.04561699
76	0x3bd7a5c4	0.00658104
77	0xbc53c78e	-0.0129259955
78	0xbd423ee5	-0.047423262
79	0xbdabeb2c	-0.08394465
80	0x3d15402b	0.03643815
81	0x3d3aa0f0	0.04556364
82	0xbc7e092a	-0.015505115
83	0xbd239343	-0.03993536
84	0xbcc76a4e	-0.024342682
85	0xbc830243	-0.01599229
86	0xbc360919	-0.0111105675
87	0xbd25677d	-0.040381897
88	0x3c522d70	0.012828216
89	0xbb49b2d0	-0.0030776747
90	0xbd2cbc60	-0.042171836
91	0x3bec6773	0.0072144805
92	0xbc0afac5	-0.00848264
93	0x3d291de1	0.04128826
94	0xb989ad01	-0.00026259574
95	0x3afa8385	0.0019112682
96	0x3be8fe18	0.0071103685
97	0xba5e31a9	-0.0008476028
98	0xbc41407d	-0.01179516
99	0xbcb56b18	-0.022145793
100	0xbd1dd616	-0.038534246
101	0xbcd8c893	-0.026462829
102	0x3cceff6c	0.025268279
103	0x3c968973	0.018376088
104	0xbc3c99f7	-0.011511317
105	0xbc284271	-0.010269747
106	0x3befe7e8	0.0073213466
107	0x3c34f11e	0.011043815
108	0xbc4ed593	-0.012624162
109	0xbd3b87c7	-0.045783784
110	0xbd63fb81	-0.055659775
111	0xbca58611	-0.02020553
112	0x3d0262f5	0.031832654
113	0x3baa4e17	0.0051972973
114	0xbd9c49b1	-0.07631243
115	0xbcd9037f	-0.026490925
116	0x3cc70f75	0.024299363
117	0xbc3d39a8	-0.011549391
118	0x3cb89e16	0.022536319
119	0xbbf96122	-0.007610456
120	0xbd24b668	-0.04021302
121	0xbd239c44	-0.03994395
122	0xbd9267aa	-0.071486786
123	0xbd105390	-0.03523594
124	0xbba1c5b3	-0.0049368977
125	0x3dff70fd	0.12472723
126	0x3d479483	0.048725616
127	0x3c8ef872	0.017452452
128	0x3d89840d	0.0671464
129	0xbd1c3beb	-0.03814308
130	0xbd08443c	-0.0332682
131	0xbc4a43d1	-0.01234527
132	0xbc5bcda9	-0.013415732
133	0xbc8a07e8	-0.016849473
134	0xbc8e3304	-0.01735831
135	0xbd101e7f	-0.035185333
136	0xbbb3ce0b	-0.0054872087
137	0x3cf7bef9	0.03024243
138	0xbc5838bc	-0.01319712
139	0xbcfc4524	-0.030794688
140	0x3c9d4e9f	0.019202529
141	0x3d29cef1	0.04145712
142	0x3d331824	0.043724194
143	0x3c9cc92a	0.019138891
144	0x3b0d4cf9	0.0021560772
145	0x3c3e838d	0.011628044
146	0x3b35cd28	0.002774069
147	0x3d25a1fb	0.04043768
148	0x3c6d92ad	0.014500302
149	0xbc12e914	-0.008966703
150	0xbaabff31	-0.0013122318
151	0x3b074025	0.0020637598
152	0xbc93dcf1	-0.018049689
153	0x3cc6bc5f	0.024259744
154	0xbd3fab50	-0.046794236
155	0x3d588184	0.05285789
156	0x3cb080b4	0.021545745
157	0xbc14a22f	-0.009071871
158	0xbc0cdeb2	-0.008598017
159	0xbc2585b5	-0.010102679
160	0x3ce491b7	0.027901514
161	0x3ad75dc4	0.0016431143
162	0x3c42eb9c	0.011896994
163	0xbc175f25	-0.009238993
164	0xbcb173b7	-0.021661622
165	0x3d3285fa	0.0435848
166	0x3cb0f9b4	0.021603443
167	0x3c9b75f2	0.01897714
168	0xb849ade2	-4.8084075e-05
169	0x3d5f5e40	0.054533243
170	0xbd089919	-0.03334913
171	0xbd056862	-0.03257025
172	0x3bd1fd2e	0.006408355
173	0xbc59d72c	-0.01329593
174	0x3cb259f6	0.021771412
175	0x3d7593af	0.059955295
176	0x3d8df739	0.069319196
177	0x3d7ec8f8	0.062203377
178	0xbc9276d5	-0.01787893
179	0xbc651186	-0.013981229
180	0xbc6a68d5	-0.0143072205
181	0xbcf0eda5	-0.029410193
182	0x3da7e6d3	0.08198323
183	0x3d902665	0.07038573
184	0xbb9b0efa	-0.00473201
185	0xbc4977f5	-0.012296666
186	0xbd117e87	-0.035521057
187	0xbd7a9af2	-0.061182924
188	0x3d60e0cc	0.054901883
189	0x3d5be077	0.053680863
190	0x3dd2b27c	0.102879494
191	0x3d8841d5	0.066531815
192	0xbd72ab33	-0.0592453
193	0x3cb06d19	0.021536397
194	0x3d06cf37	0.03291246
195	0x3e4e3b2c	0.2013976
196	0x3e59fd88	0.21288121
197	0x3e150044	0.14550883
198	0x3d66b032	0.056320377
199	0xbbc03e76	-0.005866821
200	0x3c0c1d33	0.0085518835
201	0xbcfeecfb	-0.03111886
202	0xbd11b5b0	-0.03557366
203	0x3be4f58d	0.0069872797
204	0xbc2ad04b	-0.0104256375
205	0x3c98a541	0.018633487
206	0xbd2e8c92	-0.042614527
207	0xbd36e7c2	-0.044654615
208	0x3c2236b9	0.009900742
209	0xbcc9a98a	-0.024616975
210	0xbcfa6d74	-0.03056977
211	0xbd7eff0a	-0.062254943
212	0xbd60a770	-0.05484718
213	0x3bee6006	0.0072746305
214	0xbb005107	-0.0019579546
215	0x3acb34e9	0.0015503439
216	0xbc80f3e5	-0.015741298
217	0xbc2bdb9a	-0.010489369
218	0x3bba3142	0.0056821415
219	0x3d0abcf0	0.03387159
220	0x3aea1005	0.0017857557
221	0x3d811d98	0.06304473
222	0x3cf48655	0.02984921
223	0xbc15c943	-0.009142223
224	0x3d346778	0.044043988
225	0x3ba47a0e	0.005019433
226	0x3c9ebdbd	0.019377584
227	0x3c53745b	0.012906159
228	0x3cc5d6ee	0.024150338
229	0x3d1580d0	0.0364998
230	0x3c160572	0.009156572
231	0xbaf6b8f2	-0.0018823429
232	0x3d14144b	0.036152165
233	0x3d3b7791	0.045768324
234	0x3cd04013	0.025421178
235	0xbd306fac	-0.04307525
236	0xbd266f8a	-0.040633716
237	0xbc250f0f	-0.010074391
238	0x3c9d74d5	0.019220749
239	0x3c72a414	0.014809627
240	0xbd115d37	-0.035489287
241	0xbcde7583	-0.027155643
242	0xbc248ba6	-0.01004306
243	0xbc85dfcc	-0.016342066
244	0xbb6cb773	-0.0036120086
245	0x3b386198	0.0028134342
246	0xbc6ea7a1	-0.014566333
247	0xbcd077df	-0.025447784
248	0xbc8d92ad	-0.017281855
249	0x3c8ea8c3	0.017414456
250	0xbd35a74b	-0.044348996
251	0xbd118c7b	-0.035534363
252	0xbb449d6a	-0.0030001053
253	0x3c9d540c	0.019205116
254	0x3bf6c105	0.007530334
255	0xbd273791	-0.040824477

conv2.bias f4 [32]
0	0x3ad35be1	0.0016125405
1	0xbc77c55c	-0.015122738
2	0xbb7120f6	-0.0036793328
3	0x3ccfab1a	0.025350142
4	0x3d02643e	0.03183388
5	0xb9b31a40	-0.00034161098
6	0xbb898098	-0.004196238
7	0x3c7a4faf	0.015277787
8	0x3d380083	0.044922363
9	0xbca423a1	-0.02003652
10	0xbac14bd1	-0.0014747326
11	0xbc0809c2	-0.008303108
12	0x3cf5ae11	0.029990228
13	0x3b013315	0.0019714285
14	0x3d79885c	0.060921058
15	0xbc746a4b	-0.01491792
16	0xbc5607a6	-0.013063347
17	0xbc0f4286	-0.008743888
18	0x3bb289a7	0.0054485383
19	0x3ce446b0	0.027865738
20	0x3d3180ee	0.043335848
21	0x3c0f1548	0.008733101
22	0xbc4b3ef7	-0.012405149
23	0x3c2e82da	0.010651315
24	0xbba9f463	-0.005186604
25	0x3cf9d7b6	0.030498367
26	0x3cbfbb4e	0.023404744
27	0x3c5f9356	0.0136459675
28	0x3c8c7332	0.017144773
29	0xbd1023d1	-0.035190407
30	0xbd051fef	-0.032501157
31	0x3be34ad0	0.0069364086

conv3.weight f4 [1, 32, 5, 5]
0	0x3be262d3	0.0069087534
1	0x3c996d6c	0.018728934
2	0x3c3bd943	0.011465373
3	0x3d15a3f3	0.036533307
4	0x3d14d32c	0.0363342
5	0xbcfcc479	-0.030855404
6	0x3b38a669	0.002817536
7	0xbcf18132	-0.02948055
8	0x3a5d129d	0.00084332546
9	0x3bc0a70b	0.005879288
10	0xbb924f0b	-0.004464989
11	0x3cb0f971	0.021603318
12	0x39210b2c	0.00015358318
13	0xbd3ba342	-0.04580999
14	0xbc537ef0	-0.012908682
15	0xbc68c7ec	-0.014207821
16	0xbcfe1cfe	-0.031019684
17	0xbc456043	-0.012046876
18	0xbd2fb6f5	-0.04289909
19	0x3c8bcb54	0.017064728
20	0x3c161ea6	0.009162581
21	0x3c99200b	0.018692037
22	0x3cc5b0c7	0.024132146
23	0x3d02cbf2	0.03193278
24	0xbc42e6e7	-0.011895872
25	0x3af0fea3	0.0018386435
26	0xbd0aec1d	-0.03391658
27	0x3c0b440d	0.008500111
28	0x3cd81d11	0.026381047
29	0xbcc05160	-0.023476303
30	0x3ca27339	0.019830333
31	0xbc886277	-0.016648514
32	0x3c2a6041	0.010398925
33	0xbc8404c5	-0.016115556
34	0x3bb52803	0.0055284514
35	0xbd0cc0f9	-0.03436372
36	0x3cd5f870	0.02611944
37	0xbc016db7	-0.007899693
38	0x3d02e183	0.031953346
39	0xbc5e3bc8	-0.013564058
40	0x3c717cec	0.014739256
41	0xbc90c852	-0.017673645
42	0xbc8008b4	-0.01562915
43	0xbc280ca8	-0.010256924
44	0x3c871abc	0.01649224
45	0x3c69a2e3	0.014260027
46	0x3ca879b5	0.020565847
47	0xbbc616e9	-0.0060452116
48	0x3b74a11c	0.0037327474
49	0x3cb76ef5	0.022391776
50	0xbc625382	-0.013813855
51	0xbc3e4d1d	-0.011615065
52	0x3cdc7e5a	0.026915718
53	0xbcf44a11	-0.029820474
54	0xbc8c2326	-0.017106604
55	0xbca08c12	-0.01959804
56	0xbbf37dea	-0.0074307816
57	0xbcd4d2ca	-0.025979418
58	0x3c06faec	0.008238535
59	0xbcca391c	-0.024685435
60	0xbc7ea397	-0.015541933
61	0xbd0ca93f	-0.034341093
62	0x3cc142dd	0.023591453
63	0xbcb17836	-0.021663766
64	0xbb8ad75a	-0.0042370977
65	0xbcac44e1	-0.021028938
66	0xbb9da8f3	-0.0048114
67	0xbbde2be3	-0.006780134
68	0xbc3c7cdb	-0.011504377
69	0xba049407	-0.0005057458
70	0x3c77bbed	0.015120489
71	0x3ceefd62	0.029173557
72	0x3cd69d4e	0.026198056
73	0xbcd6ef21	-0.026237072
74	0xbb8627f6	-0.004094119
75	0xbd4ee996	-0.050515734
76	0x3c93d62b	0.01804646
77	0x3cf23e8b	0.029570838
78	0x3bd60465	0.0065312856
79	0x3c197b13	0.009367722
80	0x3d2e83d3	0.042606186
81	0x3cb0a433	0.021562671
82	0xbc04c5b4	-0.008103777
83	0xbc5ac73d	-0.013353166
84	0xbb32b6d5	-0.002726962
85	0x3d39ac26	0.04533019
86	0x3ca85f3a	0.02055322
87	0x3c9f682d	0.019458855
88	0xbc0fff5f	-0.008788913
89	0xbc8bb415	-0.017053643
90	0x3c5b9394	0.013401885
91	0xbc11bf46	-0.008895701
92	0xbd5c3789	-0.0537639
93	0xbd004a29	-0.031320725
94	0xbc10bed8	-0.008834563
95	0x3b5d69a7	0.0033784898
96	0xbc544ff0	-0.012958512
97	0xbcc19639	-0.023631202
98	0xbc4ff425	-0.012692486
99	0x3d052446	0.032505296
100	0x3baeb5b8	0.005331721
101	0x3be2a01a	0.0069160582
102	0x3c6350c7	0.013874239
103	0xbb57d28f	-0.00329319
104	0x3b5c099b	0.0033575061
105	0xbc0a9795	-0.008458992
106	0x3cff03a2	0.031129662
107	0xba2021da	-0.000610856
108	0x3ccae356	0.024766605
109	0xbcab2058	-0.020889446
110	0xbce88f75	-0.028388718
111	0x3b82dc60	0.003993556
112	0xbd03c3b3	-0.032169055
113	0x3ca83a80	0.020535707
114	0x3ca87a3a	0.020566095
115	0x3ce4f296	0.027947705
116	0x3cffed0f	0.031240968
117	0x3c360b30	0.011111066
118	0x3c57e92b	0.01317815
119	0xbbb35baa	-0.0054735737
120	0x3d021809	0.031761203
121	0x3c6ddfa8	0.014518656
122	0xbc1046d3	-0.008805948
123	0xbd095c1f	-0.03353512
124	0x3b67ed27	0.0035389157
125	0x3b81f08b	0.0039654425
126	0x3d17edb2	0.03709192
127	0x3d0cfb36	0.03441926
128	0x3d07886d	0.03308909
129	0x3aeeb1cc	0.0018210947
130	0x3c3ec321	0.011643202
131	0xbc96e23c	-0.018418424
132	0x3c34e8f9	0.011041873
133	0x3c2219ed	0.0098938765
134	0xbc6c59c0	-0.014425695
135	0xbc9879bb	-0.018612733
136	0x3c268882	0.010164382
137	0xbce79f2b	-0.02827414
138	0xbc92997b	-0.01789545
139	0x3ce7063a	0.028201211
140	0x3cb2859f	0.021792231
141	0xbd19b50e	-0.037526183
142	0xbd1c3932	-0.038140483
143	0x3ca51e03	0.020155912
144	0xbb9e3539	-0.004828122
145	0x3bd6aab7	0.0065511125
146	0xbc9e6b7f	-0.019338368
147	0xbc3339d6	-0.010939082
148	0x3cf19753	0.029491102
149	0xbc97950b	-0.018503686
150	0x3c48b19e	0.0122493785
151	0x3a34caf9	0.00068967004
152	0x3c398d46	0.011325186
153	0x3afae265	0.0019140957
154	0xbbdb42e2	-0.0066913227
155	0x3c512464	0.012765024
156	0x3c1a8260	0.009430498
157	0xbb3a7d1d	-0.002845592
158	0x3cc93dea	0.024565656
159	0x3d05d375	0.032672364
160	0x3c97edb4	0.018545963
161	0xbc2d8240	-0.010590136
162	0xbcd7fd2a	-0.026365835
163	0xbcc86404	-0.024461754
164	0xbc8cc7c7	-0.017185105
165	0xbb5e6b84	-0.0033938596
166	0x3c946454	0.018114246
167	0x3c25ba36	0.010115197
168	0x3d015952	0.031579323
169	0xbd112844	-0.03543879
170	0xbcabaa41	-0.020955207
171	0x3d035303	0.032061588
172	0xbccacb1f	-0.024755059
173	0x3cbb2e06	0.022849094
174	0x39613cec	0.00021480367
175	0xbb8c7b9b	-0.004287196
176	0x3ccb4bcb	0.024816414
177	0x3cdf91a6	0.02729113
178	0xbc6944f0	-0.014237627
179	0xbafaf536	-0.0019146565
180	0x3d070f34	0.032973483
181	0x3cf0e39c	0.029405408
182	0x3c6a7c79	0.014311903
183	0xbcad22a8	-0.02113469
184	0xbcc21629	-0.023692207
185	0x3ccf9ab7	0.025342328
186	0x3ca6b5bd	0.020350331
187	0xbb77cc1c	-0.0037810868
188	0x3d0ce69e	0.03439962
189	0x3ccc11f9	0.024910914
190	0xbc03785b	-0.0080243
191	0x3c7b350a	0.01533247
192	0x3d0cec15	0.034404833
193	0x3ca8cd5d	0.020605737
194	0xbc8c403a	-0.01712047
195	0xbd0a0ce2	-0.033703692
196	0x3c2d2860	0.010568708
197	0x3c57a88e	0.013162745
198	0xbd0e8fcd	-0.034805108
199	0x3bac11c9	0.0052511436
200	0xbd003246	-0.031297944
201	0xbbc3dc86	-0.005977216
202	0xbcc23217	-0.023705525
203	0xbcb7f635	-0.022456268
204	0x3cb59ea7	0.022170378
205	0x3ba8298e	0.005131907
206	0xbbe5bae4	-0.0070108045
207	0xbd026c5c	-0.03184162
208	0x3ba3a21d	0.0049936906
209	0xbc608f57	-0.01370605
210	0xbb2028e1	-0.0024438428
211	0x3d4f7364	0.050647154
212	0x3daab41c	0.083351344
213	0xbc24016d	-0.010010106
214	0x3b73b9c1	0.0037189575
215	0xbc921cb4	-0.017835952
216	0x3d7a5da2	0.06112445
217	0x3d86dc91	0.065850385
218	0xbd180c61	-0.03712118
219	0xbd18773c	-0.037223086
220	0xba09f810	-0.00052630994
221	0x3b3089bd	0.0026937567
222	0x3cb08b16	0.021550696
223	0xbcb1ff1f	-0.021728097
224	0xbd333e46	-0.04376056
225	0x3d1f44a2	0.038883813
226	0xbba32371	-0.00497859
227	0x3c96e5f3	0.018420195
228	0x3cb28f2a	0.021796782
229	0x3c496512	0.012292163
230	0x3d064881	0.03278399
231	0xbcd4daa0	-0.025983155
232	0xba77da70	-0.0009454852
233	0xbb9be14b	-0.0047570816
234	0x3c8ebcdd	0.017424041
235	0xbc9480d5	-0.018127838
236	0xbccd4798	-0.025058553
237	0xbd07a6b0	-0.03311795
238	0x3c9d4e79	0.019202458
239	0x3c217701	0.009855033
240	0xbd1c4898	-0.03815517
241	0xbbade821	-0.005307213
242	0xbd0503e7	-0.032474425
243	0xbcf9a49a	-0.030473996
244	0x3cafb59d	0.021448905
245	0xbc995c1d	-0.01872068
246	0x3cc1c659	0.02365415
247	0x3d195968	0.03743878
248	0x3c1ce711	0.009576575
249	0x3c983694	0.018580712
250	0xbcfcd4eb	-0.030863246
251	0xbc76d8df	-0.015066355
252	0xbafc220b	-0.001923622
253	0x3bf8472e	0.0075768447
254	0x3c6a8c16	0.014315626
255	0x3c9c279a	0.019061852
