2021_BOML_srcnn_project/output/epoch_264.pth (torch, 231519 bytes, 5 tensors)

conv1.weight f4 [64, 1, 9, 9]
00000000: 9592 fdbc c670 f03b 8bc7 afbd a92f a63d
00000010: f2b1 aebc cea1 ec3d f629 81bd 4173 513d
00000020: 3312 2abd 21e4 613d fccc f7bb e7ea 953c
00000030: 49bc b8bd a3e8 45bd 83f4 7cbd f62c 28bd
00000040: 6413 be3c b98f 083e ba4c a43c cf4c c73d
00000050: 9c6f 773d 13a8 59bb 215a 6e3a 3dad 1e3d
00000060: 4b40 25be 7285 763b 5089 92bd 47c6 8e3d
00000070: 3a7b 663d e35f 49be 3534 723d 40fe 493d
00000080: d289 d83c a592 29bd abb2 2d3d 115f f3bc
00000090: 20b5 ffbd 1f76 8dbd 64c4 fbbd 575d c63d
000000a0: b18f d33d 26ec 253c 3996 f1bc 7bb7 e63d
000000b0: 3b6d 6abb d3e0 03bd 1b01 2abd 3304 0b3d
000000c0: 33bb 693e 3804 323e a6fd 963d 3947 a8bc
000000d0: 6c9f bc3c bcd4 a13b 2ca1 d7bc a02d 1bbe
000000e0: 57ac dabd b91f f73d 7639 8cbc cb74 09be
000000f0: 4a8a e8bc aed2 163e 5840 9fbd 63a9 e7bc
00000100: 784e a0bd 97c1 9cbd 0711 7ebd 6273 94bd
00000110: 4c64 1cbe 4022 813c cb4c 2d3e 3a79 ee3d
00000120: 2f02 ca3d fd6f 0b3c 1144 b23c 49a2 3e3b
00000130: 4c9d 603d 376f cebd 9049 73bd 69bb 273d
00000140: 53d9 2dbd c5dc a83d 0eed 503c bae1 d33b
00000150: 2483 e6bd 82d9 7abd 90a2 b1bd 00b4 e73d
00000160: 083e 643d b888 4ebd a0db 53bd ce27 573d
00000170: c70f 8e3c 5f48 f2bc 5e61 07be b2fd 23bd
00000180: 38b9 ef3d dd00 823d fff9 3c3c eb98 a23c
00000190: 5c2f a93d 9479 82bd 0f50 0fbd 1280 b6bd
000001a0: 80ff 57bd 003f 8e3c 7a2d 143d c250 8c3d
000001b0: 041a 0c3d c3d2 28bd b739 fd3d a965 23bd
000001c0: 3270 ae3d fe4d 5fbd 589b 60bb 25b6 c63c
000001d0: ef1d a7bd e3e2 01bd 4f4a 553b 0a16 583e
000001e0: 7d17 b53d 1699 1b3e 381a f73d c51b b9bc
000001f0: bda0 ce3d c396 acbd a5bd fcbc 3042 0cbd
00000200: 0e04 e23d 3aa3 2c3e b406 973b d1ce 34bc
00000210: 6609 c53b b63e 91bd 1ae3 72bd a308 1abe
00000220: e357 59bd e200 c9bb 5098 ecbc 9e32 f7bd
00000230: f397 ecbd 959e d2bc f019 cd3d deef ed3d
00000240: 73f3 14bc 1946 cfbd a199 a3bd ed41 1bbd
00000250: b865 38be 6084 3fbe c8aa 8bbd 66d7 253d
00000260: 2944 f3ba d2c9 1a3e d1ef b23d 6889 2b3e
00000270: b8b3 69bb eb44 953c e08c 01be 42aa c63d
00000280: 5cad d33d cabd 8e3d e374 dcbc ba97 d53d
00000290: 563e cd3d 841b 393e 43ef 603e 9d94 893e
000002a0: 9eec 353e da7f 973d 109b 13bc cd83 9cbd
000002b0: 6cfb 5bbd 09ab f5bd 0852 78be 30b0 39be
000002c0: eb15 50be f86f d9bd 3472 80bc b247 7abd
000002d0: 31cb 693d 84f0 3b3d 81de 4f3d dd29 0dbe
000002e0: 9e09 abbd a259 4ebd 6ed0 abbd e19e d63b
000002f0: 12bc a53d 64b0 77bd 918f 2bbd 79ae b4bd
00000300: 3280 8f3d eea3 303e 839d 1cbd eb0c 17bd
00000310: 1f16 bb3c efb8 c6bc 983c bb3d e657 ff3c
00000320: c480 12bd be6a 123d 7b73 bd3d daa3 b3bc
00000330: a957 c3bd a512 86bc d828 b13c 4b92 fb3c
00000340: cdd8 a23c f113 cf3d 2906 153d f1e1 943d
00000350: dfcb ff3d 4511 b3bc 13b9 6c3d b11f b3bc
00000360: 135f 1a3d 621b b1bd 5d40 27bd d8cc c5bc
00000370: 997d 09be a4ee b4bd 0145 193d 42dd 25bd
00000380: c037 af3c 8dba 76bd 5052 b6bb 99cc 8dbd
00000390: 7f7f 623d bf22 9a3b 3089 e93c 2d30 8e3c
000003a0: b8c1 4ebd ec03 3d3d 4d61 943c bba6 00bd
000003b0: 602e 943d 3180 ab3b 7a92 d2bd 1cfe 913d
000003c0: 78ea 243d 0654 02bd 1e93 7fbd 684e 5bbd
000003d0: 60f0 423d f729 f73c 8d0d dabd 5446 3abd
000003e0: 559f b33d 6594 df3d 5290 9c3d 03ab 2cbc
000003f0: 976d 913d b853 9dbd 5ab3 65bc b288 c43c
-0.030953685 0.0073376624 -0.08582982 0.08114559 -0.021325085 0.11554299 -0.063068315 0.051135305
-0.041521262 0.0551492 -0.007562278 0.018300487 -0.090202875 -0.048317563 -0.061756622 -0.041058503
0.023202606 0.13336076 0.020056117 0.09731447 0.060409173 -0.0033211752 0.000909241 0.03873943
-0.16137807 0.003761616 -0.071550965 0.06971412 0.05626986 -0.19665484 0.05913182 0.049314737
0.026432905 -0.041399617 0.04240672 -0.029708417 -0.12485719 -0.069072954 -0.12293318 0.09685772
0.10330141 0.010127103 -0.029490577 0.11265465 -0.0035770673 -0.03219683 -0.04150496 0.03393955
0.22825317 0.17384422 0.07372598 -0.020541774 0.023025237 0.00493869 -0.02632197 -0.15154123
-0.106774025 0.120665975 -0.017117243 -0.13423459 -0.028386254 0.14728805 -0.077759445 -0.028279012
-0.07827467 -0.07654112 -0.062027957 -0.0724857 -0.15272635 0.015763402 0.16923825 0.11644216
0.09863698 0.008510587 0.021760972 0.0029088429 0.05483751 -0.10079806 -0.059396327 0.040950213
-0.042443585 0.082452334 0.012751831 0.0064661177 -0.11255482 -0.061242588 -0.086735845 0.11313629
0.05572322 -0.050423354 -0.051723123 0.052528195 0.017341508 -0.029575525 -0.13220736 -0.040036865
0.117052495 0.06347821 0.011534213 0.019848308 0.08260986 -0.063708454 -0.03498846 -0.08911146
-0.0527339 0.017364025 0.036176182 0.06851341 0.034204498 -0.041216623 0.12364524 -0.039891873
0.08517493 -0.05451774 -0.003427228 0.024256775 -0.08160006 -0.031710517 0.0032545512 0.21102157
0.08842371 0.15195116 0.12065548 -0.02259625 0.10089252 -0.08427193 -0.030852148 -0.03424281
0.110359296 0.16859141 0.0046089534 -0.011035637 0.0060130833 -0.07092039 -0.059298612 -0.15042357
-0.05306233 -0.0061341384 -0.028881222 -0.12070201 -0.115524195 -0.025710383 0.10014713 0.11618017
-0.009091246 -0.10120792 -0.07988287 -0.03790467 -0.18007553 -0.18702841 -0.06819683 0.040488623
-0.0018559742 0.15116051 0.087371476 0.16751635 -0.00356601 0.01822134 -0.12651396 0.09700443
0.103358 0.06969793 -0.026911205 0.1042933 0.10021655 0.18076903 0.21966271 0.26871195
0.17766044 0.073974326 -0.009009138 -0.076423265 -0.05370657 -0.11995513 -0.24250042 -0.18133616
-0.20320861 -0.106170595 -0.015679456 -0.06110353 0.057078544 0.04588367 0.050749306 -0.13785501
-0.08351444 -0.05037845 -0.08389364 0.0065497016 0.08092512 -0.060470954 -0.041884962 -0.088223405
0.07006873 0.17250034 -0.038236152 -0.036877554 0.022837697 -0.024258105 0.09142417 0.031169843
-0.03576733 0.03574633 0.09250542 -0.021928716 -0.09538204 -0.016366312 0.021625921 0.030709406
0.01987877 0.101112254 0.036382828 0.072696574 0.12490057 -0.02185882 0.057793688 -0.021865698
0.037688326 -0.08647801 -0.040832866 -0.024145529 -0.13426818 -0.088345796 0.037419323 -0.04049421
0.021388888 -0.060236502 -0.0055640116 -0.069237895 0.05529737 0.004703849 0.028507799 0.017356956
-0.050477713 0.04614632 0.018112803 -0.031409007 0.07235408 0.0052337875 -0.102818444 0.07128546
0.04026267 -0.031818412 -0.06239616 -0.05354157 0.04759252 0.030171378 -0.10647116 -0.045477226
0.087706245 0.10916976 0.076447144 -0.010538819 0.07100981 -0.07681984 -0.0140198115 0.023990963

conv1.bias f4 [64]
00000000: c7e9 af3c 292c 0abe d5b2 923c 5768 13be
00000010: 61e0 dd3c 8cba 773c 4941 443d 0dba 0ebc
00000020: 99d2 8a3d 9430 c7bc 8fe6 47bc 1a03 963c
00000030: 9682 51be a128 7d3e 2aab 923d 9ea5 b6bb
00000040: cadc aabb f84c 81ba 5664 ad39 fe2a 483c
00000050: 9add 913c 6466 afbc f1c9 e5bc 6437 4f3d
00000060: fe27 a6be 0760 d8bc 774d 853d c52d 2b3c
00000070: 5557 083d 0b51 833c fb1b ce3c 904e 02bc
00000080: 6109 3b3d 7ee1 be3c 8298 073b e77a 37bd
00000090: fd6c febb 708c aa3d 3568 89bc 7321 043d
000000a0: 80f0 933b 3011 c1b8 a023 be3d fd4d b8bc
000000b0: 84fe 423d b482 30bc d1ae 0fbd 1a31 cb3c
000000c0: 2ecc 79bb 9abe 0b3c 6977 883c b4a3 973c
000000d0: febb 1b3c 2793 0bbc 83eb 4b3c 19e5 7a3c
000000e0: 5ca6 3b3c bd7e 59bc 2f0d 8d3a 18e8 433d
000000f0: 3617 363d 80da 0cbc 3f28 05bd a34b 1abb
0.021473778 -0.13493408 0.01790754 -0.14395271 0.027084531 0.01512016 0.047913823 -0.00871135
0.067784496 -0.024315156 -0.012200966 0.018312026 -0.20459971 0.2472253 0.07161553 -0.0055739423
-0.0052143084 -0.0009864857 0.00033071887 0.012217281 0.017805863 -0.021411128 -0.028050395 0.050589934
-0.32452387 -0.026412977 0.06508916 0.010447924 0.03328641 0.016029855 0.025159827 -0.007953301
0.04566324 0.023300882 0.0020690267 -0.044794943 -0.0077644573 0.083275676 -0.016773323 0.032258462
0.004514754 -9.2061586e-05 0.09284139 -0.022498125 0.047606006 -0.01077335 -0.035078827 0.024803687
-0.0038116085 0.00852933 0.016658502 0.018510677 0.00950527 -0.008518971 0.012446287 0.01531341
0.011453237 -0.013274846 0.0010761375 0.047828764 0.04445573 -0.008597016 -0.032509085 -0.0023543618

conv2.weight f4 [32, 64, 5, 5]
00000000: 8ce4 7e3c 8ac8 9c3d 7028 803d 7841 413d
00000010: 2756 e3bc f064 253d 1c68 b13b 34e1 18bc
00000020: 9373 043d 5d0c 9e3a 8b1b 313d c2da 813c
00000030: f9db 5d3c a2a2 d7bc 3c2b 893c f891 1a3d
00000040: 171e 9b3d 9c79 a43a 3284 8d3b 92b8 013e
00000050: 3d5b debb cf32 f23c 89a4 c1bd 9fc0 b2bc
00000060: 96bd b23b da90 afbd 1ab7 b63c 8512 90bc
00000070: 1727 9cbd 3dcf b7bd ca5e 24be 1e23 ffbc
00000080: ff25 c73d db98 8e3d 3127 abbc f535 5bbd
00000090: 6f75 0fbd a56b 923d 27f8 c53d 99d2 6b3d
000000a0: cd9c 0bbe 96bf a2bb 36df 80bc 7c1e 073c
000000b0: 894f ee3c 622c b3bd cde6 8f3d 9a16 1d3d
000000c0: 6e8e 543d fc7b 8a3d d85a 883c 37f2 8f3d
000000d0: 42cb 613d 5b4f 0f3e 215e fb3d 22cd b93c
000000e0: dffa ac3c f9ef b53c 39d9 d43c 4fec 4bbd
000000f0: ce83 8a3d e974 9b3d befd bf3b 7726 26bd
00000100: 14ae ffbd 4004 c33c e164 cb3d 19ab 7a3d
00000110: 780e 7dbc 07f6 52bd 6fec c0bd 7d72 1bbd
00000120: bfe0 18bd 6717 4ebd 5d89 66bc 0233 573d
00000130: 2993 ba3b b9e4 5e3d d526 90bc 3b20 e1bc
00000140: 2425 d1bc ea48 f73c b9c3 a73c 11a8 f8bb
00000150: 4f35 7cbd 37b1 93bb fb21 1ebd e879 2bbd
00000160: 5821 4dbd 77bc 03be 047e 26bc 1c0c bbbb
00000170: 0fac 11ba 97d7 6d3d 56bf b63c 93ae 7cbc
00000180: 0738 b2bc bbc1 8d3b b80c a63d afec a53d
00000190: 4fab f8bc a960 cebc 508d 07bd 597d 14bd
000001a0: 2fa3 a9bc e379 973d 51c2 803d 88be ea3c
000001b0: 446f e3bc a731 dcbd 01bb 9abd 9e69 10bd
000001c0: 46fb 5f3d 334b 7bbc 4261 3abe 1a4e b5bc
000001d0: cdf1 8c3d 96b4 9e3d 7250 9b3d 682e 8b3b
000001e0: de9d 2dbd 6261 f8bc 1c6c 9ebd 89e0 41bd
000001f0: 8351 20bc b7f8 1a3e a4ef 9b3d 66fd 5c3c
00000200: b1dd 713c 9763 b9bd 46c2 0e3d a726 f23c
00000210: 16e9 953c 7f94 40bd 8e01 69bd 4b7b 0cbd
00000220: 3bf2 a93b 3741 f93c 5905 37bd 6e54 46bd
00000230: 786d 60bb 8217 0b3d 6b23 003d 92d0 62bc
00000240: 3345 0b3b 4470 ac3d f17f 3d3d 59bc 203d
00000250: 6777 57bb 2a4f cdba ed36 b43c 43f1 fd3c
00000260: 6b37 003d 8da7 a83d 50b4 8bbd 6b6c b23d
00000270: 5977 933d 0526 7a3c 5efa d5bc b218 93bd
00000280: 9ca3 ea3d e5d1 7f3d 0da3 653c 1532 07bc
00000290: aa48 e0bb 6075 b9bc 53f9 e7bc 95b5 64bd
000002a0: e4b5 a1bd 5054 ee3d d02d 59be 49a4 cbbd
000002b0: 73f5 4f3c c99a 313d df1d f83d 37eb 0a3e
000002c0: 6429 253e e1c3 283e bd80 a33c fd26 82bd
000002d0: d22a 30bd cae2 3ebd 5f61 f43d 5d52 893d
000002e0: 3c71 8ebd 8e5a b9bd 6ce9 e2bd cb3c 28bd
000002f0: 4197 a73d 6c14 903d 102f b73d 16af 103c
00000300: 4a9e 5ebd 6178 5c3d c735 80bc 8f46 eb3d
00000310: 04ed 7c3e ab2f 1b3e b400 603d c254 ce3b
00000320: 725e 443d 0c56 acbd 2200 e5bd 0d03 efb9
00000330: 13e0 b83d 6ec8 3e3d 266a 90bd d455 b7bd
00000340: 8152 c0bb 2a24 07bd 370c c23d 03ba bc3c
00000350: 7748 6dbc 8432 a33d 0067 b63d 8942 b0b8
00000360: f279 273d c408 063d 65dc 823d 549d fe3a
00000370: 611a acbc 927d 093e 0158 193d 6de0 f03c
00000380: 812e 29bd a82d bf3c cb9c 34bd 9046 64bd
00000390: 3509 eabb 37a2 b23c 46fb 6b3d 5f2a 14bd
000003a0: 1796 9bbc db9e 0f3d eaba 7a3d f83b 363c
000003b0: e180 17bd 097b a33a e2f0 4f3d feee 823d
000003c0: 5376 70bb c015 f4bc fba2 073c 637b 8b3c
000003d0: 75e0 d93c 1e1f 5dba c25b 6fbc 2950 f5bb
000003e0: ffa9 c53c eac2 5cbb 9165 f1bc bee9 20bd
000003f0: 5a6a 873b 6d14 7b3c 528d c7bb 9fc6 0ebd
0.0155574195 0.07655437 0.06257713 0.047181576 -0.027751042 0.040379465 0.005414022 -0.009331036
0.032336783 0.0012058128 0.043239158 0.015851382 0.013541215 -0.026322667 0.016744249 0.037736863
0.075740986 0.001254845 0.0043187374 0.12668064 -0.006785779 0.029565243 -0.09455211 -0.021820365
0.0054547293 -0.0857255 0.022304107 -0.017586956 -0.07624643 -0.089750744 -0.16051784 -0.031144675
0.09724044 0.069627486 -0.020892711 -0.053518254 -0.035024103 0.07149438 0.09666472 0.05757389
-0.13634034 -0.0049666865 -0.015731435 0.008247014 0.02909066 -0.087487 0.07026444 0.038351633
0.051893644 0.067619294 0.01664488 0.07028621 0.055125482 0.13995115 0.12273813 0.022680823
0.021115718 0.022209154 0.025982486 -0.04978591 0.06763421 0.07590658 0.005859106 -0.040564027
-0.12484375 0.023805737 0.099313505 0.061198328 -0.015445344 -0.05150416 -0.09420096 -0.03795098
-0.03732371 -0.050315287 -0.014070836 0.05253888 0.0056938124 0.054417346 -0.017596642 -0.027481189
-0.025530405 0.030186135 0.02047907 -0.0075883945 -0.061574277 -0.0045072096 -0.038606625 -0.041864306
-0.050080627 -0.12864862 -0.01016188 -0.0057082307 -0.000555695 0.05806693 0.022308033 -0.015422481
-0.021755232 0.004326073 0.08107895 0.081017844 -0.030355124 -0.025192576 -0.03309375 -0.036252353
-0.020707695 0.07396295 0.06287063 0.028655306 -0.027763017 -0.10751658 -0.075551994 -0.035256974
0.054682992 -0.015337753 -0.18201163 -0.022131968 0.06882057 0.07749288 0.07583703 0.0042474754
-0.042386882 -0.030319873 -0.07735464 -0.047333274 -0.009785059 0.1513394 0.07614067 0.013488149
0.014762328 -0.090521984 0.034853242 0.029559446 0.01829962 -0.047016617 -0.05688625 -0.03429727
0.005186347 0.030426605 -0.044682834 -0.048420362 -0.0034244936 0.033957966 0.031283777 -0.013843672
0.0021250963 0.084198505 0.046264593 0.039242122 -0.0032877566 -0.0015663852 0.021998847 0.030998832
0.03130285 0.08235083 -0.06821501 0.08712085 0.07200498 0.015267854 -0.026120361 -0.07182445
0.11456987 0.06245603 0.014015925 -0.008251687 -0.0068445997 -0.022638977 -0.02831713 -0.055837233
-0.07896021 0.11637175 -0.21208882 -0.09943444 0.012692797 0.043360505 0.121150725 0.1356629
0.1612907 0.16480972 0.019958848 -0.06355093 -0.043009587 -0.046603 0.119326346 0.06705163
-0.069551915 -0.09050475 -0.11079678 -0.0410736 0.08183146 0.07035145 0.08944523 0.008830806
-0.054350175 0.05382574 -0.015650643 0.11488067 0.2469979 0.15154903 0.05468817 0.006296725
0.047941633 -0.0841485 -0.11181666 -0.00045587905 0.09027114 0.046577863 -0.07051496 -0.08951917
-0.00586921 -0.032993473 0.09474986 0.023037916 -0.014482609 0.079686195 0.089063644 -8.404727e-05
0.04088778 0.032723203 0.06389693 0.001942555 -0.021008672 0.13426808 0.037437443 0.02940389
-0.041304115 0.0233372 -0.044094842 -0.055731356 -0.007142211 0.021805866 0.05761268 -0.03617322
-0.018992467 0.035063606 0.06121341 0.011122696 -0.036988143 0.001247258 0.050766833 0.063932404
-0.003669162 -0.029795527 0.008278604 0.017026609 0.026596287 -0.0008435118 -0.014609279 -0.0074863625
0.024128912 -0.0033685514 -0.029467376 -0.039285414 0.004132551 0.015324694 -0.0060898447 -0.03485739

conv2.bias f4 [32]
00000000: 78a7 f63c 7887 74bb 3882 e03b 4003 c43c
00000010: 24a9 283d 8463 15bd 35b0 233b 6885 bb3c
00000020: 123b c23c 3f8e 25bd a25b 4abb e0b3 82bd
00000030: b9a1 203d 38bf 86bd 1288 d83d c9b0 cc3c
00000040: 55aa 8dbc 8952 273c c7a3 4ebc 3334 513d
00000050: 9018 423d 2006 023d f43b 29bd f14d 443c
00000060: 9bca 53bc eeb8 633d 5e60 b23c 22ef 1c3d
00000070: 6c9c f83c a7c9 29bd 4ad5 93bd 593e d93c
0.030109152 -0.003731219 0.006851461 0.023927331 0.04117693 -0.03647186 0.0024976854 0.022890761
0.023709808 -0.04041886 -0.0030877371 -0.06381965 0.03921673 -0.06579441 0.10572828 0.024986641
-0.017293135 0.010212549 -0.01261229 0.05107517 0.047386706 0.031744123 -0.04131694 0.011981473
-0.012926723 0.055596285 0.021774467 0.038313992 0.030348025 -0.041452076 -0.07218416 0.026518987

conv3.weight f4 [1, 32, 5, 5]
00000000: b2f2 1dbc 420d a93c 2d93 db3c 366c 303d
00000010: 1ab1 0b3d 7d4c 9bbc 1ede b13b 58c1 92bb
00000020: 746a 41bb 3424 cbba d0f6 f5bb dea9 603a
00000030: e131 72bc 0b5e 7ebd 249b a3bc fa59 85ba
00000040: 75da 89bc 4d1d babc f46e 2cbd b1e5 8b3c
00000050: a828 053c c77f a93c 3ac0 b23c db6b fb3c
00000060: ed67 923b c8ad 933b f986 0cbd ffac 3d3c
00000070: dbf6 c43c b578 ccbc 9bbe a13c b9dc 50bc
00000080: 8656 653c d557 92bc 34a9 0b3b a911 26bd
00000090: da12 cd3c 495b 98bb b117 e03c d6ea 84bc
000000a0: 428c 503c 442d bbbc 4d96 a7bc aa07 85bc
000000b0: 6d3a 713c aa1f d23c 9ee1 e33c 426b c6bb
000000c0: a9da ba39 e5f3 d13c e3c3 22bc 7356 063d
000000d0: 6970 3b3d fc99 dbbc 88e8 babc 404c 11bd
000000e0: 9405 6fbb 69af 7dbc 3df8 683c 2a69 cfbc
000000f0: e96c 41bd 84c3 cdbc db5b 5a3d efdd 6cb9
00000100: f863 2dbc 8113 ffbc e1bf e83c 4aa7 6d3c
00000110: 3103 8fba d75c 3b3a ddba 7ebb a3fb 323d
00000120: b16a 103d 351d babc 072e 88bc da72 86bd
00000130: 8dea a5bb 6ea8 493c 6c19 803c 4659 1b3c
00000140: 4dbf 953c 05ca 053d e309 e63c cfa2 0c3c
00000150: 1719 863b b5d2 7f3d 9c45 003d 1554 0bbc
00000160: 9605 4fbd adba 5fbc 17e6 143d a401 debb
00000170: ba60 82bd 70b6 39bd 9cb4 93bb 2060 893b
00000180: 3187 5dbc 6ba4 5dbc 9ff5 a73b ce5f f03c
00000190: 5db2 1b3b e4d4 8e3b 20ba 4b3c e2a5 8fbb
000001a0: 8516 693b 77c7 49bc 7703 ed3c d6a6 b3ba
000001b0: 5d9a ca3c 9ff6 abbc 1766 febc 61dd 073b
000001c0: 7136 08bd 403f aa3c 6f54 ae3c fcdc c83c
000001d0: 1939 e83c 191c 223c 410b 443c 61a3 c8bb
000001e0: a18a f63c 1296 483c ffbd 24bc 465f 10bd
000001f0: ad99 1a3b ca32 e9bb 6287 153d ec40 4d3d
00000200: 944e 043d 2264 debb 7b81 783c 0cc3 913b
00000210: 67ef c73c 9730 b43b d0b7 4fbb 7bf1 19bc
00000220: ff77 623b 8b00 37bd 6dae 00bd fda9 bb3c
00000230: ce86 183c 1789 42bd 4c12 3dbd f941 353c
00000240: fdad cb3b 679c 4d3c 320f 1fbc 6c37 9fb8
00000250: 3bc2 de3c 17bc 15bc 4323 233c 2c89 d7ba
00000260: cb08 2a3c 014c 0b3b 94b7 d4bb b8d5 103c
00000270: 4836 9a3b aa46 debb f8a2 af3c 0a57 003d
00000280: 43c2 8b3c 356e 4fbc ae1f ecbc 7de4 dcbc
00000290: 1610 a1bc c6a9 cbbb 2cdb 8b3c 660f 403c
000002a0: d2c6 053d b108 1cbd bc7d c4bc 7888 fd3c
000002b0: 74a0 b6bc 05c2 c63c be13 80b9 6fc9 aabb
000002c0: 7aee c43c 0ed1 dc3c 2c85 61bc 669c bbba
000002d0: b774 fe3c 0035 e13c 3bb6 573c f85f adbc
000002e0: 03c8 c3bc ddee bc3c e4a6 923c 71a8 aabb
000002f0: b790 0b3d 5f98 c73c 80a1 1abc c5fc 603c
00000300: efda 073d b0b8 a63c 8e05 8dbc c4a7 0cbd
00000310: 5a35 243c 9c1d 533c 8045 0dbd f5c6 b73b
00000320: acd7 32bd 83ce f0bc 176f 52bd 515f f3bc
00000330: 24be 21ba 1055 cfbc ab34 8d3c bdf1 19bd
00000340: ebbe 88bc 6342 32bc 4504 c1bb 66ef d23d
00000350: e1e1 ce3d 4c1f 8cbc 35a3 1c3a aa2f 46bd
00000360: 6bb4 a43d 33d7 e83d 13ac 2dbc 3aa8 5dbd
00000370: c4f9 44bd 2818 06bd 1aef 233c 5dab 7abc
00000380: cc81 7fbd 7950 403d 78a2 893c a3ff 713c
00000390: ca1c e73c e4da a83c 03f0 d03c e147 97bc
000003a0: 9395 d3bc fdcb 06bc a82c a73c f370 d9bc
000003b0: 690f 71bd ab77 83bd a5d5 13bc e585 3b3c
000003c0: d6a4 9bbc 472d 64bc d071 bdbc 99de 63bc
000003d0: 7b07 ff3c 5baf e93c 4b9f 023d e57e 243d
000003e0: 2981 863c 9a50 5c3c ebd4 fcbc faca 76bc
000003f0: 8abe fdba 7b32 f83b 7f8b 6a3c 9a27 9c3c
-0.009640383 0.020636205 0.026803577 0.043071948 0.034104444 -0.01895737 0.0054280898 -0.004478615
-0.0029512914 -0.001549846 -0.007506229 0.0008570234 -0.0147824 -0.062101405 -0.019971438 -0.001017391
-0.016827801 -0.02271905 -0.042098 0.017077299 0.008127369 0.020690812 0.021820176 0.030691078
0.0044679553 0.0045068003 -0.034308407 0.01157689 0.024043491 -0.024959901 0.019744208 -0.012747937
0.01399768 -0.017864147 0.002131057 -0.040544186 0.025033403 -0.004649554 0.027355047 -0.01622526
0.012728753 -0.022848733 -0.020457411 -0.016239006 0.014723402 0.025649864 0.027817544 -0.0060552666
0.000356396 0.025628993 -0.009934398 0.03279729 0.0457615 -0.026806824 -0.022815958 -0.03547311
-0.003647183 -0.015483716 0.014219341 -0.0253187 -0.047223005 -0.025117643 0.053310256 -0.0002258939
-0.010582916 -0.03113723 0.028411807 0.014505217 -0.0010910985 0.0007147318 -0.0038868703 0.04369701
0.035258 -0.022719005 -0.01662351 -0.06564875 -0.005063361 0.012308223 0.015637122 0.009481734
0.018279696 0.032663364 0.028080886 0.0085837385 0.0040923464 0.062456805 0.031316385 -0.008503933
-0.050542437 -0.013655347 0.036352243 -0.006775098 -0.063661054 -0.04534 -0.0045076143 0.004192367
-0.013521002 -0.01352797 0.005125716 0.029342558 0.0023757436 0.0043588746 0.012434512 -0.0043837884
0.0035566401 -0.0123156225 0.028932316 -0.0013706337 0.02473181 -0.020991622 -0.03105454 0.0020731317
-0.033255044 0.020782113 0.021280495 0.024519436 0.028347539 0.009894394 0.011965574 -0.006122992
0.0300954 0.012242811 -0.010055064 -0.03524711 0.0023590133 -0.00711665 0.036506064 0.050110742
0.0323015 -0.006786839 0.015167589 0.0044483 0.024406148 0.0054989564 -0.0031695254 -0.009395952
0.0034556387 -0.044678252 -0.031416345 0.022908205 0.009309484 -0.04749402 -0.046160027 0.011063092
0.0062158094 0.012549496 -0.009708213 -7.592034e-05 0.027192226 -0.009139082 0.0099571375 -0.0016444079
0.010378073 0.0021255019 -0.006491611 0.008840017 0.004706178 -0.006783326 0.021440014 0.031333007
0.017060405 -0.012660553 -0.0288237 -0.02696442 -0.01966099 -0.006215307 0.017072283 0.011722421
0.032660313 -0.038094226 -0.023985736 0.030948862 -0.022293307 0.024262438 -0.00024428772 -0.005212001
0.024039496 0.026955154 -0.013764661 -0.0014313578 0.031061513 0.027491093 0.013166006 -0.021163926
-0.023899084 0.023063118 0.017901845 -0.005208068 0.034073558 0.024364648 -0.009437919 0.01373214
0.033167776 0.020351738 -0.017214563 -0.03433968 0.010022486 0.012885477 -0.03449011 0.0056084343
-0.043662712 -0.029395347 -0.051375475 -0.029708536 -0.0006169996 -0.025309116 0.017237028 -0.037584055
-0.0166926 -0.010880086 -0.0058904015 0.10299568 0.10101677 -0.017104767 0.00059752475 -0.0483853
0.080422245 0.11369171 -0.010600108 -0.05411551 -0.048089758 -0.03273788 0.010005737 -0.015299645
-0.062379643 0.046951745 0.016801104 0.014770421 0.02821197 0.020612188 0.025505072 -0.018466892
-0.025828158 -0.0082273455 0.020407036 -0.026543116 -0.058852587 -0.06419309 -0.009023105 0.011445497
-0.018999498 -0.013926811 -0.02312556 -0.013908052 0.031131497 0.028525999 0.031890195 0.04016008
0.01641901 0.013446951 -0.030863246 -0.015063042 -0.0019359153 0.007574377 0.014315485 0.019061852
