2021_BOML_srcnn_project/output/epoch_24.pth (torch, 231519 bytes, 5 tensors)

conv1.weight f4 [64, 1, 9, 9]
000000 9f a0 bf bb 41 de 92 3c e4 75 5d bd e5 38 45 3d
       -0.005848005 0.017928245 -0.054067507 0.048149962
000010 53 6e c0 bd 87 a2 9d 3d 0e c8 a4 bd e6 8b 97 bd
       -0.09396043 0.07697015 -0.0804597 -0.073997304
000020 62 d9 48 bd ac c2 93 3d 8f 7e 3a bd e0 09 e0 3c
       -0.049035437 0.07214865 -0.045530852 0.027348459
000030 f1 2b d5 bd 13 1b a0 bd c7 21 6e bd dd fa 09 bd
       -0.10408772 -0.07817664 -0.05813768 -0.033686507
000040 b0 c1 ad bd 6c 7a a1 3d d6 35 20 bc d6 29 00 3d
       -0.084842086 0.07884678 -0.0097784605 0.031289898
000050 a5 de 8e 3d 3c 12 b9 3c 7f c3 1d 3d 5e 45 d9 3d
       0.0697606 0.022591703 0.038516518 0.10608934
000060 4d 7e 5b bd 6c 96 13 3d b7 ed 3e bd ab b3 93 3d
       -0.053587247 0.036032125 -0.04661342 0.07212003
000070 3d a8 85 3d b7 f9 f2 bd 6d d1 e2 3d ef f2 af 3d
       0.065262295 -0.118640356 0.11075101 0.08591258
000080 6b 81 8e 3d a2 e8 52 3d 1c 72 b3 3d de ee d2 bc
       0.06958278 0.051491387 0.08761999 -0.025748666
000090 31 a8 d0 bd 97 22 5a bd d2 98 a4 bd 00 a6 4c 3d
       -0.1018833 -0.053255644 -0.08036961 0.049962997
0000a0 5f b6 0e 3d b6 01 c7 bc 58 e5 79 3a 59 f8 d0 3d
       0.03484189 -0.024292808 0.0009532771 0.102036186
0000b0 9e a3 af bc bf 8b 35 bb b6 94 15 bd f6 1d b1 3c
       -0.021440323 -0.0027701703 -0.036518775 0.021620732
0000c0 b3 e7 0b 3e 85 c5 d5 3d 0d 7a 51 3d c1 f8 9b 3c
       0.13662605 0.104380645 0.051141787 0.019039514
0000d0 ca 7f 9d 3c ce b5 f7 3c f8 57 de bb a3 8b f8 bd
       0.019225974 0.030238058 -0.006785389 -0.121360086
0000e0 e7 67 97 bd 35 bf d4 3d c7 7a 10 3c 1c a0 da bd
       -0.07392865 0.10388032 0.008818335 -0.1067507
0000f0 17 04 30 ba 01 44 b9 3d 03 bc d3 bd ee 2b 67 bd
       -0.00067144766 0.09046174 -0.10338595 -0.05643838
000100 6c b7 6b bd 5e c3 12 bc 15 bc 22 bd 5c f3 01 bd
       -0.05754797 -0.008957712 -0.03973015 -0.031726226
000110 11 e3 0d be d1 14 14 3d 10 26 e3 3d 5e ad a9 3d
       -0.1385615 0.036152665 0.11091244 0.0828502
000120 cd ad 16 bd 77 e3 b0 bd 5b 82 0b 3d e8 bf 7b bc
       -0.036786843 -0.086371355 0.034059864 -0.015365578
000130 a2 de f4 3c 17 3f 02 be cc 7d f4 bb c9 b8 d4 3d
       0.029891316 -0.1271938 -0.007461285 0.103868075
000140 b5 db 88 3d 59 84 3c 3c d9 bd 16 3c e5 d0 bc bc
       0.06682531 0.0115061635 0.009200537 -0.023048827
000150 95 8a a2 bd c6 4e 66 bd 1c f4 a4 bd c6 e0 b6 3d
       -0.07936589 -0.056227468 -0.08054373 0.08929591
000160 a3 66 42 3d 47 9a 39 3c d5 af ae bd 3b 5d 8d 3d
       0.047461163 0.0113282865 -0.08529631 0.06902548
000170 46 d1 84 3c 84 cc 56 3d a1 e2 80 bd 44 f2 e8 3b
       0.01621307 0.052441135 -0.06293226 0.0071089584
000180 c1 68 e0 3d 99 d1 93 3d 0b b6 90 3d 95 90 b4 bc
       0.1095748 0.07217712 0.07065972 -0.022041598
000190 bc 7f 97 3d 01 e8 bc bd 84 ba 13 3c e8 99 61 bd
       0.0739741 -0.09223939 0.009016637 -0.055078417
0001a0 f5 e5 cf bc 4d 9b 81 bc 52 d5 47 3c b7 a3 aa 3d
       -0.025378207 -0.015821123 0.012196856 0.083320074
0001b0 f8 df 00 3d 29 9c b9 bc 93 e8 9c 3d e0 22 38 bd
       0.031463593 -0.02265747 0.076615475 -0.044955134
0001c0 10 5f 99 3d 7a ee a3 bc a8 51 d0 bc 82 79 24 bb
       0.07488835 -0.020011175 -0.025429562 -0.0025096838
0001d0 e5 7e f8 bd d4 69 6e ba b4 b5 1a 3d 36 d4 fe 3d
       -0.12133578 -0.0009094749 0.03777094 0.1244282
0001e0 64 6f 11 3c a6 b2 a6 3d 44 dc f1 3d 0d 30 29 bd
       0.008876655 0.08139543 0.118095905 -0.04130559
0001f0 c7 50 d6 3d 5a 67 a0 bd 76 79 e7 3c 41 ac 17 3d
       0.10464626 -0.07832213 0.02825616 0.03702951
000200 6a 84 52 3d 07 7e db 3d 74 7e 0d bd b0 09 4b 3c
       0.05139581 0.10717397 -0.034544423 0.012392446
000210 c9 32 85 bb 9e b0 a9 bd 98 a5 55 bd 9b 22 d7 bd
       -0.004064892 -0.0828564 -0.052159876 -0.10504647
000220 aa b4 e8 3c 20 ec 65 3c 07 94 fc 3a 1f 71 74 bd
       0.02840646 0.014033347 0.001927019 -0.059678193
000230 f8 13 26 bd 46 de 47 bd 86 90 0e 3d bc 18 ab 3d
       -0.040546387 -0.04879596 0.034805797 0.08354327
000240 6c 05 ca 3a b4 bc 83 bd ed 9e 82 bd f0 b7 aa 39
       0.0015412993 -0.06432477 -0.06377969 0.0003256197
000250 83 80 d6 bd fd 4b e5 bd 45 d8 99 bd 58 48 b7 bc
       -0.104737304 -0.11196134 -0.07511953 -0.022373363
000260 d6 2a de bb ef a7 8f 3d c8 ed 08 3d 50 88 d6 3d
       -0.006780009 0.07014453 0.03342989 0.10475218
000270 7d f9 45 bd 78 4a dd 3c 1a 5f a6 bd 30 c5 c8 3d
       -0.048333634 0.027013049 -0.08123608 0.098032355
000280 f3 4b 7e 3d 40 c4 d6 3d 6d aa 83 bd ac c8 ea 3d
       0.06208415 0.104866505 -0.064289905 0.114640564
000290 08 f7 06 3e e5 bf 10 3e e4 41 9e 3d b2 cb 15 3e
       0.13180172 0.14135702 0.077274114 0.14628485
0002a0 5d 6e c7 3d 16 2d b9 3d f1 50 d0 bc 11 a3 b8 bd
       0.09737847 0.090418026 -0.02542922 -0.090154774
0002b0 18 f9 a1 bb 07 f0 91 3c 44 8d 9d bd d4 9e 63 bd
       -0.0049430244 0.01781465 -0.0769296 -0.055571392
0002c0 dc 92 d7 bd 44 d9 3c bd 94 ec ad 3d ad b5 70 bc
       -0.10526058 -0.04610564 0.08492389 -0.014691752
0002d0 92 0f 06 bc 17 87 e5 3b 56 68 90 3d ab 74 ce bd
       -0.008182423 0.0070046294 0.070511505 -0.100808464
0002e0 b7 bf a8 bd 4c 76 2c bd 0f ce 96 bd 84 d9 53 3d
       -0.08239692 -0.042105004 -0.07363521 0.05172111
0002f0 86 26 6b 3d 7c 83 cb bd 5e ac 9a bd 53 b4 ad bd
       0.057409786 -0.09937188 -0.07552408 -0.0848166
000300 72 82 81 3d cf 85 ed 3d 4a 3e 97 bd ce 2b 3f bd
       0.063237086 0.115977876 -0.073849276 -0.046672635
000310 ff 6f 46 3d c6 23 90 bd eb 29 cf 3d 5d 3e 34 3d
       0.04844665 -0.07038073 0.10115417 0.044004787
000320 6b 16 68 bb c6 ad 1f 3d da b8 92 3d 80 19 9e bc
       -0.0035413753 0.038984083 0.07164164 -0.019299269
000330 46 38 9b bd 8b 06 a6 3c d7 96 43 3c 2c 59 f4 3b
       -0.07579093 0.020266792 0.0119378185 0.007456919
000340 42 36 18 bc 30 94 b4 3d 67 38 17 bc 93 45 97 3c
       -0.00929028 0.08817327 -0.009229756 0.018465793
000350 60 0c 81 3d b7 07 83 bd 4f 8b 3b 3d 59 8b 9d bc
       0.063011885 -0.06397956 0.045787152 -0.019231485
000360 dd dd 5d 3d f7 b6 92 bd 4d 30 9c 3b 69 ae 69 3c
       0.054166663 -0.07163804 0.0047665 0.014262774
000370 d5 f1 a1 bd bd 28 9d bd ed 02 23 3d 4a db c3 bc
       -0.07907454 -0.07673786 0.039797712 -0.023908276
000380 95 5d 89 3d 4d 4a af bd 66 0f 4b bd 16 67 a9 bd
       0.067073025 -0.085590936 -0.049575232 -0.08271615
000390 17 a3 52 3d b8 10 84 3c 2a aa c3 bb af bb 4b bc
       0.051425066 0.016121253 -0.005971213 -0.012434884
0003a0 3a 3b 9c bd f8 85 11 3d ff eb 1f 3d 4c 24 74 bd
       -0.07628484 0.035528153 0.039043423 -0.059604928
0003b0 b7 2f 7a 3d 23 61 42 3c b5 95 a0 bd 10 02 a9 3d
       0.06108066 0.0118639795 -0.07841054 0.082523465
0003c0 9f f6 8e 3d 9d d6 52 bc 80 9f 97 bd 62 32 c0 ba
       0.06980633 -0.012868551 -0.07403469 -0.0014663453
0003d0 d0 ef a2 3d 63 da c7 3d 0d c3 b2 bd ee 51 56 bd
       0.07955897 0.09758451 -0.08728609 -0.052324228
0003e0 54 89 ad 3d fd 5b 4e 3d c1 e8 7a 3d 55 b9 82 bd
       0.08473459 0.050380696 0.061257128 -0.063830055
0003f0 9b ea b8 3d ea 7e c1 bd 93 7b 04 bc 15 af 6d ba
       0.090291224 -0.09448035 -0.008086103 -0.0009066922

conv1.bias f4 [64]
000000 7a ab 1e 3b 3d 31 e6 bd 98 5a 67 37 58 d3 78 bd
       0.0024211095 -0.1123986 1.3789766e-05 -0.060748428
000010 34 24 1e 3d 69 68 88 bc 39 81 55 3d 7c 99 80 bc
       0.038608745 -0.01665135 0.05212519 -0.015698187
000020 6f 8f d0 3d 8e 4e 38 bd ff d1 0a 3c 07 a6 25 3d
       0.10183608 -0.04499679 0.0084729185 0.04044154
000030 12 7c e2 bd 52 f8 bf 3d 34 56 85 3d f6 32 90 3c
       -0.11058821 0.09373535 0.065105826 0.017602425
000040 0e 8f 02 bd b7 fa 9c bd 51 72 42 3d 58 5d 0f 3d
       -0.03187471 -0.076650076 0.047472302 0.03500113
000050 c3 69 9c 3c 41 9e 42 3b 1e 6f 85 bd f6 fb 92 3d
       0.0190934 0.0029696377 -0.065153345 0.07176964
000060 a5 17 8e bd 22 c8 4a 3b e5 3e bb 3c 30 ab 56 3c
       -0.069381036 0.0030942042 0.022857139 0.013102338
000070 e6 0d e0 3c 42 b0 61 3d 92 e1 b0 3d 58 a7 07 bc
       0.027350377 0.055099733 0.08636774 -0.008279644
000080 46 56 3e 3d e8 d0 38 3d 06 77 a8 3a a5 17 a8 bd
       0.046468996 0.045121104 0.0012852855 -0.08207635
000090 ec ae 9c bc f3 9f a1 3d c5 fd ba bb d1 ed 69 3d
       -0.019126378 0.07891836 -0.005706521 0.057111565
0000a0 fc 51 8f bc 60 ff 45 bc 43 ed cc 3d 7d 76 98 bc
       -0.017495148 -0.012084812 0.100061916 -0.018611187
0000b0 24 b5 0f 3d f4 34 30 bc b9 8a b3 bc d9 fe a3 3c
       0.03508486 -0.0107548125 -0.021916734 0.020018982
0000c0 3d f5 5a 3a 4a ba f7 bc 00 8f ff 3a da 28 47 3d
       0.00083525834 -0.030240197 0.0019497573 0.048622943
0000d0 16 85 03 3c 85 9d e9 ba 6c b5 f0 37 b1 6f 20 3c
       0.008027336 -0.0017823434 2.869471e-05 0.009792254
0000e0 0f f4 d1 3d 81 71 32 bd ad c2 b9 bb 9a e1 93 3d
       0.102516286 -0.043565277 -0.005668959 0.072207645
0000f0 08 22 83 3d ad 01 30 bd cc 2c b5 bd 52 8a a2 bd
       0.06402975 -0.04297035 -0.08846435 -0.07936539

conv2.weight f4 [32, 64, 5, 5]
000000 8f d6 a2 bb a4 fe d2 bb ad 51 bd 3b 2c 5f 8a 3c
       -0.004969425 -0.006439047 0.005777559 0.016891085
000010 cb e4 90 bd 2c b3 22 ba 65 03 b5 bc 7f a5 bd bc
       -0.07074889 -0.0006206508 -0.022096345 -0.023150204
000020 cd b0 fa b9 c9 1e b2 bc 11 0e 45 3c 65 d5 8b bb
       -0.00047815443 -0.021743195 0.0120272795 -0.004267382
000030 34 c6 a5 3c d4 c6 28 3c 66 88 2e 3d 2e ff 4a bc
       0.020236112 0.010301311 0.04261055 -0.012389941
000040 ee c2 8d 3c e8 dc ca 3c 53 b3 a0 3c 0c 6c 2b 3d
       0.017304864 0.02476354 0.019616758 0.04185109
000050 aa 8e 37 bc 8d ce fb 3a 92 0e c7 bc a1 7d 8c 3c
       -0.011203447 0.0019211337 -0.02429894 0.017149748
000060 7b 18 89 bc 6c b6 33 bd ba 7d 44 bb 27 04 f3 b9
       -0.016735306 -0.043875143 -0.0029982165 -0.00046351666
000070 80 23 18 bd 73 af 07 bd de e1 2a bd da 6d 16 3c
       -0.03714323 -0.033126306 -0.04171931 0.009181464
000080 85 92 07 3d 32 39 cb 3c 5d 75 4d 3c 7b fa 4c bc
       0.033098716 0.024807546 0.012540189 -0.012510891
000090 09 33 e6 bc 10 9c d6 3c 1d bf 1e 3d e7 b8 57 3d
       -0.028100507 0.026197463 0.03875648 0.05266657
0000a0 17 a8 9d bc 11 67 9c bb 9a d8 73 bc 06 a7 81 3c
       -0.01924519 -0.0047730287 -0.014883185 0.015826713
0000b0 87 1e 00 3c b9 a2 2b bd e1 c2 1f 3c 09 74 d9 3b
       0.007819778 -0.04190323 0.009751053 0.006636147
0000c0 50 4c 25 3c bb c6 5d 3b 59 33 7a bd 1b a0 75 bd
       0.010088995 0.0033840376 -0.061084125 -0.05996714
0000d0 19 b4 be bd ad 99 88 bd 42 8a e3 bd dd 34 0f bd
       -0.09311695 -0.06669936 -0.11110355 -0.034962524
0000e0 b0 37 fd bc a1 94 a9 bc 39 e8 29 3c 76 b2 f1 bc
       -0.030910343 -0.020700755 0.010370308 -0.029504042
0000f0 7c e2 86 3c 1e bd 78 3b 01 2e 6a bc b0 0d ba 3c
       0.016465418 0.003795452 -0.014293195 0.022711605
000100 e9 95 73 bc 58 26 3e 3b e0 80 3f 3d 0e f4 46 3d
       -0.014867284 0.0029014554 0.046753764 0.048572592
000110 20 9c 22 3d b4 ea 26 3b 78 a4 47 3c 2b d4 10 3d
       0.039699674 0.0025469484 0.0121852085 0.03535859
000120 98 49 0c 3d 5b 32 d5 3c 13 76 be 3c 6c 85 79 3c
       0.034249872 0.026024988 0.023249662 0.015229564
000130 82 59 70 bc 48 29 08 bc 00 75 c1 bc 33 18 0f bd
       -0.014669778 -0.0083106235 -0.02361536 -0.034935188
000140 56 3a a4 3b 50 69 a1 3c d5 57 64 bc 7b f0 9e bc
       0.005011837 0.019703537 -0.013936956 -0.01940178
000150 74 1c c3 3b 05 8b 5b 3c 8a 94 14 3c b6 aa 84 bc
       0.0059543196 0.013399844 0.009068618 -0.016194683
000160 ea 04 d4 3c cb c5 19 3b 90 0d c2 bb 88 ad a7 3c
       0.02588125 0.002346384 -0.005922027 0.020468488
000170 b9 b8 12 3c af c5 c6 3c 2f 6d 97 bb 57 71 32 3c
       0.008955174 0.024264185 -0.00462117 0.01089128
000180 8a f7 b8 bb 2c 04 3f 3c 2d 07 49 bc 80 81 56 bc
       -0.0056447433 0.0116587095 -0.012269777 -0.013092399
000190 36 04 fe bc e1 91 ef bc c9 ad 89 3c ed 94 97 3c
       -0.031007867 -0.029244365 0.0168065 0.01850363
0001a0 8b 35 12 3b 32 9b 2c bc 77 94 c5 bb 4c 19 6b 3c
       0.0022309746 -0.010535048 -0.0060296613 0.014349293
0001b0 84 bf d8 3c d4 9a 16 3c 54 52 af bc 58 d4 99 bc
       0.02645851 0.009192187 -0.021401562 -0.018778011
0001c0 c2 50 f8 3c 30 ff ba 3c c7 c8 0c bd 50 c8 bf bc
       0.030311946 0.022826761 -0.034371164 -0.023410946
0001d0 5a 4e f6 3b 36 d3 6a bc 99 a9 b4 3c 8e 27 a8 3b
       0.0075166645 -0.014332583 0.022053527 0.0051316684
0001e0 2b c4 c1 bc 33 70 23 bc d7 6e ae bc 27 35 f4 bc
       -0.02365311 -0.009975481 -0.021293087 -0.029810501
0001f0 c4 f1 a8 bb af ec a8 3d 20 90 06 3d a5 c2 16 3b
       -0.005155774 0.08248269 0.032852292 0.00230042
000200 cd dd 53 3d ec 05 d5 bc 22 fb bf bc 07 46 e4 3b
       0.051725198 -0.0260038 -0.02343518 0.0069663557
000210 a9 ef 38 bc f4 1d 0b bc f4 66 a3 bb 3d fd ee bc
       -0.011287608 -0.008491028 -0.004986638 -0.029173488
000220 2a c1 5c ba 39 09 b9 3c 5e 43 6b bc dc ed b6 bc
       -0.00084211177 0.022587406 -0.014359323 -0.022330217
000230 2a f9 e3 3c e8 d1 05 3d c6 4b 13 3d 7a 46 80 3c
       0.027828772 0.032670885 0.035960935 0.015658606
000240 58 46 d2 3b c3 67 d9 bc b3 6d 01 bd e1 b7 97 3c
       0.006417077 -0.026538735 -0.031598758 0.018520297
000250 db d8 73 bc 5d a3 2f bd ef c3 ac bc cd 0a 4a bc
       -0.014883245 -0.042880405 -0.021089522 -0.012331677
000260 67 53 bf bc 95 c3 50 3c 64 7d 24 bd 7f 28 fc 3c
       -0.023355199 0.012741943 -0.040158644 0.030781029
000270 55 e0 9c 3c 2b 04 4a bc 94 52 0b bc 35 d4 ae 3c
       0.019149939 -0.012330095 -0.008503575 0.021341423
000280 a6 ba 4f 3c 53 30 3e bb 91 e9 8d 3c 84 26 13 3b
       0.012678778 -0.0029020503 0.017323287 0.0022453377
000290 06 93 06 bc ff ac 16 3d ef e4 a5 3b 6b 60 41 3b
       -0.008213764 0.036786076 0.0050626914 0.0029506932
0002a0 6a 95 b3 3a 2e 24 7b 3c 12 b3 43 3a da 3f d8 38
       0.0013701145 0.01532845 0.0007465343 0.00010311576
0002b0 2e b0 fb 3b c4 92 a5 3b f5 96 1a bc bc b7 34 3c
       0.0076809144 0.005052896 -0.009435405 0.011030134
0002c0 0f a5 53 3d 1c 0c 97 3c 8a 88 4e bc 06 45 9b 3d
       0.051671084 0.018438391 -0.012605796 0.075815246
0002d0 51 c8 12 bd a1 45 86 bc d6 5e 85 3d ed fa 61 3c
       -0.035835568 -0.016390624 0.06512229 0.0137927355
0002e0 5f 98 15 3c 71 04 47 bd a3 89 b2 bc c3 f4 f0 bc
       0.009130566 -0.04858822 -0.021794146 -0.029413586
0002f0 9f 4b 05 bc 23 3a a3 bc 84 6e 7e 3c 68 68 a9 3c
       -0.008135705 -0.019925183 0.015529279 0.020679668
000300 f8 61 b4 bc e9 f6 1b 3c 38 fe e0 bb 20 ef 0c 3e
       -0.022019371 0.009519317 -0.0068662427 0.13763094
000310 4b c5 ef 3d c0 a1 be 3d aa 18 41 3d cd b3 cf 3c
       0.117075525 0.09308195 0.047142662 0.02535429
000320 4a 29 a2 bb 5a b3 1e 3a f9 d4 db 3a 00 58 df 3c
       -0.0049487697 0.0006053947 0.0016771845 0.027263641
000330 db 8b 3c 3c 69 dd c6 3c 28 d6 8c bb bc a9 84 ba
       0.0115079535 0.024275498 -0.0042979904 -0.0010121386
000340 f2 86 77 3c 71 b3 bc bb 8f f6 f6 bc 0a 1a ff bc
       0.015107857 -0.005758696 -0.030146865 -0.031140346
000350 69 dd 04 bc e3 8b e0 3b 70 aa ca bc 92 c0 d2 3c
       -0.008109429 0.0068526133 -0.024739474 0.02572659
000360 09 0a b1 bb 83 58 de 3b 35 ca 32 bb 45 81 e6 bb
       -0.0054028076 0.0067854538 -0.002728117 -0.007034453
000370 00 4f 50 39 14 fc 9d 3c b4 0d d2 3b de 0e be bc
       0.00019865856 0.01928524 0.006410325 -0.023200449
000380 ec 68 37 3c 92 ab 86 ba e6 96 30 3c bd 55 d2 ba
       0.011194449 -0.0010274521 0.0107781645 -0.001604728
000390 38 8c a8 bb 7d f8 ea 3a d0 53 4f 3c a0 bf d8 3b
       -0.0051436685 0.0017926838 0.01265426 0.0066146404
0003a0 32 25 fb 3c 85 16 e3 3c a7 1e 96 bb d9 08 1f bc
       0.030657385 0.0277207 -0.0045812908 -0.009706699
0003b0 6d 6f 11 bb 73 06 d2 3a eb 15 88 bb 18 cb d2 bc
       -0.002219166 0.001602365 -0.0041530035 -0.025731608
0003c0 70 8f 3a bd 40 0d a1 bc 2c 2c 2a bc 0b 3b 0a bd
       -0.04554695 -0.019659638 -0.010386508 -0.033747714
0003d0 6d 38 d0 bc bb 68 26 bb c8 17 4a bc 00 25 a0 bc
       -0.02541753 -0.0025392014 -0.012334771 -0.019548893
0003e0 20 74 a9 bc e3 48 83 bb 89 a0 20 bd b4 36 d5 bc
       -0.020685256 -0.0040064915 -0.0392156 -0.026027061
0003f0 65 12 8d bb dc fe 51 3c 0c 8c d6 3b 00 40 3c bd
       -0.0043051713 0.012817111 0.0065474566 -0.045959473

conv2.bias f4 [32]
000000 e2 aa a3 bb 4f 5c b5 bc c7 00 43 bb ba f4 92 3c
       -0.004994736 -0.022138743 -0.0029755102 0.01793896
000010 d7 58 ce 3c ec df 85 3c 27 af 41 bc 2c 3e 03 3c
       0.025188847 0.016342126 -0.011821545 0.008010428
000020 79 c4 e3 3c fc 0e 71 bc da 22 91 39 94 ec 03 3c
       0.027803646 -0.014713045 0.00027682522 0.00805201
000030 64 ce d6 3c c0 dd 4c 3c c9 ec d3 3c d1 5d 68 bc
       0.026221462 0.012504041 0.025869744 -0.014182524
000040 d5 15 7b bc 59 82 8d bc 0e b4 63 3c ef 74 bb 3c
       -0.015325029 -0.017274069 0.013897909 0.022882907
000050 21 02 ec 3c 85 c9 25 3a 0e 74 e8 bb 22 50 12 3c
       0.028809609 0.0006324279 -0.007093913 0.008930238
000060 8b 8f 10 3c d9 19 d4 3c 82 e9 92 3c 01 e9 8e 3c
       0.008823286 0.025891231 0.01793361 0.01744509
000070 d5 cb 15 3c 72 7d dc bc c2 18 42 bc d7 20 f4 ba
       0.009142836 -0.026915286 -0.011846723 -0.001862551

conv3.weight f4 [1, 32, 5, 5]
000000 8e 5c 82 3c f4 3f 91 3c 33 30 4a b9 d6 76 da 3c
       0.015913274 0.01773069 -0.00019282177 0.026667994
000010 8a ad 02 3d b7 a4 02 bd 61 91 15 39 34 87 10 bd
       0.03190378 -0.031895366 0.00014263905 -0.03528519
000020 0c 6a 3d 3b d0 9d 29 3c f9 8e 7d bb f5 24 da 3c
       0.002890232 0.010352567 -0.0038689955 0.02662895
000030 35 3e 13 3c 58 c7 09 bd 20 d9 9d bb 34 9d 86 bc
       0.008986999 -0.033637375 -0.004817143 -0.016432382
000040 87 af f3 bc 2b 79 2c bb ae 98 0f bd 1c 7a a8 3c
       -0.029746784 -0.002631734 -0.035057716 0.020566039
000050 89 4a 91 3b 3a 3e 59 3c de 92 af 3c d2 3a ea 3c
       0.004433934 0.013259465 0.021432336 0.0285925
000060 80 b1 91 bc 47 ca 01 3b e9 88 09 bd 5e 94 04 3c
       -0.017784834 0.0019804405 -0.033577833 0.008092014
000070 b8 46 d8 3c 27 20 b8 bc 70 bf a6 3c b6 5e 88 bc
       0.026400909 -0.022476269 0.020354956 -0.016646724
000080 f1 38 26 3c 3c 64 7d bc af aa d6 3b 52 43 09 bd
       0.010145412 -0.015465792 0.006551109 -0.033511467
000090 fb 63 d7 3c a8 37 04 bc e2 4c 06 3d 35 31 4f bc
       0.026292792 -0.00806991 0.032788165 -0.012646009
0000a0 6b e2 7c 3c c7 1d 8b bc ec 73 76 bc 23 9f 13 bc
       0.015434842 -0.016981972 -0.015042286 -0.009010109
0000b0 59 c6 8b 3c d1 63 69 3c 02 83 a8 3c 1b 85 bb bb
       0.017062353 0.0142449895 0.020570282 -0.0057226545
0000c0 2f 4a 90 3b d0 95 b3 3c 82 53 62 bc 1d 4d 3e bc
       0.0044033746 0.021922022 -0.013813855 -0.011615065
0000d0 5a 7e dc 3c 11 4a f4 bc 26 23 8c bc 12 8c a0 bc
       0.026915718 -0.029820474 -0.017106604 -0.01959804
0000e0 ea 7d f3 bb ca d2 d4 bc ec fa 06 3c 1c 39 ca bc
       -0.0074307816 -0.025979418 0.008238535 -0.024685435
0000f0 c3 5a 7e bc 2f d5 0c bd 9b 4b c1 3c 36 78 b1 bc
       -0.015524569 -0.034382995 0.023595622 -0.021663766
000100 5a d7 8a bb b3 7f ac bc 43 0a 9f bb 2c 4b dd bb
       -0.0042370977 -0.021056985 -0.004853518 -0.006753346
000110 db 7c 3c bc 07 94 04 ba cd b7 76 3c 78 b9 ee 3c
       -0.011504377 -0.0005057458 0.01505847 0.029141173
000120 e2 ef d6 3c 21 ef d6 bc f6 27 86 bb 7e a7 19 bd
       0.026237432 -0.026237072 -0.004094119 -0.03751325
000130 c1 71 a3 3c d5 e2 f0 3c 6a 7c ec 3b a2 60 06 3c
       0.019951703 0.029405037 0.0072169797 0.00820175
000140 0a 9c 32 3d ec e2 07 3c e3 31 bd bc 6f 55 90 bc
       0.04360584 0.0082938485 -0.023095077 -0.017618863
000150 1f 4b 18 bc 52 60 f9 3c ce 98 13 3c 3e e6 df 3c
       -0.009295254 0.030441437 0.009008599 0.027331468
000160 73 a4 36 3c 3d ca 54 bc b4 ac ed ba c5 01 46 bc
       0.011147606 -0.0129876705 -0.0018133135 -0.012085383
000170 ea a6 26 bd 35 ae 88 bc 7d 63 52 bc 89 b9 0c bb
       -0.040686525 -0.01668463 -0.012841103 -0.0021472892
000180 c6 48 05 bc 6b 3a a1 bc d6 e3 8d bc db 75 65 3c
       -0.008135026 -0.019681176 -0.017320555 0.01400515
000190 d6 e5 c8 3b a4 d1 fb 3b 3d 5b 6b 3c 35 39 45 bb
       0.006130914 0.007684903 0.014365015 -0.0030093913
0001a0 3d a0 65 3b 70 a4 f6 bb 43 40 02 3d 58 9f 22 b9
       0.0035038136 -0.0075269267 0.031799566 -0.00015508884
0001b0 74 69 cd 3c 92 eb aa bc a8 21 e3 bc 76 11 92 3b
       0.025074698 -0.020864282 -0.02772601 0.004457648
0001c0 a6 b4 02 bd af 10 a8 3c d7 64 a6 3c fa 13 eb 3c
       -0.03191056 0.020515768 0.020311756 0.028696049
0001d0 6b a7 02 3d bc 1c 3b 3c 63 92 5b 3c fc fe af bb
       0.031897943 0.011420425 0.0134016005 -0.0053709727
0001e0 a7 ed 03 3d 08 ea 74 3c a2 10 0b bc 7c c9 06 bd
       0.032209065 0.0149483755 -0.008487852 -0.032906994
0001f0 b5 9c 86 3b c1 47 75 3b 64 00 f2 3c a8 a8 c6 3c
       0.0041080364 0.0037426802 0.029541202 0.024250343
000200 13 29 03 3d 36 fb 82 3b af 34 29 3c 7f a7 d9 bc
       0.032021593 0.003997232 0.010327502 -0.026569126
000210 e1 77 ce 3b 9d 6b 17 3c 81 7f 9a bc 1d 8b 8e bc
       0.006300912 0.009241966 -0.018859627 -0.017400319
000220 66 8d 85 3c 24 84 9e bc 6f a4 40 bc 8f 7b de 3c
       0.016302776 -0.019350119 -0.011757954 0.027158527
000230 40 7d ea 3c 28 3c e4 bc 8a 35 f3 bc a0 23 d0 3c
       0.028624177 -0.027860716 -0.029688615 0.025407612
000240 56 c6 07 bc d1 ff b4 3b 42 d3 ac bc 47 75 56 bc
       -0.008287033 0.0055236598 -0.02109683 -0.013089485
000250 e7 d2 ed 3c 10 10 b2 bc ec 6b 53 3c 94 4a b9 3a
       0.02903123 -0.021736175 0.012904149 0.0014136606
000260 4e 66 3e 3c 09 17 06 3b 4d 38 e4 bb 90 2f 57 3c
       0.011621071 0.0020460507 -0.0069647194 0.013133898
000270 a2 27 24 3c 32 82 32 bb a0 76 c7 3c 21 74 03 3d
       0.010019215 -0.0027238247 0.024348557 0.03209317
000280 5b c9 98 3c 9f 88 25 bc 4c d0 d3 bc f6 8d c6 bc
       0.018650701 -0.010103374 -0.02585616 -0.024237614
000290 9e 45 8e bc ae 67 49 bb 5d 7e 95 3c 54 06 21 3c
       -0.01736718 -0.0030731964 0.018248731 0.009828169
0002a0 d0 f9 00 3d 13 a8 0d bd e3 0d a6 bc 75 1b 05 3d
       0.03148824 -0.034584116 -0.020270294 0.03249689
0002b0 c3 91 cb bc 2e 03 bc 3c de fb 92 3a 03 7a 7f bb
       -0.024849778 0.022950735 0.0011213978 -0.0038982637
0002c0 03 c0 cd 3c fe 4d e0 3c 78 80 6a bc b6 ab fb ba
       0.025115972 0.02738094 -0.014312856 -0.0019200954
0002d0 62 3c 08 3d 3f cb f2 3c c4 75 6b 3c ae ac ad bc
       0.03326071 0.02963793 0.014371339 -0.021200504
0002e0 b9 ed c1 bc 48 27 d2 3c 62 db a8 3c 2e 25 77 bb
       -0.023672925 0.025653496 0.020612422 -0.003771137
0002f0 2e 65 0c 3d 73 e1 cb 3c 35 70 f9 bb dd 04 80 3c
       0.03427618 0.024887776 -0.007612253 0.015627319
000300 63 72 0d 3d d9 91 a8 3c d3 c7 8b bc 21 a6 08 bd
       0.034532916 0.020577358 -0.017063057 -0.033361558
000310 ab b6 31 3c a6 b3 5a 3c f3 5e 0e bd 22 fa af 3b
       0.010846774 0.013348496 -0.03475852 0.0053703943
000320 52 23 c8 bc 2c be 6a 3c 4e ca 08 bc 8e 8e 75 bc
       -0.024430905 0.014327567 -0.008349014 -0.014987601
000330 35 30 14 3d 32 ca 83 3c a7 b0 14 bc f4 ad bd bc
       0.036178786 0.016087625 -0.00907532 -0.023154236
000340 26 99 87 3c fa 5c 49 bc d7 d4 ae 39 23 72 af 3c
       0.016552519 -0.012290234 0.00033346444 0.02141673
000350 53 bf 64 3d 71 9d 4c bb aa a5 8c 3c 7c 5c 4c bc
       0.055846523 -0.0031221772 0.017168839 -0.012473222
000360 cd 87 61 3d 43 55 32 3d 27 c6 ce bc 5d 27 b5 bc
       0.05506115 0.043538343 -0.02524097 -0.022113496
000370 fe 43 90 3c c5 e3 d6 3a dd b0 e2 3c 83 9e c4 bb
       0.017610546 0.0016394785 0.027672226 -0.0060003414
000380 d2 43 a0 bc 13 6c 0e 3d c3 d4 4c bc 6d 15 80 3c
       -0.01956359 0.034771036 -0.012501898 0.015635217
000390 29 a7 b9 3c 78 09 40 3c b0 a3 0b 3d 5f 2a c7 bc
       0.022662716 0.0117210075 0.03409165 -0.024312196
0003a0 93 f3 67 3b 56 f2 69 ba 6f 07 89 3c 03 12 77 bc
       0.0035392984 -0.00089243555 0.016727177 -0.015079978
0003b0 ef 6d af bc f6 98 e4 bc f7 1a c4 3c a5 d0 1e 3c
       -0.021414725 -0.027904969 0.02393864 0.009693299
0003c0 34 a2 08 bd 44 79 2d bb 34 06 f5 bc 41 85 f5 bc
       -0.033357814 -0.0026469985 -0.029910184 -0.029970767
0003d0 a3 a0 b1 3c d0 a2 94 bc 79 ac aa 3c 40 33 06 3d
       0.021683043 -0.018144041 0.020834194 0.03276372
0003e0 e6 8f ab 3b af 82 7c 3c d4 ed fc bc fd 14 77 bc
       0.00523566 0.015412017 -0.030875124 -0.015080688
0003f0 26 05 fe ba 1c d0 f7 3b d0 50 6a 3c 77 37 9c 3c
       -0.0019380196 0.0075626504 0.014301494 0.019069416
