2021_BOML_srcnn_project/output/epoch_103.pth (torch, 231519 bytes, 5 tensors)

conv1.weight f4 [64, 1, 9, 9]
-0.028281512 0.022784794 -0.05303855 0.079171866 -0.05200915 0.10808744 -0.055898163 0.001422741
0.001614454 0.08267846 -0.023363788 0.023439199 -0.10111805 -0.07649847 -0.07713228 -0.05665946
-0.064457394 0.10222417 0.020415647 0.06052591 0.06492397 0.01695832 0.02944137 0.0772634
-0.10457467 0.0071143177 -0.0637941 0.048836626 0.027125834 -0.17816648 0.07884461 0.07198646
0.04761126 0.00224681 0.04646549 -0.054893583 -0.11985293 -0.08233499 -0.10513193 0.08121998
0.082196124 0.00037918304 -0.010828957 0.101082176 -0.022816606 -0.011309634 -0.045816056 0.027267937
0.1899493 0.15028226 0.06748294 0.0062447856 0.028553251 0.029437225 -0.007967375 -0.13775201
-0.08888303 0.11533775 0.002939359 -0.12391141 -0.01947761 0.11653629 -0.087004155 -0.039725713
-0.07962273 -0.04857131 -0.051704615 -0.047721047 -0.15493545 0.0172223 0.1291312 0.08356455
0.064428836 -0.046645977 0.015179663 -0.011244848 0.045066494 -0.11254608 -0.025559766 0.0884133
0.008828245 0.049018215 0.016875686 0.008367117 -0.07952518 -0.06185374 -0.09157998 0.10195536
0.048218623 -0.04224639 -0.08025684 0.048520166 0.0166253 0.013665699 -0.11035456 -0.03545288
0.11098939 0.06916019 0.029195739 -0.0034099324 0.06468196 -0.079663396 -0.013014722 -0.086205535
-0.056951866 0.00094539026 0.027266394 0.06963046 0.049952634 -0.02910756 0.110460065 -0.027342262
0.08028404 -0.042512104 -0.00669393 0.0152705945 -0.11546681 -0.004412766 0.023228195 0.17618513
0.05831318 0.111580364 0.0999835 -0.034796275 0.105637155 -0.09211025 -0.003006231 -0.008026721
0.07751022 0.1373725 -0.020720089 -0.016901452 0.00474581 -0.056241803 -0.039930455 -0.14116426
-0.039139464 -0.004446369 -0.012539145 -0.08634789 -0.09001602 -0.041929215 0.074163035 0.10279053
0.0073344014 -0.10055701 -0.08018049 -0.020681111 -0.13566732 -0.15624113 -0.071197726 0.012809079
-0.01458954 0.12569125 0.038756177 0.11957637 -0.033280388 0.03705374 -0.083482295 0.13130388
0.11271177 0.092457645 -0.06578738 0.09665702 0.109609954 0.1687306 0.16673802 0.23388264
0.1500764 0.082300395 -0.04417264 -0.086628035 -0.035386536 -0.058215685 -0.15508372 -0.102380954
-0.13306566 -0.069346584 0.03121858 -0.06276416 0.051597834 0.04093239 0.06040873 -0.120564945
-0.07945499 -0.03981983 -0.07520789 0.029838718 0.055489313 -0.06523588 -0.051610887 -0.09244971
0.05888391 0.14210168 -0.05854777 -0.039880175 0.039470218 -0.051931687 0.09648497 0.0351662
-0.025472237 0.033385307 0.08042128 -0.027334472 -0.08534309 0.010882144 0.019730514 0.01632077
0.0010209308 0.09102772 0.0074244626 0.041446965 0.0826912 -0.041564375 0.066090375 -0.0051563256
0.050460044 -0.07347909 -0.009847868 -0.0029935394 -0.10479994 -0.093345836 0.04270302 -0.016842227
0.06389044 -0.074594215 -0.034654003 -0.08268545 0.042033605 0.0033902146 -0.0067603854 -0.002813574
-0.06911835 0.038073566 0.048168346 -0.045206543 0.06457265 0.007988106 -0.08219029 0.07491739
0.06207677 -0.036583886 -0.08529977 -0.007425087 0.06988264 0.064336725 -0.1076393 -0.05097108
0.08542779 0.07931428 0.06494659 -0.059303675 0.089826964 -0.08951887 -0.0124697825 0.0038205192
00000000: a1ae e7bc 2da7 ba3c f33e 59bd dc24 a23d
00000010: 8c07 55bd f35c dd3d 79f5 64bd 447b ba3a
00000020: 169c d33a 5353 a93d 6a65 bfbc 9003 c03c
00000030: fb16 cfbd 3bab 9cbd 87f7 9dbd c013 68bd
00000040: 3d02 84bd e85a d13d b73e a73c 04ea 773d
00000050: dcf6 843d 2dec 8a3c 072f f13c 463c 9e3d
00000060: 3f2b d6bd 391f e93b 7ba6 82bd ea08 483d
00000070: ff36 de3c 4671 36be 4879 a13d a36d 933d
00000080: 0604 433d 373f 133b 9952 3e3d 18d8 60bd
00000090: 7475 f5bd 3f9f a8bd 694f d7bd a956 a63d
000000a0: 7156 a83d 16cd c639 f06b 31bc 2c04 cf3d
000000b0: e4e9 babc 0b4c 39bc 9ea9 3bbd 0261 df3c
000000c0: 1282 423e 98e3 193e 7f34 8a3d 0fa1 cc3b
000000d0: 82e8 e93c 5626 f13c 9889 02bc dd0e 0dbe
000000e0: 4e08 b6bd 3336 ec3d 43a2 403b 44c5 fdbd
000000f0: 828f 9fbc 94aa ee3d 3c2f b2bd 6eb7 22bd
00000100: 3e11 a3bd b6f2 46bd 38c8 53bd 2577 43bd
00000110: 66a7 1ebe c815 8d3c f83a 043e e423 ab3d
00000120: 44f3 833d da0f 3fbd 1fb4 783c 503c 38bc
00000130: a597 383d 8f7e e6bd b762 d1bc 0812 b53d
00000140: 58a4 103c 53c7 483d e13e 8a3c 3b16 093c
00000150: 19de a2bd 595a 7dbd 498e bbbd f9cd d03d
00000160: e480 453d 8d0a 2dbd b35d a4bd 15bd 463d
00000170: c831 883c 19e6 5f3c 9201 e2bd 0a37 11bd
00000180: 684e e33d dca3 8d3d e72b ef3c 2c79 5fbb
00000190: fa77 843d 9026 a3bd b33b 55bc 878c b0bd
000001a0: 5c46 69bd 11d4 773a c65d df3c 6a9a 8e3d
000001b0: 229b 4c3d fa72 eebc e338 e23d e1fc dfbc
000001c0: f56b a43d 2c21 2ebd c158 dbbb 8431 7a3c
000001d0: dd79 ecbd f798 90bb 0e49 be3c e069 343e
000001e0: cdd9 6e3d 3f84 e43d 26c4 cc3d 8a86 0ebd
000001f0: 4b58 d83d 4ca4 bcbd 3004 45bb 8282 03bc
00000200: aebd 9e3d 60ab 0c3e 2dbd a9bc ea74 8abc
00000210: bd82 9b3b ce5d 66bd 1e8e 23bd 5d8d 10be
00000220: b450 20bd d9b2 91bb fc70 4dbc 2ad7 b0bd
00000230: 525a b8bd f8bd 2bbd cae2 973d d783 d23d
00000240: 6b55 f03b d5f0 cdbd ab35 a4bd 6f6b a9bc
00000250: 60ec 0abe adfd 1fbe 1dd0 91bd 2cdd 513c
00000260: f708 6fbc 35b5 003e ccbe 1e3d 75e4 f43d
00000270: 0451 08bd aac5 173d c4f8 aabd 8674 063e
00000280: 6ed5 e63d 6f5a bd3d 89bb 86bd 1ef4 c53d
00000290: 2f7b e03d b7c7 2c3e 5fbd 2a3e ee7e 6f3e
000002a0: a1ad 193e 1c8d a83d 5fee 34bd 0a6a b1bd
000002b0: 79f1 10bd 9273 6ebd 44ce 1ebe 1bad d1bd
000002c0: 5d42 08be 9505 8ebd 1cbe ff3c 7f8a 80bd
000002d0: 4058 533d b9a8 273d 256f 773d c1ea f6bd
000002e0: 4cb9 a2bd 1e1a 23bd 9806 9abd 5470 f43c
000002f0: c348 633d 649a 85bd f065 53bd 4656 bdbd
00000300: 4130 713d 1a83 113e c9cf 6fbd 6559 23bd
00000310: 86ab 213d 52b6 54bd e999 c53d 6f0a 103d
00000320: 27ab d0bc 08bf 083d e9b3 a43d 8bec dfbc
00000330: 5cc8 aebd 054b 323c e3a1 a13c 23b3 853c
00000340: c1d0 853a be6c ba3d e848 f33b 4bc4 293d
00000350: 015a a93d 683f 2abd 645a 873d 65f6 a8bb
00000360: 31af 4e3d 357c 96bd f458 21bc 422f 44bb
00000370: 5aa1 d6bd 1a2c bfbd 5de9 2e3d b6f8 89bc
00000380: fed8 823d dac4 98bd 5bf1 0dbd fd56 a9bd
00000390: 6e2b 2c3d 5d2e 5e3b 3986 ddbb f063 38bb
000003a0: ec8d 8dbd 07f3 1b3d 2c4c 453d 7f2a 39bd
000003b0: aa3e 843d 8ce0 023c 6253 a8bd 4a6e 993d
000003c0: 3644 7e3d fcd8 15bd a5b1 aebd 254e f3bb
000003d0: a11e 8f3d f9c2 833d fe71 dcbd 0dc7 50bd
000003e0: c4f4 ae3d 866f a23d b802 853d 69e8 72bd
000003f0: 33f7 b73d ab55 b7bd 0f4e 4cbc ad61 7a3b

conv1.bias f4 [64]
0.02825504 -0.09136795 0.004436115 -0.0898527 0.034062747 0.017687095 0.034944475 -0.014523888
0.108317986 -0.04339597 0.00330568 0.021580404 -0.17714575 0.15856798 0.059812974 -0.00845796
-0.018738689 -0.014617998 0.01727757 0.016574098 0.026108071 -0.018297248 -0.046398282 0.06356067
-0.18496802 -0.017414657 0.06675169 0.008799147 0.029115163 0.039455052 0.0637952 -0.013375086
0.028430233 0.035759952 -0.0006442412 -0.048780285 -0.012597588 0.069018945 -0.018392071 0.07002936
0.0012246614 -0.0012513783 0.08821013 -0.036168065 0.034983244 -0.016150182 -0.031374227 0.0318099
-0.00032828923 -0.004301113 0.02804851 0.036488768 -0.002030454 0.001954294 0.014112551 0.01051515
0.03245741 -0.028284341 -0.007509435 0.050789304 0.050573766 -0.025902884 -0.041050166 -0.024185391
00000000: 1d77 e73c 1f1f bbbd d45c 913b b104 b8bd
00000010: 6185 0b3d 87e4 903c f021 0f3d 9af5 6dbc
00000020: d2d5 dd3d f9bf 31bd 1ba4 583b 63c9 b03c
00000030: b265 35be a55f 223e 73fe 743d 4193 0abc
00000040: e181 99bc 5480 6fbc b189 8d3c 67c6 873c
00000050: 98e0 d53c 1ce4 95bc 200c 3ebd 192c 823d
00000060: 4268 3dbe 2fa9 8ebc 1cb5 883d 4c2a 103c
00000070: ec82 ee3c 9f9b 213d 0fa7 823d 2d23 5bbc
00000080: 85e6 e83c 0779 123d 4ce2 28ba d6cd 47bd
00000090: 1d66 4ebc ce59 8d3d f8aa 96bc 8e6b 8f3d
000000a0: d184 a03a 4a05 a4ba 83a7 b43d f724 14bd
000000b0: 974a 0f3d 634d 84bc 4382 00bd 194b 023d
000000c0: 3c1e acb9 5af0 8cbb fdc5 e53c 3f75 153d
000000d0: 5e11 05bb 9d13 003b 5438 673c bc47 2c3c
000000e0: 10f2 043d 90b4 e7bc b511 f6bb 7208 503d
000000f0: 7026 4f3d 4932 d4bc 3824 28bd 7120 c6bc

conv2.weight f4 [32, 64, 5, 5]
-0.022240378 0.041252628 0.09014021 0.07680184 -0.074810706 0.010145076 -0.0077483794 0.020564226
0.042936753 -0.008237649 0.0133462045 -0.007799789 0.007247576 0.0005242413 0.048254494 -0.007147519
0.03672664 0.018163852 0.038164794 0.10879431 -0.025612637 0.009814667 -0.07096039 0.01043443
0.019026155 -0.06726573 0.027110474 -0.021998297 -0.049290642 -0.10549469 -0.107591346 -0.0027714719
0.05549843 0.07191851 -0.03556442 -0.028509893 -0.019064257 0.059267066 0.09752869 0.058966298
-0.082264304 -0.0011596776 -0.012251435 0.025777772 0.02492143 -0.07945253 0.035264276 0.035641447
0.051229063 0.036503337 -0.014442962 0.04156173 0.043952662 0.09513213 0.022108512 -0.014493562
-0.004833858 0.04593788 0.06862131 -0.024670118 0.019703437 0.007132183 -0.04083931 -0.051889233
-0.12660861 0.026013957 0.08240706 0.04610129 -0.0073420727 -0.04274051 -0.04622977 -0.0112888105
-0.011377897 -0.03777674 -0.028389769 0.076504454 0.03216586 -0.007664855 -0.057710197 -0.09947924
0.048337035 0.07805899 -0.0008090444 -0.042257737 -0.027529694 -0.030848855 -0.0047527156 -0.04355413
0.007643183 -0.00310885 -0.03649651 0.01625311 -0.012522549 0.042123012 0.009468193 -0.010128105
0.012226379 -0.015186256 -0.021646911 -0.019214472 -0.034578975 -0.013872013 0.020202406 0.0092047
-0.0123989945 0.007572055 0.025439985 0.01776029 -0.024377005 -0.078658246 -0.055659335 -0.00870826
0.054153014 0.0075281546 -0.10412675 -0.024763748 0.044841923 0.018407179 0.040121306 -0.002785499
-0.035892315 -0.034154 -0.07904137 -0.034295347 0.001918638 0.12702148 0.05535131 0.0102654975
0.05086093 -0.05520379 -0.024016973 -0.008181928 -0.012360115 -0.025895983 -0.02532573 -0.040645186
-0.009124828 0.026612325 -0.019889737 -0.0336354 0.019933611 0.04435966 0.043058507 0.015477518
0.008683166 0.04139457 0.026174897 0.046965633 0.020615684 0.01133278 0.022679895 0.02288772
-0.0032133255 0.04093092 -0.046058092 0.076585025 0.04077442 -0.009081496 -0.010925802 -0.030931877
0.04655555 0.012372239 -0.0007747055 -0.01966194 -0.029880144 0.016952798 0.004685228 0.0037700643
-0.015905552 0.0815075 -0.08738992 -0.05309501 0.021779362 0.008861474 0.05057271 0.0898734
0.09392663 0.09373822 -0.012733977 -0.054995812 -0.007555636 -0.028574718 0.09051536 0.076064005
-0.025776666 -0.022339057 -0.054216318 -0.07013783 0.05695267 0.05671652 0.10801436 0.05163074
-0.07287749 0.032081723 0.03781763 0.17644356 0.2274945 0.15600921 0.06945345 0.013995959
0.009192862 -0.06779217 -0.0773325 -0.015708804 0.010855563 0.025127623 -0.05520459 -0.058169886
0.013082839 -0.022808079 -0.0052269716 -0.055678364 -0.05277725 0.0379579 0.025004333 -0.0034555807
-0.00585143 0.0010326662 0.031457793 0.04092028 -0.00028458209 0.08252774 0.042212725 0.008102963
0.048055608 0.0029942254 0.004928372 0.003074003 0.025680443 0.046669673 0.010528492 -0.010850738
0.036768854 0.059835248 0.049463253 -0.047499135 -0.050567664 -0.00673028 0.040221874 0.041879382
-0.024695184 -0.02297345 0.0035772624 0.0018802132 0.008615476 0.0062306547 -0.012698812 -0.025856463
-0.017713783 0.0059792227 -0.045360968 -0.0403698 -0.0017826247 0.016828611 0.0035796165 -0.040675398
00000000: 7431 b6bc 84f8 283d 6e9b b83d 484a 9d3d
00000010: 5b36 99bd 8837 263c 1ee6 fdbb 4f76 a83c
00000020: 73de 2f3d 34f7 06bc 0aaa 5a3c 5f95 ffbb
00000030: 137d ed3b 3d6d 093a 81a6 453d bc35 eabb
00000040: ac6e 163d 5ccc 943c b052 1c3d 8dcf de3d
00000050: 98d1 d1bc b2cd 203c ae53 91bd 2cf5 2a3c
00000060: bddc 9b3c 9dc2 89bd c916 de3c c635 b4bc
00000070: fce4 49bd 9a0d d8bd da58 dcbd 95a1 35bb
00000080: 5252 633d 034a 933d ffab 11bd 948d e9bc
00000090: a52c 9cbc 06c2 723d 1fbd c73d a586 713d
000000a0: 307a a8bd 5300 98ba 3eba 48bc e82b d33c
000000b0: 0728 cc3c 02b8 a2bd 4671 103d c4fc 113d
000000c0: 91d5 513d 8684 153d 2ca2 6cbc a23c 2a3d
000000d0: b507 343d a2d4 c23d e91c b53c 6876 6dbc
000000e0: 5765 9ebb 5c29 3c3d 5489 8c3d fd18 cabc
000000f0: 1a69 a13c 16b5 e93b 1f47 27bd ce89 54bd
00000100: b0a5 01be 391b d53c 08c5 a83d b5d4 3c3d
00000110: c595 f0bb ac10 2fbd 6d5b 3dbd b4f4 38bc
00000120: 5c6a 3abc c8bb 1abd a991 e8bc 5eae 9c3d
00000130: 59c0 033d 7729 fbbb 8761 6cbd c6bb cbbd
00000140: 0efd 453d 64dd 9f3d 0d16 54ba 7316 2dbd
00000150: f485 e1bc bdb6 fcbc abbc 9bbb d165 32bd
00000160: ab73 fa3b d9bd 4bbb 5d7d 15bd 3e25 853c
00000170: 612b 4dbc 2e89 2c3d 7b20 1b3c 5af0 25bc
00000180: 2651 483c c6cf 78bc dd54 b1bc ab67 9dbc
00000190: afa2 0dbd 7147 63bc 847f a53c 4fcf 163c
000001a0: 2725 4bbc 001f f83b 8467 d03c 077e 913c
000001b0: 49b2 c7bc 9317 a1bd 0bfb 63bd 17ad 0ebc
000001c0: 8dcf 5d3d bdae f63b 6840 d5bd 58dd cabc
000001d0: 2aac 373d a7ca 963c 3d56 243d eb8c 36bb
000001e0: d203 13bd 11e5 0bbd 71e0 a1bd 4779 0cbd
000001f0: cf7a fb3a eb11 023e 0eb8 623d 9e30 283c
00000200: 8d53 503d 5f1d 62bd 3ebf c4bc 7e0d 06bc
00000210: 1482 4abc d023 d4bc e877 cfbc 917b 26bd
00000220: 4d80 15bc 1702 da3c cdef a2bc 46c5 09bd
00000230: d04b a33c 7ab2 353d 1e5e 303d 6a95 7d3c
00000240: d643 0e3c 5a8d 293d bd6c d63c 095f 403d
00000250: 39e2 a83c 20ad 393c 30cb b93c 077f bb3c
00000260: a896 52bb 2ea7 273d 69a7 3cbd 9cd8 9c3d
00000270: 1403 273d 8eca 14bc 2302 33bc d964 fdbc
00000280: 08b1 3e3d eeb4 4a3c 9b15 4bba 1412 a1bc
00000290: 34c7 f4bc 98e0 8a3c 8b86 993b 2f13 773b
000002a0: 5c4c 82bc 67ed a63d 7df9 b2bd 277a 59bd
000002b0: a26a b23c b72f 113c 5425 4f3d 8c0f b83d
000002c0: 9b5c c03d d3f9 bf3d 2ca2 50bc 4a43 61bd
000002d0: 4595 f7bb 8715 eabc 1e60 b93d 72c7 9b3d
000002e0: 9629 d3bc 6600 b7bc ee11 5ebd 6ca4 8fbd
000002f0: 3447 693d 954f 683d a236 dd3d c17a 533d
00000300: cb40 95bd 2068 033d a9e6 1a3d 9fad 343e
00000310: 51f4 683e e1c0 1f3e 9c3d 8e3d 4f4f 653c
00000320: a89d 163c 9fd6 8abd 8060 9ebd c0af 80bc
00000330: 88db 313c 72d8 cd3c 351e 62bd 8c43 6ebd
00000340: 6759 563c 02d8 babc 0447 abbb ff0e 64bd
00000350: f52c 58bd be79 1b3d e3d5 cc3c 0677 62bb
00000360: 5abd bfbb 875a 873a e3d9 003d 069c 273d
00000370: f633 95b9 4e04 a93d 40e7 2c3d 4ac2 043c
00000380: f5d5 443d c43a 443b 2e7e a13b 3675 493b
00000390: cb5f d23c b328 3f3d b27f 2c3c 4bc7 31bc
000003a0: f09a 163d ce15 753d fb99 4a3d 748e 42bd
000003b0: 0a20 4fbd ae89 dcbb b1bf 243d b789 2b3d
000003c0: 8e4d cabc d132 bcbc 8170 6a3b 7c71 f63a
000003d0: ed27 0d3c 852a cc3b ae0e 50bc efd0 d3bc
000003e0: 7f1c 91bc 5bed c33b 6ccc 39bd ce5a 25bd
000003f0: f6a6 e9ba 28dc 893c 0098 6a3b 3f9b 26bd

conv2.bias f4 [32]
0.01045601 -0.013914631 -0.005020304 0.025132 0.035924595 -0.011384927 -0.0013527244 0.018645173
0.042264238 -0.021501048 -0.0014747326 -0.02318066 0.032149702 -0.008000382 0.08110228 -0.0119878715
-0.015184168 -0.003681417 -0.0019066487 0.03324026 0.047606044 0.011599191 -0.013671 0.0065536983
-0.0065542995 0.028879013 0.025271866 0.016145714 0.022794852 -0.03673027 -0.045823906 0.013547191
00000000: af4f 2b3c 31fa 63bc 5d81 a4bb a0e1 cd3c
00000010: ab25 133d d887 3abc e64d b1ba c3bd 983c
00000020: 441d 2d3d f722 b0bc d14b c1ba 5ee5 bdbc
00000030: 68af 033d 0914 03bc f418 a63d c768 44bc
00000040: 04c7 78bc ee43 71bb 84e8 f9ba f026 083d
00000050: 8efe 423d 890a 3e3c 54fc 5fbc 68c0 d63b
00000060: 73c5 d6bb ae93 ec3c f206 cf3c 0444 843c
00000070: 45bc ba3c 7b72 16bd d9b1 3bbd 0af5 5d3c

conv3.weight f4 [1, 32, 5, 5]
0.0022819727 0.019214157 0.018603247 0.041031983 0.03780168 -0.027575735 0.0048051635 -0.022851404
-0.00059467246 0.0019573953 -0.004312659 0.017115314 -0.0041168104 -0.05210628 -0.01687239 -0.010967039
-0.03027886 -0.017859438 -0.04476598 0.018518781 0.010292722 0.020307928 0.023150744 0.034691904
-0.0048157666 0.0018388632 -0.034057453 0.009304699 0.026298018 -0.02433672 0.020196706 -0.01611143
0.010818797 -0.016823595 0.00474805 -0.03468006 0.026232542 -0.0076828557 0.031139623 -0.01414825
0.014550696 -0.018259441 -0.016213052 -0.011464446 0.01588656 0.014816309 0.020920182 -0.006187835
0.0029187233 0.022697745 -0.013813237 -0.011614732 0.02691602 -0.029823054 -0.017105991 -0.019597504
-0.0074302224 -0.025978735 0.0082356 -0.024683174 -0.015541861 -0.03434083 0.023591286 -0.021666437
-0.0042356486 -0.021029143 -0.004811223 -0.0067808214 -0.01150453 -0.0005048528 0.015120923 0.029173827
0.026197255 -0.026236251 -0.0040936745 -0.061932605 0.014320017 0.025819542 0.008988613 0.01161042
0.037889738 0.023987731 0.00042931386 -0.0077092014 0.0022421752 0.049807075 0.024705289 0.0130479
-0.021832353 -0.018570194 0.020889618 -0.0058619967 -0.056451928 -0.03749418 -0.009634458 0.005864125
-0.013258203 -0.020362027 -0.008534849 0.03201722 0.0047068186 0.0063595437 0.013510825 -0.0035000492
0.0033571995 -0.009287476 0.030680193 -0.0008029632 0.024732465 -0.020775845 -0.02898743 0.0036664412
-0.03236363 0.020583188 0.020828905 0.027317418 0.030760303 0.010889951 0.013035539 -0.0054584416
0.031396408 0.014103066 -0.0091686165 -0.03393287 0.003256006 0.001649927 0.03851874 0.03934994
0.033118013 -0.00072224555 0.012514129 -0.0134849865 0.013629134 0.00928593 -0.011047265 -0.017588684
0.0074603376 -0.033022534 -0.022148138 0.027688332 0.017895339 -0.041596517 -0.041235443 0.017342942
-0.0019521349 0.008560837 -0.01563114 -0.0073621166 0.030890517 -0.014471292 0.01183736 0.00023035973
0.010950695 0.0016383127 -0.006845037 0.011943588 0.008517624 -0.003529007 0.024157597 0.032627817
0.018337373 -0.010909081 -0.026857266 -0.024778374 -0.017303769 -0.00375871 0.018132275 0.010454065
0.03177681 -0.035836574 -0.021676399 0.03163497 -0.02451647 0.022979928 -0.0001480915 -0.0045156586
0.024637152 0.027235629 -0.014248677 -0.0019272108 0.032597393 0.029074289 0.014217567 -0.02114123
-0.023778956 0.024908608 0.019909848 -0.0038888843 0.034428768 0.024846626 -0.008369325 0.01498115
0.03425101 0.02065413 -0.017097764 -0.033938646 0.010334948 0.013060963 -0.03471565 0.0053189322
-0.035722256 -0.017326431 -0.034884986 -0.023717584 0.01470749 -0.0012029165 -0.0007693074 -0.036272258
0.0013992008 -0.015323332 -0.0029554132 0.0678818 0.09078797 -0.01286221 -0.00019236843 -0.024725992
0.068119325 0.07850265 -0.03641737 -0.04629726 -0.010990942 -0.0075849295 0.017146809 -0.014774536
-0.048893232 0.041789357 0.0018455941 0.01647524 0.018401252 0.010035832 0.033197917 -0.024929808
-0.0058405735 -0.0058246464 0.018099794 -0.019939806 -0.030458244 -0.039796926 0.016243849 0.008242629
-0.040692322 -0.007336519 -0.031907078 -0.024810286 0.01962141 -0.016423633 0.02819848 0.04451376
0.0148199145 0.01676244 -0.030863246 -0.015066355 -0.001923622 0.0075768447 0.014315626 0.019061852
00000000: 268d 153b 0267 9d3c d665 983c 2711 283d
00000010: efd5 1a3d 82e6 e1bc a274 9d3b de32 bbbc
00000020: cbe3 1bba a547 003b 3551 8dbb 6a35 8c3c
00000030: 4fe6 86bb 656d 55bd f737 8abc 18af 33bc
00000040: 5f0b f8bc f54d 92bc 885c 37bd b3b4 973c
00000050: cea2 283c d05c a63c a1a6 bd3c 1919 0e3d
00000060: 94cd 9dbb 0306 f13a d47f 0bbd bc72 183c
00000070: f16e d73c cd5d c7bc 9073 a53c 1efc 83bc
00000080: 5341 313c a3d1 89bc 8895 9b3b ae0c 0ebd
00000090: a1e5 d63c 77c0 fbbb 8618 ff3c 10ce 67bc
000000a0: 0b66 6e3c d394 95bc 3cd1 84bc 5fd5 3bbc
000000b0: 8824 823c 1bc0 723c cd60 ab3c 52c3 cabb
000000c0: 0d48 3f3b 9ff0 b93c ea50 62bc b84b 3ebc
000000d0: fc7e dc3c 7a4f f4bc dd21 8cbc f28a a0bc
000000e0: 3979 f3bb 5bd1 d4bc 9cee 063c 5e34 cabc
000000f0: 4aa3 7ebc f8a8 0cbd 8342 c13c d07d b1bc
00000100: 32cb 8abb 4f45 acbc 77a7 9dbb a731 debb
00000110: 7f7d 3cbc 1958 04ba bfbd 773c f3fd ee3c
00000120: a09b d63c 68ed d6bc 3b24 86bb 0bad 7dbd
00000130: 819e 6a3c 8183 d33c fa44 133c a239 3e3c
00000140: 4532 1b3d eb81 c43c 8815 e139 789d fcbb
00000150: 75f1 123b 8102 4c3d bf62 ca3c dcc6 553c
00000160: c3d9 b2bc 8520 98bc b420 ab3c fe15 c0bb
00000170: 233a 67bd 7f93 19bd d9d9 1dbc d927 c03b
00000180: ef38 59bc 44ce a6bc c0d5 0bbc 7d24 033d
00000190: a83b 9a3b b863 d03b 825c 5d3c 1561 65bb
000001a0: 7604 5c3b 7f2a 18bc 0755 fb3c f37d 52ba
000001b0: bd9b ca3c 1b32 aabc 0c77 edbc ad48 703b
000001c0: ba8f 04bd 139e a83c 61a1 aa3c c7c8 df3c
000001d0: 08fd fb3c c46b 323c 0393 553c badc b2bb
000001e0: 8599 003d 8c10 673c f737 16bc 31fd 0abd
000001f0: b762 553b 5d42 d83a d4c5 1d3d 672d 213d
00000200: c1a6 073d 1455 3dba 1008 4d3c 22f0 5cbc
00000210: bb4c 5f3c 0324 183c 96ff 34bc 2516 90bc
00000220: d975 f43b a342 07bd 0370 b5bc a4d2 e23c
00000230: 3f99 923c 1c61 2abd 7fe6 28bd c912 8e3c
00000240: c7de ffba c142 0c3c e00c 80bc e93d f1bb
00000250: 1c0e fd3c ff18 6dbc 7df1 413c b88c 7139
00000260: 8b6a 333c a7bc d63a 554c e0bb 0aaf 433c
00000270: 818d 0b3c ea46 67bb 27e6 c53c bfa4 053d
00000280: 4238 963c 01bc 32bc c503 dcbc 04fc cabc
00000290: a2c0 8dbc b154 76bb 238a 943c 8747 2b3c
000002a0: 6628 023d 5fc9 12bd b492 b1bc ac93 013d
000002b0: c4d6 c8bc 6740 bc3c 0249 1bb9 17f8 93bb
000002c0: dad3 c93c 411d df3c 4873 69bc 779a fcba
000002d0: d884 053d 342d ee3c ccf0 683c 5f30 adbc
000002e0: 16cc c2bc 230d cc3c fa19 a33c a7dc 7ebb
000002f0: 2e05 0d3d 278b cb3c 7e1f 09bc 7f73 753c
00000300: c94a 0c3d da32 a93c 9c10 8cbc 4003 0bbd
00000310: ea53 293c a6fd 553c ff31 0ebd 704a ae3b
00000320: 8051 12bd 29f0 8dbc 8fe3 0ebd 614b c2bc
00000330: aff7 703c 2eab 9dba 58ab 49ba 3892 14bd
00000340: 6365 b73a b60e 7bbc 9baf 41bb 9d05 8b3d
00000350: 0bef b93d 05bc 52bc 82b6 49b9 2a8e cabc
00000360: 2582 8b3d ffc5 a03d 612a 15bd 32a2 3dbd
00000370: 5a13 34bc 008b f8bb 7777 8c3c e510 72bc
00000380: 4544 48bd 512b 2b3d dde7 f13a 15f7 863c
00000390: 39be 963c 556d 243c 8afa 073d 9939 ccbc
000003a0: 4862 bfbb addc bebb 0546 943c ce58 a3bc
000003b0: 9183 f9bc 1a02 23bd d211 853c 170c 073c
000003c0: feac 26bd 2f67 f0bb ffb0 02bd f13e cbbc
000003d0: 14bd a03c db8a 86bc 8000 e73c 0f54 363d
000003e0: 3acf 723c 6251 893c ebd4 fcbc dfd8 76bc
000003f0: 0b22 fcba 2e47 f83b 168c 6a3c 9a27 9c3c
