2021_BOML_srcnn_project/output/epoch_36.pth (torch, 231519 bytes, 5 tensors)

conv1.weight f4 [64, 1, 9, 9]
00000000: 70e3 e138 6a07 c93c 26f6 3cbd 9a02 7f3d
00000010: 7726 a8bd c0b9 a33d cae8 a4bd 3a8e 71bd
00000020: 3657 06bd 15c7 9f3d 3edf 3bbd 0874 c93c
00000030: 6682 d5bd e76e a5bd be89 90bd 314a 4abd
00000040: 1d45 b6bd 19a5 a13d b6c0 eeba 2022 f73c
00000050: afa0 873d 0d19 c13c c6f6 243d 6b5a cc3d
00000060: 7edb 88bd 64c0 e83c 7e2b 52bd f2b7 8d3d
00000070: 3243 553d a627 05be 46db e43d eedc c03d
00000080: 097c 943d 0d40 353d 774d a43d 1218 0cbd
00000090: 4f32 d5bd d2f4 84bd adec aebd 5f15 7e3d
000000a0: 2e32 583d 674e 75bc c5d1 cfba 0b94 cc3d
000000b0: e11b d7bc 0e79 dbbb b04a 49bd b2dd 8e3c
000000c0: cf96 163e dc27 ef3d c23c 603d e7bd 603c
000000d0: 1d8a 913c f06d d23c 31a3 02bc 643a 0abe
000000e0: f3e1 a6bd af18 d63d a0ac 1f3c 4d4a e4bd
000000f0: 5e84 f8bb 93fe be3d a4ab d2bd b5cd 52bd
00000100: 9628 8ebd 5a67 9abc cb10 38bd 1c91 10bd
00000110: 4e89 14be b24e fb3c e4e1 ec3d cbba a83d
00000120: 0544 f3bb 428b a2bd 4d15 0e3d 1724 38bc
00000130: 8901 183d d3f9 fcbd 1dde e1bb d84e df3d
00000140: 30df 783d 25f6 933c f54f 1c3c 92eb 58bc
00000150: cdde 9ebd 4469 7cbd 2683 b6bd 38d5 b13d
00000160: 8127 273d 30dd b1bb 17fc abbd 8ed7 803d
00000170: 1295 6f3c 1472 263d c96f a4bd c1ad 01bc
00000180: 2507 df3d 4872 933d 3df1 813d 2b91 49bc
00000190: 51b0 983d ba3d b3bd 5e96 813b d8c9 85bd
000001a0: f474 0bbd 9707 15bc baa5 9f3c 5aff aa3d
000001b0: dcaa 093d 87d4 d2bc b3fb ac3d 9286 2fbd
000001c0: 03cb 8e3d bd99 05bd 3f47 c8bc b8a0 69b9
000001d0: bcc2 fcbd a18b a8ba 2257 1b3d 8cdc 143e
000001e0: bc6e e83c ece8 b93d 547e e63d 53ac 19bd
000001f0: 8b45 e13d f4ca 9dbd 3daf ac3c 7a6c e73c
00000200: 8ec4 883d 7f3d f83d 343b ffbc d24f 103b
00000210: 6c9c 50ba 1f2b 91bd 4457 34bd 01a4 e8bd
00000220: d3ea 353c 3768 8f3c eccd 283b 1b84 8bbd
00000230: e361 65bd 5328 3cbd 2c21 4e3d 642e bc3d
00000240: 1a60 5e3b 6b25 a0bd c630 84bd 83fc 8dbb
00000250: d134 ecbd 26f1 00be 3006 97bd 82e4 17bc
00000260: 9dd2 12bc 599f 9e3d e6bd b73c c4ff d83d
00000270: 6efc 45bd d4c4 c93c d887 acbd 9223 db3d
00000280: 56c8 9d3d 4966 c73d bfc0 88bd cf47 ea3d
00000290: 43f9 053e d003 1e3e 4240 e03d 9288 303e
000002a0: 385a e43d f4a3 b53d 0b6d 12bd e951 bfbd
000002b0: f8ab 56bc dc00 5bbb 9819 c8bd edd8 7ebd
000002c0: e1ca e3bd be0c 59bd 594a 8d3d a7ba 16bd
000002d0: 7637 b2ba c033 353c ba94 7b3d 3948 e8bd
000002e0: a8a6 acbd e030 3cbd acb3 9ebd c33a 2d3d
000002f0: 9ab7 383d 8e42 b9bd d137 85bd 6abc a9bd
00000300: f00a 833d 10e5 033e b3f8 83bd e15c 1cbd
00000310: 7dec 523d ee74 8dbd 40a9 cc3d 1679 333d
00000320: 6a8d f7bb 4f87 173d 473d a13d 3712 84bc
00000330: 6da2 97bd 3a7f 9b3c f8ce ff3b 139e 113c
00000340: a850 02bc 10b8 af3d e4dd 31bc 2c22 cc3c
00000350: 1379 8e3d 3369 69bd 119a 4a3d 3983 9fbc
00000360: 04ba 5b3d f53b 95bd 5870 aaba 5690 933b
00000370: f6d4 abbd 04fe a0bd 42e7 313d 9c2c b3bc
00000380: 694e 893d ba03 a8bd 1665 3cbd 8d8f abbd
00000390: cffc 353d 4012 653c a146 bbbb 9418 04bc
000003a0: b04e 9cbd df1f 0c3d f9bb 303d 9e4f 64bd
000003b0: 3327 7d3d 76c3 d63b e3b1 a2bd 2bb3 a33d
000003c0: 78f0 8d3d 65d4 b9bc 5724 a9bd d7b1 b5bb
000003d0: df9a 993d d6a6 ba3d 3f34 bcbd 8981 64bd
000003e0: a28c a53d 13d0 423d 7a92 673d 09e4 8cbd
000003f0: 5ca2 b13d 14a0 c8bd 2e26 4cbc 0b2f 6abb
0.000107711996 0.024539668 -0.046133183 0.06225834 -0.082104616 0.079944134 -0.080522135 -0.05897353
-0.032798015 0.07801644 -0.045867197 0.02459146 -0.10425262 -0.080777936 -0.07057522 -0.04938716
-0.08899901 0.07892818 -0.0018215391 0.03016764 0.06622445 0.023571515 0.040274404 0.09978183
-0.0668249 0.028412051 -0.05131101 0.069198504 0.052066036 -0.13003406 0.111746356 0.09417139
0.0725022 0.044250537 0.08022588 -0.034202643 -0.10409986 -0.06492008 -0.08541236 0.0620321
0.05278223 -0.014972306 -0.0015855363 0.099891745 -0.02625841 -0.0066977805 -0.049143493 0.017439697
0.14705966 0.116775244 0.054745443 0.013717151 0.017766053 0.025687188 -0.007973478 -0.13498837
-0.08148565 0.10453927 0.009745747 -0.11146984 -0.007584139 0.093259 -0.10286644 -0.05146571
-0.06941335 -0.01884811 -0.04493789 -0.035294637 -0.14505503 0.030677173 0.11566523 0.08238753
-0.00742388 -0.079367176 0.034688283 -0.011239073 0.03711084 -0.12352338 -0.006892933 0.1090371
0.060759723 0.018061707 0.009540548 -0.013239758 -0.077573396 -0.061623827 -0.08911733 0.086832464
0.04080916 -0.005427979 -0.08397692 0.06291114 0.0146229435 0.040636137 -0.08029134 -0.007914961
0.108900346 0.07199532 0.06344841 -0.012302677 0.07455505 -0.08752008 0.0039546927 -0.06532639
-0.034047082 -0.009096048 0.019488204 0.08349486 0.03361021 -0.025736107 0.08446445 -0.042852946
0.06972315 -0.03261732 -0.024448035 -0.00022280484 -0.1234183 -0.0012858995 0.037924893 0.14537257
0.028373115 0.090776294 0.11254564 -0.037517857 0.109995924 -0.07704726 0.021079654 0.028249968
0.06678115 0.121211044 -0.03115616 0.0022020233 -0.0007957879 -0.07088303 -0.044028535 -0.11359406
0.01110335 0.017505748 0.0025757505 -0.068123065 -0.056001555 -0.045936894 0.050324604 0.09188536
0.0033931793 -0.07819637 -0.06454615 -0.0043330803 -0.115335114 -0.12591991 -0.07374227 -0.009270789
-0.008961347 0.07745237 0.022429418 0.105956584 -0.04833644 0.024629988 -0.08424348 0.10700144
0.07704227 0.09736306 -0.066773884 0.11439478 0.13083367 0.15431142 0.10949756 0.17239597
0.1115002 0.08869162 -0.035748523 -0.09341795 -0.013102524 -0.003341726 -0.097705066 -0.062218595
-0.111226805 -0.052990668 0.06898946 -0.0367991 -0.0013596851 0.011059701 0.061421134 -0.113419004
-0.08430225 -0.04594505 -0.077491134 0.042292368 0.04509697 -0.090458974 -0.06504787 -0.0828789
0.063985705 0.12880349 -0.0644392 -0.038174514 0.051495064 -0.06907068 0.099932194 0.04381665
-0.0075546997 0.036994275 0.07873016 -0.016121967 -0.07404027 0.018981565 0.007806655 0.0088877855
-0.0079538 0.08580029 -0.0108561255 0.024918638 0.06956687 -0.05698509 0.049463335 -0.019471752
0.053644195 -0.072868265 -0.0013003452 0.00450329 -0.083902285 -0.0786095 0.043433435 -0.021871857
0.06704409 -0.08203836 -0.04599484 -0.083769895 0.04443055 0.013981402 -0.0057152067 -0.0080625005
-0.07632196 0.034210082 0.043148015 -0.05573999 0.06180496 0.0065540625 -0.079440854 0.07993158
0.069306314 -0.022684285 -0.082588844 -0.005544882 0.075002424 0.09113853 -0.09189653 -0.055787597
0.08083464 0.047561716 0.056536175 -0.06879432 0.08673546 -0.097961575 -0.012460275 -0.0035733606

conv1.bias f4 [64]
00000000: 49ad 9e3c 5e3d debd 16d6 a3ba 3c4e 6bbd
00000010: 1030 2a3d eecc b7ba f3ac 583d ce1b 93bc
00000020: b2fa d83d fb12 2abd 2377 043c 8fb5 1f3d
00000030: 8574 03be 550c d43d e00a 7b3d 0dc4 993b
00000040: b047 f8bc bf2c 6ebd 9afa 343d 0d92 fe3c
00000050: 6042 bc3c 68c8 633b 710b 7bbd 4db7 973d
00000060: cc7f a4bd 2caf 9abb cc6f 093d 88de 8b3c
00000070: 1938 d53c ccbb 653d 653e ac3d df1e 12bc
00000080: 6af4 2b3d 4392 463d 7ce7 69b9 3109 91bd
00000090: d77c fbbb 689d 983d bad2 a6bc 103e 893d
000000a0: f3fa 17bc eadc c1bb c5f0 c63d 18d6 ffbc
000000b0: 5d68 0d3d c4b1 90bc cea2 f8bc a1fa bc3c
000000c0: 63b9 afba 66ae 29bd 1813 a13b a4e0 593d
000000d0: 0f3a 2bbc 9a5f 9d38 c58f af3a 5255 203c
000000e0: 0eaf c43d 4f1d 20bd 9253 d6bb e552 8a3d
000000f0: 800e 6a3d 9a9e 31bd 94f8 8dbd 82c0 81bd
0.019369738 -0.108515486 -0.0012499716 -0.057447657 0.041549742 -0.0014022866 0.052899312 -0.017957594
0.10594691 -0.041522007 0.008085045 0.038991507 -0.12837417 0.10353915 0.061289668 0.0046925605
-0.03030762 -0.058148142 0.044184305 0.031075502 0.022980869 0.0034756903 -0.06129021 0.07408009
-0.08032188 -0.004720589 0.033553883 0.017073885 0.026027726 0.0560873 0.08410338 -0.008918493
0.04198114 0.04847933 -0.00022306846 -0.07081831 -0.007674794 0.07451898 -0.020364154 0.067012906
-0.00927614 -0.0059162276 0.09713892 -0.031230018 0.034523357 -0.01766289 -0.030351069 0.023068728
-0.001340669 -0.041426085 0.004915606 0.05319275 -0.010450854 7.5041506e-05 0.0013394287 0.009785967
0.096037015 -0.03909045 -0.006540724 0.06754092 0.057142735 -0.043364145 -0.06932178 -0.06335546

conv2.weight f4 [32, 64, 5, 5]
00000000: 3954 6f37 e927 dc3b b92d 1d3d c27a 513d
00000010: d1d3 8dbd 8c30 5bba dd42 edbc 836b 8fbc
00000020: 9f4c 653c 47be 8fbc 6372 2a3c 7497 b6bb
00000030: 9f83 c73c 7a4d 963c 8b2e 5b3d c12d 73bc
00000040: c0cb 8e3c 27bf e03c 4cd2 c53c 7b94 503d
00000050: ff19 88bc 7634 36bb e313 f5bc 3091 9c3c
00000060: 7758 88bc 38dd 21bd 3238 8cbb ea04 93bc
00000070: 184b 5ebd 30c7 7cbd 5f47 49bd bbda d93b
00000080: 5533 013d 8792 c63c fb33 90ba a04a 82bc
00000090: 3fea 0fbd 75f4 ea3c 833b 6a3d 83b4 7a3d
000000a0: 2726 1bbd 8606 65bc c99b bfbc e980 813c
000000b0: e259 893b 92f4 59bd 1cb3 123c 8bbc c83b
000000c0: bbd7 943c cf89 d23b d4fc 51bd 30c2 20bd
000000d0: 1da3 8fbd 6448 d7bc ca36 a5bd 8c7c 1fbd
000000e0: d962 21bd 57e5 7fbc 2c73 d83c fbce c4bc
000000f0: fa97 ad3c 462d ae3b 7f98 a5bc 8e2f 483c
00000100: 129e 0dbd 8126 26bb 0377 383d 9599 1f3d
00000110: 5645 b93c a404 7ebc 78c8 dbba 4fbe bc3c
00000120: 88d2 ee3c 7f71 6e3c 5ee8 a83c da19 523c
00000130: b0dc 9bbc 62fd 2ebc 14c1 0fbd 3640 4cbd
00000140: d66a 543c d653 b33c a7f2 7fbc 516d c8bc
00000150: 7401 c7bb 7493 143c 33e8 153a 36e3 b0bc
00000160: fecb d53c 6966 4ebb a418 71bc e978 513c
00000170: bf16 923b e3dc 153d 914c d438 b294 433c
00000180: ae6b 21bb caf5 f03b 0034 11bc d78c 69bc
00000190: f893 38bd 59dc 2ebd 634c 353c 5669 563c
000001a0: 0a9d 02bc 18db 9ebc 4e5f 1ebc 5993 523c
000001b0: 1d9a 863c 7943 73bb 7e10 10bd 10da c3bc
000001c0: 80c6 f03c fb26 9c3c ab5f 40bd 28b6 cbbc
000001d0: 37af bf3b e2ec 9dbc b7d6 a13c 3790 ffbb
000001e0: 8e53 f7bc d100 dabc 828f 29bd 8e6b 04bd
000001f0: c53b 7dbc b956 e63d 5ab1 2e3d 60fd c93b
00000200: ca42 b43d c210 c4bc 8243 a3bc 08d0 8a3b
00000210: 1207 11bc aac4 77bb 64fb c4bb 999b 0bbd
00000220: 75a4 0fbc 6e67 9f3c 85dd a0bc 8751 09bd
00000230: 9def 9c3c f88e ed3c 58ed 0a3d e05d 233c
00000240: 5778 f8bb 896f a6bc 8183 e2bc 1718 c73c
00000250: 5244 29bb d21d fdbc c675 bfbc 9e08 4cbc
00000260: 9bab d0bc c94a fa3b 5c2c 4abd 938e ef3c
00000270: 650a 773c 06e7 1fbc 710a 14bc 08f6 313c
00000280: 4f2c 843c 8607 d73a 8150 aa3c 7ae6 1d3b
00000290: 6caf 8bbc 0ebd 5b3d cc71 d93c dabb 763c
000002a0: 9349 e03b 74e6 b13c b785 483c b789 dc3b
000002b0: f78e ef3b c548 c8bb 01c8 97bb c260 af3c
000002c0: e3c7 493d 03f3 cc3c 4bcf 81bc e223 773d
000002d0: 0569 e3bc 84e7 cfbc fd4f 873d cc61 063d
000002e0: fb1e 6c3c 07a8 0dbd bcef debc 9180 45bd
000002f0: 3d40 213c d3c3 be3b 3e56 4e3d 3534 473d
00000300: 31e9 abbc c23a a73c 9711 2c3c 516b 3a3e
00000310: bac7 253e f79f 063e fb94 603d c355 383c
00000320: 7567 b13b d733 2cbb 2762 7fbb 0a1d e63c
00000330: 10d1 ff3b 7e51 dc3c d8b9 51bc cae7 43bc
00000340: 2f19 883c cbbf 0ebb 1b13 0dbd 1806 43bd
00000350: 2f70 e0bc 27f1 753b 3706 88bc f0c4 a63c
00000360: 210d 81bc 36a5 75bb 2808 55bb 5bcf 0b3c
00000370: 9a15 123c dc55 dc3c f96a a73b e733 acbc
00000380: a3c1 c13c 5554 493b e538 6d3c 8b37 9b3b
00000390: 58bc 893b 8c0b 423c 52b9 153c 040e 483b
000003a0: 7a5f 043d c1e4 f43c ae6c 0d3a b658 abbc
000003b0: d5cc 4cbc c125 ab3a 3f51 8c3b a0ca 5fbc
000003c0: 31b0 43bd 5d3b babc 6ef4 47bc 2968 03bd
000003d0: c07b c3bc d50b a2bb 74ad 44bc a115 b2bc
000003e0: 9b55 c0bc 4d33 183a 4a42 2bbd bc18 f8bc
000003f0: d16f a3bb ab90 8a3c 8ff6 063c 25fb 41bd
1.426512e-05 0.006718625 0.038373683 0.05114246 -0.069251664 -0.0008361421 -0.028962547 -0.01750732
0.013995319 -0.017546786 0.0104032485 -0.005572254 0.024354754 0.01834749 0.053511184 -0.014842452
0.01743114 0.027434899 0.024148129 0.050922852 -0.016613958 -0.0027802265 -0.02991671 0.0191122
-0.016643746 -0.03951761 -0.00427916 -0.01794668 -0.054270834 -0.061713398 -0.04914033 0.006648389
0.031543095 0.024239792 -0.001100182 -0.015904725 -0.035135504 0.02868102 0.05718566 0.061207306
-0.03787818 -0.013978606 -0.023389714 0.01580854 0.004191623 -0.053211756 0.008953836 0.0061259917
0.018169275 0.0064251195 -0.051266506 -0.03924769 -0.07013533 -0.026279636 -0.08067091 -0.038937137
-0.03940091 -0.015618644 0.026422106 -0.024024477 0.021190632 0.0053154556 -0.020214317 0.012218369
-0.034574576 -0.002535254 0.045035373 0.038964827 0.02261607 -0.015504036 -0.0016768118 0.023039965
0.029153123 0.014553427 0.020618614 0.012823546 -0.01902613 -0.010680528 -0.035096243 -0.049865924
0.012964925 0.021890562 -0.015621818 -0.024466189 -0.0060731713 0.009068359 0.00057184993 -0.021592718
0.026098248 -0.0031494147 -0.014715347 0.012785175 0.004458278 0.036587607 0.00010123209 0.011937307
-0.0024630832 0.007353519 -0.008862495 -0.01425477 -0.04506299 -0.04269061 0.011065575 0.0130866375
-0.007972011 -0.019391581 -0.009666277 0.012852513 0.016430909 -0.0037119074 -0.03517198 -0.023907691
0.029391527 0.019061556 -0.046966236 -0.024867132 0.0058497447 -0.019277994 0.019755704 -0.007799174
-0.03019121 -0.026611717 -0.041396625 -0.032329135 -0.015456145 0.1124701 0.042649604 0.006164238
0.088018015 -0.023933772 -0.019929651 0.004236225 -0.008851783 -0.003780643 -0.0060114134 -0.034083936
-0.008767237 0.019458499 -0.019636879 -0.033525016 0.019157225 0.028998837 0.033917755 0.009971112
-0.007582705 -0.020316856 -0.027650597 0.02430348 -0.0025828076 -0.030898008 -0.023371588 -0.012453226
-0.025472453 0.0076383096 -0.04935871 0.02924279 0.015078162 -0.00975967 -0.009035693 0.010861881
0.01613441 0.001640544 0.02079034 0.0024093674 -0.017051421 0.053647093 0.02654352 0.015059436
0.006844708 0.021716334 0.012238911 0.006730284 0.007310744 -0.0061121904 -0.0046319966 0.021408442
0.049262892 0.02501822 -0.015845915 0.060336955 -0.027760038 -0.02537895 0.066070534 0.03280811
0.014411683 -0.03458407 -0.027213924 -0.048218314 0.009841976 0.005821684 0.050375216 0.048633773
-0.020985218 0.02041376 0.010502241 0.18205 0.16189471 0.13146959 0.05482958 0.011250916
0.0054139444 -0.0026276016 -0.0038968415 0.028090019 0.0078069046 0.026894327 -0.012800656 -0.011957118
0.016613571 -0.0021781798 -0.03444205 -0.047613233 -0.027397243 0.0037527771 -0.016604526 0.020357579
-0.01575333 -0.0037482507 -0.0032506082 0.008533324 0.008916283 0.02689641 0.0051091877 -0.021020843
0.023651903 0.0030720432 0.014478897 0.004736846 0.0042033605 0.011843573 0.009138422 0.0030525932
0.032317616 0.029894235 0.00053949177 -0.020916324 -0.012500008 0.0013057516 0.004282146 -0.013659149
-0.04777545 -0.022733385 -0.012204273 -0.032081757 -0.02386272 -0.004945258 -0.012004245 -0.02173883
-0.02347832 0.0005805984 -0.041811265 -0.030285232 -0.004987695 0.016914686 0.008237495 -0.04735865

conv2.bias f4 [32]
00000000: 3a57 bbbb 5531 a2bc c700 43bb 63e1 9f3c
00000010: a656 d93c a51e 2b3c fa60 22bc 4b2f 253c
00000020: c9e5 0b3d 7188 95bc da22 9139 9095 6f3b
00000030: 8708 df3c 2cb7 073c 746c 1d3d 912f 8cbc
00000040: f164 69bc 14b9 72bc 9c9a 3f3c bc85 c23c
00000050: 1c6a 0f3d fabf f63a 3bf5 10bc ff86 303c
00000060: 314a 283b f1b2 f43c 8e7f a53c 7c8c 723c
00000070: 9341 3e3c 0f2e f7bc 382d 93bc 72a4 d236
-0.0057171853 -0.019798914 -0.0029755102 0.019516652 0.026530575 0.010444318 -0.009910816 0.010082076
0.034154687 -0.018253537 0.00027682522 0.0036557652 0.027225746 0.008283418 0.038433507 -0.017112525
-0.014245258 -0.014814634 0.011694577 0.02374541 0.035013303 0.0018825524 -0.00884753 0.010774373
0.0025678987 0.029870482 0.020202424 0.014804002 0.011612314 -0.03017333 -0.017965898 6.2776317e-06

conv3.weight f4 [1, 32, 5, 5]
00000000: 6e4e 5c3c 18fd 8f3c abbf fd3a 3b46 e93c
00000010: cac7 053d 6395 04bd 5b3d d339 e1fb 0dbd
00000020: c047 fb3a cbbe 183c b5b5 84bb 7118 d43c
00000030: 9c92 d83b 353f 17bd 46de dfbb 91e1 7fbc
00000040: 8b1a f4bc 1f08 acbb c763 1abd 1498 9a3c
00000050: 47f5 be3b fe7a 6d3c dda1 b33c 62e2 ec3c
00000060: 8c81 8cbc 1d34 fb3a 80ed 09bd 1dcb 053c
00000070: a0a5 d83c 93a7 b9bc 1499 a43c 1a26 89bc
00000080: baa5 263c 9cf6 7fbc 845f cf3b b37c 0abd
00000090: ebde d63c bf16 04bc b963 053d 0636 52bc
000000a0: 149d 793c 9983 8cbc 1657 7abc 19c2 18bc
000000b0: 4031 8b3c 1fe7 683c e903 a83c d3fd c1bb
000000c0: 7905 8b3b eaf8 b43c 8253 62bc 1d4d 3ebc
000000d0: 5a7e dc3c 114a f4bc 2623 8cbc 128c a0bc
000000e0: ea7d f3bb cad2 d4bc ecfa 063c 1c39 cabc
000000f0: c35a 7ebc 2fd5 0cbd 9b4b c13c 3678 b1bc
00000100: 5ad7 8abb b37f acbc 430a 9fbb 2c4b ddbb
00000110: db7c 3cbc 0794 04ba cdb7 763c 78b9 ee3c
00000120: e2ef d63c 21ef d6bc f627 86bb b3ae 26bd
00000130: 884c a53c 9048 f83c e97d c63b 1e82 ed3b
00000140: 4d09 3b3d fbb5 673c 4835 91bc 9b3c 8bbc
00000150: 625b 00bc fb75 193d 7eb5 643c 4b3b cd3c
00000160: f2fa 873b 41b1 6bbc 5967 bb3b 4b44 26bc
00000170: 82a5 3cbd f975 b7bc d183 37bc 1613 893a
00000180: 70db 21bc fead bbbc 3a9e 8abc 4446 b53c
00000190: 0a4f c23b 7b44 f63b 4114 693c f45e 4cbb
000001a0: 7955 5e3b a5c5 febb 2589 013d e3e4 a4b9
000001b0: 445d cc3c a34a abbc b569 e4bc 4a84 8e3b
000001c0: 3011 03bd 85f9 a73c 4dd9 a63c 1b59 e93c
000001d0: b1e3 013d 08f4 393c f4d0 5a3c 7270 b1bb
000001e0: 8148 033d 3dd6 723c 93da 0bbc 5f54 07bd
000001f0: ca2b 823b 7752 a03b 4b0f 063d 4720 e43c
00000200: aed5 053d 9146 633b 45a2 3b3c a346 c3bc
00000210: a179 003c 25de 193c 4c7b 92bc be25 8ebc
00000220: ee46 6e3c 5cfe b5bc 3a73 62bc 56d4 df3c
00000230: bca1 dc3c 2ab4 fdbc ab92 05bd fc6f c23c
00000240: ed95 f7bb 0134 b53b 95a2 aebc 88df 58bc
00000250: 0340 ea3c 7929 b3bc 14c9 4f3c 7cdb 9c3a
00000260: ec4f 3d3c cfd6 033b 4fa2 dfbb bb99 563c
00000270: eba6 223c 0716 2fbb 4ab2 c83c 436f 043d
00000280: efb5 983c 4adf 27bc 45dc d4bc b9f2 c6bc
00000290: 4a95 8dbc 3228 51bb ece8 943c 498d 213c
000002a0: 65e7 003d b995 0ebd c52c a8bc a699 043d
000002b0: 463a cbbc b822 bc3c a335 793a 8a6c 84bb
000002c0: 48b1 cc3c 6ff3 df3c 9906 6abc 2bee ffba
000002d0: 7efb 073d dc43 f23c e55a 6b3c 8232 adbc
000002e0: 17d6 c1bc d1e2 d13c d9b0 a83c 5d25 75bb
000002f0: eda7 0c3d c21b cc3c 54d0 fcbb 293f 7f3c
00000300: 786e 0d3d 19a7 a83c cf05 8cbc b629 09bd
00000310: 8675 303c a51f 5a3c 6678 0ebd ec37 ae3b
00000320: 7ca3 d3bc 4331 163c 4e19 39bc 8326 83bc
00000330: 7f0f 043d 1e89 383c e665 14bc f0ba d9bc
00000340: de8c 493c ff90 1dbc a679 3b3a 661a 043d
00000350: e4f0 8a3d 7381 abbb 6eda 7e3c d11f 1dbc
00000360: ae2f 723d 8977 5b3d 3bf5 f7bc 8e7a c6bc
00000370: 48b9 5f3c b2ab ef3b 28be d83c c224 80bc
00000380: 8c66 eebc 71b9 113d cdef 35bc 3200 873c
00000390: ad15 bd3c b21a 413c 6080 0a3d 5bdc c8bc
000003a0: 6969 453b a11d a8ba 1a5e 883c 58b6 81bc
000003b0: 1dcf b5bc 345c ecbc 42f6 ba3c d0d5 1c3c
000003c0: 07a9 0bbd 52ab 53bb 7cde fbbc dadb fdbc
000003d0: 948e ad3c c5ba 94bc b83f ac3c 30aa 063d
000003e0: 0f9f b93b 8c63 853c d4ed fcbc fd14 77bc
000003f0: 2605 feba 1cd0 f73b d050 6a3c 7737 9c3c
0.0134464335 0.01757674 0.001935949 0.028475871 0.032661237 -0.03236903 0.0004029077 -0.03466404
0.0019171163 0.009322832 -0.0040499815 0.02589056 0.006609274 -0.036925513 -0.006831917 -0.015617744
-0.029797813 -0.0052499915 -0.03769281 0.018871345 0.005827579 0.014494656 0.021927768 0.028916541
-0.017151617 0.0019165311 -0.033673763 0.008166102 0.026446164 -0.022662913 0.020092525 -0.016741801
0.010171348 -0.015622761 0.006328525 -0.03381033 0.026229342 -0.008062064 0.032565806 -0.012830263
0.015235204 -0.017152594 -0.015279552 -0.00932362 0.016991258 0.01421526 0.020509677 -0.005920151
0.0042425958 0.022091348 -0.013813855 -0.011615065 0.026915718 -0.029820474 -0.017106604 -0.01959804
-0.0074307816 -0.025979418 0.008238535 -0.024685435 -0.015524569 -0.034382995 0.023595622 -0.021663766
-0.0042370977 -0.021056985 -0.004853518 -0.006753346 -0.011504377 -0.0005057458 0.01505847 0.029141173
0.026237432 -0.026237072 -0.004094119 -0.04069395 0.020178095 0.030308038 0.00605749 0.007248177
0.045663167 0.014142509 -0.017725602 -0.016996672 -0.007834287 0.03746603 0.013959287 0.025052687
0.004149788 -0.014385522 0.005719107 -0.010148118 -0.046056278 -0.022395121 -0.011200861 0.0010457959
-0.009878978 -0.022910114 -0.016921151 0.022128232 0.0059298323 0.0075154877 0.01422602 -0.0031184526
0.0033925457 -0.007775026 0.03162493 -0.00031451051 0.024946816 -0.020909613 -0.027882436 0.004349266
-0.031998813 0.020504722 0.020367289 0.028484872 0.031711284 0.0113496855 0.013355482 -0.005415016
0.032051567 0.014821586 -0.008535999 -0.033039447 0.003972505 0.004892643 0.03272943 0.027847422
0.032674484 0.0034679512 0.011452262 -0.023837393 0.007841499 0.009391342 -0.017881058 -0.017351981
0.014543278 -0.022216015 -0.0138214175 0.02732293 0.02693259 -0.030969698 -0.032610577 0.023735039
-0.0075557143 0.005529881 -0.02131776 -0.013236888 0.028594976 -0.021870362 0.012682218 0.0011967267
0.011554699 0.002011705 -0.0068247686 0.013098176 0.009927492 -0.002671601 0.024499077 0.03233267
0.01864144 -0.010246107 -0.025983939 -0.024285661 -0.0172831 -0.0031914827 0.018177472 0.009860345
0.031470675 -0.034810755 -0.02052916 0.032373093 -0.02480806 0.022965774 0.00095065887 -0.004041259
0.024986878 0.027337758 -0.0142838 -0.0019525936 0.033198826 0.029573373 0.014364933 -0.021142248
-0.023661656 0.02562085 0.02059214 -0.0037406303 0.034339834 0.02491558 -0.0077152643 0.015579023
0.03452918 0.02058749 -0.017092614 -0.033487044 0.010770207 0.013313209 -0.03478279 0.005316725
-0.025834791 0.009167018 -0.011297537 -0.016009575 0.03224134 0.01126316 -0.009057498 -0.026578397
0.012301652 -0.009617089 0.0007151611 0.032251738 0.067842275 -0.0052339374 0.015555007 -0.009590105
0.059127502 0.053580794 -0.030268302 -0.02422836 0.013655014 0.007314169 0.026457861 -0.015642527
-0.029101633 0.03557724 -0.011104536 0.016479585 0.023081625 0.01178615 0.033813834 -0.024519136
0.0030122644 -0.0012826213 0.016646434 -0.015834019 -0.022193486 -0.02885256 0.022822503 0.009572461
-0.034096744 -0.003229816 -0.030745737 -0.030988622 0.02118615 -0.018155465 0.021026477 0.032877147
0.005664713 0.01628282 -0.030875124 -0.015080688 -0.0019380196 0.0075626504 0.014301494 0.019069416
