2021_BOML_srcnn_project/output/epoch_209.pth (torch, 231519 bytes, 5 tensors)

conv1.weight f4 [64, 1, 9, 9]
-0.039121967 0.009599824 -0.077070266 0.079441234 -0.03179893 0.1132302 -0.058917228 0.0367057
-0.022512358 0.066514105 -0.00855258 0.02223486 -0.091617465 -0.05606477 -0.06443474 -0.04232046
-0.0034889139 0.12957394 0.024273792 0.0881285 0.0608255 -0.00090912246 0.0048097004 0.048207734
-0.14432587 -0.0010436979 -0.07311272 0.0645311 0.047431186 -0.19387472 0.06026264 0.05135409
0.031138126 -0.026266387 0.040917736 -0.039949365 -0.12248654 -0.07286547 -0.11879378 0.09031216
0.0952533 0.007237111 -0.020868683 0.10842418 -0.008966535 -0.029177785 -0.04566251 0.031687863
0.21796885 0.1675077 0.07039074 -0.011495674 0.022741374 0.010977504 -0.023102215 -0.14918192
-0.09958087 0.12179565 -0.009561861 -0.13383742 -0.02566339 0.13583277 -0.07990171 -0.032800473
-0.081914656 -0.066843644 -0.054124493 -0.060382668 -0.15318742 0.018043825 0.15664728 0.1085172
0.09045868 -0.013639012 0.016312132 -0.0007553951 0.05434557 -0.10481521 -0.049144674 0.05286078
-0.034194887 0.07591374 0.017086513 0.0064337794 -0.100037746 -0.060025822 -0.08555175 0.11013959
0.053082485 -0.054051656 -0.06342507 0.050527208 0.014801954 -0.016934894 -0.12774803 -0.039224315
0.11451474 0.06613799 0.015434435 0.013227296 0.07739936 -0.07020534 -0.029899191 -0.09192033
-0.05538699 0.011644905 0.034889784 0.070850976 0.041624352 -0.03573249 0.12178216 -0.032975953
0.08487637 -0.048558142 -0.0025167798 0.02200461 -0.09146183 -0.021232422 0.010492712 0.20018926
0.078831516 0.13704269 0.11126043 -0.027926978 0.100798726 -0.08740092 -0.020449283 -0.024529811
0.1010696 0.1588181 -0.0034079556 -0.014085801 0.006655983 -0.06450441 -0.04950423 -0.14960751
-0.05041852 -0.0062137507 -0.022807768 -0.10699822 -0.10631318 -0.027647438 0.09575664 0.11972163
-0.011384661 -0.1067819 -0.08508887 -0.037296176 -0.16897257 -0.18277325 -0.07315662 0.024361435
-0.006752212 0.14299256 0.07553138 0.15653749 -0.007876081 0.031468634 -0.10806783 0.11206111
0.102847055 0.07717623 -0.044761814 0.09473675 0.095727265 0.17661145 0.20412521 0.26048672
0.16563581 0.07554063 -0.018304113 -0.076992534 -0.04698545 -0.10130695 -0.21044096 -0.15404652
-0.17861606 -0.096977465 -0.0015099569 -0.059805967 0.056722894 0.040434692 0.046598613 -0.13325216
-0.08336958 -0.04735112 -0.08565864 0.009126446 0.06932376 -0.062315106 -0.049539525 -0.097729236
0.06480708 0.1623617 -0.045564067 -0.04180641 0.0248184 -0.033579323 0.09762119 0.034170035
-0.035119485 0.035683937 0.08673971 -0.026472177 -0.09588099 -0.008618237 0.022269469 0.036515396
0.022753103 0.103144825 0.03291594 0.06421843 0.11371583 -0.025323581 0.06681752 -0.011356417
0.050473996 -0.0755224 -0.027900036 -0.013618082 -0.12449238 -0.08603151 0.045236073 -0.02315435
0.04266058 -0.0714988 -0.022266004 -0.08172499 0.04491295 -0.002038427 0.01644158 0.011927579
-0.06095418 0.036932133 0.028234513 -0.03628373 0.0679768 0.006384815 -0.09612097 0.07436061
0.049346905 -0.04059241 -0.078142665 -0.05017044 0.056239564 0.039760467 -0.105304964 -0.046350148
0.08875473 0.09819378 0.078015864 -0.022300018 0.07182931 -0.07395709 -0.011880493 0.021753173
00000000: 5b3e 20bd 9548 1d3c 04d7 9dbd 16b2 a23d
00000010: 983f 02bd 3ce5 e73d 3153 71bd b758 163d
00000020: d66b b8bc 8c38 883d 1f20 0cbc e225 b63c
00000030: f0a1 bbbd 2ca4 65bd 5cf6 83bd 3858 2dbd
00000040: 43a6 64bb 08af 043e d5d9 c63c b77c b43d
00000050: 2924 793d 2d52 6eba b19a 9d3b 7975 453d
00000060: 29ca 13be b1cc 88ba 1fbc 95bd e228 843d
00000070: 3447 423d 1887 46be f5d5 763d ab58 523d
00000080: 6215 ff3c 9b2c d7bc 5b99 273d f2a1 23bd
00000090: 39da fabd 7e3a 95bd 274a f3bd 95f5 b83d
000000a0: 2a14 c33d 4a25 ed3b cdf4 aabc 7f0d de3d
000000b0: 60e8 12bc 4006 efbc 9d08 3bbd 22cb 013d
000000c0: 3a33 5f3e 2387 2b3e 0529 903d 5a58 3cbc
000000d0: 1e4c ba3c fdda 333c db40 bdbc 25c3 18be
000000e0: 0ef1 cbbd ff6f f93d 5aa9 1cbc ad0c 09be
000000f0: 083c d2bc bf17 0b3e 82a3 a3bd ca59 06bd
00000100: dfc2 a7bd 52e5 88bd a5b1 5dbd d153 77bd
00000110: 2add 1cbe a5d0 933c 2568 203e 443e de3d
00000120: 6742 b93d 2a76 5fbc 05a1 853c b505 46ba
00000130: 7699 5e3d 5ba9 d6bd ed4b 49bd 8c84 583d
00000140: f00f 0cbd aa78 9b3d 04f9 8b3c 74d2 d23b
00000150: 97e0 ccbd a3dd 75bd c235 afbd de90 e13d
00000160: 056d 593d 4565 5dbd 01e5 81bd 9ef5 4e3d
00000170: e583 723c 0cbb 8abc 61d0 02be ada9 20bd
00000180: b486 ea3d 5b73 873d b6e0 7c3c 4db7 583c
00000190: 8e83 9e3d d1c7 8fbd 26ef f4bc ba40 bcbd
000001a0: 78dd 62bd 46ca 3e3c 97e8 0e3d 511a 913d
000001b0: 4c7e 2a3d 3b5c 12bd ed68 f93d cb11 07bd
000001c0: aad3 ad3d e7e4 46bd 8ff0 24bb 0343 b43c
000001d0: 5750 bbbd 9eef adbc a0e9 2b3c 6afe 4c3e
000001e0: 6b72 a13d eb54 0c3e 82dc e33d 1ec7 e4bc
000001f0: 906f ce3d 41ff b2bd 4185 a7bc bef2 c8bc
00000200: 94fd ce3d 36a1 223e 0258 5fbb 22c8 66bc
00000210: 6f1a da3b e31a 84bd f3c4 4abd b632 19be
00000220: a683 4ebd b89c cbbb 5bd7 babc e221 dbbd
00000230: b9ba d9bd e17c e2bc 0f1c c43d 9d30 f53d
00000240: bb86 3abc 78b0 dabd 1343 aebd e0c3 18bd
00000250: 2507 2dbe e928 3bbe 23d3 95bd a291 c73c
00000260: a941 ddbb a46c 123e 32b0 9a3d 5d4b 203e
00000270: ae0a 01bc 41e5 003d ab52 ddbd 4c80 e53d
00000280: 7aa1 d23d 920e 9e3d 2a58 37bd 5705 c23d
00000290: a80c c43d a2d9 343e 3306 513e 845e 853e
000002a0: 6f9c 293e 0cb5 9a3d 82f2 95bc 43ae 9dbd
000002b0: d173 40bd 057a cfbd d67d 57be 5fbe 1dbe
000002c0: 21e7 36be 1f9c c6bd bfe9 c5ba 1af7 74bd
000002d0: 4456 683d d99e 253d 30de 3e3d 4173 08be
000002e0: acbd aabd 3ff3 41bd cc6d afbd 1787 153c
000002f0: 9ef9 8d3d 203e 7fbd f5e9 4abd 4426 c8bd
00000300: 93b9 843d 2542 263e 63a1 3abd 333d 2bbd
00000310: f54f cb3c 798a 09bd 9eed c73d e1f5 0b3d
00000320: 73d9 0fbd 5229 123d 97a4 b13d 2edc d8bc
00000330: 415d c4bd 8233 0dbc 766e b63c 2b91 153d
00000340: b764 ba3c 983d d33d ddd2 063d f484 833d
00000350: d8e3 e83d 6673 cfbc a0d7 883d 4410 3abc
00000360: d2bd 4e3d 7dab 9abd 9e8e e4bc 601e 5fbc
00000370: dcf5 febd 4a31 b0bd 7649 393d 31ae bdbc
00000380: dcbc 2e3d f66d 92bd 3267 b6bc 6e5f a7bd
00000390: a4f6 373d 2197 05bb 7eb0 863c e46b 433c
000003a0: 17ab 79bd 2646 173d 114c e73c 409e 14bd
000003b0: 6c37 8b3d b637 d13b 12db c4bd 604a 983d
000003c0: fb1f 4a3d 3a44 26bd 4309 a0bd 857f 4dbd
000003d0: 755b 663d dfdb 223d 21aa d7bd a7d9 3dbd
000003e0: 0ac5 b53d d219 c93d c8c6 9f3d 87ae b6bc
000003f0: 3f1b 933d d176 97bd 66a6 42bc b633 b23c

conv1.bias f4 [64]
0.023843296 -0.121864825 0.013396577 -0.13309756 0.028300393 0.017198771 0.046669696 -0.009949492
0.072401725 -0.030049179 -0.0073784282 0.02114927 -0.19672526 0.22315514 0.06616996 -0.006727917
-0.009602579 -0.0022288314 0.0060417666 0.012682628 0.018607322 -0.023869934 -0.033137072 0.052501075
-0.2700911 -0.025165357 0.06580508 0.008957514 0.031788733 0.01777775 0.03170045 -0.01076859
0.043247975 0.024220966 0.0012939873 -0.046852782 -0.010949035 0.07986011 -0.017667813 0.04060729
0.004424826 0.00241104 0.095310934 -0.023407027 0.047790762 -0.013201663 -0.03459804 0.027532363
-0.0036770783 0.010483062 0.023413822 0.02357414 0.008738179 -0.005683584 0.013233643 0.015406717
0.013758578 -0.017400408 -0.0010261713 0.04787474 0.045888215 -0.009862457 -0.03297033 -0.007270311
00000000: 0453 c33c 4494 f9bd 517d 5b3c ba4a 08be
00000010: 3ad6 e73c 70e4 8c3c b928 3f3d 3203 23bc
00000020: 5b47 943d b229 f6bc bec6 f1bb 3c41 ad3c
00000030: 5972 49be c882 643e 1e84 873d dc75 dcbb
00000040: 2354 1dbc 9611 12bb 03fa c53b ccca 4f3c
00000050: 626e 983c e18a c3bc bdba 07bd 5e0b 573d
00000060: 6149 8abe 9427 cebc d0c4 863d 89c2 123c
00000070: e734 023d a5a2 913c 55d8 013d bd6e 30bc
00000080: ca24 313d 0c6b c63c 029b a93a b4e8 3fbd
00000090: 9563 33bc b38d a33d 17bc 90bc d453 263d
000000a0: 21fe 903b 8a02 1e3b 6132 c33d 18c0 bfbc
000000b0: 3fc0 433d ca4b 58bc adb6 0dbd 8d8b e13c
000000c0: 23fb 70bb 26c1 2b3c 58ce bf3c 8e1e c13c
000000d0: 942a 0f3c 5c3d babb ecd1 583c 746c 7c3c
000000e0: a96b 613c 4d8b 8ebc 9880 86ba 4e18 443d
000000f0: 48f5 3b3d 2596 21bc e60b 07bd ca3b eebb

conv2.weight f4 [32, 64, 5, 5]
-0.004346466 0.06658726 0.06686603 0.057462968 -0.04845434 0.031593326 0.00024935947 0.0025714096
0.038254526 -0.0019991144 0.047508806 0.014894267 0.017752629 -0.013143904 0.03453421 0.027515618
0.06630049 0.004100442 0.016620418 0.12516654 -0.013585751 0.022919998 -0.09417266 -0.0142912045
0.007659764 -0.08108522 0.028105948 -0.016340967 -0.06377507 -0.092761196 -0.1561912 -0.027034212
0.08444217 0.07127121 -0.023301661 -0.046618648 -0.020892847 0.07586468 0.09562472 0.05450129
-0.12885402 -0.0011825418 -0.010750244 0.011153591 0.023352712 -0.08521172 0.070642956 0.048916165
0.058398504 0.06340279 -0.0020481865 0.06320937 0.053812124 0.121095285 0.09098055 0.0044509047
0.02610816 0.04333603 0.046960153 -0.04001033 0.04014924 0.051959336 -0.008974844 -0.05750228
-0.15060392 0.025827147 0.09870677 0.053099528 -0.022704514 -0.059890687 -0.08956264 -0.040549994
-0.046933293 -0.06683519 -0.035422284 0.07291015 0.023514356 0.04701427 -0.044747684 -0.06487147
-0.0057365145 0.045723837 0.014138658 -0.01805814 -0.028382031 -0.040129453 -0.041675076 -0.054291677
-0.037582774 -0.07429966 -0.010557447 0.006462107 -0.007682404 0.04594513 0.026131911 -0.0029084622
0.013420194 0.00079307484 0.03466951 0.044855617 -0.032084588 -0.019504806 -0.014515071 -0.020169131
-0.018157253 0.06522552 0.056136657 0.029767105 -0.02878576 -0.10862421 -0.059747208 -0.024110317
0.055150196 -0.0114300735 -0.16758333 -0.023932356 0.06079332 0.05759657 0.06232166 0.00012728637
-0.042840365 -0.0283034 -0.08227814 -0.04441559 -0.006555436 0.14481908 0.07369651 0.009258749
0.025107577 -0.078888685 0.017588744 0.017982824 0.0077379704 -0.04172601 -0.048089057 -0.041666944
-0.003020944 0.024775125 -0.04196434 -0.04712864 0.007098008 0.039650477 0.034822583 -0.006613471
0.005378646 0.07748831 0.046651006 0.0412918 0.0048188274 0.008436258 0.02110953 0.028020779
0.017700393 0.06178891 -0.06730064 0.09804552 0.08073382 0.015069857 -0.016798344 -0.057034615
0.10218123 0.0472448 0.006066486 -0.019492265 -0.0121471705 -0.01671813 -0.030538667 -0.044257525
-0.066530034 0.10852956 -0.19275402 -0.09107517 0.027630739 0.051588632 0.119885065 0.12661774
0.14441325 0.14992791 0.011226846 -0.0696122 -0.031970836 -0.042831924 0.107367516 0.07126628
-0.05960025 -0.06878744 -0.09100896 -0.05506608 0.07566665 0.0684486 0.09707124 0.020217728
-0.06556305 0.051646836 0.0029495268 0.14064413 0.25192854 0.15796925 0.060775522 0.0141031025
0.049372114 -0.082177356 -0.105043925 -0.007004382 0.07767153 0.050308235 -0.06262942 -0.072199784
0.0021018584 -0.03433602 0.069220826 -0.003565301 -0.025396904 0.06994882 0.062315945 0.0035517476
0.029751483 0.02871267 0.062098116 0.017569713 -0.0010620401 0.124360144 0.04086905 0.026383493
-0.014295921 0.021105865 -0.029374108 -0.04048888 -0.00015528672 0.024965523 0.037625127 -0.035026442
-0.00624329 0.04252697 0.06010006 -0.022723157 -0.04732641 0.0018028623 0.05449453 0.06439853
-0.016138509 -0.023964327 0.01341379 0.01209964 0.014374018 -0.008066249 -0.01359056 -0.009453193
0.005001942 -0.014128032 -0.037975438 -0.044690292 -0.00070103176 0.011339945 -0.0065725385 -0.037828628
00000000: cd6c 8ebb e75e 883d 0ff1 883d 4a5e 6b3d
00000010: 0f78 46bd 0168 013d 76bc 8239 1885 283b
00000020: c7b0 1c3d 9303 03bb 9898 423d 1507 743c
00000030: f66d 913c 8759 57bc be73 0d3d 6f68 e13c
00000040: 8dc8 873d 005d 863b 8b27 883c a82b 003e
00000050: c596 5ebc b8c2 bb3c 98dd c0bd a825 6abc
00000060: c2fe fa3b 0210 a6bd 723e e63c 7edd 85bc
00000070: 819c 82bd 95f9 bdbd 96f0 1fbe da76 ddbc
00000080: 04f0 ac3d a4f6 913d 20e3 bebc 32f3 3ebd
00000090: 7a27 abbc f15e 9b3d e5d6 c33d bf3c 5f3d
000000a0: 4ff2 03be 85ff 9aba cb21 30bc 8dbd 363c
000000b0: 304e bf3c 7b83 aebd 41ad 903d 515c 483d
000000c0: 4533 6f3d 52d9 813d de3a 06bb ea73 813d
000000d0: 1a6a 5c3d ce00 f83d 0354 ba3d e5d8 913b
000000e0: c8e0 d53c 1f81 313d 4a59 403d dfe1 23bd
000000f0: 8873 243d 50d3 543d 390b 13bc 8387 6bbd
00000100: ea37 1abe 7493 d33c c626 ca3d e47e 593d
00000110: d1fe b9bc f04f 75bd 9e6c b7bd c017 26bd
00000120: 203d 40bd e3e0 88bd f516 11bd eb51 953d
00000130: 2ea1 c03c 0992 403d 5949 37bd 55db 84bd
00000140: 5ff9 bbbb eb48 3b3d d4a5 673c aaee 93bc
00000150: 6f81 e8bc c85e 24bd 7cb3 2abd f360 5ebd
00000160: 65f0 19bd 6c2a 98bd 24f9 2cbc 15c0 d33b
00000170: adbc fbbb f630 3c3d 9712 d63c e69b 3ebb
00000180: 60e0 5b3c 5ae6 4f3a 9e01 0e3d 86ba 373d
00000190: 216b 03bd 8bc8 9fbc 9fd0 6dbc bc39 a5bc
000001a0: 85be 94bc f594 853d 8def 653d 25da f33c
000001b0: 1dd0 ebbc 5f76 debd 7db9 74bd 0083 c5bc
000001c0: 2ce5 613d 3445 3bbc f79a 2bbe ca0d c4bc
000001d0: 6b02 793d 62ea 6b3d ff44 7f3d 2d78 0539
000001e0: 6179 2fbd 88dc e7bc 7181 a8bd 1fed 35bd
000001f0: fcce d6bb 744b 143e 32ee 963d 02b2 173c
00000200: 68ae cd3c 6490 a1bd 4516 903c b750 933c
00000210: cd8e fd3b e5e8 2abd 08f9 44bd f5aa 2abd
00000220: 08fb 45bb 34f5 ca3c cde2 2bbd f609 41bd
00000230: 6896 e83b 8a68 223d 20a2 0e3d d1b5 d8bb
00000240: 5a3f b03b 31b2 9e3d 2015 3f3d 9721 293d
00000250: 41e7 9d3b 3b38 0a3c e5ed ac3c d58b e53c
00000260: 6a00 913c 5e16 7d3d ebd4 89bd 17cc c83d
00000270: c657 a53d 90e7 763c ae9c 89bc 219d 69bd
00000280: 6544 d13d c383 413d 5fc9 c63b 3eae 9fbc
00000290: ed04 47bc 76f4 88bc 3a2c fabc 6147 35bd
000002a0: e640 88bd bf44 de3d 4f61 45be 9e85 babd
000002b0: dc59 e23c 9a4e 533d 4d86 f53d 15a8 013e
000002c0: 11e1 133e b486 193e cef0 373c d790 8ebd
000002d0: daf3 02bd 8770 2fbd 80e3 db3d 0ef4 913d
000002e0: 641f 74bd 6ee0 8cbd e862 babd f88c 61bd
000002f0: 1ef7 9a3d c82e 8c3d 49cd c63d a69f a53c
00000300: ec45 86bd a28b 533d d94c 413b 0405 103e
00000310: c7fc 803e b1c2 213e c1ef 783d b310 673c
00000320: 6a3a 4a3d 9a4c a8bd 4521 d7bd 0485 e5bb
00000330: 4012 9f3d 0210 4e3d da43 80bd 7bdd 93bd
00000340: 55bf 093b eda3 0cbd a6c3 8d3d d3a7 69bb
00000350: 2b0d d0bc 5441 8f3d 013f 7f3d 70c4 683b
00000360: 62b9 f33c d536 eb3c 985a 7e3d 5cee 8f3c
00000370: 2734 8bba 88b0 fe3d 4e66 273d 3222 d83c
00000380: 7039 6abc 35e6 ac3c f8a1 f0bc abd7 25bd
00000390: 76d4 22b9 7f84 cc3c ce1c 1a3d e377 0fbd
000003a0: 8394 ccbb c330 2e3d 7b2b 763d ea25 babc
000003b0: 56d9 41bd 054e ec3a a835 5f3d 60e3 833d
000003c0: e834 84bc d650 c4bc 83c5 5b3c 923d 463c
000003d0: 0081 6b3c 4d28 04bc f1aa 5ebc 91e1 1abc
000003e0: 55e7 a33b 4379 67bc 228c 1bbd 2b0d 37bd
000003f0: 72c5 37ba 2dcb 393c 735e d7bb 31f2 1abd

conv2.bias f4 [32]
0.02390245 -0.0042150314 -0.005020304 0.021499759 0.039435502 -0.029806051 0.0028557617 0.021031884
0.02896422 -0.03032287 -0.0030877371 -0.05086222 0.038216613 -0.04980687 0.1072294 0.013464714
-0.019341145 0.00511222 -0.011766666 0.044925112 0.042621944 0.022256507 -0.032752994 0.005849655
-0.009146682 0.048899375 0.023975527 0.027845243 0.028208286 -0.036120154 -0.06939 0.023427412
00000000: 12cf c33c 3f1e 8abb 5d81 a4bb 4320 b03c
00000010: 1f87 213d d22b f4bc bb27 3b3b 0f4b ac3c
00000020: 5f46 ed3c ab67 f8bc a25b 4abb e754 50bd
00000030: 0689 1c3d 4a02 4cbd 169b db3d 1b9b 5c3c
00000040: 5271 9ebc 6984 a73b f9c8 40bc 6503 383d
00000050: 5994 2e3d 4753 b63c 0128 06bd 76ae bf3b
00000060: f7db 15bc b64a 483d 5368 c43c b51b e43c
00000070: 1015 e73c baf2 13bd 581c 8ebd d8ea bf3c

conv3.weight f4 [1, 32, 5, 5]
-0.006558479 0.020561446 0.025632568 0.043121237 0.035248857 -0.021440992 0.0053937966 -0.009137753
-0.0026658874 -0.0016377824 -0.005708008 0.0056033083 -0.0115735205 -0.06019115 -0.020074932 -0.0026155626
-0.021269774 -0.02324422 -0.043822765 0.018787282 0.008986802 0.021091864 0.020854123 0.03248846
0.0030972979 0.0030026296 -0.034770768 0.010859976 0.024636723 -0.025427118 0.020092603 -0.014080676
0.012974014 -0.017969055 0.002719174 -0.038234293 0.02600999 -0.0055756 0.028477749 -0.01595578
0.014061288 -0.020172352 -0.018512866 -0.014716992 0.015043307 0.021468733 0.025265552 -0.0061825383
0.00077888806 0.024868352 -0.013813237 -0.011614732 0.02691602 -0.029823054 -0.017105991 -0.019597504
-0.0074302224 -0.025978735 0.0082356 -0.024683174 -0.015541861 -0.03434083 0.023591286 -0.021666437
-0.0042356486 -0.021029143 -0.004811223 -0.0067808214 -0.01150453 -0.0005048528 0.015120923 0.029173827
0.026197255 -0.026236251 -0.0040936745 -0.07059985 -0.0010262375 0.0158389 0.014890004 0.0111767445
0.02309045 0.028457703 0.020652525 0.0052209515 0.006005557 0.060706094 0.030268379 -0.0019632902
-0.045769036 -0.014572292 0.032556806 -0.005155194 -0.06231079 -0.045403227 -0.0066621294 0.0065103653
-0.012742856 -0.015028949 0.0021054212 0.029553764 0.0031117934 0.0050617824 0.012793503 -0.0040989364
0.0034347514 -0.011469705 0.029448979 -0.0012175764 0.024724213 -0.0209116 -0.03050322 0.0025785235
-0.03302602 0.020704715 0.021181494 0.025337923 0.029142294 0.010174208 0.012352474 -0.0058381422
0.030398453 0.0127983745 -0.009867168 -0.034852076 0.002663364 -0.0046424484 0.03765875 0.0480234
0.0332835 -0.0054725343 0.01431284 -0.00092993805 0.020456415 0.0064246967 -0.0053051063 -0.012431229
0.0042961556 -0.042032298 -0.029234229 0.024842553 0.011568846 -0.046628453 -0.045378562 0.013268556
0.0046442244 0.012338732 -0.010000919 -0.0013818592 0.028684584 -0.0106607005 0.010505035 -0.0010984815
0.0102455 0.0016721893 -0.0069022016 0.009665495 0.005669168 -0.0060025714 0.022227744 0.03169618
0.017265117 -0.012348801 -0.028451195 -0.026400745 -0.01893765 -0.005432123 0.017486356 0.011428183
0.032596037 -0.03712498 -0.023518225 0.03099524 -0.02315083 0.023824165 -0.00034510216 -0.004994998
0.024250368 0.027121339 -0.013922112 -0.0016454976 0.03159736 0.028028853 0.013614683 -0.02105612
-0.023839723 0.023665378 0.018572519 -0.0046838634 0.034249194 0.024519067 -0.009119352 0.014125595
0.03355307 0.020453546 -0.017203981 -0.034239024 0.010082724 0.012949136 -0.03454998 0.0054880693
-0.04532531 -0.02950367 -0.050485965 -0.02776938 0.0034572245 -0.01886983 0.0137274815 -0.03990412
-0.013362706 -0.011628103 -0.0056270733 0.09402619 0.099333495 -0.0184712 0.0007196195 -0.037120644
0.08116876 0.10724609 -0.020192139 -0.052447703 -0.03766009 -0.028107317 0.009484431 -0.017908558
-0.05946583 0.048182897 0.014776824 0.01139092 0.025643758 0.016658135 0.030096931 -0.020814607
-0.023061983 -0.007312176 0.019995052 -0.024620052 -0.05172531 -0.059583645 -0.0005048202 0.009726422
-0.026962256 -0.014390644 -0.027187914 -0.014759222 0.028074963 0.016829066 0.034082025 0.044752747
0.017973207 0.014565939 -0.030863246 -0.015063042 -0.0019359153 0.007574377 0.014315485 0.019061852
00000000: 82e8 d6bb 7a70 a83c 64fb d13c e59f 303d
00000010: 1b61 103d 05a5 afbc 72be b03b 84b6 15bc
00000020: 2bb6 2ebb dcaa d6ba 3e0a bbbb f59b b73b
00000030: dd9e 3dbc ff8a 76bd 2f74 a4bc dc69 2bbb
00000040: f33d aebc aa6a bebc 807f 33bd c9e7 993c
00000050: 613d 133c d8c8 ac3c 44d6 aa3c 9f12 053d
00000060: 09fc 4a3b c4c7 443b cb6b 0ebd 0aee 313c
00000070: f4d2 c93c 884c d0bc 3e99 a43c a3b2 66bc
00000080: f590 543c d733 93bc 2b34 323b 909b 1cbd
00000090: e712 d53c 86b3 b6bb 2b4a e93c b2b5 82bc
000000a0: 5161 663c 7d40 a5bc 4ba8 97bc 8a1f 71bc
000000b0: 3478 763c 32df af3c b4f9 ce3c e496 cabb
000000c0: 4b2e 4c3a b7b8 cb3c ea50 62bc b84b 3ebc
000000d0: fc7e dc3c 7a4f f4bc dd21 8cbc f28a a0bc
000000e0: 3979 f3bb 5bd1 d4bc 9cee 063c 5e34 cabc
000000f0: 4aa3 7ebc f8a8 0cbd 8342 c13c d07d b1bc
00000100: 32cb 8abb 4f45 acbc 77a7 9dbb a731 debb
00000110: 7f7d 3cbc 1958 04ba bfbd 773c f3fd ee3c
00000120: a09b d63c 68ed d6bc 3b24 86bb a796 90bd
00000130: d182 86ba 95c0 813c 34f5 733c aa1e 373c
00000140: 2f28 bd3c 2120 e93c 7c2f a93c 8414 ab3b
00000150: 43ca c43b f4a6 783d 64f5 f73c 8baa 00bb
00000160: 5078 3bbd 9fc0 6ebc 495a 053d e7ec a8bb
00000170: 9939 7fbd bcf8 39bd fe4d dabb e754 d53b
00000180: 69c7 50bc fb3b 76bc 1bfb 093b bc1a f23c
00000190: 3bef 4b3b 4fdd a53b d79b 513c 5f50 86bb
000001a0: 9119 613b 6eeb 3bbc fc3e f13c 1697 9fba
000001b0: 6f8a ca3c ce4e abbc e4e1 f9bc 72fc 283b
000001c0: 4b46 07bd ef9c a93c d084 ad3c 7a91 cf3c
000001d0: d2bb ee3c b9b1 263c 0862 4a3c e34d bfbb
000001e0: 2d06 f93c 46b0 513c e7a9 21bc 0dc1 0ebd
000001f0: d58b 2e3b ae1f 98bb 1040 1a3d 2fb4 443d
00000200: 4754 083d f252 b3bb 6780 6a3c 16c7 73ba
00000210: 3694 a73c 4386 d23b 75d6 adbb 5bac 4bbc
00000220: c4c6 8c3b 0f2a 2cbd 9f7c efbc 9c82 cb3c
00000230: 428b 3d3c 7afd 3ebd dfde 39bd 5c64 593c
00000240: 942e 983b 6528 4a3c e5da 23bc 801f b5ba
00000250: effb ea3c 38aa 2ebc 4f1d 2c3c ecfa 8fba
00000260: bedc 273c 5d2d db3a dd2b e2bb 065c 1e3c
00000270: 6ec4 b93b 38b1 c4bb f516 b63c dbd3 013d
00000280: 936f 8d3c a052 4abc 7b12 e9bc 6046 d8bc
00000290: 2123 9bbc f3ff b1bb 8c3f 8f3c 463d 3b3c
000002a0: 6c83 053d 5d10 18bd 4ba9 c0bc bbe9 fd3c
000002b0: cfa6 bdbc e52a c33c d4ee b4b9 15ad a3bb
000002c0: b5a8 c63c 922d de3c 9219 64bc bdad d7ba
000002d0: 3c6c 013d c49c e53c 1f10 5f3c e27d acbc
000002e0: 864b c3bc e5dd c13c 6525 983c 187b 99bb
000002f0: e248 0c3d 36dc c83c 5669 15bc 0a6f 673c
00000300: f26e 093d 328e a73c 5def 8cbc 383e 0cbd
00000310: 0232 253c 9d28 543c 4884 0dbd 43d5 b33b
00000320: 08a7 39bd aeb1 f1bc 5fca 4ebd 9c7c e3bc
00000330: 9a92 623b e794 9abc 3be9 603c 8172 23bd
00000340: 40ef 5abc cd83 3ebc 5063 b8bb ce90 c03d
00000350: 5c6f cb3d ea50 97bc d9a4 3c3a d10b 18bd
00000360: cf3b a63d d7a3 db3d fc69 a5bc 67d3 56bd
00000370: 7741 1abd 5141 e6bc 9664 1b3c f8b4 92bc
00000380: 7192 73bd 6e5b 453d 7e1a 723c fba0 3a3c
00000390: dc12 d23c a476 883c d78d f63c 6583 aabc
000003a0: 7cec bcbc fa9a efbb aacc a33c feaf c9bc
000003b0: ebdd 53bd fb0d 74bd e955 04ba 925b 1f3c
000003c0: f3df dcbc bcc6 6bbc 30b9 debc aad0 71bc
000003d0: 77fd e53c 1cdd 893c 9899 0b3d a84e 373d
000003e0: 8c3c 933c faa5 6e3c ebd4 fcbc faca 76bc
000003f0: 8abe fdba 7b32 f83b 7f8b 6a3c 9a27 9c3c
