2021_BOML_srcnn_project/output/epoch_12.pth (torch, 231519 bytes, 5 tensors)

conv1.weight f4 [64, 1, 9, 9]
00000000: c68a 10bd 46ec a73b 57ac 6ebd 947d 253d
00000010: 43ce c3bd 6826 a73d a65a a0bd 986a a7bd
00000020: 1298 82bd 2679 5c3d 5c9b 2fbd 3a5d 1c3d
00000030: dc97 c3bd 7df3 89bd 04c0 29bd 9fc6 a4bc
00000040: 0612 9ebd 25d6 a23d 1f31 c7bc 2b82 163d
00000050: 1268 a43d d97f db3c e502 243d 92b5 e83d
00000060: 6344 37bd 23be 373d df75 29bd 1121 9c3d
00000070: f93e b03d 665e d0bd dafc db3d 1f16 943d
00000080: ed1a 7d3d c9d7 533d 90df c43d acf1 72bc
00000090: 478f c5bd 8194 10bd 45d1 98bd b89a e93c
000000a0: 5838 e63b a429 23bd fa3d 26bb 832b d93d
000000b0: d0e9 67bc d842 ea39 5699 b3bc cada ac3c
000000c0: 3258 ed3d 68eb ac3d 70ee 3c3d df99 b33c
000000d0: 649d b03c 9206 073d f380 52bc 20af dfbd
000000e0: a130 8dbd 5ce0 d13d ba6a 343c c255 c1bd
000000f0: bc99 0a3c f8b5 b13d f544 e5bd 7aed 80bd
00000100: 3089 30bd 327e 983b 1c54 c2bc af55 69bc
00000110: 12f8 efbd 6579 323d 9034 ca3d 683c 8b3d
00000120: 7efb 55bd 3fa6 9ebd d887 453d 743b dd3a
00000130: 8fe4 303d 3c9b e8bd 8a4b f3bb ff1e b53d
00000140: 6205 6c3d b2a6 d4bb 4351 243b 3b7b ecbc
00000150: 33ad 9abd e562 4cbd 1f7f 97bd a19a b63d
00000160: 911b 533d e087 c63c 4a7d c0bd 8624 943d
00000170: ad0c c23c 5500 8e3d 2532 3ebd be5d a33c
00000180: 69cc df3d cbe4 903d f49b 9d3d f860 08bd
00000190: d502 923d 922c c4bd 43cb 0a3c 9346 70bd
000001a0: 6a89 eabc 3b94 eebc 9a85 1d3b 8898 af3d
000001b0: 2da2 2a3d 28b2 5fbc 6b0d 9a3d 220a 48bd
000001c0: 4599 8f3d 9960 52bc 07a8 bbbc cbd1 a13b
000001d0: 1802 cfbd 6ab6 3c3b 6c4a f03c d25e c73d
000001e0: e9c6 b2bc 058a 603d 650a df3d 4b0e 55bd
000001f0: 56b4 c83d db8a 91bd d676 223d 6c0b 0e3d
00000200: 987f e63c 3ce1 b13d 89db 39bd 6cd1 8e3c
00000210: 5f0e 10bc 8cc9 bfbd c2af 43bd 6d68 b0bd
00000220: 11c2 153d b79e d43a 251f 8eba 9e36 47bd
00000230: 7f6b a9bc 7a60 47bd 0fc7 a73c ca6c b03d
00000240: a7da 6a3c 77f1 61bd b122 91bd 1e97 213b
00000250: fa85 babd 0fba c1bd 1e7a 9dbd 1d3a 1ebd
00000260: 55b1 f7ba 289b ae3d f66e 433d 8a69 c93d
00000270: eb7b 58bd 6c37 e53c 5bec a4bd c58f ac3d
00000280: f23e 283d d0f2 e43d 9d33 98bd 3816 ce3d
00000290: 9883 f03d b3a1 f73d 7d30 453d c061 013e
000002a0: 0e0f c03d e68b c33d b67c 82bb 64cc b0bd
000002b0: 68ef 0c3b d1d9 073d fd28 76bd 4892 43bd
000002c0: 689a c2bd 934b e3bc dd4c da3d cd30 af3c
000002d0: f3a1 c2bb 02fa 353c b29b a83d 8301 afbd
000002e0: 52fa 98bd d184 fcbc 7f55 60bd c9f2 903d
000002f0: 19d5 b33d 52dd d2bd 7241 a5bd bc36 b3bd
00000300: 6feb 7a3d 05b0 d73d 53d6 9fbd 7a69 24bd
00000310: e5b7 5f3d 33c5 5fbd dbca cd3d ce93 2c3d
00000320: 2404 cbbb b84b 043d 6ec4 613d fdbc f4bc
00000330: e3c8 9abd f9df a63c ecdb b13c ebd9 2d3b
00000340: 6334 2fbc f159 b73d 120b 29bc d32e cb3b
00000350: 226b 543d 56b8 86bd c21b 283d f2dc 61bc
00000360: 1f83 3b3d 80bd 94bd d7b6 283c 198b b03c
00000370: 27c8 a7bd 56b9 a7bd 766c 203d a643 f9bc
00000380: 467e 8c3d d1b1 d5bd 708a 74bd dac4 abbd
00000390: 1d7e 623d 90b2 173c 4bde 6ebc 28fe 8abc
000003a0: 2d10 a9bd f6d7 153d 2fbd ad3c d0a4 8ebd
000003b0: 8d8d 6e3d 1298 733c d2dd aebd c776 9d3d
000003c0: 8c7a 933d 1da2 fbbb 61c9 81bd 6c93 683b
000003d0: 6d61 ab3d 7445 d03d 4b6a adbd 0cea 50bd
000003e0: abfa af3d 8d22 5b3d d79f 883d f33e 6abd
000003f0: 1ee2 c23d e219 babd bc54 9ebb d32c bf3a
-0.035288595 0.0051246015 -0.058269825 0.040402964 -0.09560826 0.08161622 -0.0782979 -0.08174628
-0.06376661 0.053826474 -0.04287277 0.038174845 -0.09550449 -0.06735895 -0.041442886 -0.020114241
-0.077182814 0.07951001 -0.024315415 0.03674523 0.08027662 0.026794361 0.040041823 0.11362757
-0.044742953 0.044859063 -0.041372176 0.076234944 0.08605761 -0.10174255 0.10741587 0.07230782
0.061793257 0.05171946 0.09612954 -0.014828127 -0.096464686 -0.035297874 -0.0746179 0.028516158
0.0070257597 -0.039834633 -0.002536653 0.10604002 -0.014154866 0.0004468176 -0.021923702 0.02110042
0.115890875 0.08443338 0.04612583 0.021923957 0.021559425 0.03296525 -0.012848127 -0.10922074
-0.06894041 0.10247871 0.011011774 -0.09440185 0.008459505 0.08677286 -0.11194793 -0.06295295
-0.043099582 0.0046537155 -0.023721747 -0.01424162 -0.117172375 0.043572802 0.09873307 0.06798631
-0.052241795 -0.07746553 0.048225254 0.001687868 0.04318672 -0.113577336 -0.0074247764 0.08843803
0.05762232 -0.006489598 0.002507285 -0.028867355 -0.075525664 -0.049899 -0.07397293 0.08916212
0.05153996 0.024234712 -0.09398897 0.07233529 0.023687685 0.06933657 -0.04643454 0.01994216
0.1092766 0.07074889 0.07695761 -0.0332956 0.071294464 -0.095788136 0.008471313 -0.058661055
-0.028629977 -0.029123416 0.0024035932 0.08574015 0.04165857 -0.013653316 0.075220905 -0.04883779
0.07011656 -0.0128404135 -0.02290727 0.0049383393 -0.10107821 0.002879525 0.029332362 0.097348824
-0.021823363 0.054819126 0.108906545 -0.052015584 0.09800021 -0.07106563 0.039664112 0.03467886
0.028137013 0.08685538 -0.04537538 0.017433845 -0.008792489 -0.09364614 -0.047775038 -0.08613668
0.03656203 0.0016221617 -0.0010843022 -0.04863607 -0.020681141 -0.04867599 0.02048066 0.086145
0.014334357 -0.05516192 -0.07086695 0.0024656723 -0.09107585 -0.09459316 -0.07689308 -0.03862964
-0.0018897454 0.085256875 0.047713242 0.09834583 -0.052852552 0.027980529 -0.08052894 0.08425859
0.041075654 0.11179125 -0.074317195 0.10062832 0.117438495 0.120913886 0.048141945 0.12634945
0.093778715 0.09548168 -0.003982152 -0.086327344 0.0021505002 0.03316671 -0.060097683 -0.047746927
-0.09502107 -0.027745998 0.10659192 0.021385575 -0.005939716 0.01110697 0.082328215 -0.0854521
-0.0746962 -0.03082505 -0.054769035 0.070775576 0.087808795 -0.1029612 -0.08069123 -0.08750674
0.061259683 0.1053162 -0.07804551 -0.040139653 0.054618735 -0.054631423 0.10048457 0.042133145
-0.006195562 0.032298774 0.05511897 -0.029875273 -0.07557847 0.02037047 0.021711312 0.0026527594
-0.010693642 0.08952702 -0.010317581 0.0062006502 0.051859982 -0.06578128 0.041042097 -0.013785588
0.045779344 -0.07262707 0.010297499 0.021550702 -0.08192473 -0.08189647 0.039165936 -0.030427765
0.06860022 -0.104343064 -0.059702337 -0.08387156 0.055296052 0.009258881 -0.014579366 -0.016966894
-0.082550384 0.03658291 0.021208374 -0.06965029 0.058240462 0.014867799 -0.085384026 0.076886706
0.07201108 -0.0076792375 -0.06337238 0.003548826 0.08368192 0.10169497 -0.084675394 -0.051004454
0.08592733 0.053499747 0.06671112 -0.05718894 0.09515785 -0.09086968 -0.0048318785 0.0014585502

conv1.bias f4 [64]
00000000: a8a7 e2bc fb19 bfbd 8eb4 393c 6344 81bd
00000010: 6822 1e3d 2b04 b8bc 2c68 673d 95d4 e2bb
00000020: ae0f df3d 9ba5 45bd b7bd 063c 0835 a83c
00000030: 6d94 bfbd 12d3 c53d 4980 8d3d 3dff 323d
00000040: 869d 0cbd 6cb2 61bd ae0e 513d 579c 073d
00000050: a495 733c 3863 bd3a bcea 91bd a43b 923d
00000060: 6c34 85bd 7ee4 053d 7119 54bb 7252 5dbc
00000070: 64f0 f23c 5ecb 893d 1b7a bb3d 53c9 ebbb
00000080: 6380 443d f17b 233d 600b aa3b f299 c4bd
00000090: cba5 01bd e189 af3d c568 823c cf56 513d
000000a0: 5477 e6bc ab11 46ba 3090 c73d bb3c 4bbc
000000b0: 8091 1b3d e233 553c 52ae 7dbc f11d 913b
000000c0: 790a a2bc 910a c9bc 642f a739 a861 2f3d
000000d0: 2aea 083d 2b1b 28bb 3fa7 d73a 69d2 90ba
000000e0: a0c5 d23d ed5b 40bd 4cba b8bb cbe1 963d
000000f0: 23cd 963d e8a7 1ebd 08ed c5bd 80f7 a5bd
-0.027667835 -0.09331127 0.0113345515 -0.06311872 0.03860703 -0.022462925 0.05649583 -0.0069223144
0.108916625 -0.048253637 0.0082239425 0.0205331 -0.09354482 0.09659399 0.06909234 0.043700445
-0.034329914 -0.055101797 0.05103939 0.03310808 0.01486722 0.0014449125 -0.0712485 0.07140282
-0.06504139 0.03268861 -0.0032363797 -0.013508426 0.029655643 0.06728242 0.09154149 -0.0071956306
0.047974 0.03991312 0.0051893443 -0.09599675 -0.031652253 0.0857122 0.015919099 0.051108178
-0.028133072 -0.00075557333 0.097442985 -0.012404616 0.037980556 0.013012858 -0.015483456 0.004428618
-0.019780384 -0.024541171 0.0003188803 0.04281774 0.03342644 -0.002565096 0.0016453041 -0.0011049035
0.102916 -0.046962667 -0.0056374427 0.07367285 0.073633455 -0.038734347 -0.09664351 -0.081038475

conv2.weight f4 [32, 64, 5, 5]
00000000: 7d8c 163b 58b7 9f3b 639f e9bb 5f75 7ebc
00000010: 4253 5bbd 4bbf 9439 f234 f9bb 3c89 88bc
00000020: 2044 7ebc 2e70 cdbc 48e6 033c 131f 51bc
00000030: 874c f23b d393 c3bb 13cc 663c 8377 23bc
00000040: 06e0 273c 80d8 473c 9543 443c 308c d63c
00000050: d219 f33b 27f5 2f3c f3ba b6bc 18bc 8b3c
00000060: 25ab 6bbc ceb0 b0bc 8a8a 8d3c 061d 9c3c
00000070: 52e9 2ebc 5c2d a3bc 30bb 4abc 082f d33c
00000080: f623 e53c 0bf5 b23c edd7 343b dc3c 353c
00000090: 5f4e e3bb 679a a53c fc59 873c bb4d d13c
000000a0: 3a70 bdbb 55d9 4cb9 8feb 70bc 851f e43b
000000b0: f871 083b e72a e6bc c7d0 233c 4d88 063c
000000c0: 5242 583c 438d 313c cddc 50bd 784b 1abd
000000d0: 5396 abbd 716a 9fbd 6b0c cfbd 447e ebbc
000000e0: ff93 44bb 2332 cdbb 0eda 183b 3f15 c7bc
000000f0: 48d8 0c3b 09d3 3bbb 0e1e 7fbc 67bd 483c
00000100: 1e0e 6cbc dfc0 edba 2bd9 083d 2eb1 303d
00000110: ccb4 203d 3811 913a 7d42 643c 94bb b23c
00000120: f732 7a3c 24a1 5d3c 5524 853a f3e2 083c
00000130: 89f4 66bc fe23 64bc 151c a0bc f917 a5bc
00000140: 492f 31bb aeb0 973c 6180 82bc 585b afbc
00000150: ad4c 603c 3c02 543c 7da4 133c afbf 87bc
00000160: d031 b03c 3324 d13b d806 143b 8c7c ba3c
00000170: b75a 1c3c b40e 963c ba2c f9bb 5ae1 8a3c
00000180: 0cfd d7bb 529e 1c3c 35e6 5bbc 0de4 8bbc
00000190: fe45 97bc e186 74bc df98 a93c c383 cb3c
000001a0: 2c83 513c a514 85ba 9d2c 3f3a 234d 1f3c
000001b0: a32e e33c 55ee 4f3c 5983 6dbc a801 57bc
000001c0: 8c87 de3c c6b7 be3c 9c2e d6bc a67a a3bc
000001d0: 8a79 483c 2a01 42bc ccfa ce3c ad7c 7c3c
000001e0: 7942 91bc 6ac1 073b ea2d 3dbc d8ca dfbc
000001f0: 09df ed3a 18a6 2c3c 98c6 e53b 124f f0bb
00000200: e0ee 9fbb c66c 8cbc 53a8 1dbd aa16 b83b
00000210: e527 44bc 6ce1 e6ba 5dcb d73b 1b7a bdbc
00000220: 7bff ed3b ebff c63c f598 50ba 138f d5bb
00000230: 199d d13c 324b 073d 2dc7 d43c d0bd 673c
00000240: 4054 913c e563 cabc d157 87bc c83e 9f3c
00000250: 3900 82bc c854 2dbd 9aea 8fbc 57f4 78bb
00000260: 2453 7dbc ddb7 c23c 77b2 e0bc a2a0 bd3c
00000270: 3273 943c 6ee4 85bc 624b 3abc 052c be3c
00000280: cc80 48bb 6f57 81bc 6ce7 cc3b d4d0 54bb
00000290: 163b 38ba 4046 473c 719c 98bc ffb8 2bbc
000002a0: 760b 9aba 40ac ab3c 98dc 7fbc 1fe5 1fbc
000002b0: 551d 683c 3ed0 a43c d8f1 183a 321e c93b
000002c0: 2775 403d 5e01 8e3c 1322 dc3b 3a3e 3c3d
000002d0: 95dc bfbc 2175 22bc 139e 653d e8af d43c
000002e0: 644d 64ba 5ddb 3bbd dc30 75bc f9ce 47bc
000002f0: 30ce f23b 5bc9 0fba 0952 91bc 29f3 29bc
00000300: d6ff 9cbc da52 6c3c fa5b 3f3c a503 263d
00000310: 22f5 ee3c 8005 b23c cfc0 4e3c 8569 6a3c
00000320: 66b9 a1bc ae5e a6bb 2573 1ebb be9d 953c
00000330: 77dc 683c 7b20 9a3c 4b3e 78ba a477 14ba
00000340: 8291 673c 3323 07bb e1b1 e7bc 17a3 88bc
00000350: a623 0bba 84ba 0b3c 56af d3bc bb11 cd3c
00000360: b9ce 083c 4099 403c 1fb7 75bb 3731 7dbc
00000370: e260 37bc cd86 d53c 0216 5d3c 9a90 9abc
00000380: 29a4 313c 98f3 7cba 56e1 343c 7dc5 42bb
00000390: dbf0 0dbc 4d9e 76b9 2643 8a3c 5edb 303c
000003a0: 9aa2 023d cd5b d23c e127 04bc d483 a7bb
000003b0: 6653 1d3b a720 853b 3dbb d4bb 6842 f9bc
000003c0: 4061 0fbd 2a60 3cbc 9f33 40bb 4d77 e9bc
000003d0: 86fe adbc 5925 3d3b 5f0f 0ebc 707b 36bc
000003e0: 5639 35bc 1421 d039 d227 e4bc 48bc 85bc
000003f0: 3de9 1fbb 2fed 023c da84 f93b 9749 23bd
0.002297192 0.004874151 -0.007129596 -0.015530913 -0.053546198 0.00028371284 -0.0076051885 -0.016667001
-0.015519172 -0.025077906 0.008050509 -0.012763756 0.0073943767 -0.0059685498 0.014086741 -0.009977224
0.010246282 0.012197614 0.011979003 0.026189893 0.0074188495 0.010739601 -0.022305941 0.017057464
-0.014384066 -0.021568682 0.017277975 0.019056808 -0.010675745 -0.01991909 -0.012373731 0.025779262
0.02797125 0.021845361 0.0027594522 0.011061873 -0.006936833 0.020215226 0.0165224 0.02554976
-0.0057812007 -0.00019535919 -0.014704599 0.0069617652 0.0020819884 -0.02809663 0.009998507 0.008211208
0.013199406 0.010836902 -0.050991822 -0.03766963 -0.083782814 -0.07783974 -0.101097904 -0.028746732
-0.002999544 -0.0062620803 0.002332333 -0.024302123 0.0021491218 -0.0028659722 -0.01557113 0.012252188
-0.014407663 -0.0018139145 0.033410233 0.04313772 0.03923492 0.0011067754 0.013931868 0.02181796
0.01527094 0.013527188 0.0010157923 0.00835489 -0.014096388 -0.013924597 -0.01954464 -0.020153033
-0.002703624 0.018516865 -0.015930356 -0.02140586 0.013690156 0.012939986 0.009011385 -0.016570894
0.021508127 0.006382489 0.0022587087 0.022764467 0.0095431125 0.018317558 -0.007604209 0.01695316
-0.006591445 0.009559231 -0.013421585 -0.017076517 -0.018465992 -0.014924736 0.020702777 0.024843102
0.0127876215 -0.0010153247 0.00072927197 0.009722981 0.027732199 0.0126911 -0.014496648 -0.0131229535
0.027164243 0.02328099 -0.026145272 -0.019955944 0.012236008 -0.011841098 0.025266074 0.015410584
-0.017731892 0.002071465 -0.011546591 -0.027318403 0.0018148135 0.010537647 0.0070121996 -0.0073336447
-0.004880771 -0.017141711 -0.038490605 0.005617936 -0.011972402 -0.0017614788 0.006585522 -0.023129513
0.0072631217 0.024291953 -0.00079573627 -0.0065173 0.025587605 0.033030696 0.02597388 0.014144376
0.017740369 -0.024705837 -0.016521366 0.019439116 -0.015869247 -0.04231718 -0.017567921 -0.0037987435
-0.015461717 0.023769313 -0.027428849 0.023147885 0.018121336 -0.016344275 -0.011370512 0.02321435
-0.0030594347 -0.015788762 0.0062531736 -0.0032473104 -0.00070278475 0.012162745 -0.018629285 -0.010481118
-0.0011752683 0.020956159 -0.0156165585 -0.009759217 0.01416715 0.020118829 0.00058343774 0.0061376328
0.046986725 0.017334636 0.006717929 0.04595778 -0.023420611 -0.009915621 0.056058954 0.025962785
-0.0008709042 -0.045863498 -0.014965262 -0.012195342 0.0074098334 -0.00054850214 -0.017739313 -0.010372915
-0.01916496 0.01442405 0.011679644 0.04053082 0.029169623 0.021731138 0.012619211 0.014307384
-0.019741725 -0.0050772047 -0.0024177518 0.018263694 0.014212719 0.018814316 -0.00094697316 -0.000566358
0.014133813 -0.0020620346 -0.028283061 -0.01667933 -0.0005307741 0.0085283555 -0.025840443 0.025032869
0.008350068 0.011755288 -0.0037493182 -0.015453628 -0.011192532 0.026065255 0.013494017 -0.01886778
0.0108423615 -0.00096493354 0.011040052 -0.0029719763 -0.008663381 -0.0002351936 0.016877722 0.010794489
0.03189335 0.02567854 -0.0080661485 -0.0051121507 0.0024006008 0.0040627304 -0.006492047 -0.030427173
-0.035004854 -0.011497537 -0.0029327644 -0.02849927 -0.02123953 0.0028861372 -0.008670657 -0.011137828
-0.011061033 0.00039697497 -0.027851019 -0.016325131 -0.0024400495 0.007991119 0.007614714 -0.039865103

conv2.bias f4 [32]
00000000: 7d53 18bc 3fda bebc 397a 7fba 462d 693c
00000010: 78c9 cc3c ec97 a03c 12d2 4bbc 316c c33b
00000020: baf0 473c caef 49bc da22 9139 fadf 2b3c
00000030: b549 d03c 6203 6d3c a6d6 bdbb b1db 02bc
00000040: 688b 74bc 5d1a 9abc b485 7d3c aa20 b63c
00000050: 52e6 b83c 351f b83a e9ce 78bb 4ea7 063c
00000060: d67d 6f3c eaa1 a13c b304 7d3c 5e59 9b3c
00000070: 40f1 013c fb24 bdbc d11f a6bb b704 4abb
-0.009297249 -0.023297427 -0.00097456906 0.014231985 0.024998412 0.019603692 -0.012440221 0.005963825
0.01220339 -0.012325237 0.00027682522 0.010490412 0.025425771 0.014466139 -0.0057934104 -0.007986949
-0.014925815 -0.0188114 0.015473772 0.022232372 0.022570763 0.0014047386 -0.0037965125 0.0082185995
0.014617404 0.019730527 0.015443015 0.018963512 0.007931054 -0.023088923 -0.005069711 -0.0030825564

conv3.weight f4 [1, 32, 5, 5]
00000000: cf46 973c 7542 963c 208f abba d043 ce3c
00000010: daac fc3c 53e5 f5bc 313a 953a 3f82 0dbd
00000020: 9909 743b 6b10 2b3c b6cd 41bb 6d43 e43c
00000030: 1352 403c 0a8d fbbc cfa9 5cbb c932 87bc
00000040: bbab ebbc 79a0 5fb9 e8da 05bd 1680 b73c
00000050: 27bd 773b e299 523c e5c4 a83c 35dc e43c
00000060: 33bc 92bc 9eac 0d3b 1e9f 08bd dfb8 043c
00000070: 0f3c d83c 6107 b7bc be7e a83c cd00 87bc
00000080: da4c 263c 38b9 7bbc c090 dd3b 917b 08bd
00000090: b855 d83c 674e 03bc 36d6 063d e6c8 4cbc
000000a0: 706f 7f3c 904b 89bc 2331 71bc e4c9 0ebc
000000b0: 3bba 8c3c 0ce1 6a3c 9763 a93c a069 b6bb
000000c0: 9de0 963b e813 b43c 7b53 62bc fc4c 3ebc
000000d0: 5a7e dc3c 2b4a f4bc 2623 8cbc 128c a0bc
000000e0: b57d f3bb b7d2 d4bc e0fa 063c 1c39 cabc
000000f0: 485c 7ebc 98d5 0cbd a54a c13c d178 b1bc
00000100: dad1 8abb 707f acbc cb09 9fbb bb4a ddbb
00000110: d97f 3cbc d6c4 04ba 21b8 763c 7bb9 ee3c
00000120: 64f0 d63c 01ef d6bc 672a 86bb 0ab3 02bd
00000130: 29ae 8d3c ac69 cc3c 79cd c53b 70b1 273c
00000140: b939 173d 6d5c baba a1dc f2bc b565 98bc
00000150: 9e56 20bc f05c a33c d205 573b c2cf ef3c
00000160: c232 913c e60c 36bc 4851 46bc 26a9 73bc
00000170: 8b78 12bd 5046 40bc 1186 83bc 3529 f7bb
00000180: ccf6 06bc 8f4c 86bc da9d 8fbc c8dc cb3b
00000190: 6303 cf3b 72d2 ff3b 8300 6d3c d383 3bbb
000001a0: 328e 733b 5bf2 ecbb f1e3 023d 3920 1036
000001b0: 17fa ce3c a30b aabc 987c e1bc bfba 953b
000001c0: fa2a 02bd c24b a93c 6c17 a73c 64d7 ec3c
000001d0: cc73 033d c550 3c3c 5211 5d3c 5176 acbb
000001e0: 13ad 043d 4e0f 783c fa9e 09bc e415 06bd
000001f0: 8479 8c3b 3383 743b 2fc7 e63c a7b0 b53c
00000200: aa92 003d 9662 863b 26c4 303c 6ec6 dbbc
00000210: ed87 ce3b 2f8f 233c 1276 97bc c587 88bc
00000220: fe98 923c 6551 8dbc dcd8 24bc 4c28 e53c
00000230: 4695 f13c 1923 d7bc a6fd e9bc e9d9 d23c
00000240: 9afb 08bc 6dc6 a13b 802b afbc bed8 5ebc
00000250: 6df2 ea3c 0abd b1bc a348 573c 8bee d93a
00000260: 0d6e 3e3c 3b9c 073b fda3 e5bb c9e7 583c
00000270: 6f3e 273c ea43 35bb 6be5 c53c 3585 023d
00000280: bb3d 993c eadf 21bc 385e d2bc f1f2 c5bc
00000290: 55c5 8ebc e8d9 3fbb 123b 963c 5250 213c
000002a0: 626d 013d 05cd 0cbd 27b2 a3bc ad79 053d
000002b0: 67d0 cbbc 82ff bb3c 22c4 a13a fe6a 74bb
000002c0: 5fff ce3c 40f9 e03c 7065 69bc 2ad3 e5ba
000002d0: c16f 083d aa17 f33c 6d25 6b3c e315 aebc
000002e0: e2ca c1bc 1a40 d23c fc9f a83c b4a7 7cbb
000002f0: 0938 0c3d 2706 cc3c cefe f5bb 0f67 803c
00000300: 0d55 0d3d 85ab a83c 041a 8bbc e2df 07bd
00000310: f6c9 333c 3752 5b3c ae29 0ebd 3923 b33b
00000320: 2347 b0bc d5bf 713c 5fb6 98bc 7c10 dcbc
00000330: 2c72 0a3d 5a41 ae3c 3b7c 47bc 626b c7bc
00000340: 1063 ad3c 6e4f b4bc 31b3 23bc 58d2 07bc
00000350: aece b43c c668 38bb bd8b 3d3c 8245 9dbc
00000360: 8cde 0c3d a35e 573c 17c3 cbbc 36f7 ddbc
00000370: 3d59 b03c a031 38bc 1f82 803c e4d7 183a
00000380: 6487 8dbc 7a96 0e3d a97d 4ebc 1f98 793c
00000390: bcc4 b83c a740 423c 8cfb 0b3d dfc2 c4bc
000003a0: 728f 7b3b 86b3 0eba 4ea3 8e3c 34cf 71bc
000003b0: 7987 abbc 0334 dfbc 7ed3 c83c 54c7 273c
000003c0: f5f2 06bd bcff 0dbb 318c eebc 1132 efbc
000003d0: f00d b63c 03f9 90bc c7e1 ad3c 8bd1 073d
000003e0: 3895 b13b 168a 7f3c d4ed fcbc fd14 77bc
000003f0: 2605 feba 1cd0 f73b d050 6a3c 7737 9c3c
0.018466381 0.018342236 -0.0013088919 0.02517882 0.03084414 -0.030016577 0.001138514 -0.03454804
0.0037237166 0.010440926 -0.0029572076 0.027864182 0.011738318 -0.030706901 -0.003367055 -0.016503708
-0.02876841 -0.00021326718 -0.03267947 0.022399943 0.0037801953 0.012854071 0.0206017 0.027937034
-0.017912006 0.002161778 -0.03335487 0.008100717 0.026395826 -0.022342386 0.020568248 -0.016479874
0.010150159 -0.015363984 0.0067616403 -0.033320967 0.026408061 -0.008014298 0.03291913 -0.01249907
0.015590534 -0.016759664 -0.014721188 -0.008715127 0.017178645 0.014335882 0.020677371 -0.0055667907
0.0046044127 0.021982148 -0.013813849 -0.011615034 0.026915718 -0.029820522 -0.017106604 -0.01959804
-0.007430757 -0.025979383 0.008238524 -0.024685435 -0.015524931 -0.034383386 0.023595164 -0.021664055
-0.004236442 -0.02105686 -0.0048534623 -0.0067532933 -0.011505091 -0.0005064731 0.015058548 0.029141178
0.026237674 -0.026237013 -0.00409441 -0.031909026 0.01729496 0.024952732 0.006036457 0.0102351755
0.036920283 -0.0014218219 -0.02964622 -0.018603185 -0.009786276 0.019941777 0.0032809866 0.029273871
0.017724399 -0.011111474 -0.01210434 -0.014871871 -0.03575949 -0.011735514 -0.016055139 -0.007542754
-0.008237552 -0.016393928 -0.017531324 0.0062213875 0.0063175424 0.0078070695 0.014465454 -0.002861251
0.0037163612 -0.0072310395 0.031955663 2.1476428e-06 0.025265737 -0.020757502 -0.027525231 0.004569381
-0.031779267 0.020666007 0.02039691 0.0289113 0.032092854 0.011493866 0.013492899 -0.005263128
0.03239162 0.015140368 -0.008399719 -0.03273572 0.0042869467 0.0037309646 0.02817115 0.022178961
0.03138987 0.004101108 0.010788953 -0.026828017 0.0063028247 0.009982868 -0.018488917 -0.016666302
0.017895218 -0.017250726 -0.010061469 0.027973317 0.029490124 -0.026261853 -0.028563332 0.025738673
-0.008360768 0.0049369843 -0.021383047 -0.01360148 0.02868005 -0.021696586 0.013139877 0.0016626877
0.011622918 0.0020692486 -0.0070080743 0.013238856 0.010207756 -0.0027658888 0.024157247 0.031865317
0.018706193 -0.009880045 -0.025679693 -0.024163695 -0.01742808 -0.002927417 0.018338714 0.00984581
0.031598456 -0.03437521 -0.01998241 0.032586742 -0.024879647 0.022948984 0.0012341777 -0.0037295218
0.025268255 0.027462602 -0.014245376 -0.0017534245 0.0333097 0.02967437 0.014352185 -0.02125067
-0.023656312 0.025665332 0.020584099 -0.0038552107 0.034233127 0.024905277 -0.0075071817 0.015674142
0.03450494 0.0205896 -0.016980179 -0.033172496 0.010973444 0.013386301 -0.034707718 0.0054668454
-0.021518296 0.014755209 -0.018641649 -0.02686333 0.03380029 0.021271396 -0.012175615 -0.024343196
0.0211654 -0.022010531 -0.009991453 -0.008289896 0.022071209 -0.0028138622 0.011568961 -0.019198183
0.034391925 0.013145122 -0.0248733 -0.027095418 0.021526927 -0.0112423 0.015687047 0.000583051
-0.017276473 0.034811474 -0.012603202 0.015234022 0.022554748 0.011856235 0.03417544 -0.024018703
0.003838506 -0.0005443621 0.017411854 -0.014758874 -0.020938622 -0.02724648 0.02451491 0.010240395
-0.032946546 -0.0021667322 -0.029119583 -0.029198678 0.022223443 -0.017696863 0.021225823 0.03315882
0.0054193996 0.015596887 -0.030875124 -0.015080688 -0.0019380196 0.0075626504 0.014301494 0.019069416
