2021_BOML_srcnn_project/output/epoch_199.pth (torch, 231519 bytes, 5 tensors)

conv1.weight f4 [64, 1, 9, 9]
000000 30 a1 21 bd 49 d3 31 3c 5a c3 98 bd be d9 a4 3d
       -0.03946036 0.010853597 -0.07459135 0.080493435
000010 0d da 04 bd 95 a4 e9 3d c0 54 69 bd 86 28 0f 3d
       -0.032434512 0.11408345 -0.05696559 0.034950756
000020 7a 83 95 bc 4c c5 8d 3d b1 b3 08 bc 40 37 bf 3c
       -0.01825117 0.06922397 -0.008343623 0.023341775
000030 dc cf ba bd 62 38 69 bd d9 dd 83 bd f7 55 2c bd
       -0.09121677 -0.056938536 -0.064387985 -0.04207417
000040 fe c0 03 bc 6a 47 04 3e c6 ed c6 3c 72 ce af 3d
       -0.008041618 0.12917867 0.024283301 0.08584298
000050 23 52 78 3d c7 01 71 b9 de 2c be 3b fa b7 4c 3d
       0.060625207 -0.00022984213 0.0058036884 0.04998014
000060 c4 9c 10 be 00 29 00 bb b5 e0 96 bd a1 2e 82 3d
       -0.14122301 -0.0019555688 -0.07367078 0.0635655
000070 15 8f 3b 3d c6 bc 45 be b0 c2 79 3d 17 93 55 3d
       0.04579075 -0.19310293 0.060976684 0.05214223
000080 59 32 02 3d a5 25 c3 bc 55 b8 25 3d 89 dc 2d bd
       0.031786297 -0.023821661 0.040458996 -0.042446647
000090 0c d1 f9 bd 10 9d 96 bd c5 10 f1 bd a4 f0 b6 3d
       -0.12198076 -0.07354176 -0.11770777 0.08932617
0000a0 9c 40 c0 3d 8e e8 cf 3b c4 a3 a0 bc 20 70 dc 3d
       0.09387323 0.0063448614 -0.01960934 0.10763574
0000b0 52 ba 2a bc d6 a8 e1 bc 96 3f 3a bd 57 7c 02 3d
       -0.010420399 -0.027546328 -0.045470797 0.03185686
0000c0 83 76 5d 3e d7 74 2a 3e ba e7 8e 3d 62 5f 1f bc
       0.2162724 0.16646133 0.06977792 -0.009727331
0000d0 58 b9 bf 3c 09 09 51 3c e1 4c b2 bc 8c 9d 17 be
       0.023403808 0.012758502 -0.021765174 -0.14806193
0000e0 f0 f3 c8 bd df 27 f9 3d b1 98 0d bc 25 84 09 be
       -0.098121524 0.12165808 -0.0086423615 -0.13429315
0000f0 96 c7 d2 bc f7 16 09 3e b3 5b a4 bd 0d 7b 06 bd
       -0.025729936 0.13387667 -0.08025303 -0.032832194
000100 0e 18 a7 bd da 1d 84 bd f1 19 58 bd f2 95 6f bd
       -0.08158885 -0.06451006 -0.052759115 -0.05849261
000110 c7 90 1d be 31 13 93 3c 5b 7f 1d 3e a0 48 da 3d
       -0.1538726 0.017953487 0.15380614 0.10658383
000120 3c ca b6 3d 3f fb 89 bc 6b 48 84 3c cd 94 89 ba
       0.08925292 -0.016843436 0.016147813 -0.0010496617
000130 89 4a 5e 3d 5a 1b d8 bd 4a c7 40 bd 72 b1 62 3d
       0.0542703 -0.10552092 -0.047065057 0.055345006
000140 d3 c8 02 bd af a7 98 3d 54 92 96 3c 61 0f e0 3b
       -0.031929802 0.07453858 0.018380322 0.006837771
000150 14 cd c7 bd d5 74 73 bd 04 a6 ad bd c7 0a e2 3d
       -0.097559124 -0.05943759 -0.084789306 0.11037212
000160 6a f2 59 3d 79 ad 5a bd 85 69 85 bd c6 a0 4f 3d
       0.0532097 -0.053388093 -0.06514267 0.050690435
000170 96 42 70 3c 03 df 6c bc 96 9d 01 be a0 3d 20 bd
       0.014664313 -0.014457467 -0.1265777 -0.03912127
000180 89 ee e9 3d 05 51 88 3d a8 87 88 3c 90 01 42 3c
       0.1142245 0.06656078 0.016666248 0.011841193
000190 3b 88 9c 3d 13 6e 92 bd ca e7 ed bc 7b 1c bd bd
       0.076431714 -0.07149901 -0.02904119 -0.09233948
0001a0 09 29 67 bd 32 79 28 3c 60 b2 0b 3d 81 7d 91 3d
       -0.05643562 0.010282801 0.03410566 0.07104016
0001b0 32 89 31 3d af eb 0c bd f7 6c f8 3d f4 ca 02 bd
       0.04334373 -0.034404453 0.121301584 -0.031931832
0001c0 a1 82 ad 3d 68 9c 44 bd fd a4 24 bb 88 38 b0 3c
       0.08472181 -0.048000723 -0.0025122755 0.021511331
0001d0 28 93 bf bd cd a4 9b bc 42 2f 46 3c ca c2 4a 3e
       -0.0935424 -0.018999482 0.012096228 0.19800869
0001e0 a8 14 9d 3d 20 32 09 3e 1d 1d df 3d 4f a3 ee bc
       0.076699555 0.13398027 0.10894225 -0.029130606
0001f0 0e 28 ce 3d 6f 75 b5 bd 61 74 94 bc 1c 59 b7 bc
       0.100662336 -0.08860289 -0.0181219 -0.022381358
000200 a4 34 cb 3d 7e a9 20 3e b2 99 ab bb 63 c1 77 bc
       0.0992215 0.15689656 -0.005236828 -0.015121791
000210 f5 3d da 3b d2 a4 81 bd 02 9b 45 bd 74 21 18 be
       0.006660218 -0.06330265 -0.04824353 -0.14856511
000220 12 11 49 bd 3d a4 c2 bb 35 bb b0 bc 8b 9a d6 bd
       -0.049088545 -0.005939989 -0.021573642 -0.104786955
000230 59 22 d7 bd f9 6a e7 bc 45 1b c2 3d 28 d2 f4 3d
       -0.10504598 -0.02824925 0.094778575 0.119541466
000240 e8 f7 34 bc 7c 47 db bd a6 8f af bd 84 41 16 bd
       -0.011045434 -0.10706994 -0.08572321 -0.036683574
000250 7e a3 2a be 1b 0a 3a be 04 ba 96 bd 5f 2a b7 3c
       -0.1666393 -0.18167917 -0.073596984 0.022359071
000260 5d 6c fe bb e5 9e 10 3e 91 52 95 3d 1d 6b 1d 3e
       -0.0077643828 0.14123113 0.07291139 0.15372892
000270 03 fa 17 bc c2 51 08 3d 21 1a d7 bd 9c 61 eb 3d
       -0.009275916 0.033281095 -0.105030306 0.11493227
000280 bd 92 d4 3d 79 4e a1 3d e3 36 44 bd 00 0e bd 3d
       0.103795506 0.078762956 -0.047903907 0.09231186
000290 a2 fd c4 3d 17 59 34 3e 74 e3 4d 3e da 99 84 3e
       0.09618689 0.1761211 0.20106298 0.2589863
0002a0 13 64 27 3e fe 64 9a 3d b3 e6 ab bc 74 5f 9d bd
       0.16346769 0.07538794 -0.02098403 -0.07684222
0002b0 16 82 3e bd ab fe c5 bd a4 d3 50 be b3 bb 17 be
       -0.04651078 -0.09667715 -0.20393234 -0.14817695
0002c0 c5 b9 30 be 2c 39 c0 bd e9 d3 08 3b fd 1c 71 bd
       -0.17258365 -0.09385905 0.0020878261 -0.058865536
0002d0 1a 6d 6e 3d 3c 96 23 3d eb 5a 42 3d 94 67 07 be
       0.058209516 0.039938197 0.047449987 -0.13223106
0002e0 da 9b ab bd d0 a7 40 bd 5f db b0 bd aa f2 0e 3c
       -0.08379336 -0.04703504 -0.08635592 0.008724848
0002f0 d5 7d 88 3d 0c e5 7f bd 0e 55 54 bd d2 0e cb bd
       0.066646256 -0.062474295 -0.051838927 -0.09914936
000300 27 19 81 3d b8 08 23 3e 77 3b 43 bd 6e 78 31 bd
       0.063036256 0.15921295 -0.047664132 -0.04332774
000310 35 3c c7 3c aa d9 11 bd 9d 69 c8 3d cd fa 08 3d
       0.024320701 -0.03560797 0.09785769 0.033442307
000320 ae a8 0e bd e2 5a 10 3d 9d c0 ae 3d 02 5c de bc
       -0.034828834 0.035242923 0.08532832 -0.027143482
000330 78 25 c4 bd d7 fa f3 bb 5f ec b8 3c 4c 60 19 3d
       -0.09577459 -0.007445674 0.022573648 0.03744535
000340 16 af bb 3c 68 1f d6 3d 09 5c 06 3d 39 e6 81 3d
       0.022910636 0.10455209 0.032802615 0.063427396
000350 24 e2 e6 3d 7e c5 cc bc f3 fd 8c 3d e5 36 0b bc
       0.11273602 -0.024996515 0.068843745 -0.008496975
000360 1a 74 56 3d 16 b7 97 bd a5 18 ca bc 03 26 3d bc
       0.052356817 -0.07407968 -0.024669955 -0.011544707
000370 72 82 fa bd bd 7c ae bd aa 11 3f 3d ae 69 aa bc
       -0.12231912 -0.08519886 0.046647705 -0.020802345
000380 67 2f 3d 3d 9d 0a 96 bd c6 22 d3 bc 9b 40 ac bd
       0.046187785 -0.07326243 -0.025773417 -0.0841076
000390 51 10 2c 3d 30 46 87 bb 5f b2 5b 3c 95 87 1f 3c
       0.042007748 -0.00412824 0.013409226 0.009736915
0003a0 0f 8a 81 bd a8 e4 11 3d 6f 4e f8 3c 5d 06 1b bd
       -0.06325161 0.035618454 0.030310838 -0.037847865
0003b0 2a 8e 88 3d dc cf b3 3b c5 fe c3 bd 12 9e 98 3d
       0.06667741 0.0054874253 -0.09570078 0.074520245
0003c0 c5 b6 4d 3d 67 12 2b bd 8a f7 a3 bd f6 51 45 bd
       0.05022313 -0.041765597 -0.08006199 -0.048173867
0003d0 98 1a 70 3d 13 b8 2d 3d 71 37 d5 bd 07 37 3a bd
       0.05861911 0.042411875 -0.10410965 -0.045462634
0003e0 c2 db b7 3d 00 4b c4 3d ad 0b 9e 3d 95 c8 cd bc
       0.08977462 0.095846176 0.07717071 -0.025120059
0003f0 02 6e 93 3d 62 49 98 bd 63 33 3e bc a4 34 af 3c
       0.07198717 -0.07435872 -0.011608931 0.021387406

conv1.bias f4 [64]
000000 1f cb d0 3c 2a 64 f3 bd b1 f0 5a 3c 0a 03 07 be
       0.02548748 -0.11884339 0.013363049 -0.13184753
000010 08 59 ef 3c 2c 85 91 3c 77 1e 3a 3d 52 60 27 bc
       0.029217258 0.017763697 0.04543921 -0.010215836
000020 7d 9f 97 3d 00 98 fe bc 74 8a d1 bb 33 18 b2 3c
       0.07403467 -0.031078339 -0.0063946787 0.021740055
000030 49 31 47 be 85 f2 5e 3e 84 08 86 3d e2 ab f0 bb
       -0.19452395 0.21772201 0.06544593 -0.007344709
000040 5a f6 25 bc 06 7b db ba 32 f3 e5 3b 48 fa 4b 3c
       -0.010129536 -0.0016745038 0.0070175165 0.012449808
000050 3e b5 95 3c 8e b8 c0 bc 21 b0 0b bd 05 72 55 3d
       0.0182749 -0.023525503 -0.034103516 0.05211069
000060 71 92 85 be fb dd c7 bc d6 dd 88 3d d1 5b 0c 3c
       -0.26088288 -0.02439784 0.06682937 0.008566813
000070 53 a1 03 3d 41 6f 98 3c cf 10 0c 3d 1a 39 39 bc
       0.032136273 0.018607737 0.034195717 -0.011305118
000080 33 48 30 3d 12 ca c6 3c b6 45 b7 3a f6 a2 40 bd
       0.043037605 0.024266277 0.0013982567 -0.04703041
000090 aa 8a 33 bc f3 8c a2 3d e3 5a 90 bc 49 0c 31 3d
       -0.010958353 0.0793704 -0.017621463 0.043224607
0000a0 0a f7 7f 3b 31 6f 49 3b 76 c5 c4 3d 05 4a b5 bc
       0.003905716 0.0030736441 0.09607975 -0.022130022
0000b0 bb 55 43 3d 08 31 57 bc c7 56 0b bd a5 4d e7 3c
       0.04768918 -0.013134249 -0.034018304 0.028235266
0000c0 bb 9c 7e bb a2 7c 2c 3c 43 56 c7 3c 82 05 c5 3c
       -0.0038850743 0.010527762 0.024333125 0.024050478
0000d0 ae 98 02 3c 93 ec b5 bb 10 7d 55 3c 61 65 71 3c
       0.007970972 -0.0055518835 0.0130303055 0.014733643
0000e0 18 52 5d 3c 07 10 9d bc 1a 13 8b ba c8 62 46 3d
       0.013508342 -0.019172681 -0.0010610551 0.04843405
0000f0 7b 4a 3b 3d ad 2d 2c bc f5 50 06 bd 21 5a fb bb
       0.045725327 -0.010508937 -0.03279205 -0.0076706563

conv2.weight f4 [32, 64, 5, 5]
000000 a2 9b 13 bc eb d8 82 3d 97 6c 8a 3d ad 7e 6d 3d
       -0.009009274 0.0638903 0.06758993 0.057982136
000010 6b 0a 5d bd 8d ca e9 3c db c1 70 ba 65 3c b9 3b
       -0.053965013 0.028538967 -0.000918416 0.0056529515
000020 50 4f 22 3d f4 ed 39 bb ad 66 3e 3d 10 3c 69 3c
       0.03962642 -0.002837059 0.046484638 0.014235511
000030 f1 88 9d 3c 4d ab 1f bc 6c 69 1a 3d 26 11 ce 3c
       0.019230338 -0.009745431 0.037698194 0.025154661
000040 e5 51 83 3d 61 9f b0 3b 77 02 a0 3c 93 b2 00 3e
       0.064121045 0.005390093 0.019532425 0.1256812
000050 63 8b 79 bc b2 4a b0 3c 80 8e bf bd 13 1c 4d bc
       -0.015230986 0.021519993 -0.093533516 -0.0125189
000060 7f 93 19 3c 4c fc a2 bd 57 05 f5 3c 02 b9 82 bc
       0.009373545 -0.07958278 0.029909773 -0.01595736
000070 27 3b 7d bd e2 20 c1 bd 8e 5f 1f be 79 10 da bc
       -0.06182399 -0.094301 -0.15563795 -0.026619183
000080 0f da a3 3d c6 f6 8d 3d c4 19 d5 bc 01 8b 39 bd
       0.08000576 0.06931834 -0.026013263 -0.04529858
000090 72 b0 9e bc ba 4f 98 3d 0e a5 c0 3d 12 3b 5d 3d
       -0.019371245 0.07437082 0.09406482 0.054011412
0000a0 bb e4 00 be 4d 74 96 b9 40 7b 22 bc d0 f0 4b 3c
       -0.12587254 -0.0002869688 -0.00991708 0.012447551
0000b0 e1 04 c5 3c a6 b8 aa bd 70 58 90 3d 82 47 50 3d
       0.024050178 -0.08336 0.07048118 0.050849445
0000c0 01 1f 76 3d 5c ac 81 3d 0e ad 31 bb 0b 35 82 3d
       0.06008816 0.06331703 -0.0027111205 0.063577734
0000d0 4d 6d 61 3d eb de f3 3d e7 82 b0 3d 62 dd 37 3b
       0.055035878 0.119077526 0.08618718 0.0028055538
0000e0 81 1b dd 3c 20 ae 41 3d c8 e3 4e 3d 54 b8 1e bd
       0.026990654 0.0472852 0.050510198 -0.038750008
0000f0 3f fb 0d 3d 69 0b 3e 3d 4b b5 4b bc 8a 3e 74 bd
       0.034663435 0.0463976 -0.01243336 -0.059629954
000100 6c a5 1c be 81 6d dc 3c 2b 61 ca 3d b7 42 59 3d
       -0.15297478 0.026907684 0.098818146 0.05304214
000110 87 28 b5 bc 47 0a 71 bd 74 f4 b3 bd 90 85 24 bd
       -0.022114052 -0.058847692 -0.0878686 -0.040166438
000120 2a f1 41 bd 4b d9 8c bd 68 e6 1e bd 14 a8 9c 3d
       -0.047349133 -0.06877383 -0.03879395 0.07649246
000130 c8 6a db 3c b0 31 3b 3d b9 73 4f bd f3 73 93 bd
       0.026784316 0.045701683 -0.05064747 -0.0719985
000140 1c c5 19 bb 56 21 46 3d 98 c4 60 3c 96 37 a7 bc
       -0.0023463434 0.048371635 0.013718747 -0.020412248
000150 16 d0 c5 bc ad 91 32 bd c7 ca 24 bd 93 e0 57 bd
       -0.024147075 -0.04359596 -0.040232446 -0.052704405
000160 02 3d 03 bd 2b ea 7f bd 4f 7a 46 bc c7 8e 06 3c
       -0.032040603 -0.06247918 -0.012114122 0.008212752
000170 c5 90 f1 bb 2d 34 36 3d 2b 5d d7 3c 30 99 94 ba
       -0.007371994 0.044483352 0.026289543 -0.0011337157
000180 af b3 9b 3c 47 43 0c 3a 44 28 d7 3c 3b df 19 3d
       0.019006578 0.0005350601 0.026264317 0.037566405
000190 44 5f 02 bd 90 36 93 bc c2 bd 2e bc 4f 56 8a bc
       -0.031829134 -0.017970353 -0.010665359 -0.016886858
0001a0 8f 39 92 bc 50 9c 80 3d e7 23 60 3d 08 07 f2 3c
       -0.017849712 0.06279814 0.05472174 0.029544368
0001b0 e0 58 e8 bc 8e 46 dc bd f5 eb 6a bd c2 39 af bc
       -0.028362691 -0.10755645 -0.057353932 -0.021389846
0001c0 dc 8b 64 3d f0 26 20 bc c0 df 26 be a2 dc bf bc
       0.055797443 -0.009774908 -0.16296291 -0.023420636
0001d0 3f 91 78 3d ce 59 61 3d 3f a0 76 3d 24 b6 e5 b8
       0.060685392 0.055017285 0.060211416 -0.00010953497
0001e0 5d d8 2a bd 52 1d dd bc 4d f8 a7 bd 88 d3 31 bd
       -0.041710246 -0.02699152 -0.082016565 -0.043414623
0001f0 34 c1 af bb 6a d1 12 3e 0b c7 95 3d 53 a5 0b 3c
       -0.005363608 0.14337698 0.07313355 0.008523303
000200 0f 3d df 3c cf 1b 9d bd 6f 64 67 3c d8 b1 82 3c
       0.027250795 -0.0767132 0.014123066 0.015953943
000210 c5 c6 b2 3b 63 8b 26 bd 6d f1 3e bd f5 a5 2c bd
       0.005455824 -0.040660273 -0.04661696 -0.042150456
000220 9f bb 73 bb a2 23 c8 3c 50 4d 25 bd d3 6f 3d bd
       -0.0037190688 0.024431054 -0.040356934 -0.046249222
000230 65 2a 05 3c 81 a9 24 3d b1 7c 10 3d c8 6e ab bb
       0.008127783 0.040200714 0.035275165 -0.005231712
000240 b6 0d b9 3b 61 e7 99 3d 58 b2 3d 3d 85 21 2e 3d
       0.0056473864 0.07514835 0.04631266 0.042512435
000250 5e 84 f2 3b 4c e0 38 3c 84 6b b0 3c f6 06 e0 3c
       0.0074010333 0.011283945 0.021535642 0.02734707
000260 66 92 6e 3c 4f cb 6c 3d 50 7e 89 bd 7f b2 ca 3d
       0.014561271 0.057811078 -0.06713545 0.09897327
000270 00 ae a5 3d 90 b3 61 3c d9 c8 83 bc 3a be 5f bd
       0.080898285 0.013775721 -0.016086983 -0.054624774
000280 74 37 ca 3d 9c 02 36 3d fb ce b1 3b f0 37 ac bc
       0.09873858 0.044436082 0.0054262853 -0.021022767
000290 62 c1 55 bc de ae 85 bc 13 9f fd bc b6 7c 2c bd
       -0.013046594 -0.016318735 -0.030959642 -0.04211112
0002a0 f4 e1 83 bd bb 2e d9 3d 9f 93 3f be 75 ba b6 bd
       -0.064395815 0.10604616 -0.18708657 -0.089222826
0002b0 9f 58 eb 3c 88 f2 4f 3d 5d 6c ec 3d 87 e5 fe 3d
       0.028728781 0.050768405 0.11544106 0.124461226
0002c0 9c 3d 10 3e 2c c7 15 3e 27 cc 10 3c 68 60 90 bd
       0.14086002 0.1462676 0.008837736 -0.07049638
0002d0 fa 38 f6 bc c2 85 2b bd 56 2a d7 3d 81 8a 92 3d
       -0.030056465 -0.04187561 0.10506122 0.07155324
0002e0 4f ae 6b bd 03 49 85 bd 39 4f b3 bd 87 1b 6e bd
       -0.05753928 -0.065080665 -0.08755345 -0.05813172
0002f0 3f ba 95 3d 3d f0 89 3d 59 02 cb 3d b9 30 c0 3c
       0.07310914 0.06735275 0.09912557 0.023460733
000300 a9 68 86 bd 35 a7 52 3d 78 a3 02 3c a0 45 14 3e
       -0.06562931 0.051428992 0.007973544 0.14479685
000310 f5 08 81 3e bc 9e 23 3e 37 ae 7e 3d e6 c1 7f 3c
       0.25202146 0.15978521 0.062177863 0.015610194
000320 fa cb 42 3d 9e 73 a8 bd 26 51 d5 bd 3d aa 15 bc
       0.04755781 -0.08225177 -0.104158685 -0.009134826
000330 31 50 95 3d fa a6 47 3d 70 68 81 bd 9c e7 91 bd
       0.07290686 0.048743226 -0.06318748 -0.07124254
000340 a9 b8 47 3b 3c 11 0a bd 96 7e 80 3d 85 1e 1c bc
       0.0030475056 -0.033707842 0.06274144 -0.009528761
000350 eb 1f ea bc 21 6c 8b 3d b5 a0 6e 3d 53 32 1c 3b
       -0.028579673 0.06807733 0.05825873 0.0023833707
000360 45 55 d8 3c b9 6e dc 3c 95 eb 7b 3d 9c 15 a7 3c
       0.026407847 0.026908265 0.061503965 0.020396046
000370 86 67 04 3a 37 8a f6 3d 29 56 26 3d 22 3b ce 3c
       0.00050508266 0.12038081 0.040609512 0.025174681
000380 f2 96 10 bc 99 c7 a5 3c a3 a0 d6 bc 1d 68 17 bd
       -0.008825051 0.020236777 -0.026199644 -0.036964525
000390 0f 9d cf 3a 6c c3 d3 3c 60 f3 0d 3d 2a a6 0a bd
       0.0015839654 0.02585002 0.03465593 -0.033849873
0003a0 ee 11 51 bb 32 21 34 3d 6b 1a 74 3d 63 2e dd bc
       -0.0031901556 0.04397697 0.059595507 -0.026999658
0003b0 6f bb 46 bd 57 8c da 3a c7 f5 5e 3d 88 28 82 3d
       -0.048518594 0.0016673905 0.05443361 0.06355387
0003c0 ca 30 8c bc 30 b3 b7 bc 50 10 68 3c 48 1a 3b 3c
       -0.017113108 -0.02242431 0.014164045 0.01141984
0003d0 36 8d 49 3c ed e6 06 bc db 58 55 bc 34 b5 2a bc
       0.012301734 -0.008233768 -0.013021673 -0.010419179
0003e0 81 51 bf 3a 46 e7 77 bc 28 34 21 bd 8c 58 39 bd
       0.0014596434 -0.0151308235 -0.03935638 -0.04525046
0003f0 9f 43 ac ba f0 76 36 3c 81 0a cf bb fc 25 1c bd
       -0.0013142711 0.011136755 -0.006318391 -0.038122162

conv2.bias f4 [32]
000000 21 ae ba 3c 3a 11 a2 bb 5d 81 a4 bb 03 2f ab 3c
       0.02278811 -0.004945901 -0.005020304 0.02089644
000010 e5 3a 20 3d 36 aa ed bc 89 7e 3b 3b 2a c8 aa 3c
       0.039118666 -0.029011827 0.0028609356 0.020847399
000020 5a bf f4 3c 01 68 e9 bc a2 5b 4a bb e5 c4 43 bd
       0.0298764 -0.028491976 -0.0030877371 -0.047795195
000030 6e 77 1c 3d 79 03 3f bd 6d bf da 3d e1 72 3f 3c
       0.038199835 -0.04663417 0.10681043 0.011685104
000040 10 da 9f bc 0d 92 89 3b e4 31 44 bc 9f 27 33 3d
       -0.01951316 0.004198319 -0.0119747855 0.043738957
000050 39 81 2d 3d 8d ac a8 3c e7 aa fc bc 04 03 93 3b
       0.042359564 0.020590091 -0.030843211 0.0044864435
000060 b4 cf 08 bc a0 7a 40 3d f8 a7 c6 3c 95 09 d7 3c
       -0.0083503015 0.046991944 0.024250016 0.026249686
000070 0b 0f e5 3c a4 32 10 bd 75 03 8d bd 12 cd bc 3c
       0.027961275 -0.035204545 -0.06885425 0.023047004

conv3.weight f4 [1, 32, 5, 5]
000000 b9 e2 bb bb b0 06 a9 3c 04 20 d0 3c 31 d7 30 3d
       -0.0057338146 0.020633072 0.025405891 0.043173973
000010 d7 66 11 3d 43 10 b3 bc 49 d5 b3 3b ae bc 24 bc
       0.035498466 -0.02185834 0.005488072 -0.01005475
000020 fa 83 26 bb 20 4b cb ba f3 4e b4 bb 19 ae d8 3b
       -0.0025408254 -0.001551006 -0.0055025755 0.006612551
000030 8a 2e 32 bc a7 1b 74 bd d9 7a a3 bc 02 49 52 bb
       -0.010875354 -0.059596684 -0.01995604 -0.0032086973
000040 1c 25 b5 bc 4a b5 bd bc 28 18 34 bd 4f 08 9c 3c
       -0.022112422 -0.023157734 -0.04396835 0.01904693
000050 be c3 16 3c 05 ea ad 3c 92 8c aa 3c 24 9b 06 3d
       0.009201942 0.021229753 0.020818982 0.032862797
000060 db 11 35 3b 03 66 33 3b 55 97 0e bd a9 2b 2f 3c
       0.002762905 0.0027374036 -0.03481229 0.010691562
000070 86 6a ca 3c db b5 d0 bc 24 25 a5 3c 3f f1 69 bc
       0.024708997 -0.02547734 0.020159312 -0.014278709
000080 54 4b 51 3c 5a 5c 93 bc 3a 1a 39 3b c5 dd 1a bd
       0.012774307 -0.017988373 0.0028244392 -0.037809152
000090 8b 2d d6 3c 09 be bc bb 4a f1 ea 3c ae 7b 82 bc
       0.026144763 -0.0057599586 0.028679509 -0.015928116
0000a0 b5 73 69 3c 06 f7 a1 bc 2b 1d 95 bc 4e 9c 6c bc
       0.014248778 -0.01977111 -0.018202385 -0.014441563
0000b0 df e2 76 3c 4e ab a9 3c 4d 14 cb 3c 48 e0 cb bb
       0.015068739 0.020711567 0.024789954 -0.006221805
0000c0 6b db 6a 3a a0 24 ca 3c ea 50 62 bc b8 4b 3e bc
       0.00089590874 0.024675667 -0.013813237 -0.011614732
0000d0 fc 7e dc 3c 7a 4f f4 bc dd 21 8c bc f2 8a a0 bc
       0.02691602 -0.029823054 -0.017105991 -0.019597504
0000e0 39 79 f3 bb 5b d1 d4 bc 9c ee 06 3c 5e 34 ca bc
       -0.0074302224 -0.025978735 0.0082356 -0.024683174
0000f0 4a a3 7e bc f8 a8 0c bd 83 42 c1 3c d0 7d b1 bc
       -0.015541861 -0.03434083 0.023591286 -0.021666437
000100 32 cb 8a bb 4f 45 ac bc 77 a7 9d bb a7 31 de bb
       -0.0042356486 -0.021029143 -0.004811223 -0.0067808214
000110 7f 7d 3c bc 19 58 04 ba bf bd 77 3c f3 fd ee 3c
       -0.01150453 -0.0005048528 0.015120923 0.029173827
000120 a0 9b d6 3c 68 ed d6 bc 3b 24 86 bb da 55 91 bd
       0.026197255 -0.026236251 -0.0040936745 -0.07096453
000130 7c 43 ed 38 e2 9d 88 3c 7e af 6b 3c 5d e0 37 3c
       0.000113136106 0.016676847 0.014385102 0.011222926
000140 63 92 c7 3c f0 fa e2 3c 20 0d 9c 3c 18 bc 8b 3b
       0.024361795 0.027707547 0.019049227 0.004264366
000150 59 86 c9 3b 82 af 75 3d 2d 73 f5 3c 09 63 05 ba
       0.0061500487 0.05998183 0.029962147 -0.0005088305
000160 0c f4 35 bd 0c a8 73 bc 1d 5e 01 3d 2c d6 a3 bb
       -0.044422194 -0.0148716085 0.031583894 -0.0049998965
000170 a1 95 7d bd a2 ae 39 bd b7 20 eb bb 69 35 e1 3b
       -0.061910275 -0.04533256 -0.007175531 0.006872822
000180 1f 9f 4e bc 12 c0 79 bc 31 3c b4 3a a3 26 f3 3c
       -0.01261118 -0.015243547 0.0013750849 0.02968151
000190 cd 75 55 3b 4d 47 aa 3b 7f ea 52 3c c4 e5 83 bb
       0.0032571435 0.005196488 0.012873291 -0.004025193
0001a0 0b cd 60 3b d9 0d 39 bc 93 1e f2 3c 27 e4 99 ba
       0.0034301903 -0.011294805 0.029555595 -0.0011740968
0001b0 76 a3 ca 3c dc 1c ab bc 1e df f8 bc cf 93 2f 3b
       0.024736147 -0.020887785 -0.030379828 0.0026790982
0001c0 91 11 07 bd 42 84 a9 3c 7b 46 ad 3c 0a f9 d0 3c
       -0.032975737 0.020692948 0.021151772 0.025509376
0001d0 66 f8 ef 3c cc 99 27 3c 07 85 4b 3c a0 99 bd bb
       0.02929325 0.010229539 0.012421853 -0.005786136
0001e0 7f a0 f9 3c 5a 77 53 3c 14 fd 20 bc ca 69 0e bd
       0.030472038 0.012906874 -0.0098259635 -0.034768857
0001f0 8e 05 33 3b 22 f1 85 bb 27 0a 1b 3d e9 79 42 3d
       0.0027316543 -0.004087583 0.03785148 0.047479544
000200 e2 df 08 3d 02 94 a8 bb b3 92 68 3c fc 70 02 bb
       0.033416636 -0.005144597 0.014195132 -0.001990377
000210 7d aa a1 3c 78 2e db 3b 3b 0e bb bb d2 c0 54 bc
       0.019734615 0.006688889 -0.0057084835 -0.012985425
000220 e5 20 96 3b 7a 71 29 bd 80 91 eb bc dd 14 ce 3c
       0.004581558 -0.041367985 -0.028755903 0.025156433
000230 15 a8 44 3c 8d 68 3d bd 77 11 39 bd 5b 43 5e 3c
       0.0120029645 -0.046242286 -0.04518267 0.0135658635
000240 ef 1f 89 3b 45 bd 46 3c de 77 26 bc bd d7 e9 ba
       0.004184715 0.012130086 -0.0101604145 -0.0017840784
000250 9b 38 ed 3c 30 48 33 bc 1b cb 2d 3c cc 0c 83 ba
       0.028957656 -0.010942504 0.010607506 -0.0009998321
000260 c6 fa 27 3c c8 54 d3 3a 27 f5 e2 bb 11 17 21 3c
       0.01025266 0.0016123289 -0.006926197 0.00983216
000270 6e 88 c0 3b 55 b1 be bb 29 3b b7 3c 35 15 02 3d
       0.0058756387 -0.0058194795 0.022367077 0.031758506
000280 96 e3 8d 3c f1 ef 48 bc 34 34 e8 bc a2 50 d7 bc
       0.017320435 -0.012264238 -0.028345205 -0.026283566
000290 61 fc 99 bc 67 7f ad bb 81 c3 8f 3c f0 fd 39 3c
       -0.018797101 -0.0052947286 0.017549278 0.011352047
0002a0 6f 57 05 3d ae 72 17 bd 5b d3 bf bc 97 02 fe 3c
       0.032554086 -0.0369746 -0.023416212 0.031007094
0002b0 b7 df be bc 7b a5 c2 3c 55 ef af b9 9f 55 a2 bb
       -0.023300035 0.023760548 -0.00033556917 -0.0049540545
0002c0 2d fc c6 3c ee 67 de 3c c5 88 64 bc bf f4 dc ba
       0.024290169 0.027149167 -0.013948624 -0.0016857608
0002d0 62 d2 01 3d 9b 79 e6 3c 44 76 60 3c cf 63 ac bc
       0.031694777 0.028134158 0.013700072 -0.021043686
0002e0 26 4e c3 bc 65 d1 c2 3c df 3b 99 3c a6 4c 96 bb
       -0.023840975 0.023781488 0.018705307 -0.004586774
0002f0 3c 66 0c 3d 28 0c c9 3c 03 57 14 bc 7f a8 68 3c
       0.034277186 0.02454193 -0.009053948 0.014200329
000300 e7 b2 09 3d ff a3 a7 3c 2a f8 8c bc 91 26 0c bd
       0.03361788 0.020463942 -0.017208178 -0.034216467
000310 d6 54 25 3c 4d 25 54 3c 99 a3 0d bd 3e b9 b2 3b
       0.010091027 0.012948346 -0.034579847 0.0054542115
000320 b8 2e 3b bd 99 78 ef bc 03 be 4b bd e5 83 e0 bc
       -0.04569885 -0.02923231 -0.049741756 -0.027406642
000330 0c 8e 7a 3b 1d 73 8f bc c9 f0 53 3c 1b 6e 23 bd
       0.003823164 -0.017510945 0.012935826 -0.039899927
000340 2c 37 48 bc 57 8b 48 bc bc 24 b4 bb b5 ff bc 3d
       -0.012220185 -0.012240252 -0.005497543 0.0922846
000350 9d bd ca 3d b4 fe 95 bc 13 69 03 3a 12 f2 0f bd
       0.09899447 -0.018309928 0.00050129107 -0.035142966
000360 89 75 a6 3d 2a a2 d8 3d fd 16 b5 bc 73 e8 54 bd
       0.08127887 0.10577805 -0.022105688 -0.051979493
000370 b3 62 11 bd 93 73 db bc a0 56 1e 3c e1 63 94 bc
       -0.035494518 -0.026788509 0.009664208 -0.018114032
000380 ad e7 71 bd b4 03 45 3d c1 df 68 3c a0 ae 38 3c
       -0.059058834 0.048099235 0.014213503 0.011272103
000390 6a da cc 3c ab 87 80 3c 3a 04 fb 3c 83 87 ae bc
       0.025006492 0.015689692 0.030641664 -0.021304851
0003a0 14 32 b4 bc 67 1f e4 bb cd f9 a1 3c 28 40 c7 bc
       -0.021996535 -0.0069617513 0.019772435 -0.024322584
0003b0 07 5f 4d bd 39 6c 6f bd 8f da b0 3a eb 69 17 3c
       -0.050139453 -0.05845282 0.001349287 0.009241561
0003c0 57 bd ea bc fd 6e 65 bc 88 d3 e4 bc a4 74 74 bc
       -0.028654737 -0.014003512 -0.027932897 -0.014920387
0003d0 f0 6c de 3c 0d 5f 61 3c 66 24 0d 3d af 5f 3a 3d
       0.027151555 0.013755572 0.03445854 0.045501407
0003e0 9a 0a 95 3c 2d 00 74 3c eb d4 fc bc fa ca 76 bc
       0.018193532 0.01489262 -0.030863246 -0.015063042
0003f0 8a be fd ba 7b 32 f8 3b 7f 8b 6a 3c 9a 27 9c 3c
       -0.0019359153 0.007574377 0.014315485 0.019061852
