2021_BOML_srcnn_project/output/epoch_196.pth (torch, 231519 bytes, 5 tensors)

conv1.weight f4 [64, 1, 9, 9]
0	0xbd20fd6e	-0.03930419
1	0x3c3c6b46	0.011500185
2	0xbd97c784	-0.074111015
3	0x3da4ab6c	0.08040509
4	0xbd07668b	-0.033056777
5	0x3de9a5d3	0.114085816
6	0xbd67a96e	-0.056558065
7	0x3d0bb0d8	0.0341042
8	0xbc8c2a0f	-0.017109899
9	0x3d900f4d	0.070341684
10	0xbc028f66	-0.007968759
11	0x3cc018ab	0.023449263
12	0xbdbb3ad9	-0.09142084
13	0xbd6b2cfa	-0.05741594
14	0xbd83b243	-0.06430485
15	0xbd2b9be7	-0.041896727
16	0xbc1c9149	-0.009556123
17	0x3e040544	0.12892634
18	0x3ccbd0ea	0.024879891
19	0x3dafcbdb	0.08583804
20	0x3d78e5da	0.06076608
21	0x3934a138	0.00017226196
22	0x3bd66573	0.0065428554
23	0x3d525880	0.05135393
24	0xbe0edcbe	-0.13951394
25	0xbaef5fac	-0.0018262765
26	0xbd96a54e	-0.07355748
27	0x3d8255ee	0.06364046
28	0x3d3ba519	0.045811746
29	0xbe455d49	-0.19273867
30	0x3d7b6955	0.06137975
31	0x3d587911	0.052849833
32	0x3d0642bd	0.03277849
33	0xbcb759a4	-0.022381611
34	0x3d266425	0.04062285
35	0xbd301cb3	-0.04299612
36	0xbdf93efd	-0.12170217
37	0xbd967ab6	-0.07347624
38	0xbdf088a0	-0.11744809
39	0x3db655b7	0.089030676
40	0x3dbff917	0.09373682
41	0x3bda7c54	0.006667653
42	0xbc99480c	-0.018711112
43	0x3ddc529f	0.10757946
44	0xbc2e824a	-0.0106511805
45	0xbcdf8eef	-0.027289836
46	0xbd3a4e01	-0.045484547
47	0x3d01ccc9	0.03168944
48	0x3e5cca2a	0.21561494
49	0x3e2a2d9f	0.16618966
50	0x3d8f2925	0.069902696
51	0xbc133be6	-0.008986449
52	0x3cc0e5aa	0.023547012
53	0x3c5a0c37	0.013308576
54	0xbcb0e97e	-0.021595713
55	0xbe17342a	-0.14765993
56	0xbdc82f3a	-0.09774633
57	0x3df92a13	0.12166228
58	0xbc060ee2	-0.008182259
59	0xbe093fb4	-0.13403207
60	0xbcd1185a	-0.025524307
61	0x3e087ab7	0.13328062
62	0xbda445e0	-0.0802114
63	0xbd061e06	-0.032743476
64	0xbda60b5b	-0.08107635
65	0xbd8219f3	-0.06352606
66	0xbd548861	-0.051887874
67	0xbd6aa8e1	-0.05728996
68	0xbe1cf9bc	-0.15329641
69	0x3c9682b4	0.018372871
70	0x3e1cba8b	0.15305535
71	0x3dd9c3de	0.10633062
72	0x3db5caa0	0.08876538
73	0xbc90d67b	-0.017680397
74	0x3c83972f	0.0160633
75	0xba89a8ab	-0.0010502537
76	0x3d5ef305	0.05443098
77	0xbdd81094	-0.10550037
78	0xbd3ea71a	-0.04654608
79	0x3d644a7c	0.055735096
80	0xbd00051a	-0.031254865
81	0x3d96929d	0.07352183
82	0x3c955675	0.018229702
83	0x3be5ef52	0.0070170546
84	0xbdc5f9ea	-0.09666808
85	0xbd71aa1a	-0.059000112
86	0xbdacb27d	-0.084324814
87	0x3de22b95	0.11043469
88	0x3d592a2f	0.053018745
89	0xbd5a8801	-0.05335236
90	0xbd86ecfd	-0.06588171
91	0x3d4eaaa5	0.050455708
92	0x3c71c63f	0.014756738
93	0xbc5e3e64	-0.01356468
94	0xbe01096d	-0.12601252
95	0xbd1f7192	-0.03892667
96	0x3de97116	0.113985226
97	0x3d87bade	0.06627439
98	0x3c88c635	0.016696075
99	0x3c3ad7be	0.011403976
100	0x3d9bd5e0	0.07609153
101	0xbd925fc3	-0.07147171
102	0xbce84caa	-0.028356869
103	0xbdbc632a	-0.091986015
104	0xbd66cdea	-0.05634872
105	0x3c2346a5	0.009965573
106	0x3d0a0e37	0.033704963
107	0x3d9135eb	0.07090362
108	0x3d31b2b4	0.043383315
109	0xbd0d3340	-0.034472704
110	0x3df8136a	0.12113078
111	0xbd01671b	-0.03159247
112	0x3dada8ed	0.08479486
113	0xbd43a862	-0.047768004
114	0xbb32b07c	-0.0027265837
115	0x3cab8542	0.020937566
116	0xbdc1baa5	-0.09459428
117	0xbc9a2500	-0.018816471
118	0x3c46367e	0.012097953
119	0x3e49fe3d	0.1972589
120	0x3d9b9f50	0.07598746
121	0x3e084e40	0.133111
122	0x3dddf843	0.10838368
123	0xbcf26af1	-0.02959201
124	0x3dcd8631	0.100353606
125	0xbdb6a14b	-0.08917483
126	0xbc9299ef	-0.017895667
127	0xbcb68133	-0.022278404
128	0x3dc9b31c	0.098486155
129	0x3e1fe2b2	0.15613821
130	0xbbc1ab00	-0.0059102774
131	0xbc7c0b4b	-0.015383552
132	0x3bd6252e	0.006535194
133	0xbd816e97	-0.063199215
134	0xbd44d609	-0.048055682
135	0xbe1860cc	-0.14880675
136	0xbd4a016e	-0.04931777
137	0xbbc70074	-0.006073052
138	0xbcafe692	-0.02147225
139	0xbdd5c57b	-0.10438057
140	0xbdd691e6	-0.10477047
141	0xbcea1bd4	-0.028577723
142	0x3dc13655	0.09434191
143	0x3df49a08	0.11943442
144	0xbc39aeca	-0.011333177
145	0xbddc9726	-0.10771017
146	0xbdb05cbf	-0.0861144
147	0xbd16c15c	-0.036805496
148	0xbe2a3d83	-0.16625027
149	0xbe39f728	-0.18160689
150	0xbd976dc6	-0.073939845
151	0x3cb198ad	0.021679247
152	0xbc03a644	-0.008035246
153	0x3e0f8414	0.14015228
154	0x3d922790	0.07136452
155	0x3e1c0cd6	0.15239272
156	0xbc29bdcd	-0.010360193
157	0x3d07c4f5	0.033146817
158	0xbdd65a3a	-0.10466428
159	0x3dec5825	0.1154025
160	0x3dd4d8c7	0.103929095
161	0x3da24e16	0.0792505
162	0xbd46f298	-0.0485712
163	0x3dbbe5a4	0.0917466
164	0x3dc626aa	0.09675343
165	0x3e348e35	0.17632373
166	0x3e4d31d7	0.20038544
167	0x3e84735c	0.25869262
168	0x3e274059	0.1633314
169	0x3d9be8f4	0.07612792
170	0xbcacd333	-0.021096801
171	0xbd9cc234	-0.07654229
172	0xbd3d3b41	-0.046199087
173	0xbdc222fd	-0.0947933
174	0xbe4e5136	-0.20148167
175	0xbe1579c4	-0.14597231
176	0xbe2e9019	-0.17047156
177	0xbdbd50c1	-0.09243918
178	0x3b799568	0.0038083438
179	0xbd6deafa	-0.05808542
180	0x3d71b3be	0.059009306
181	0x3d245e62	0.040129073
182	0x3d465dfd	0.048429478
183	0xbe063f15	-0.13110001
184	0xbdaa3c15	-0.08312241
185	0xbd3db2a9	-0.04631296
186	0xbdaff783	-0.08592131
187	0x3c18c5b8	0.009324484
188	0x3d87df2c	0.066343635
189	0xbd7e89e3	-0.062143218
190	0xbd55f5a4	-0.052236214
191	0xbdcaa81a	-0.09895344
192	0x3d8183a3	0.06323936
193	0x3e22c76c	0.15896386
194	0xbd43a42a	-0.04776398
195	0xbd318182	-0.0433364
196	0x3cc90f89	0.02454354
197	0xbd141dbb	-0.036161166
198	0x3dc9a5ea	0.09846099
199	0x3d09a3b7	0.033603396
200	0xbd0bcd15	-0.03413113
201	0x3d12adca	0.03581027
202	0x3daf3c13	0.0855638
203	0xbcdc2f48	-0.026878014
204	0xbdc3744f	-0.095436685
205	0xbbe15904	-0.0068770666
206	0x3cb9451a	0.022615958
207	0x3d1ad47b	0.037800293
208	0x3cbb1030	0.022834867
209	0x3dd743d7	0.10510986
210	0x3d07590b	0.033043902
211	0x3d81d9f2	0.06340398
212	0x3de649c2	0.11244537
213	0xbccd4244	-0.025056012
214	0x3d8daf34	0.06918183
215	0xbc060d91	-0.008181945
216	0x3d590960	0.052987456
217	0xbd97117b	-0.07376381
218	0xbcc0d20a	-0.023537654
219	0xbc2cff81	-0.010558964
220	0xbdf89cea	-0.12139304
221	0xbdadf779	-0.08494467
222	0x3d402005	0.046905536
223	0xbca71482	-0.020395521
224	0x3d3f0ba4	0.04664196
225	0xbd96ac1c	-0.07357046
226	0xbcdbd311	-0.026834043
227	0xbdad2daa	-0.08455975
228	0x3d2a9cdb	0.041653495
229	0xbb8e8327	-0.0043491307
230	0x3c4f6823	0.0126591055
231	0x3c15b977	0.009138457
232	0xbd82e75e	-0.06391786
233	0x3d0f4da3	0.03498615
234	0x3d00f340	0.03148198
235	0xbd1c15d0	-0.03810674
236	0x3d888e26	0.06667738
237	0x3bbf0f17	0.0058306563
238	0xbdc2d53e	-0.09513329
239	0x3d99124a	0.074741915
240	0x3d4eee09	0.050519977
241	0xbd2cb5f5	-0.042165715
242	0xbda5b535	-0.08091203
243	0xbd4152f8	-0.047198266
244	0x3d729e50	0.05923301
245	0x3d2fe2af	0.04294079
246	0xbdd5077b	-0.104018174
247	0xbd3948a2	-0.045235284
248	0x3db8c3e1	0.09021736
249	0x3dc45727	0.095869355
250	0x3d9eae6d	0.07748113
251	0xbccf74bd	-0.02532422
252	0x3d9487bf	0.07252454
253	0xbd985281	-0.07437611
254	0xbc3d7fa8	-0.01156608
255	0x3cad3b0b	0.021146318

conv1.bias f4 [64]
0	0x3ccb08dc	0.024784498
1	0xbdf23222	-0.11825968
2	0x3c554647	0.013017244
3	0xbe06eba5	-0.13175829
4	0x3cf1ca54	0.029515423
5	0x3c922007	0.017837537
6	0x3d3a1219	0.045427416
7	0xbc2a8458	-0.01040753
8	0x3d98c14c	0.074587435
9	0xbd03a326	-0.032138012
10	0xbbc95655	-0.006144325
11	0x3cafe1b1	0.021469923
12	0xbe46cd2e	-0.19414207
13	0x3e5d0de7	0.21587335
14	0x3d86056d	0.06544004
15	0xbbeb89d6	-0.007188062
16	0xbc2a16b3	-0.0103813885
17	0xbb33ea29	-0.0027452803
18	0x3befb0b8	0.0073147677
19	0x3c5076e3	0.012723657
20	0x3c92db4f	0.01792684
21	0xbcc68f30	-0.024238199
22	0xbd0ce490	-0.03439766
23	0x3d542722	0.051795132
24	0xbe84c43d	-0.25930968
25	0xbcc3121c	-0.023812346
26	0x3d8a0e02	0.06740953
27	0x3c04855f	0.008088439
28	0x3d0465ed	0.032323766
29	0x3c9b494d	0.018955851
30	0x3d0f0368	0.034915358
31	0xbc3cd8ad	-0.011526269
32	0x3d2f0f7f	0.042739388
33	0x3cc64c57	0.024206324
34	0x3a85429e	0.0010166948
35	0xbd43c2b9	-0.047793124
36	0xbc2ed233	-0.010670233
37	0x3da10dba	0.07863946
38	0xbc8caaf7	-0.017171366
39	0x3d316de9	0.04331771
40	0x3b73fda6	0.0037230044
41	0x3b1aeba6	0.0023638993
42	0x3dc3fb59	0.09569425
43	0xbcb60b6d	-0.022222245
44	0x3d431784	0.047629848
45	0xbc4dd871	-0.012563811
46	0xbd0b137f	-0.03395414
47	0x3ce4506a	0.027870376
48	0xbb5edff0	-0.003400799
49	0x3c2f51e0	0.010700673
50	0x3cccbd66	0.024992656
51	0x3cc806ac	0.024417244
52	0x3c02c5cc	0.007981729
53	0xbba54d7f	-0.0050446386
54	0x3c589646	0.013219422
55	0x3c772de2	0.015086623
56	0x3c69bb98	0.014265917
57	0xbca15d0c	-0.019697689
58	0xba8720d1	-0.0010309463
59	0x3d449e7e	0.048002712
60	0x3d3d9684	0.04628612
61	0xbc20577b	-0.009786482
62	0xbd072282	-0.032991894
63	0xbc047b74	-0.008086074

conv2.weight f4 [32, 64, 5, 5]
0	0xbc2afb17	-0.010435841
1	0x3d82127b	0.06351181
2	0x3d8c3b79	0.06847281
3	0x3d73f7d1	0.059562508
4	0xbd5c5189	-0.053788695
5	0x3ce24174	0.027619101
6	0xbad4c1b4	-0.0016232044
7	0x3bc5b862	0.006033943
8	0x3d240572	0.040044256
9	0xbb32097b	-0.0027166295
10	0x3d3cefe7	0.046127226
11	0x3c5d2c22	0.013499292
12	0x3c9a9755	0.018870989
13	0xbc17555c	-0.00923666
14	0x3d1c0649	0.03809193
15	0x3cc3844e	0.023866799
16	0x3d808f1f	0.06277298
17	0x3ba6be51	0.0050886055
18	0x3ca1df87	0.019759906
19	0x3dffa4c4	0.124825984
20	0xbc83dd81	-0.016096832
21	0x3ca9b640	0.020716786
22	0xbdbfce65	-0.093655385
23	0xbc469b27	-0.012121952
24	0x3c183c61	0.009291739
25	0xbda43755	-0.08018366
26	0x3cf44c4f	0.029821543
27	0xbc8390a5	-0.016060183
28	0xbd7b2422	-0.061313756
29	0xbdc162d0	-0.09442675
30	0xbe1f88e5	-0.15579565
31	0xbcd8f792	-0.026485238
32	0x3da1b8a1	0.07896543
33	0x3d8e738e	0.06955634
34	0xbcd37340	-0.025811791
35	0xbd359e76	-0.044340573
36	0xbc952b96	-0.01820926
37	0x3d98d4e3	0.0746248
38	0x3dc11b1e	0.09429
39	0x3d5ed1f4	0.054399446
40	0xbe0007dd	-0.12503
41	0xb7f627b9	-2.9343983e-05
42	0xbc23b3d6	-0.009991607
43	0x3c49c862	0.012315841
44	0x3cc19375	0.023629883
45	0xbdac2669	-0.08405764
46	0x3d8e2a22	0.0694163
47	0x3d4ddf41	0.05026174
48	0x3d73672c	0.059424564
49	0x3d7e0fc2	0.062026747
50	0xbb594130	-0.0033150427
51	0x3d81df88	0.06341463
52	0x3d62828b	0.055300277
53	0x3df2a9d3	0.11848798
54	0x3dadc30d	0.084844686
55	0x3aee5437	0.0018183057
56	0x3cdb2fe2	0.02675623
57	0x3d452fe6	0.048141383
58	0x3d52d7fd	0.051475514
59	0xbd1c9ff3	-0.038238477
60	0x3d099573	0.03358979
61	0x3d387fbd	0.045043696
62	0xbc575871	-0.013143645
63	0xbd74cd1a	-0.059765913
64	0xbe1cadfb	-0.15300743
65	0x3cdfee5c	0.027335338
66	0x3dca94ca	0.098916605
67	0x3d59afd1	0.053146187
68	0xbcb21be5	-0.021741817
69	0xbd6f4660	-0.058416724
70	0xbdb323eb	-0.08747085
71	0xbd23f5ee	-0.04002946
72	0xbd41f817	-0.047355738
73	0xbd8dc62a	-0.069225624
74	0xbd22c87d	-0.03974198
75	0x3d9d1a96	0.076710865
76	0x3ce3b7d3	0.027797615
77	0x3d364893	0.044502806
78	0xbd545bc0	-0.051845312
79	0xbd93975f	-0.07206606
80	0xbae0ffe7	-0.0017166109
81	0x3d48c9ff	0.049020763
82	0x3c4cce61	0.012500376
83	0xbcae6145	-0.021286616
84	0xbcb5dcf5	-0.022200087
85	0xbd3b52bf	-0.04573321
86	0xbd26e833	-0.040748786
87	0xbd5e3997	-0.05425414
88	0xbd031707	-0.032004382
89	0xbd76803d	-0.06018089
90	0xbc56814c	-0.01309235
91	0x3c07c21c	0.008286025
92	0xbc0d3873	-0.008619416
93	0x3d312c8e	0.04325538
94	0x3cd58de7	0.02606864
95	0xbaa4d91b	-0.001257691
96	0x3ca49573	0.020090794
97	0xb93a3fb6	-0.00017762076
98	0x3cc58867	0.024112893
99	0x3d1621f7	0.036653485
100	0xbd0359c1	-0.032068018
101	0xbc8fbfc1	-0.01754749
102	0xbc1f8bbe	-0.009737907
103	0xbc829947	-0.015942229
104	0xbc8f69bf	-0.017506478
105	0x3d7d1df2	0.061796136
106	0x3d5e4c7e	0.054272167
107	0x3cf03874	0.029323794
108	0xbce7ac4d	-0.028280402
109	0xbddbc97a	-0.10731788
110	0xbd6aaf57	-0.057296123
111	0xbcaba344	-0.020951875
112	0x3d63ec32	0.055645175
113	0xbc175883	-0.009237411
114	0xbe25a14b	-0.1617481
115	0xbcc44f99	-0.023963736
116	0x3d76b61c	0.060232267
117	0x3d5c2f8d	0.053756285
118	0x3d737635	0.059438903
119	0xba10bd84	-0.0005521404
120	0xbd2b4633	-0.041814994
121	0xbcdc73f3	-0.026910758
122	0xbda8da91	-0.08244813
123	0xbd31b7e9	-0.04338828
124	0xbbb5b4cd	-0.005545235
125	0x3e11d6f4	0.14242154
126	0x3d948fa4	0.0725396
127	0x3c0254c3	0.007954779
128	0x3ce0d845	0.027446875
129	0xbd9c7158	-0.07638806
130	0x3c56efc3	0.013118687
131	0x3c7c75a4	0.015408907
132	0x3b9ec5f6	0.004845376
133	0xbd25b93a	-0.04045985
134	0xbd3da112	-0.046296187
135	0xbd305511	-0.043049876
136	0xbb9c6a6d	-0.004773429
137	0x3cc1d647	0.023661746
138	0xbd25f685	-0.040518302
139	0xbd3f0b49	-0.04664162
140	0x3c0a0297	0.008423469
141	0x3d24e477	0.040256944
142	0x3d111f4d	0.03543024
143	0xbb9c72f6	-0.0047744466
144	0x3bb94603	0.005654098
145	0x3d9989ed	0.074970104
146	0x3d3f859c	0.04675828
147	0x3d3221a5	0.043489117
148	0x3c0f7647	0.008756227
149	0x3c4db366	0.012554979
150	0x3cae8c68	0.021307185
151	0x3cdf4089	0.027252452
152	0x3c5e2adc	0.013560023
153	0x3d695d61	0.05697382
154	0xbd884b5b	-0.06654998
155	0x3dcb42d8	0.09924859
156	0x3da69687	0.081341796
157	0x3c629b42	0.013830962
158	0xbc778289	-0.015106806
159	0xbd5a60b2	-0.053314872
160	0x3dca0a67	0.09865265
161	0x3d38da5f	0.04513013
162	0x3bd5dc07	0.0065264734
163	0xbca1c241	-0.019745948
164	0xbc4b97de	-0.012426345
165	0xbc7841e8	-0.015152432
166	0xbcf0480c	-0.02933123
167	0xbd22feb5	-0.03979369
168	0xbd7be352	-0.061496086
169	0x3dda8069	0.106690235
170	0xbe3e06db	-0.18557303
171	0xbdb4c6a0	-0.08826947
172	0x3cf1ac46	0.029501092
173	0x3d52dad9	0.05147824
174	0x3debb776	0.11509602
175	0x3dfe3635	0.12412683
176	0x3e0f03e5	0.1396633
177	0x3e149905	0.14511497
178	0x3c0b2d39	0.008494669
179	0xbd909b3c	-0.070608586
180	0xbcedae29	-0.02901371
181	0xbd2a1783	-0.04152633
182	0x3dd58a8e	0.10426818
183	0x3d9306d7	0.07179039
184	0xbd689ec7	-0.056792047
185	0xbd8251db	-0.06363269
186	0xbdb0f799	-0.086409755
187	0xbd71a4e2	-0.058995135
188	0x3d93acd1	0.072106965
189	0x3d883a64	0.06651762
190	0x3dcb16c5	0.09916452
191	0x3cbde31f	0.023179589
192	0xbd86dd63	-0.06585195
193	0x3d503af7	0.050837483
194	0x3c085a92	0.008322375
195	0x3e156862	0.145906
196	0x3e805c8e	0.25070614
197	0x3e23927f	0.15973853
198	0x3d800d1b	0.062525
199	0x3c805fd5	0.015670696
200	0x3d44c705	0.048041362
201	0xbda6d8be	-0.08146809
202	0xbdd448a1	-0.10365415
203	0xbc17142e	-0.00922112
204	0x3d92c424	0.07166317
205	0x3d49650a	0.049168624
206	0xbd7f55c5	-0.062337656
207	0xbd90d7d8	-0.07072419
208	0x3b6debfb	0.0036303985
209	0xbd09d2df	-0.033648368
210	0x3d7e930a	0.062151946
211	0xbc255c08	-0.010092743
212	0xbcee8b9f	-0.02911931
213	0x3d8b5cfd	0.068048455
214	0x3d6a39c3	0.057183992
215	0x3b35289f	0.002764262
216	0x3cd4d8d1	0.025982292
217	0x3cd79a5e	0.026318725
218	0x3d7bf043	0.06150843
219	0x3cae1978	0.021252379
220	0x3b0470fc	0.0020208945
221	0x3df5ece6	0.120080754
222	0x3d271119	0.04078779
223	0x3cd00b99	0.025396155
224	0xbbde7734	-0.0067891125
225	0x3c9fb7af	0.019496767
226	0xbcd24faa	-0.025672752
227	0xbd1444d9	-0.03619847
228	0x3ade3e6b	0.0016955858
229	0x3cd492f6	0.025948983
230	0x3d097fdb	0.033569198
231	0xbd09d3d2	-0.033649273
232	0xbb11b1a7	-0.0022231133
233	0x3d357a53	0.04430611
234	0x3d746435	0.059665877
235	0xbce4d1f4	-0.027932145
236	0xbd47a315	-0.04873951
237	0x3ad88997	0.0016520497
238	0x3d5eca41	0.054392103
239	0x3d825ea0	0.063657045
240	0xbc8e89d3	-0.017399704
241	0xbcb5b70b	-0.022182008
242	0x3c66e40f	0.014092459
243	0x3c33fcff	0.010985612
244	0x3c3e5200	0.01161623
245	0xbbf6d24a	-0.0075323926
246	0xbc4be640	-0.012445033
247	0xbc2da64d	-0.010598731
248	0x3a09faac	0.0005263488
249	0xbc7bf125	-0.015377318
250	0xbd24387f	-0.04009294
251	0xbd3aa5a3	-0.04556812
252	0xbad2ac8a	-0.0016073149
253	0x3c36f289	0.011166223
254	0xbbc47234	-0.0059950594
255	0xbd1d5d7a	-0.038419224

conv2.bias f4 [32]
0	0x3cb8357d	0.022486443
1	0xbba5fa7a	-0.0050652595
2	0xbba4815d	-0.005020304
3	0x3ca7e668	0.020495608
4	0x3d1fd5cf	0.039022263
5	0xbceb44ad	-0.02871927
6	0x3b4533ad	0.0030090616
7	0x3cab14e7	0.02088399
8	0x3cf7eb66	0.030263614
9	0xbce20d49	-0.027594225
10	0xbb4a5ba2	-0.0030877371
11	0xbd41db3b	-0.047328215
12	0x3d1c690b	0.038186114
13	0xbd385d0e	-0.04501062
14	0x3dda450e	0.106577024
15	0x3c30edf4	0.01079892
16	0xbca11237	-0.019662006
17	0x3b8253c5	0.0039772713
18	0xbc4dc547	-0.012559242
19	0x3d31e04f	0.043426808
20	0x3d2cbae3	0.042170417
21	0x3ca533b8	0.020166263
22	0xbcf55904	-0.029949673
23	0x3b867f54	0.004104534
24	0xbc01d444	-0.007924143
25	0x3d3ed9f2	0.046594568
26	0x3cc842f6	0.024445992
27	0x3cd30bd0	0.025762469
28	0x3ce4d359	0.02793281
29	0xbd0f5599	-0.03499374
30	0xbd8ce6c7	-0.06879955
31	0x3cbb2e53	0.022849238

conv3.weight f4 [1, 32, 5, 5]
0	0xbbb55329	-0.005533595
1	0x3ca8f93d	0.020626659
2	0x3ccf3be2	0.025297109
3	0x3d30ca30	0.04316157
4	0x3d121e9b	0.03567372
5	0xbcb472e0	-0.022027433
6	0x3bb417d3	0.005496004
7	0xbc29c985	-0.010362987
8	0xbb257ba6	-0.0025250702
9	0xbabf2ed3	-0.0014586098
10	0xbbb33af8	-0.005469676
11	0x3be23d42	0.006904275
12	0xbc2fa0e7	-0.010719514
13	0xbd73a637	-0.059484687
14	0xbca333e4	-0.019922204
15	0xbb5ebca0	-0.003398694
16	0xbcb70f15	-0.022346059
17	0xbcbdc217	-0.023163838
18	0xbd348b1e	-0.044077985
19	0x3c9c30f6	0.019066315
20	0x3c18549d	0.009297517
21	0x3cadf9ab	0.021237215
22	0x3ca9e796	0.020740312
23	0x3d06ccd8	0.032910198
24	0x3b2c8368	0.0026323441
25	0x3b302796	0.0026879064
26	0xbd0e96fe	-0.034811966
27	0x3c2e62b2	0.010643648
28	0x3ccaa60c	0.02473738
29	0xbcd09145	-0.025459895
30	0x3ca56b4a	0.020192761
31	0xbc6ad782	-0.014333608
32	0x3c503505	0.012707953
33	0xbc9366a0	-0.017993271
34	0x3b3c83c3	0.002876506
35	0xbd1a3f4c	-0.03765802
36	0x3cd698b4	0.026195861
37	0xbbbe79d1	-0.0058128615
38	0x3ceb993f	0.028759597
39	0xbc820779	-0.015872704
40	0x3c6ac2a4	0.0143286325
41	0xbca0f0ef	-0.019646136
42	0xbc946e01	-0.01811886
43	0xbc6b1c88	-0.014350064
44	0x3c778108	0.015106447
45	0x3ca80529	0.020510273
46	0x3cca01de	0.024659093
47	0xbbccfef1	-0.0062559773
48	0x3a6f9627	0.0009139501
49	0x3cc9bd03	0.02462626
50	0xbc6250ea	-0.013813237
51	0xbc3e4bb8	-0.011614732
52	0x3cdc7efc	0.02691602
53	0xbcf44f7a	-0.029823054
54	0xbc8c21dd	-0.017105991
55	0xbca08af2	-0.019597504
56	0xbbf37939	-0.0074302224
57	0xbcd4d15b	-0.025978735
58	0x3c06ee9c	0.0082356
59	0xbcca345e	-0.024683174
60	0xbc7ea34a	-0.015541861
61	0xbd0ca8f8	-0.03434083
62	0x3cc14283	0.023591286
63	0xbcb17dd0	-0.021666437
64	0xbb8acb32	-0.0042356486
65	0xbcac454f	-0.021029143
66	0xbb9da777	-0.004811223
67	0xbbde31a7	-0.0067808214
68	0xbc3c7d7f	-0.01150453
69	0xba045819	-0.0005048528
70	0x3c77bdbf	0.015120923
71	0x3ceefdf3	0.029173827
72	0x3cd69ba0	0.026197255
73	0xbcd6ed68	-0.026236251
74	0xbb86243b	-0.0040936745
75	0xbd91e0ed	-0.07122979
76	0x39f6aca4	0.00047049404
77	0x3c8ae6ef	0.01695582
78	0x3c692760	0.014230579
79	0x3c367605	0.0111365365
80	0x3cca3504	0.024683483
81	0x3ce19088	0.027534738
82	0x3c98af80	0.018638372
83	0x3b83e7d8	0.0040254407
84	0x3bcc7e74	0.0062406603
85	0x3d7490ce	0.05970841
86	0x3cf4d32a	0.029885847
87	0x37c26bc1	2.3176779e-05
88	0xbd33de2a	-0.043913044
89	0xbc739831	-0.014867828
90	0x3d007508	0.03136161
91	0xbb9f21d0	-0.0048563257
92	0xbd7c7b09	-0.061640773
93	0xbd392dca	-0.045209683
94	0xbbece9da	-0.0072300257
95	0x3be5e99d	0.0070163743
96	0xbc4cf529	-0.012509623
97	0xbc797bc8	-0.015227266
98	0x3a9894c6	0.0011641018
99	0x3cf40eee	0.029792275
100	0x3b582dc2	0.0032986258
101	0x3bab9899	0.005236697
102	0x3c53426e	0.012894256
103	0xbb838ed7	-0.0040148306
104	0x3b5fdcc8	0.0034158695
105	0xbc3840bc	-0.011245903
106	0x3cf2614d	0.029587412
107	0xba9849a4	-0.0011618626
108	0x3cca9763	0.02473039
109	0xbcab1f08	-0.02088882
110	0xbcf8a0bb	-0.03035008
111	0x3b315a5e	0.002706192
112	0xbd07011d	-0.032960046
113	0x3ca970ce	0.020683672
114	0x3cad2fb4	0.02114091
115	0x3cd156df	0.025554119
116	0x3cf04fbf	0.0293349
117	0x3c27e593	0.010247606
118	0x3c4bc31f	0.012436657
119	0xbbbd4227	-0.0057757082
120	0x3cf9c2b1	0.030488344
121	0x3c53d80c	0.012929928
122	0xbc20d295	-0.009815832
123	0xbd0e5a46	-0.03475406
124	0x3b33a12e	0.0027409303
125	0xbb7f7538	-0.003897978
126	0x3d1b6ce9	0.03794566
127	0x3d41d231	0.047319595
128	0x3d08ef02	0.03343106
129	0xbba56a95	-0.005048106
130	0x3c67a17e	0.014137624
131	0xbb16a40d	-0.0022985965
132	0x3c9ffbe4	0.01952929
133	0x3bdceda4	0.006742196
134	0xbbbfd34a	-0.005854045
135	0xbc57a291	-0.013161317
136	0x3b986600	0.004650831
137	0xbd2890b5	-0.04115363
138	0xbcea468f	-0.028598098
139	0x3cce7ba0	0.025205433
140	0x3c479d55	0.012183507
141	0xbd3ce4df	-0.046116706
142	0xbd38b913	-0.045098376
143	0x3c602184	0.013679866
144	0x3b83f2fd	0.004026769
145	0x3c4670fe	0.0121119
146	0xbc276874	-0.010217775
147	0xbafb1606	-0.0019156344
148	0x3cedf1a8	0.029045895
149	0xbc354dd7	-0.011065922
150	0x3c2e59b3	0.010641503
151	0xba7c5990	-0.0009626383
152	0x3c28261c	0.010262992
153	0x3ad056c1	0.0015894995
154	0xbbe3c25f	-0.006950661
155	0x3c220291	0.009888307
156	0x3bc2cf3d	0.005945115
157	0xbbbcb948	-0.005759392
158	0x3cb79009	0.022407549
159	0x3d02232e	0.03177183
160	0x3c8e21ab	0.017350039
161	0xbc4861b2	-0.012230324
162	0xbce7dc27	-0.028303219
163	0xbcd6f82c	-0.026241384
164	0xbc99a39b	-0.018754771
165	0xbbac2697	-0.0052536237
166	0x3c8fea6f	0.017567841
167	0x3c39c53f	0.011338531
168	0x3d055100	0.03254795
169	0xbd1743e5	-0.036929984
170	0xbcbf99b6	-0.023388725
171	0x3cfe02f3	0.031007266
172	0xbcbf28de	-0.023334917
173	0x3cc28df0	0.023749322
174	0xb9ae9018	-0.00033295224
175	0xbba1d5fe	-0.00493884
176	0x3cc70f17	0.024299188
177	0x3cde692c	0.02714976
178	0xbc64d335	-0.013966371
179	0xbadfb066	-0.0017066121
180	0x3d01f522	0.031727917
181	0x3ce6b6f8	0.028163418
182	0x3c60cfe8	0.013721444
183	0xbcac6459	-0.021043943
184	0xbcc35697	-0.023845
185	0x3cc325f6	0.023821812
186	0x3c998b02	0.018743042
187	0xbb956d11	-0.004560121
188	0x3d0c6d65	0.034284014
189	0x3cc91817	0.02454762
190	0xbc13f3e7	-0.009030319
191	0x3c69060d	0.014222634
192	0x3d09c7b0	0.033637702
193	0x3ca7aa92	0.020467076
194	0xbc8cf7f7	-0.017208083
195	0xbd0c2343	-0.034213316
196	0x3c254cb7	0.010089091
197	0x3c542712	0.012948768
198	0xbd0dac4d	-0.034588147
199	0x3bb26131	0.005443715
200	0xbd3b0188	-0.045655757
201	0xbcf050cd	-0.029335404
202	0xbd4b3653	-0.049612354
203	0xbcdf39a8	-0.027249172
204	0x3b87365c	0.004126353
205	0xbc8c18ad	-0.01710161
206	0x3c4c59f6	0.01247262
207	0xbd23bc7c	-0.039974675
208	0xbc412f76	-0.011791101
209	0xbc483be4	-0.01222131
210	0xbbb1959d	-0.0054194466
211	0x3dbb9e49	0.0916105
212	0x3dca773f	0.09886026
213	0xbc949e98	-0.01814203
214	0x3a080ec2	0.00051901874
215	0xbd0d92f2	-0.034563966
216	0x3da63651	0.08115829
217	0x3dd77a60	0.10521388
218	0xbcb943f5	-0.022615412
219	0xbd549041	-0.051895384
220	0xbd0e843d	-0.03479408
221	0xbcd7944d	-0.026315833
222	0x3c20a866	0.009805774
223	0xbc935f06	-0.017989647
224	0xbd70ea78	-0.058817357
225	0x3d45178f	0.04811817
226	0x3c62d5dd	0.013844934
227	0x3c369096	0.01114287
228	0x3cca741d	0.02471357
229	0x3c7a8b4c	0.015292
230	0x3cfdc091	0.030975612
231	0xbcafa613	-0.021441495
232	0xbcb1be7f	-0.02169728
233	0xbbe2083f	-0.0068979557
234	0x3ca12d5d	0.019674951
235	0xbcc67b5b	-0.024228742
236	0xbd4b85b4	-0.049688056
237	0xbd6e20b9	-0.058136676
238	0x3aefed92	0.0018305054
239	0x3c137418	0.008999847
240	0xbcefc17d	-0.029267067
241	0xbc656849	-0.014001914
242	0xbce6c42e	-0.028169718
243	0xbc764f06	-0.015033489
244	0x3cdaf1eb	0.026726684
245	0x3c52f502	0.012875797
246	0x3d0d79c4	0.034539953
247	0x3d3b896d	0.045785356
248	0x3c95ede5	0.018301914
249	0x3c741642	0.014897885
250	0xbcfcd4eb	-0.030863246
251	0xbc76cafa	-0.015063042
252	0xbafdbe8a	-0.0019359153
253	0x3bf8327b	0.007574377
254	0x3c6a8b7f	0.014315485
255	0x3c9c279a	0.019061852
