2021_BOML_srcnn_project/output/epoch_197.pth (torch, 231519 bytes, 5 tensors)

conv1.weight f4 [64, 1, 9, 9]
000000 b4 04 22 bd c7 a9 32 3c a9 f7 98 bd d9 39 a4 3d
       -0.039555266 0.010904736 -0.074691124 0.08018846
000010 1f b1 07 bd 69 66 e9 3d 18 6c 68 bd 78 e0 0c 3d
       -0.0331279 0.11396486 -0.05674371 0.034393758
000020 2d cc 91 bc 3c 66 8e 3d 82 0c 0e bc ad e6 ba 3c
       -0.017797554 0.069530934 -0.008669974 0.022815073
000030 12 f7 bb bd 01 46 6c bd ab 26 84 bd 42 08 2c bd
       -0.09177984 -0.05768395 -0.06452688 -0.042000063
000040 00 8d 13 bc 01 c6 03 3e e5 f3 c7 3c f7 f3 ae 3d
       -0.009005785 0.12868501 0.02440829 0.08542626
000050 6e c1 76 3d f4 51 a9 b9 62 51 c1 3b ae f7 4f 3d
       0.060243063 -0.00032295252 0.005899594 0.050773315
000060 cd 50 0f be f8 a4 d0 ba ee ef 96 bd 31 11 82 3d
       -0.13995667 -0.0015918305 -0.07369982 0.06350935
000070 25 6b 3a 3d ff e7 45 be 5b 52 79 3d 1e 7f 55 3d
       0.045512337 -0.1932678 0.060869556 0.05212318
000080 b8 f5 03 3d 64 01 bb bc 10 10 27 3d f0 ae 2f bd
       0.032216758 -0.022827812 0.040786803 -0.042891443
000090 95 08 f9 bd 75 82 96 bd 85 fe f0 bd 29 3f b6 3d
       -0.1215984 -0.073491015 -0.11767296 0.088987656
0000a0 bc 7b bf 3d 46 6b d4 3b 9d 81 9a bc 31 05 dd 3d
       0.09349772 0.0064825146 -0.018860633 0.10792006
0000b0 f7 18 2c bc 6f f7 de bc 10 41 3a bd 93 a7 01 3d
       -0.010503999 -0.027217595 -0.045472205 0.03165395
0000c0 4b f2 5c 3e 49 17 2a 3e 13 07 8f 3d 5c 8a 14 bc
       0.21576802 0.16610445 0.06983771 -0.009066191
0000d0 d5 2e c3 3c 14 5f 58 3c c2 41 b0 bc 6b 6d 17 be
       0.023826042 0.013206262 -0.02151573 -0.14787833
0000e0 a8 d1 c8 bd 8c c3 f8 3d 64 a3 0d bc 82 78 09 be
       -0.09805614 0.121466726 -0.008644912 -0.13424876
0000f0 61 64 d1 bc 55 de 08 3e 8b 64 a4 bd aa ca 04 bd
       -0.02556056 0.13366063 -0.080269895 -0.032419838
000100 de 43 a6 bd 3c fc 82 bd 9a 96 56 bd 9b cf 6d bd
       -0.081184134 -0.06395766 -0.05238972 -0.058059316
000110 55 63 1d be cb c9 94 3c 97 18 1d 3e 05 cd d9 3d
       -0.15369923 0.018162629 0.15341412 0.106348075
000120 fd 51 b7 3d e4 de 8b bc 2e 1c 85 3c fb 87 8d ba
       0.08951185 -0.017074056 0.016248789 -0.0010797972
000130 4d e5 5d 3d 5e 38 d8 bd 6e 15 3f bd f8 b4 64 3d
       0.054173756 -0.10557626 -0.046651296 0.055836648
000140 1d 91 00 bd 9e 12 96 3d 4a eb 8f 3c 88 a6 cd 3b
       -0.03138839 0.0732777 0.01756825 0.0062759556
000150 18 19 c8 bd af 55 75 bd 97 42 ae bd 6f eb e0 3d
       -0.09770411 -0.059896167 -0.08508795 0.109824054
000160 fe 1d 57 3d 9d 36 5d bd 05 56 87 bd f9 be 4c 3d
       0.052518837 -0.05400716 -0.06608204 0.049986813
000170 c2 61 69 3c 96 6b 6b bc b3 bc 01 be 39 f8 20 bd
       0.014244499 -0.014368912 -0.1266964 -0.039299224
000180 c1 09 e9 3d e2 71 87 3d 6e 48 86 3c 28 55 3a 3c
       0.113788135 0.06613518 0.016391959 0.011372842
000190 72 7f 9b 3d 77 cf 92 bd 65 e2 eb bc f4 08 bd bd
       0.07592668 -0.07168477 -0.028794477 -0.09230223
0001a0 c7 ee 66 bd e3 20 25 3c 50 bf 0a 3d 20 4e 91 3d
       -0.05638006 0.010078642 0.033873856 0.07094979
0001b0 6e 2b 32 3d ea de 0c bd 12 8e f8 3d e6 1a 01 bd
       0.04349845 -0.034392275 0.12136473 -0.031519793
0001c0 6f ef ad 3d f1 dd 42 bd 32 36 1e bb f5 19 af 3c
       0.08492934 -0.04757494 -0.002414119 0.021374682
0001d0 bb 8b c0 bd 7a 49 9a bc bd 5d 46 3c 98 6a 4a 3e
       -0.094016515 -0.018833864 0.01210731 0.19767225
0001e0 61 77 9c 3d 2e bb 08 3e 66 bc de 3d f4 2c f0 bc
       0.07639957 0.13352653 0.10875778 -0.02931831
0001f0 79 f1 cd 3d 89 10 b6 bd 6f d7 91 bc 74 dc b5 bc
       0.10055823 -0.088898726 -0.017802922 -0.022199847
000200 ef ce ca 3d d2 7c 20 3e 07 79 b0 bb fc d7 74 bc
       0.09902751 0.15672615 -0.0053855213 -0.014944073
000210 76 c8 e0 3b 59 f7 80 bd 56 37 44 bd 40 3d 18 be
       0.0068598343 -0.06297178 -0.047904335 -0.14867115
000220 a2 d4 49 bd 12 ac c0 bb 37 84 ae bc dd a7 d5 bd
       -0.049275048 -0.0058798874 -0.02130328 -0.10432408
000230 f5 26 d6 bd e8 d0 e6 bc b7 12 c2 3d 01 09 f5 3d
       -0.10456649 -0.028175786 0.09476226 0.11964608
000240 20 6d 39 bc c3 87 dc bd 02 24 b0 bd 11 79 16 bd
       -0.011317521 -0.10768082 -0.08600618 -0.03673655
000250 15 5a 2a be 44 e0 39 be 6d f6 96 bd 80 94 b4 3c
       -0.16635926 -0.18151957 -0.07371221 0.022043467
000260 72 fd 01 bc 36 b8 0f 3e 64 a6 92 3d ec 5f 1c 3e
       -0.007933961 0.14035115 0.07160643 0.15270966
000270 d2 ef 24 bc e6 b6 07 3d 40 82 d6 bd 7b 24 ec 3d
       -0.010066943 0.03313341 -0.10474062 0.115303956
000280 d8 eb d4 3d bc d3 a1 3d 94 3e 46 bd 24 f9 bb 3d
       0.10396546 0.07901713 -0.048399523 0.09178379
000290 c6 69 c5 3d 98 61 34 3e 03 53 4d 3e 0b 6f 84 3e
       0.09639315 0.17615354 0.20051198 0.2586597
0002a0 35 3b 27 3e 79 fe 9a 3d 55 a3 b0 bc 17 6d 9d bd
       0.1633118 0.07568068 -0.021562258 -0.07686823
0002b0 14 05 3f bd da 21 c4 bd 96 6d 4f be ff 7c 16 be
       -0.046635702 -0.09576769 -0.20256647 -0.1469612
0002c0 8b 8f 2f be 0f 9e be bd bc 71 43 3b b7 14 71 bd
       -0.17144601 -0.09307491 0.002982243 -0.058857646
0002d0 c9 23 70 3d 36 23 23 3d 34 e7 43 3d 6d d9 06 be
       0.058627877 0.0398285 0.047827914 -0.13168879
0002e0 99 1c ab bd b3 89 3f bd e9 6f b0 bd 03 e8 12 3c
       -0.08355064 -0.04676218 -0.08615095 0.008966449
0002f0 6f 42 87 3d 3e e3 7f bd 6e ba 56 bd 4f 8c cb bd
       0.06604468 -0.062472574 -0.052423887 -0.09938871
000300 14 a7 80 3d 0c 79 22 3e d2 22 45 bd 51 c0 32 bd
       0.062818676 0.15866488 -0.04812891 -0.04364044
000310 bc 88 c5 3c db 7a 15 bd 1e 12 c9 3d 4d c6 08 3d
       0.024113052 -0.036494117 0.09817909 0.03339224
000320 8a a0 0d bd 0c 18 11 3d cf a7 ae 3d 70 88 de bc
       -0.03457693 0.035423324 0.08528101 -0.027164668
000330 82 e7 c3 bd 9f 05 ec bb 14 24 b7 3c 66 a8 1a 3d
       -0.09565641 -0.0072028185 0.02235607 0.037758254
000340 fd 1e bb 3c cc b8 d6 3d 00 c2 06 3d 5b c6 81 3d
       0.022841925 0.10484466 0.032899857 0.063366614
000350 2a 7c e6 3d fd 54 cc bc e5 9b 8d 3d 29 55 08 bc
       0.11254151 -0.02494287 0.069145 -0.008321085
000360 8c 58 59 3d cf f4 96 bd f9 4a c3 bc 22 e3 30 bc
       0.05306296 -0.07370912 -0.02383946 -0.01079634
000370 a2 00 f9 bd 7e c5 ad bd cb d6 40 3d ab 5f a6 bc
       -0.12158324 -0.08484934 0.047079843 -0.02030929
000380 c0 d5 3e 3d 60 aa 95 bd 54 e2 d6 bc 6b 86 ac bd
       0.046590567 -0.07307887 -0.026230969 -0.08424076
000390 be ca 2b 3d 06 3c 86 bb 68 1a 57 3c 31 03 1d 3c
       0.041941397 -0.004096511 0.013128854 0.00958328
0003a0 72 25 82 bd e8 32 10 3d 42 ae 00 3d 77 d2 1a bd
       -0.063547984 0.035204798 0.031416185 -0.03779837
0003b0 15 f7 88 3d b8 34 c2 3b 0b c4 c2 bd 8d 75 99 3d
       0.06687752 0.0059266947 -0.095100485 0.07493124
0003c0 0c 8d 4f 3d 8e a0 2b bd f2 2e a5 bd 7b 64 43 bd
       0.050671622 -0.041901164 -0.08065595 -0.047703248
0003d0 f8 f2 70 3d ee 35 2e 3d ef 76 d5 bd 7b cb 3a bd
       0.058825463 0.0425319 -0.104230754 -0.04560421
0003e0 58 5a b7 3d da da c2 3d 9c ff 9c 3d 2e c4 d7 bc
       0.089527786 0.09514399 0.07665941 -0.026338663
0003f0 3b 08 94 3d aa 8b 98 bd 1c 2d 40 bc d3 e9 ac 3c
       0.07228132 -0.07448514 -0.011729505 0.02110759

conv1.bias f4 [64]
000000 20 34 cd 3c 25 f2 f1 bd a8 5c 5b 3c 43 5b 07 be
       0.02504927 -0.118137635 0.01338879 -0.13218407
000010 d7 97 ee 3c a0 c6 96 3c e8 fa 3c 3d 38 1c 27 bc
       0.029125137 0.018405259 0.04613772 -0.010199599
000020 70 02 98 3d 06 03 02 bd 81 36 cd bb b2 34 ae 3c
       0.0742234 -0.031741165 -0.006262601 0.021265361
000030 2c 00 47 be 0e 27 5d 3e a3 a3 86 3d 61 57 e1 bb
       -0.1943366 0.2159693 0.0657418 -0.0068768715
000040 e6 9e 25 bc a7 7c 28 bb 49 a2 ef 3b 27 b4 4f 3c
       -0.010108685 -0.0025709064 0.007313047 0.012677229
000050 3a fd 90 3c 73 f8 bc bc 34 9d 0c bd 33 7b 53 3d
       0.017698873 -0.023067689 -0.034329608 0.051631164
000060 f4 e9 84 be 8b 8f c6 bc 01 b6 88 3d 5e c9 06 3c
       -0.25959742 -0.024238368 0.066753395 0.008226721
000070 0c 80 04 3d 17 d9 99 3c a1 d1 0e 3d 7e a4 37 bc
       0.032348678 0.018780274 0.034867886 -0.011208652
000080 13 47 2d 3d d6 b1 c9 3c e3 e2 7a 3a 10 0a 40 bd
       0.04230411 0.024620932 0.0009570552 -0.046884596
000090 75 8a 31 bc 63 9a a1 3d 04 84 91 bc 8b d2 31 3d
       -0.010836233 0.07890775 -0.017763145 0.04341368
0000a0 7c 94 74 3b a5 e0 23 3b 86 09 c3 3d 3c 48 b4 bc
       0.003731995 0.0025005725 0.09523301 -0.0220071
0000b0 ad 29 44 3d bb 46 4f bc 21 7b 0c bd 56 ae e3 3c
       0.047891308 -0.012651141 -0.034297112 0.02779309
0000c0 2b cf 55 bb 95 70 2f 3c 36 03 cc 3c 29 9a c6 3c
       -0.0032624702 0.010707994 0.024903875 0.024243431
0000d0 e4 94 f0 3b 87 d4 b5 bb 6b 6a 56 3c 9a 93 7a 3c
       0.007341968 -0.005549017 0.013086895 0.01529398
0000e0 85 24 6d 3c bd a0 a0 bc 26 e9 be ba 54 63 45 3d
       0.014474039 -0.019607896 -0.0014565333 0.04819043
0000f0 10 90 3c 3d 96 24 2b bc 0c 51 04 bd 76 5b 03 bc
       0.046035826 -0.0104457345 -0.032303855 -0.008017411

conv2.weight f4 [32, 64, 5, 5]
000000 1d e5 1d bc 48 d2 82 3d d6 7e 8b 3d 16 d7 70 3d
       -0.009637144 0.06387764 0.068113014 0.058798872
000010 19 37 5b bd 87 3c e7 3c 0d 37 a8 ba f7 97 bd 3b
       -0.053519342 0.028227104 -0.0012833789 0.005785938
000020 b0 80 23 3d e5 b9 23 bb f0 3c 3c 3d 99 33 58 3c
       0.039917648 -0.0024982628 0.045956552 0.013195896
000030 1c 87 94 3c 9c 00 28 bc 59 b1 18 3d 63 81 c8 3c
       0.018130831 -0.010254052 0.037278507 0.024475759
000040 44 68 81 3d ee 8e 9e 3b fd d1 9d 3c 9d 94 ff 3d
       0.06318715 0.004838816 0.01926517 0.124795176
000050 24 c6 75 bc 00 9c b1 3c 9a e9 be bd e8 d6 42 bc
       -0.015000854 0.021680832 -0.093219 -0.011892058
000060 61 30 1e 3c c9 69 a4 bd 83 ca f2 3c f1 e1 82 bc
       0.009655089 -0.080279894 0.02963758 -0.015976878
000070 44 f8 7a bd cd b4 c0 bd c0 5d 1f be 20 59 d8 bc
       -0.06127192 -0.09409485 -0.15563107 -0.026409686
000080 e3 78 a2 3d b5 93 8e 3d fb df d1 bc 85 65 38 bd
       0.079332136 0.06961767 -0.025619498 -0.04501869
000090 eb 96 9b bc 59 61 97 3d 08 1a c0 3d d2 01 5d 3d
       -0.018992862 0.073916145 0.09379965 0.053956814
0000a0 7f 7f 00 be b9 f1 9d b9 55 ce 27 bc 66 1b 47 3c
       -0.12548636 -0.0003012547 -0.0102420645 0.012152528
0000b0 e9 16 c1 3c cb 04 ab bd c3 bd 8f 3d fa 44 50 3d
       0.023570495 -0.083505236 0.07018616 0.05084703
0000c0 d2 36 76 3d a0 ec 80 3d 31 32 4a bb e1 38 82 3d
       0.060110874 0.06295133 -0.003085267 0.06358505
0000d0 f6 eb 62 3d 7d d1 f3 3d 01 9b af 3d 41 d5 22 3b
       0.05540081 0.11905191 0.085744865 0.0024846348
0000e0 ac 58 de 3c 9f ad 44 3d aa ac 52 3d 8c 2d 1c bd
       0.027141891 0.04801714 0.051434197 -0.038129374
0000f0 e5 a9 0b 3d 74 cf 3a 3d 6b 7f 55 bc 43 79 75 bd
       0.03409757 0.045608 -0.013030867 -0.059930097
000100 13 19 1d be cb 56 e1 3c 35 49 cb 3d f4 ec 5a 3d
       -0.15341596 0.027507206 0.099260725 0.053448632
000110 a5 e6 b0 bc c3 1e 6f bd 02 bb b2 bd ac bb 22 bd
       -0.021594355 -0.058378946 -0.08727075 -0.03972976
000120 4c 32 40 bd c2 42 8c bd 2b a2 1e bd 17 1c 9e 3d
       -0.046922967 -0.068486705 -0.038728874 0.077202015
000130 82 4e e9 3c 97 d1 3c 3d e4 b3 4e bd c5 dd 91 bd
       0.028479818 0.046098318 -0.050464526 -0.07122377
000140 02 ee f4 ba 3d 30 48 3d ab 01 57 3c 21 79 ab bc
       -0.0018686655 0.04887413 0.013122956 -0.020931782
000150 71 c9 bb bc 8d 34 39 bd e8 9f 27 bd 57 ee 5d bd
       -0.022923203 -0.045216132 -0.040923983 -0.054182377
000160 07 7f 04 bd 1d b2 7a bd d2 d5 43 bc 71 27 12 3c
       -0.032347705 -0.06120502 -0.011952834 0.008920536
000170 26 4e 00 bc f5 4e 34 3d 8c 0c d8 3c 2b a1 19 ba
       -0.007831132 0.04402061 0.02637317 -0.0005860503
000180 ce b6 a6 3c 64 c7 a7 39 12 5c cd 3c 52 ef 16 3d
       0.02035084 0.0003200128 0.025068317 0.036849327
000190 be e1 03 bd 5d 31 94 bc 06 90 2a bc d3 3b 86 bc
       -0.032197706 -0.018089944 -0.010410314 -0.016385948
0001a0 c8 bd 91 bc a6 52 7e 3d 87 30 5e 3d 27 ab ee 3c
       -0.01779069 0.06209054 0.054245498 0.029134346
0001b0 5d 4c e7 bc da 22 dc bd ce c7 69 bd 66 b4 aa bc
       -0.028234655 -0.10748835 -0.057075314 -0.020837974
0001c0 3a a3 64 3d c3 45 14 bc 88 e1 25 be 30 a1 c3 bc
       0.055819727 -0.009049836 -0.16199315 -0.023880571
0001d0 06 6f 77 3d 15 45 5d 3d a8 81 74 3d 74 2f 14 ba
       0.060408615 0.05402096 0.059693962 -0.0005652823
0001e0 1e 2b 29 bd d1 95 d8 bc a1 c5 a7 bd e8 b6 2f bd
       -0.041300885 -0.026438626 -0.081919916 -0.042899042
0001f0 40 c3 a7 bb ae be 12 3e aa 10 96 3d 83 69 0e 3c
       -0.005119711 0.14330551 0.07327397 0.008692148
000200 71 6b e4 3c f8 93 9b bd 5c 6f 56 3c f4 95 78 3c
       0.027883263 -0.07596582 0.013088074 0.01517247
000210 ae 84 98 3b 5f 96 27 bd 64 cd 3f bd 87 b4 2f bd
       0.0046544885 -0.04091489 -0.046826735 -0.042896774
000220 7f 86 95 bb 57 ef c2 3c 39 2c 26 bd bc f1 3e bd
       -0.0045631523 0.023795767 -0.040569518 -0.046617255
000230 da d7 12 3c 1c 68 27 3d 72 7e 13 3d 79 30 8a bb
       0.008962596 0.04087077 0.03600926 -0.004217204
000240 30 00 d1 3b 8f fe 99 3d ec a6 3f 3d 30 53 31 3d
       0.006378196 0.07519256 0.04679005 0.043292224
000250 5e 5a 0a 3c 19 fb 48 3c 6b 1a b3 3c ea 54 e3 3c
       0.008444397 0.012266898 0.021863183 0.027750451
000260 23 45 67 3c a6 45 6b 3d ab 5d 88 bd 8e c5 ca 3d
       0.014115605 0.05743947 -0.06658491 0.09900962
000270 74 37 a6 3d 65 1b 60 3c 5e 1c 7c bc a2 37 5b bd
       0.081160456 0.013678406 -0.015387623 -0.053519852
000280 2f ce c8 3d a4 da 35 3d a0 7b bb 3b d2 2b a7 bc
       0.098049514 0.044397965 0.0057215244 -0.020406637
000290 8b 2e 48 bc 2e a1 7e bc 6c 22 f5 bc c0 00 28 bd
       -0.012218128 -0.015541358 -0.02992364 -0.04101634
0002a0 68 e8 80 bd 0e 9c da 3d 22 97 3d be 1b 39 b4 bd
       -0.06294328 0.10674296 -0.18514684 -0.087999545
0002b0 13 5c ed 3c 9c 77 4f 3d 36 96 eb 3d b3 fe fd 3d
       0.028974568 0.050651178 0.1150326 0.12402096
0002c0 ab 72 0f 3e 58 24 15 3e b3 c4 0e 3c 3f 2c 91 bd
       0.14008586 0.14564645 0.008713889 -0.070885174
0002d0 f7 9d f2 bc 64 16 2b bd ca 4d d6 3d b6 a4 93 3d
       -0.02961634 -0.0417694 0.10464056 0.072091505
0002e0 e4 8a 69 bd 2d 5b 83 bd e6 2e b2 bd ab 1b 71 bd
       -0.057017222 -0.06413875 -0.087003514 -0.058864277
0002f0 5c 0d 95 3d d1 0a 89 3d de a7 cc 3d 52 a1 c0 3c
       0.07277939 0.06691516 0.099929556 0.023514424
000300 90 96 86 bd 28 a8 52 3d 1e 66 04 3c 6f 73 15 3e
       -0.06571686 0.051429898 0.008080987 0.14594816
000310 94 bf 80 3e a9 cd 23 3e ab 86 80 3d 05 4c 81 3c
       0.25146163 0.15996422 0.06275686 0.01578332
000320 c4 a3 42 3d b1 3a a8 bd 3b 64 d5 bd a9 ab 17 bc
       0.04751946 -0.082143195 -0.10419508 -0.009257236
000330 f6 86 93 3d 59 e3 4a 3d 4f eb 7f bd c1 5c 91 bd
       0.07203476 0.049533222 -0.062480267 -0.070977695
000340 43 b3 74 3b 7f 51 09 bd b3 d3 80 3d 16 fc 1d bc
       0.0037338294 -0.033524986 0.062903784 -0.0096426215
000350 61 c7 ed bc ea 99 8b 3d 01 97 6b 3d cb 03 43 3b
       -0.029025735 0.06816466 0.057517055 0.00297569
000360 fe b2 d7 3c 42 5a d9 3c 1d 5c 7c 3d 21 c0 ab 3c
       0.026330467 0.026532296 0.061611284 0.020965638
000370 93 9a 02 3b cb 29 f7 3d 94 a9 28 3d 64 f6 d2 3c
       0.001992856 0.12068518 0.041177347 0.025752254
000380 53 75 ee bb cb 78 a2 3c 7e 3b d3 bc 19 c1 14 bd
       -0.0072771697 0.01983299 -0.025785204 -0.036316965
000390 89 20 d1 3a 17 5d d3 3c a4 cd 0b 3d 85 32 09 bd
       0.0015955131 0.025801225 0.03413166 -0.033495445
0003a0 19 8f 11 bb 0a 56 35 3d a8 0e 74 3d bb 5d e3 bc
       -0.0022210537 0.044271506 0.05958429 -0.027754655
0003b0 a7 e3 47 bd d3 53 ce 3a 8f 49 5d 3d 36 50 81 3d
       -0.04880109 0.0015741534 0.05402523 0.06314127
0003c0 4b f9 8e bc c7 2d b6 bc 29 eb 66 3c dc 6c 30 3c
       -0.017452857 -0.022238625 0.0140941525 0.010768142
0003d0 07 77 3b 3c cd 73 f0 bb 78 9b 45 bc 4d 93 23 bc
       0.011441953 -0.0073380233 -0.012060992 -0.00998385
0003e0 9b 31 85 3a d0 8a 79 bc 3f 47 22 bd d4 8b 39 bd
       0.0010161878 -0.015230849 -0.039618727 -0.045299366
0003f0 6b 69 bb ba a1 46 37 3c 7a 55 c6 bb 05 f3 1b bd
       -0.0014298385 0.011186273 -0.00605267 -0.03807356

conv2.bias f4 [32]
000000 66 6a b9 3c 1f 6b a9 bb 5d 81 a4 bb 0c fa a8 3c
       0.022633743 -0.0051702405 -0.005020304 0.020627044
000010 e9 d7 1f 3d ba 32 ec bc 25 51 3f 3b fb cc aa 3c
       0.039024267 -0.028832782 0.0029192653 0.020849695
000020 bf 96 f3 3c f0 01 e7 bc a2 5b 4a bb 05 32 42 bd
       0.029734967 -0.028199166 -0.0030877371 -0.047410984
000030 15 b0 1c 3d 36 e9 3a bd f9 23 da 3d 33 ab 33 3c
       0.038253862 -0.045632564 0.106513925 0.01096611
000040 61 b1 a1 bc b2 57 85 3b 6a 38 46 bc 68 c1 31 3d
       -0.019737901 0.004069292 -0.012098411 0.043397337
000050 ea 97 2e 3d ad 24 a5 3c d2 a2 f9 bc ff d3 92 3b
       0.042625345 0.02015909 -0.030473147 0.0044808383
000060 07 4b 07 bc 33 60 3f 3d 8c a5 c8 3c f7 79 d6 3c
       -0.008257634 0.046722602 0.024493001 0.026181204
000070 58 de e4 3c cf fa 0f bd 06 f1 8c bd f2 74 bb 3c
       0.027938053 -0.0351513 -0.06881909 0.022882912

conv3.weight f4 [1, 32, 5, 5]
000000 ab d4 b7 bb b0 9d a8 3c d0 2b cf 3c 9d ba 30 3d
       -0.005610069 0.020583004 0.025289446 0.04314672
000010 98 fb 11 3d 50 91 b3 bc 07 94 b3 3b b9 05 29 bc
       0.03564033 -0.021919876 0.0054802927 -0.010316306
000020 c6 21 28 bb 15 bc bf ba c1 2d b0 bb ae 13 e1 3b
       -0.0025654896 -0.0014628196 -0.005376548 0.006868801
000030 cb 51 30 bc 7f cd 73 bd e4 24 a3 bc 72 3c 58 bb
       -0.010761688 -0.05952215 -0.019915052 -0.0032995013
000040 c1 4e b6 bc 8d ac bd bc d0 5e 34 bd 11 28 9c 3c
       -0.02225435 -0.023153568 -0.044035733 0.019062074
000050 3f 1f 17 3c 83 98 ad 3c e8 02 aa 3c 87 c3 06 3d
       0.009223758 0.021190887 0.020753339 0.032901313
000060 ac e2 2f 3b 9e 86 31 3b 2e 7b 0e bd bd e4 2e 3c
       0.0026837988 0.0027088295 -0.034785442 0.010674653
000070 f9 71 ca 3c ef ab d0 bc f1 4e a5 3c 22 27 6a bc
       0.02471255 -0.02547261 0.020179244 -0.014291557
000080 74 e7 50 3c ad 77 93 bc af e6 3a 3b 93 74 1a bd
       0.012750495 -0.018001402 0.0028518846 -0.03770883
000090 8f 9b d6 3c 57 57 bd bb 42 4b eb 3c f3 4d 82 bc
       0.026197223 -0.005778234 0.02872241 -0.01590631
0000a0 29 38 6a 3c 19 25 a1 bc 7c 75 94 bc ae cb 6b bc
       0.014295616 -0.01967101 -0.018122427 -0.014391823
0000b0 55 dc 76 3c 2c 7f a8 3c fe 6f ca 3c 92 ec cb bb
       0.01506718 0.020568453 0.024711605 -0.0062232697
0000c0 73 14 6d 3a a7 c7 c9 3c ea 50 62 bc b8 4b 3e bc
       0.00090438797 0.024631334 -0.013813237 -0.011614732
0000d0 fc 7e dc 3c 7a 4f f4 bc dd 21 8c bc f2 8a a0 bc
       0.02691602 -0.029823054 -0.017105991 -0.019597504
0000e0 39 79 f3 bb 5b d1 d4 bc 9c ee 06 3c 5e 34 ca bc
       -0.0074302224 -0.025978735 0.0082356 -0.024683174
0000f0 4a a3 7e bc f8 a8 0c bd 83 42 c1 3c d0 7d b1 bc
       -0.015541861 -0.03434083 0.023591286 -0.021666437
000100 32 cb 8a bb 4f 45 ac bc 77 a7 9d bb a7 31 de bb
       -0.0042356486 -0.021029143 -0.004811223 -0.0067808214
000110 7f 7d 3c bc 19 58 04 ba bf bd 77 3c f3 fd ee 3c
       -0.01150453 -0.0005048528 0.015120923 0.029173827
000120 a0 9b d6 3c 68 ed d6 bc 3b 24 86 bb b4 97 91 bd
       0.026197255 -0.026236251 -0.0040936745 -0.07109013
000130 0e 19 b8 39 b3 03 8a 3c b6 36 69 3c 49 2d 36 3c
       0.00035113882 0.016847467 0.0142342355 0.011119195
000140 a3 5e c9 3c f8 22 e2 3c 8d e5 99 3c 8d e8 85 3b
       0.02458126 0.027604565 0.018786216 0.00408656
000150 e1 0d cb 3b 39 c5 74 3d 4d d3 f4 3c 62 a7 21 b9
       0.006196723 0.0597584 0.029885912 -0.00015416511
000160 6c ac 34 bd be 54 73 bc e4 8e 00 3d df 5b a1 bb
       -0.044109747 -0.014851747 0.03138627 -0.004924282
000170 e2 c3 7c bd f8 55 39 bd 5b 3d eb bb ea bb e3 3b
       -0.061710246 -0.045248 -0.007178945 0.0069498913
000180 ef 6d 4d bc 4c 0a 79 bc 38 2c a2 3a 0b 73 f3 3c
       -0.012538417 -0.015200209 0.0012372797 0.029717943
000190 06 ca 56 3b a6 e0 aa 3b 25 02 53 3c cb ea 83 bb
       0.0032774224 0.0052147685 0.012878929 -0.0040257922
0001a0 c8 98 5f 3b e2 95 38 bc 9e 48 f2 3c ac d1 98 ba
       0.0034118164 -0.011266204 0.029575642 -0.0011659167
0001b0 ce 94 ca 3c 8c 2c ab bc 9f c1 f8 bc 92 c4 30 3b
       0.024729159 -0.020895265 -0.030365763 0.0026972634
0001c0 0a 03 07 bd aa 76 a9 3c 42 2e ad 3c 65 2c d1 3c
       -0.032961883 0.020686466 0.021140222 0.025533864
0001d0 25 2f f0 3c 02 cd 27 3c 35 a6 4b 3c ce 85 bd bb
       0.029319355 0.010241749 0.012429764 -0.005783773
0001e0 43 b1 f9 3c ef b5 53 3c 3f dc 20 bc 7f 5f 0e bd
       0.030480033 0.012921794 -0.009818136 -0.03475904
0001f0 26 44 33 3b 56 94 81 bb 3d 64 1b 3d f9 16 42 3d
       0.0027353852 -0.0039544506 0.03793739 0.04738519
000200 2d f6 08 3d 59 b8 a6 bb d5 c7 67 3c b0 16 10 bb
       0.033437897 -0.005087894 0.014146765 -0.002198618
000210 75 8c a0 3c 2a 87 dc 3b 04 93 be bb 0c d7 56 bc
       0.019598225 0.00672998 -0.0058158655 -0.013112795
000220 b9 d2 96 3b 34 fd 28 bd 05 ea ea bc 28 1a ce 3c
       0.004602757 -0.0412571 -0.028676042 0.025158957
000230 25 69 46 3c f7 1e 3d bd 18 e5 38 bd 26 4e 5f 3c
       0.012110029 -0.04617211 -0.045140356 0.013629472
000240 f5 e8 84 3b e5 0f 46 3c c2 04 27 bc 10 36 f3 ba
       0.004056091 0.0120887505 -0.010194005 -0.0018555541
000250 47 cb ed 3c ea a3 34 bc b4 10 2e 3c a9 7b 80 ba
       0.029027594 -0.011025408 0.0106240995 -0.0009802479
000260 96 f5 27 3c 22 94 cf 3a b0 25 e4 bb a7 b6 21 3c
       0.010251423 0.0015836994 -0.0069625005 0.009870208
000270 8c 3e c2 3b 10 22 bd bb 4b 7c b7 3c 47 1e 02 3d
       0.0059278663 -0.005771883 0.022398135 0.031767156
000280 61 f3 8d 3c e0 b4 48 bc be 05 e8 bc 04 20 d7 bc
       0.017327966 -0.012250155 -0.02832305 -0.026260383
000290 2b c8 99 bc 1a 7a ac bb 94 d7 8f 3c 7b c3 39 3c
       -0.018772205 -0.005263579 0.01755885 0.01133811
0002a0 c0 4e 05 3d 3a 58 17 bd 6c 8f bf bc 64 0f fe 3c
       0.032545805 -0.036949374 -0.023383819 0.031013198
0002b0 2b 10 bf bc c5 93 c2 3c a6 ef b0 b9 f3 25 a2 bb
       -0.02332314 0.023752103 -0.00033747888 -0.0049483716
0002c0 d1 02 c7 3c 8a 64 de 3c 12 bc 64 bc 21 a1 de ba
       0.024293335 0.02714755 -0.013960855 -0.0016985276
0002d0 bf eb 01 3d ac ae e6 3c 1b c4 60 3c 69 60 ac bc
       0.031718966 0.028159462 0.01371863 -0.021042066
0002e0 1f 4f c3 bc b2 06 c3 3c 1d 73 99 3c 80 b0 95 bb
       -0.023841439 0.023806904 0.018731648 -0.0045681596
0002f0 53 6a 0c 3d 7e 13 c9 3c 75 22 14 bc f9 dd 68 3c
       0.034281086 0.024545427 -0.009041418 0.014213079
000300 65 bf 09 3d 1a a5 a7 3c 11 fb 8c bc 7b 24 0c bd
       0.033629794 0.020464469 -0.017209562 -0.034214478
000310 0d 4b 25 3c c1 1e 54 3c e9 aa 0d bd 02 71 b2 3b
       0.010088694 0.012946785 -0.03458682 0.0054456005
000320 72 29 3b bd 07 65 ef bc 3d 44 4b bd 7d 46 e0 bc
       -0.045693822 -0.029222978 -0.049625624 -0.027377361
000330 5d dd 81 3b 8e 9c 8c bc 3b 4d 51 3c 69 19 23 bd
       0.003963156 -0.017164495 0.012774761 -0.039819155
000340 49 c4 41 bc 88 a7 47 bc 57 f6 b2 bb 7b 27 bc 3d
       -0.011826583 -0.012185939 -0.005461495 0.09187218
000350 08 94 ca 3d 00 d3 94 bc 39 87 13 3a 56 97 0e bd
       0.09891516 -0.018167019 0.0005627755 -0.034812294
000360 28 59 a6 3d 84 c8 d7 3d d8 81 b8 bc 65 a5 54 bd
       0.08122474 0.10536292 -0.022522852 -0.051915545
000370 e5 93 0f bd bb 95 d7 bc ce 3b 21 3c c7 6a 93 bc
       -0.035053153 -0.026316514 0.009840919 -0.017995251
000380 17 77 70 bd cf 03 45 3d 89 1e 65 3c 86 69 36 3c
       -0.058707323 0.048099335 0.013984331 0.011133557
000390 9b ae ca 3c dc c8 7b 3c 9f 99 fc 3c 1b d6 ae bc
       0.024741462 0.015367713 0.030834971 -0.021342328
0003a0 44 a7 b2 bc 99 89 e3 bb 93 51 a1 3c a4 4f c7 bc
       -0.021808274 -0.006943893 0.019692218 -0.024329968
0003b0 d0 2b 4c bd d9 a5 6e bd 47 dd d7 3a 5b 0d 15 3c
       -0.04984647 -0.058263633 0.0016469144 0.0090974225
0003c0 a7 a2 ee bc bb 19 66 bc aa b6 e6 bc 2e 97 76 bc
       -0.029130293 -0.014044221 -0.028163273 -0.0150506925
0003d0 e7 2d dc 3c 95 96 58 3c 56 7f 0d 3d d1 fa 3a 3d
       0.026877357 0.013219495 0.034545265 0.045649353
0003e0 ca 7a 95 3c a7 ec 74 3c eb d4 fc bc fa ca 76 bc
       0.018247027 0.014949 -0.030863246 -0.015063042
0003f0 8a be fd ba 7b 32 f8 3b 7f 8b 6a 3c 9a 27 9c 3c
       -0.0019359153 0.007574377 0.014315485 0.019061852
