2021_BOML_srcnn_project/output/epoch_247.pth (torch, 231519 bytes, 5 tensors)

conv1.weight f4 [64, 1, 9, 9]
000000 2a ab 0a bd 2c 62 f2 3b 06 c3 a9 bd b7 e9 a5 3d
       -0.03385464 0.007396957 -0.08289151 0.08101218
000010 bc 99 c6 bc 46 b7 ea 3d e3 6c 7d bd dd 2d 42 3d
       -0.024243228 0.11460738 -0.06187142 0.04740702
000020 5a 88 0f bd ec 2b 6d 3d 4e f2 0f bc da 0a a2 3c
       -0.035042144 0.057903215 -0.008785797 0.019780565
000030 a5 50 b8 bd 6e 1d 4d bd 58 95 80 bd 8f de 29 bd
       -0.08999757 -0.050076894 -0.06278485 -0.041472014
000040 13 f8 7e 3c 34 6d 08 3e b2 c6 b0 3c 6d bf c0 3d
       0.015562075 0.13322908 0.02157912 0.094115116
000050 49 c7 79 3d 4f 0f 0c bb 27 16 1d 3b aa fb 29 3d
       0.06098107 -0.002137143 0.0023969503 0.04149977
000060 73 f2 1f be 94 42 1a 3b 5f 50 92 bd 13 b6 8a 3d
       -0.15619831 0.0023538219 -0.07144236 0.06773009
000070 95 87 57 3d 18 93 48 be e4 6a 73 3d aa 0b 4c 3d
       0.052619535 -0.19587362 0.05942811 0.04981581
000080 71 bd e3 3c 71 19 16 bd 0e 66 2b 3d ab d4 03 bd
       0.027800294 -0.036645357 0.041845374 -0.032185238
000090 e3 6b ff bd 14 d9 91 bd 74 8b f9 bd 7a 38 c2 3d
       -0.1247175 -0.071214825 -0.12184802 0.09483428
0000a0 fe 6f ce 3d cb 54 18 3c 2a 7d da bc 1c 93 e3 3d
       0.100799546 0.00929756 -0.026671011 0.11112043
0000b0 85 e7 a2 bb 0e db 01 bd 2f f8 30 bd 6a 9f 0a 3d
       -0.004971447 -0.031703047 -0.043205436 0.033843435
0000c0 1b 27 67 3e 86 93 30 3e 38 6c 95 3d 71 b2 8f bc
       0.22573511 0.17243776 0.07296032 -0.017541142
0000d0 2e b8 b7 3c 6d a6 c6 3b 75 f0 d0 bc 01 a5 1a be
       0.02242669 0.00606232 -0.025505284 -0.15102006
0000e0 53 2c d4 bd de 02 f9 3d 37 cb 6e bc fa 5f 09 be
       -0.10360017 0.1215875 -0.014574817 -0.13415518
0000f0 9b b5 df bc f6 d0 12 3e a7 ce a1 bd 79 7e f6 bc
       -0.027308276 0.14337525 -0.07900744 -0.030089604
000100 b2 0f a4 bd a5 d1 95 bd ca a9 74 bd cb cd 8d bd
       -0.08010806 -0.07315377 -0.059732236 -0.069240175
000110 78 ed 1c be 5e 49 87 3c 9f 78 29 3e 6c 2a e9 3d
       -0.15324962 0.016514476 0.1654992 0.113850445
000120 43 77 c4 3d 7e 2d 3f 3a 2f 55 a3 3c bc b3 a3 3a
       0.0959306 0.00072928506 0.01993808 0.0012489478
000130 75 83 5d 3d 9d 42 d2 bd 02 6f 67 bd 5f 1c 36 3d
       0.054080445 -0.10266612 -0.05650235 0.04446065
000140 d6 19 26 bd b4 e6 a5 3d a5 6a 6e 3c 24 f2 ca 3b
       -0.040551983 0.08100644 0.014551793 0.006193416
000150 e9 c3 df bd f8 84 7c bd e0 c7 b1 bd 85 cb e4 3d
       -0.10926039 -0.061650246 -0.08680701 0.11171631
000160 fd 57 5f 3d 66 5c 54 bd 70 2a 62 bd 52 c7 56 3d
       0.05452727 -0.05184593 -0.055216253 0.05243618
000170 d4 5b 89 3c 58 fd d1 bc 5d 27 06 be ce 54 22 bd
       0.01676742 -0.025633499 -0.13100953 -0.039631657
000180 62 94 ed 3d 32 8c 82 3d 04 34 48 3c 3b ff 92 3c
       0.116005674 0.063743964 0.012219433 0.017943969
000190 31 97 a6 3d e8 4e 86 bd b0 eb 08 bd 75 6f b8 bd
       0.08134306 -0.06558019 -0.033427894 -0.09005634
0001a0 1b 84 5b bd a5 18 79 3c af f7 0f 3d 8b 79 8c 3d
       -0.053592782 0.01520363 0.03514832 0.0685912
0001b0 8a 26 15 3d 0a 0d 21 bd c9 b1 fc 3d 19 da 18 bd
       0.036413707 -0.039319076 0.12338597 -0.03731737
0001c0 2e 51 af 3d fb 3a 56 bd 49 b3 5a bb a5 4f bc 3c
       0.08560406 -0.052302342 -0.0033371022 0.022987196
0001d0 d7 f0 ad bd 53 15 ea bc eb 81 bf 3b 34 28 55 3e
       -0.08493202 -0.028574621 0.005844345 0.20816118
0001e0 54 7d b0 3d 1d b8 17 3e 24 4f f2 3d ab 84 c6 bc
       0.086176544 0.14816327 0.11831501 -0.024233183
0001f0 99 a3 cd 3d 37 8e ae bd b3 a7 e3 bc 3a 3a fe bc
       0.100409694 -0.08523219 -0.027789926 -0.031033624
000200 e1 63 dd 3d aa 4b 2a 3e ec 1e 43 3b b3 af 3a bc
       0.10810066 0.16630426 0.002977307 -0.011394429
000210 6a 3b d2 3b 5d b5 8d bd 81 bd 65 bd ba 30 1a be
       0.006415774 -0.06919358 -0.056088928 -0.1505765
000220 44 c0 57 bd d5 a9 d1 bb f6 63 de bc 30 f5 ed bd
       -0.052673593 -0.0063984194 -0.027147274 -0.116190314
000230 e9 48 e6 bd c7 25 d6 bc 3c 92 ca 3d 27 81 f1 3d
       -0.11244375 -0.02614106 0.09891173 0.11792212
000240 9e af 18 bc a6 67 d2 bd c3 47 a6 bd 68 22 1a bd
       -0.009319214 -0.102736756 -0.08119156 -0.03763047
000250 2c 89 34 be 33 e4 3d be c2 94 8e bd 46 4a 10 3d
       -0.17630452 -0.18544082 -0.06961967 0.035227083
000260 d1 22 4b bb 4b bf 19 3e 9c 0a ae 3d b5 81 29 3e
       -0.0030996094 0.15014379 0.08498117 0.16553386
000270 cb 26 75 bb e3 dd bf 3c 17 12 f6 bd 55 50 d0 3d
       -0.0037407156 0.023421234 -0.12015169 0.10171572
000280 f6 d0 d1 3d 39 19 93 3d 52 5d 02 bd ff d4 cf 3d
       0.10244934 0.07182545 -0.03182728 0.10148048
000290 a4 72 c7 3d f8 58 37 3e 32 dd 5b 3e d7 44 88 3e
       0.09738663 0.17905033 0.21471098 0.2661502
0002a0 36 2f 32 3e de f5 96 3d 92 a1 28 bc 0a e8 9d bd
       0.17400822 0.07371114 -0.010292428 -0.077102736
0002b0 f1 19 56 bd 6b c8 ed bd 5a 4c 6f be 93 63 32 be
       -0.052270833 -0.11610492 -0.2336897 -0.17420797
0002c0 a1 f7 49 be 45 c6 d6 bd 61 3f 5e bc 11 2c 78 bd
       -0.19723369 -0.10487036 -0.013564915 -0.0605889
0002d0 03 37 6a 3d b7 51 36 3d cb 55 4a 3d 19 8d 0a be
       0.05718137 0.044511523 0.049398225 -0.13530387
0002e0 42 33 a8 bd c8 76 45 bd d5 48 aa bd ab 46 11 3c
       -0.08212902 -0.04820898 -0.08314673 0.008866946
0002f0 26 56 a5 3d b5 0b 77 bd 09 91 31 bd e3 82 b9 bd
       0.08073072 -0.0603139 -0.043351207 -0.09058168
000300 f8 10 8f 3d 73 f1 2e 3e 88 2e 21 bd a6 5c 19 bd
       0.069856584 0.17084293 -0.039351016 -0.037441872
000310 fd 7e c7 3c 4f 80 cd bc 05 e4 c0 3d ac c9 05 3d
       0.024352545 -0.025085596 0.09418491 0.032663032
000320 23 90 11 bd 2b 6c 14 3d 69 9e ba 3d e5 a3 bd bc
       -0.03553785 0.03623597 0.091122456 -0.02314944
000330 f3 c9 c3 bd 8e ef 67 bc 8b cd b5 3c e0 c4 06 3d
       -0.09560003 -0.014156235 0.022192737 0.0329026
000340 79 d4 a9 3c 85 9f ce 3d a4 b7 0d 3d eb 8a 8d 3d
       0.020731198 0.1008902 0.03459896 0.06911262
000350 51 d4 f6 3d 10 38 c3 bc 0c 52 74 3d a3 50 9e bc
       0.12052215 -0.023830444 0.05964856 -0.01932556
000360 fe cf 27 3d 75 b2 ac bd 8c f0 1f bd 1a ae bd bc
       0.04096984 -0.084324755 -0.039047763 -0.023154307
000370 c2 07 09 be b0 19 b8 bd 7f 97 1b 3d 46 95 16 bd
       -0.13381866 -0.089892745 0.037986275 -0.036763452
000380 57 3b db 3c f6 91 80 bd f0 54 15 bc fd ce 91 bd
       0.026761694 -0.0627784 -0.009114489 -0.07119558
000390 13 cd 5e 3d 0a 0b 9a 3b 8c 8a df 3c 2d 2e 99 3c
       0.054394793 0.004701023 0.027287744 0.018698776
0003a0 e9 70 51 bd 3d 75 3c 3d 9d d0 a8 3c 0d 1e 06 bd
       -0.05113307 0.046010245 0.020607287 -0.032743502
0003b0 33 36 92 3d bc 94 c4 3b 66 40 ce bd a7 76 94 3d
       0.07139244 0.005999176 -0.10070877 0.07249194
0003c0 89 c1 34 3d 39 e6 0b bd 93 32 88 bd c3 39 58 bd
       0.044129882 -0.034155104 -0.06650271 -0.05278946
0003d0 c5 81 4d 3d 1e 20 09 3d 35 91 d9 bd 97 3f 3d bd
       0.050172586 0.033477895 -0.10623399 -0.046203222
0003e0 6b aa b4 3d d0 2a d9 3d 73 b2 9e 3d 3d 64 60 bc
       0.08821567 0.10603869 0.0774888 -0.013695774
0003f0 72 ed 91 3d 86 ed 9a bd 9f f4 4f bc 93 ad c1 3c
       0.07125367 -0.07564835 -0.0126926 0.023642337

conv1.bias f4 [64]
000000 c1 4f af 3c 2e 80 05 be 4c 39 88 3c b0 5b 0f be
       0.021400334 -0.13037178 0.016628884 -0.1399982
000010 1b 85 e1 3c 39 cd 7e 3c 71 56 46 3d 06 01 16 bc
       0.02752929 0.015551859 0.04842228 -0.009155517
000020 74 63 8e 3d c4 a5 d0 bc e9 c8 30 bc 99 a1 98 3c
       0.06952563 -0.025469668 -0.010790088 0.018631743
000030 a1 0e 50 be f8 6c 78 3e a5 02 91 3d 68 a2 c2 bb
       -0.2031808 0.24260318 0.070805825 -0.0059397705
000040 d6 0f dd bb 56 36 a2 ba 2d 5b f7 3a 99 04 51 3c
       -0.0067462726 -0.0012375813 0.0018871777 0.012757444
000050 e7 3e 9a 3c a3 a3 b3 bc 11 a0 f2 bc f3 92 52 3d
       0.018828822 -0.021928614 -0.029617341 0.051409673
000060 60 5a 9d be 06 8d d4 bc b2 30 85 3d ec ec 23 3c
       -0.30733013 -0.025946151 0.065034285 0.010005217
000070 39 b1 04 3d 86 ed 84 3c f4 c6 db 3c 5e 5f 00 bc
       0.032395575 0.016226541 0.026828267 -0.007835237
000080 4b fc 36 3d 0e 18 c3 3c 62 dd f8 3a 54 5a 3c bd
       0.0446742 0.023815181 0.0018986876 -0.04598458
000090 60 9b 17 bc 10 a4 a9 3d 5c 7e 8f bc e0 da 0a 3d
       -0.009253353 0.082832456 -0.017516308 0.03390014
0000a0 41 d9 a0 3b 05 e3 40 3a ca ca bf 3d 54 52 bf bc
       0.004908711 0.00073580473 0.09364851 -0.023354687
0000b0 a2 f2 44 3d 66 e0 38 bc 77 67 0e bd ee d8 cb 3c
       0.048082955 -0.0112839695 -0.03476664 0.024883714
0000c0 0b da 8e bb ce 00 0e 3c 8e 26 9f 3c c6 0c a5 3c
       -0.004359489 0.008667184 0.019427564 0.020147692
0000d0 74 19 15 3c d6 7b f1 bb 8a 9d 58 3c 80 6e 7c 3c
       0.009100307 -0.0073694987 0.013221154 0.015407205
0000e0 9f b3 47 3c 9e 27 67 bc 6c fe 8d 39 bc 5b 46 3d
       0.012188821 -0.014108567 0.00027083175 0.04842733
0000f0 fa aa 38 3d 27 c4 1b bc b4 8a 04 bd 8c 9f 7e bb
       0.04508493 -0.009507216 -0.03235884 -0.0038852422

conv2.weight f4 [32, 64, 5, 5]
000000 78 b2 fd 3b 06 f8 94 3d 6a a0 82 3d c5 85 51 3d
       0.0077422224 0.07273869 0.06378253 0.051152963
000010 7c ea 07 bd 47 0a 1b 3d 8a a7 85 3b d4 41 cc bb
       -0.033182606 0.037851598 0.00407881 -0.0062334333
000020 6d ce 0a 3d 0f 03 20 ba 61 5e 39 3d a0 a6 80 3c
       0.03388827 -0.00061039714 0.045256022 0.015704453
000030 7d 95 5c 3c 82 4f bd bc bd 9a b4 3c 11 19 12 3d
       0.013463375 -0.023109201 0.022046441 0.035668436
000040 43 de 95 3d f2 06 3b 3a 9a c4 fb 3b 80 77 01 3e
       0.07317784 0.0007134519 0.007683349 0.12643242
000050 94 91 02 bc 26 b4 e0 3c f5 1b c4 bd 9f d9 a1 bc
       -0.007969279 0.027429651 -0.09575645 -0.01975709
000060 92 c7 a2 3b 0e 31 aa bd 20 e3 c6 3c 75 18 8d bc
       0.0049676383 -0.08310138 0.024278224 -0.017223576
000070 d3 fd 93 bd bb d9 b7 bd 80 48 23 be 70 59 f2 bc
       -0.072261475 -0.08977076 -0.15945625 -0.029583663
000080 1b f1 c0 3d 0b ef 90 3d c4 58 ac bc be 64 56 bd
       0.09420987 0.07076844 -0.02103842 -0.05234217
000090 3c a4 fb bc 5c f5 94 3d d9 57 c3 3d 81 45 60 3d
       -0.030717961 0.07273361 0.0953824 0.054753784
0000a0 b3 d2 09 be e2 2c 55 bb f4 d2 5c bc e0 2f 11 3c
       -0.13459282 -0.0032527973 -0.0134780295 0.008861512
0000b0 73 60 d2 3c 9a 56 b3 bd d2 1b 92 3d b9 15 2e 3d
       0.025680756 -0.08756752 0.071342126 0.042501185
0000c0 bc 5a 5e 3d 05 9e 87 3d 73 cd 32 3c fe d2 8d 3d
       0.05428575 0.06621937 0.010913241 0.06925009
0000d0 2c 07 66 3d 8c 32 0b 3e 19 d1 ea 3d 03 5f 8e 3c
       0.056159183 0.13593501 0.114656635 0.01737929
0000e0 e3 df c7 3c 0d 42 f2 3c 61 9b 09 3d ef 43 3a bd
       0.02439875 0.029572511 0.033595446 -0.045474943
0000f0 d7 bb 7b 3d 01 b6 91 3d f0 6e 24 3b a1 36 3c bd
       0.061458435 0.071147926 0.0025090538 -0.045950536
000100 8b fc 08 be dc e1 c9 3c 7d 39 cc 3d b1 9d 6f 3d
       -0.13377587 0.024643831 0.099719025 0.058499996
000110 81 8b 96 bc 38 5f 61 bd f6 00 bf bd 52 cc 1e bd
       -0.018377068 -0.05502245 -0.09326355 -0.038769074
000120 bb fc 22 bd 4f cd 5e bd f8 c9 9c bc c6 80 74 3d
       -0.039791804 -0.054395016 -0.019139275 0.05969312
000130 55 a9 47 3c 53 54 55 3d 1d e1 d1 bc 8b 0d 22 bd
       0.012186368 0.05208237 -0.025620038 -0.039563697
000140 1d 54 9a bc d8 41 09 3d c6 59 8e 3c 5d db 26 bc
       -0.018838936 0.03351006 0.017376792 -0.010184136
000150 48 80 4e bd a0 9d 86 bc 15 37 2b bd 7d 3b 44 bd
       -0.050415307 -0.016432583 -0.041800577 -0.047908295
000160 0c a5 42 bd 07 a1 e7 bd 6e de 1b bc b0 23 41 bb
       -0.047520682 -0.113100104 -0.009513481 -0.0029470734
000170 2e 02 8b bb 88 41 5e 3d ac 08 c1 3c 74 76 1f bc
       -0.004242203 0.054261714 0.023563705 -0.009732831
000180 0e 89 1c bc aa c3 81 3b 09 e5 8a 3d 48 86 90 3d
       -0.009554161 0.0039600926 0.06781966 0.07056862
000190 02 db 03 bd 99 cb d0 bc cd e8 ef bc 91 13 06 bd
       -0.032191284 -0.025487708 -0.029285813 -0.032733504
0001a0 31 8d af bc 6d f9 92 3d 7a 1a 79 3d 78 8b ee 3c
       -0.02142963 0.071764804 0.060816266 0.029119238
0001b0 f5 70 e6 bc bd 2b de bd 44 81 8f bd f1 ac 01 bd
       -0.028130034 -0.10848186 -0.07007077 -0.03165907
0001c0 8a 2a 61 3d 2e b6 70 bc 54 38 37 be 34 77 b4 bc
       0.05497221 -0.0146918725 -0.17892581 -0.022029497
0001d0 67 e8 87 3d bd ee 91 3d 9d 02 92 3d d8 dd 24 3b
       0.06636124 0.07125614 0.07129405 0.0025156643
0001e0 a2 7f 2f bd 23 68 f9 bc 05 b0 a3 bd 0d b5 42 bd
       -0.04284633 -0.030445164 -0.079925574 -0.047535945
0001f0 49 d3 1c bc c7 77 18 3e 51 31 9a 3d e7 f4 41 3c
       -0.009571859 0.14889441 0.075289376 0.011838174
000200 2e 77 90 3c 34 3f b2 bd 41 f4 eb 3c 03 84 d0 3c
       0.017634954 -0.08703461 0.028802993 0.025453573
000210 af 22 71 3c 6a e8 3b bd 4e 4a 5e bd 87 12 15 bd
       0.014717742 -0.045875944 -0.05427008 -0.036394622
000220 f0 e6 4b 3b d5 47 eb 3c c4 1c 35 bd 7d 9c 44 bd
       0.0031112991 0.028720776 -0.044216886 -0.0480008
000230 ac 84 19 3a a5 1b 15 3d a9 a8 04 3d 8e 44 3f bc
       0.00058562565 0.036403317 0.03238741 -0.01167406
000240 7a c0 6e 3b 49 1b ac 3d 81 8c 43 3d ba 1a 23 3d
       0.0036430643 0.08403642 0.047741417 0.03982041
000250 ff 5a 96 ba 73 2e 8a 3a e8 a1 ab 3c 80 4d fa 3c
       -0.0011471211 0.0010542407 0.020951226 0.030554533
000260 36 e5 e0 3c a2 ef 9d 3d d4 43 8a bd 50 10 ba 3d
       0.027453046 0.07711722 -0.067512184 0.090851426
000270 95 e4 9a 3d 89 1f 88 3c ee 53 af bc 96 5d 88 bd
       0.0756313 0.0166166 -0.021402325 -0.06658475
000280 4e be df 3d 24 6e 62 3d 83 57 25 3c bd a8 46 bc
       0.109249696 0.05528082 0.010091665 -0.012125191
000290 4c 26 19 bc 5a c4 b2 bc 63 19 fc bc 83 b5 5a bd
       -0.00934751 -0.021822143 -0.030773824 -0.05339576
0002a0 cc ba 9b bd bc e7 e7 3d b3 7b 54 be 9a fb c9 bd
       -0.07603988 0.11323497 -0.20750313 -0.09862442
0002b0 a9 36 8a 3c 54 cf 3a 3d 49 90 f7 3d ae 85 08 3e
       0.016871767 0.04560788 0.12088067 0.13332245
0002c0 13 9e 20 3e d3 fd 24 3e 01 25 93 3c e1 dc 85 bd
       0.156853 0.16112451 0.01796198 -0.0653627
0002d0 ef 77 23 bd 1b 90 3a bd 8d 97 ed 3d d7 6d 8c 3d
       -0.0399093 -0.045547586 0.11601172 0.06856888
0002e0 8d 39 89 bd 4c d3 ac bd 4d f1 d8 bd 64 85 39 bd
       -0.0670043 -0.08438739 -0.105928995 -0.045293227
0002f0 78 6e a4 3d 17 e7 8d 3d 52 60 bc 3d 85 1d 2b 3c
       0.08028883 0.069288425 0.09198059 0.01044405
000300 6e f0 74 bd 70 15 57 3d 67 11 3c bc 3a 65 ff 3d
       -0.059799604 0.05251068 -0.011478758 0.12470479
000310 b0 e6 7f 3e 22 86 1d 3e 85 fc 68 3d 25 e3 0e 3c
       0.24990344 0.15383199 0.056881446 0.008721148
000320 b3 a1 45 3d 8d e8 ad bd b5 bf e2 bd 9b ad 1e bb
       0.04824991 -0.08491621 -0.110717215 -0.0024212364
000330 c2 ac b2 3d c7 86 47 3d 81 d4 8b bd 42 1b ac bd
       0.08724357 0.048712518 -0.06827641 -0.084036365
000340 1c 8c 2a bb 78 89 0a bd cc 24 b4 3d a7 3b 60 3c
       -0.0026023453 -0.033822507 0.08796081 0.013686097
000350 58 7a 98 bc c3 d1 9c 3d b9 f9 a2 3d 45 3f f0 3a
       -0.018613026 0.076571964 0.07957787 0.0018329403
000360 71 3d 18 3d ae 77 00 3d cf 52 82 3d d7 71 c9 3b
       0.03716797 0.031364135 0.06363451 0.006147604
000370 b6 8b 78 bc 21 43 06 3e 22 a5 1b 3d 65 2f eb 3c
       -0.015170028 0.13111545 0.03799928 0.028709123
000380 d9 05 0f bd e0 b9 c4 3c 7e ad 21 bd f1 c7 54 bd
       -0.034917686 0.024014413 -0.039472096 -0.05194849
000390 f0 4e a3 bb 13 d2 bd 3c d1 58 53 3d 23 33 16 bd
       -0.0049837753 0.02317146 0.051598374 -0.03666986
0003a0 5c 4f 87 bc ea 96 18 3d 4c 5e 79 3d 9e 64 01 ba
       -0.016517334 0.037253298 0.060880944 -0.00049359526
0003b0 bb 0d 26 bd ea 9e a1 3a 9f b2 54 3d 66 6d 81 3d
       -0.04054044 0.0012330685 0.05192816 0.06319694
0003c0 4b 34 02 bc f3 cf e5 bc 18 cd 2b 3c fd de 7b 3c
       -0.007947038 -0.02805326 0.01048591 0.015372989
0003d0 f3 32 b6 3c 42 43 8d bb 62 8a 75 bc 78 db f8 bb
       0.022241091 -0.0043109963 -0.014986606 -0.007594522
0003e0 c9 bd 93 3c 6b ad 06 bc 65 d0 02 bd 98 de 27 bd
       0.018034833 -0.008220057 -0.03193702 -0.040983766
0003f0 1b a7 42 3b f4 03 6d 3c 10 a8 c0 bb 81 8c 11 bd
       0.0029701653 0.0144662745 -0.0058794096 -0.035534386

conv2.bias f4 [32]
000000 2b 74 e8 3c f8 59 64 bb 07 b8 e2 3b 23 cd bc 3c
       0.028375706 -0.0034843665 0.0069189104 0.023047036
000010 15 29 26 3d 5e 60 0f bd b4 4a 41 3b 58 34 b6 3c
       0.040566523 -0.035004012 0.002949399 0.022241756
000020 89 d3 cd 3c 4a d8 1a bd a2 5b 4a bb fe ef 79 bd
       0.025125282 -0.037803926 -0.0030877371 -0.06101989
000030 52 7c 1e 3d ae 9e 7b bd 29 2d db 3d 74 09 b4 3c
       0.03869278 -0.061430626 0.10701973 0.021977164
000040 d2 e2 90 bc bf 36 0e 3c c7 98 56 bc 4c 21 4a 3d
       -0.017686281 0.008680045 -0.013097948 0.04934816
000050 49 b0 39 3d 9c 4e eb 3c d9 1e 20 bd cf 1a 2d 3c
       0.045334134 0.028724007 -0.03909192 0.010565474
000060 b0 ae 38 bc d3 3b 5d 3d ad a2 b3 3c a8 33 0f 3d
       -0.0112721175 0.05401213 0.021928156 0.034961373
000070 55 aa f1 3c c0 a1 21 bd a9 96 93 bd c1 97 d2 3c
       0.029500166 -0.039460897 -0.072064705 0.025707128

conv3.weight f4 [1, 32, 5, 5]
000000 3d 18 10 bc e4 5c a9 3c 14 6a d8 3c 01 5f 30 3d
       -0.008794841 0.020674177 0.02641777 0.043059353
000010 9a 14 0d 3d 84 07 a0 bc 38 ba b5 3b 8a 7c bc bb
       0.034443475 -0.019534834 0.0055458806 -0.005752151
000020 6e b3 37 bb b1 d0 ce ba f4 ac de bb de 44 11 3b
       -0.0028030532 -0.0015778748 -0.00679552 0.0022166292
000030 bd eb 63 bc 98 42 7c bd 66 7e a3 bc 05 2e b0 ba
       -0.013911185 -0.061586946 -0.019957732 -0.0013441449
000040 2c a4 95 bc 6b 00 be bc b5 08 2f bd ce 89 91 3c
       -0.01826676 -0.023193559 -0.042732913 0.017765906
000050 b8 3d 09 3c 28 ae aa 3c ca e3 af 3c 0d 7e 00 3d
       0.008376531 0.020834997 0.021470923 0.03137021
000060 fa 77 8c 3b bc d7 84 3b 19 33 0d bd a9 3a 3a 3c
       0.0042867633 0.004054038 -0.03447256 0.011366525
000070 43 6b c6 3c 2a 48 ce bc 35 8b a2 3c 48 2f 57 bc
       0.024221068 -0.025180895 0.01984177 -0.013133831
000080 0e ba 60 3c 10 e0 92 bc fb c4 13 3b 6c 6c 23 bd
       0.013716234 -0.017929107 0.002254783 -0.03989832
000090 16 b6 cf 3c 27 38 a1 bb 97 cd e2 3c 63 c7 84 bc
       0.02535538 -0.004920024 0.027685924 -0.016208356
0000a0 bd ea 56 3c ff 3f b4 bc a1 ad a2 bc 8d 9b 81 bc
       0.013117489 -0.022003172 -0.019858183 -0.015821243
0000b0 e5 7e 71 3c b8 6b c7 3c 91 92 dd 3c 52 d0 c5 bb
       0.014739727 0.024343356 0.027047427 -0.0060367966
0000c0 8b 66 09 3a 8b 69 d0 3c e6 d0 4d bc 8b aa 85 3c
       0.00052414153 0.025440952 -0.012562012 0.016316673
0000d0 a7 e1 25 3d 30 62 b4 bc b7 3f a6 bc 2e 00 e0 bc
       0.040498402 -0.022019476 -0.020294053 -0.027343836
0000e0 33 f7 2b 3b eb 22 99 bc 2c f0 80 3c 27 e6 d3 bc
       0.0026239872 -0.018693408 0.015739523 -0.025866581
0000f0 b9 c0 07 bd c6 91 ad bc 8c ae 42 3d 15 17 c8 bb
       -0.03314278 -0.021187674 0.047529742 -0.006106267
000100 01 75 24 bc 25 45 d1 bc 8f 76 88 3c 04 9a 0e 3c
       -0.0100376615 -0.025545666 0.016658096 0.008703712
000110 f8 ad 15 3a f5 77 bd 39 75 1e 11 39 9e a9 21 3d
       0.0005709822 0.00036138264 0.00013839624 0.0394684
000120 5b 60 15 3d 63 ed 9f bc c1 bd 4b bc 15 8d 89 bd
       0.036468845 -0.019522374 -0.012435378 -0.067163624
000130 e4 1d 87 bb bc 69 54 3c 7a fc 7f 3c 71 14 25 3c
       -0.0041234363 0.012964662 0.01562416 0.010075674
000140 ee 5e a0 3c 63 dc 00 3d 5f b3 d4 3c a8 14 04 3c
       0.019576516 0.031460177 0.025964437 0.008061565
000150 8e b3 9d 3b 06 d6 7e 3d 4e 48 fe 3c 7a 6f e3 bb
       0.0048126644 0.062215827 0.031040337 -0.0069407793
000160 fe 54 4a bd b9 17 61 bc 8a 59 10 3d 7d eb cd bb
       -0.04939746 -0.013738566 0.03524164 -0.006284176
000170 0c 1c 82 bd 60 2d 39 bd 08 f9 9e bb dc 74 9b 3b
       -0.06353006 -0.04520929 -0.004851464 0.0047441553
000180 f3 f9 5b bc b4 0e 65 bc 07 93 96 3b d2 6d f0 3c
       -0.013426292 -0.013980556 0.0045951637 0.029349241
000190 22 54 2a 3b 2e 8a 95 3b ad 4f 4d 3c 04 ff 8c bb
       0.0025990088 0.0045635914 0.012531203 -0.004302861
0001a0 d6 ce 66 3b 9b 87 45 bc b5 3b ee 3c 84 02 af ba
       0.0035218499 -0.012056257 0.029081205 -0.001335219
0001b0 fd 9c ca 3c 0d b8 ab bc 8a fb fc bc 0f c8 11 3b
       0.024733061 -0.020961786 -0.030881662 0.0022244488
0001c0 32 f2 07 bd ae 24 aa 3c ba 38 ae 3c c4 d2 ca 3c
       -0.03318996 0.020769443 0.021267284 0.024758704
0001d0 dd 23 ea 3c d5 5c 23 3c e4 26 46 3c c7 3b c5 bb
       0.028581554 0.009970863 0.012094233 -0.006019089
0001e0 2f 2c f7 3c 1d 2c 4b 3c b7 ec 23 bc f7 d5 0f bd
       0.030172436 0.012400654 -0.010005168 -0.035116162
0001f0 f0 de 21 3b e2 43 d0 bb c7 61 17 3d 38 68 4b 3d
       0.0024699531 -0.0063557485 0.036958482 0.049659938
000200 38 e5 05 3d fb 42 d2 bb f8 1f 76 3c d6 c7 40 3b
       0.032689303 -0.006416676 0.01502227 0.0029415987
000210 6a 82 bd 3c 8d fd ba 3b c7 b9 77 bb 93 20 28 bc
       0.023133475 0.005706495 -0.003779994 -0.010261673
000220 00 fd 6b 3b fa a5 34 bd ce 7b fc bc cc 3e c1 3c
       0.0036008954 -0.0441036 -0.030820753 0.023589514
000230 66 5c 22 3c 90 54 42 bd 7b 4f 3c bd 03 76 40 3c
       0.009909725 -0.047443926 -0.045974236 0.011746886
000240 b1 50 be 3b 63 1e 4c 3c 35 4e 20 bc 7b 18 d3 b9
       0.005807959 0.012458417 -0.009784271 -0.00040263296
000250 1e 13 e2 3c 9c 95 1d bc 45 f0 25 3c bd 7e c3 ba
       0.027597006 -0.009618189 0.0101280855 -0.001491509
000260 6c 0a 29 3c be cb 02 3b 66 4b d9 bb f7 1b 15 3c
       0.010317426 0.0019957866 -0.0066313026 0.009100906
000270 2e b9 a2 3b 51 52 d7 bb c2 db b1 3c b8 e6 00 3d
       0.004965923 -0.006571092 0.021711234 0.03147003
000280 22 2e 8c 3c 55 5f 4e bc a5 70 eb bc 2b 7b db bc
       0.017111842 -0.012595971 -0.028740237 -0.02679213
000290 94 40 9f bc 54 3d c3 bb 7d f1 8c 3c a5 aa 3e 3c
       -0.019439973 -0.0059582386 0.017204994 0.0116373645
0002a0 3b ce 05 3d a9 b6 1a bd 44 2d c3 bc 29 c3 fd 3c
       0.03266738 -0.037771855 -0.023825295 0.030976849
0002b0 54 ce b8 bc 8f b5 c5 3c e2 02 88 b9 e1 16 a8 bb
       -0.022559322 0.024134425 -0.0002594209 -0.0051296805
0002c0 d2 75 c5 3c f5 3a dd 3c 1e 2e 62 bc fe 5b c2 ba
       0.024104033 0.027005652 -0.0138049405 -0.0014828441
0002d0 29 ee ff 3c 4b 8e e2 3c fb d5 59 3c dd 09 ad bc
       0.031241493 0.027655741 0.013295646 -0.021122867
0002e0 19 7d c3 bc 25 7e be 3c 5a 4f 94 3c c6 9c a5 bb
       -0.023863362 0.02325351 0.018104244 -0.0050540892
0002f0 4b cd 0b 3d c4 11 c8 3c fb 2d 19 bc 52 e0 62 3c
       0.03413133 0.024422534 -0.0093493415 0.013847427
000300 87 4e 08 3d 0b fd a6 3c 52 fa 8c bc 62 91 0c bd
       0.033278015 0.020384332 -0.017209206 -0.034318335
000310 33 6e 24 3c 74 6a 53 3c bf 47 0d bd 98 20 b7 3b
       0.010036039 0.012903798 -0.03449225 0.0055886023
000320 3f 65 34 bd b1 fe f3 bc c7 cc 51 bd 14 72 ec bc
       -0.04404187 -0.029784532 -0.05122068 -0.02886299
000330 0e 16 4b 3a c6 cc c1 bc ef 53 86 3c 5a 26 1d bd
       0.0007747122 -0.023657214 0.016397445 -0.038366653
000340 02 f9 82 bc f4 cd 33 bc 4e 8e c6 bb 53 8f cd 3d
       -0.015987877 -0.010974396 -0.0060594445 0.100371026
000350 85 f8 cd 3d 4f 8f 91 bc 25 29 7b 3a b1 f5 36 bd
       0.10057167 -0.01776853 0.0009581021 -0.044667903
000360 cc d9 a5 3d 7c e2 e4 3d ee 82 59 bc 09 55 5a bd
       0.08098182 0.11176011 -0.013275845 -0.053303752
000370 9a 83 38 bd fc 78 02 bd 5e 4f 1a 3c b7 b6 86 bc
       -0.04504738 -0.03185366 0.009418337 -0.016444547
000380 8a be 7a bd 74 1b 42 3d 38 c1 86 3c 36 a1 5c 3c
       -0.06121687 0.047389463 0.016449556 0.01346617
000390 ba 60 e3 3c 4f b9 9f 3c 84 0c dc 3c a2 26 9e bc
       0.027756084 0.019497542 0.026861437 -0.019305531
0003a0 d4 f0 cf bc 34 a9 06 bc 61 03 a6 3c 23 4b d5 bc
       -0.02538339 -0.008219052 0.020265283 -0.026036805
0003b0 17 30 69 bd 60 8f 80 bd 22 1b dc bb 59 19 36 3c
       -0.056930628 -0.062773466 -0.0067171017 0.011114442
0003c0 7e c8 ad bc be ea 6c bc de 79 c6 bc d6 ee 69 bc
       -0.021213766 -0.014460264 -0.024228033 -0.014278134
0003d0 03 8b f9 3c a4 71 d3 3c a3 90 04 3d 75 f4 29 3d
       0.030461794 0.025811024 0.0323645 0.041492898
0003e0 bd 0f 8d 3c d6 95 63 3c eb d4 fc bc fa ca 76 bc
       0.017219419 0.013890704 -0.030863246 -0.015063042
0003f0 8a be fd ba 7b 32 f8 3b 7f 8b 6a 3c 9a 27 9c 3c
       -0.0019359153 0.007574377 0.014315485 0.019061852
