2021_BOML_srcnn_project/output/epoch_13.pth (torch, 231519 bytes, 5 tensors)

conv1.weight f4 [64, 1, 9, 9]
-0.03255456 0.0059510064 -0.05872274 0.039849434 -0.096818276 0.08041391 -0.07897095 -0.08167493
-0.06290774 0.05558233 -0.04291763 0.037131373 -0.09660784 -0.06881203 -0.04290268 -0.02095804
-0.07743431 0.079836264 -0.02304948 0.036685385 0.07959959 0.02638029 0.039591033 0.11303268
-0.045016244 0.044808403 -0.041113444 0.07611824 0.08510432 -0.10245746 0.10803089 0.07328997
0.06239528 0.05196005 0.09583691 -0.015235904 -0.09678487 -0.036148053 -0.074459255 0.030703897
0.009352586 -0.038468055 -0.0021027245 0.10572902 -0.014676245 0.00024115198 -0.02259077 0.021697542
0.118003614 0.08602499 0.04634128 0.021435928 0.02099767 0.032388806 -0.012479019 -0.11001223
-0.06915018 0.102760315 0.0104815755 -0.096002474 0.006961318 0.086218886 -0.11201498 -0.062526
-0.043998484 0.0035013258 -0.025156246 -0.016393924 -0.11986775 0.042129464 0.099126145 0.068841316
-0.051217694 -0.078069404 0.04667629 -0.00038268833 0.040958162 -0.115716934 -0.007940287 0.089717865
0.05879788 -0.0053488957 0.002420318 -0.029253418 -0.07628374 -0.05003371 -0.07342386 0.09021727
0.052214388 0.023602054 -0.09348917 0.07181899 0.022825409 0.06821649 -0.046846103 0.020149602
0.1102196 0.071580015 0.0763745 -0.03254786 0.07145033 -0.0954146 0.009241351 -0.05708515
-0.027108062 -0.027415497 0.0035071988 0.085036196 0.040608037 -0.014458329 0.07539357 -0.047840346
0.07168922 -0.0124606965 -0.022877127 0.0043032067 -0.10344353 0.0030410672 0.030503634 0.09985995
-0.018736014 0.057931207 0.110511616 -0.050989494 0.0984611 -0.07234955 0.03948225 0.035595216
0.030287761 0.08851214 -0.044309936 0.017310055 -0.0086364085 -0.09316172 -0.049228244 -0.08742056
0.036253657 0.0026552952 -0.0013267741 -0.05018586 -0.022718979 -0.04943191 0.020823322 0.08450063
0.013611037 -0.05545199 -0.06992595 0.00226754 -0.092402935 -0.095806 -0.07670178 -0.03734146
-0.0027364837 0.084533975 0.047299426 0.099827155 -0.051617637 0.028762126 -0.07917384 0.08660398
0.043786842 0.11174918 -0.07373706 0.101306 0.11822781 0.12197238 0.049363986 0.12696594
0.09393156 0.09507438 -0.0054200385 -0.08663206 0.0015336389 0.032185134 -0.061148465 -0.04856234
-0.09614513 -0.02888304 0.10527309 0.019190801 -0.006199554 0.010594389 0.08143137 -0.08655097
-0.07563742 -0.032157104 -0.05600924 0.06961213 0.085999414 -0.10278231 -0.080534704 -0.087405175
0.061272517 0.105455354 -0.07854923 -0.04072131 0.054175757 -0.055574413 0.100713134 0.04237213
-0.0058079734 0.032887194 0.05590744 -0.029844802 -0.07581798 0.020212865 0.021066656 0.0031480084
-0.010487375 0.08970365 -0.00994764 0.006863982 0.051991034 -0.065972716 0.041020643 -0.014332413
0.04675961 -0.07230744 0.010342199 0.021630079 -0.081570804 -0.081864625 0.03903667 -0.030236492
0.068410866 -0.10222797 -0.058510065 -0.083272204 0.055733375 0.010063545 -0.014053669 -0.016592562
-0.082068965 0.03669836 0.0242172 -0.06770701 0.059545357 0.015851554 -0.084094435 0.07785516
0.07273319 -0.0070894323 -0.06315074 0.0033095411 0.083473474 0.10148224 -0.08484552 -0.051115643
0.08586936 0.053394735 0.06644119 -0.05752739 0.09494371 -0.091016464 -0.0049740034 0.001294841
00000000: ee57 05bd a900 c33b 4187 70bd 2939 233d
00000010: a948 c6bd 0cb0 a43d 85bb a1bd 3045 a7bd
00000020: c6d5 80bd 4caa 633d 66ca 2fbd 1117 183d
00000030: 55da c5bd 52ed 8cbd b8ba 2fbd 32b0 abbc
00000040: e195 9ebd 3281 a33d 43d2 bcbc 6a43 163d
00000050: 1c05 a33d 7a1b d83c 352a 223d ad7d e73d
00000060: f462 38bd 0489 373d 9266 28bd e1e3 9b3d
00000070: 2c4b ae3d 37d5 d1bd 4d3f dd3d 0d19 963d
00000080: 3192 7f3d 10d4 543d 2446 c43d 03a0 79bc
00000090: 2537 c6bd fb0f 14bd 187e 98bd bd86 fb3c
000000a0: 973b 193c ae90 1dbd ddcd 09bb 7588 d83d
000000b0: a274 70bc bedd 7c39 4710 b9bc 0bbf b13c
000000c0: e1ab f13d df2d b03d 5bd0 3d3d 669a af3c
000000d0: 4e03 ac3c 20aa 043d cd74 4cbc 184e e1bd
000000e0: 9c9e 8dbd 0074 d23d eaba 2b3c f29c c4bd
000000f0: c51b e43b 8793 b03d 1c68 e5bd a20d 80bd
00000100: c137 34bd 8076 653b 7914 cebc 8d4c 86bc
00000110: 397d f5bd f28f 2c3d a602 cb3d adfc 8c3d
00000120: a5c9 51bd dae2 9fbd a32f 3f3d 8fa3 c8b9
00000130: bfc3 273d 00fd ecbd fa17 02bc 00be b73d
00000140: 0cd6 703d ca45 afbb 339e 1e3b dda4 efbc
00000150: a63a 9cbd 26f0 4cbd 405f 96bd d5c3 b83d
00000160: c1de 553d 1859 c13c 4077 bfbd d615 933d
00000170: 5afc ba3c 16b5 8b3d b3e1 3fbd c710 a53c
00000180: d0ba e13d 8b98 923d 3c6a 9c3d e850 05bd
00000190: 8d54 923d bb68 c3bd 0969 173c 1ed2 69bd
000001a0: ba11 debc 7796 e0bc 08d9 653b 7527 ae3d
000001b0: 9d54 263d a1e2 6cbc f267 9a3d 3df4 43bd
000001c0: ccd1 923d f327 4cbc d068 bbbc ea01 8d3b
000001d0: 34da d3bd a44c 473b c2e2 f93c 6083 cc3d
000001e0: 457c 99bc 4649 6d3d ea53 e23d 5cda 50bd
000001f0: f9a5 c93d 002c 94bd 24b8 213d 4acc 113d
00000200: 0a1e f83c da45 b53d 567e 35bd d1cd 8d3c
00000210: b97f 0dbc 92cb bebd 8ea3 49bd 8d09 b3bd
00000220: b77e 143d 7604 2e3b 27e7 adba b08f 4dbd
00000230: 271d babc 1d79 4abd ac95 aa3c ab0e ad3d
00000240: d400 5f3c a021 63bd 5635 8fbd 029b 143b
00000250: c03d bdbd f035 c4bd d315 9dbd 5cf3 18bd
00000260: 9456 33bb 2620 ad3d 0bbd 413d 2e72 cc3d
00000270: 046d 53bd 8d9e eb3c e525 a2bd 6d5d b13d
00000280: d559 333d c1dc e43d 7503 97bd 8579 cf3d
00000290: 6c21 f23d a8cc f93d e431 4a3d 5c03 023e
000002a0: 315f c03d 5bb6 c23d 949a b1bb 266c b1bd
000002b0: 6204 c93a 8fd4 033d d076 7abd 4ee9 46bd
000002c0: bde7 c4bd 209c ecbc 6b99 d73d 0736 9d3c
000002d0: a125 cbbb 1794 2d3c 7dc5 a63d a341 b1bd
000002e0: cbe7 9abd 2bb7 03bd f269 65bd ce90 8e3d
000002f0: 7620 b03d 887f d2bd 61ef a4bd 7c01 b3bd
00000300: e4f8 7a3d faf8 d73d 6bde a0bd 63cb 26bd
00000310: 66e7 5d3d ffa1 63bd b042 ce3d 668e 2d3d
00000320: d050 bebb b9b4 063d 33ff 643d 167d f4bc
00000330: 7546 9bbd 7395 a53c fb93 ac3c d14e 4e3b
00000340: 3dd3 2bbc 8cb6 b73d 6dfb 22bc 41eb e03b
00000350: 8df4 543d b41c 87bd 4305 283d 7fd2 6abc
00000360: 0187 3f3d ec15 94bd 5472 293c 9031 b13c
00000370: 980e a7bd a4a8 a7bd eae4 1f3d 85b2 f7bc
00000380: ff1a 8c3d e65c d1bd 40a8 6fbd 9e8a aabd
00000390: ae48 643d 91e1 243c 5c41 66bc 20ed 87bc
000003a0: c613 a8bd 0551 163d 2663 c63c f9a9 8abd
000003b0: d5e5 733d 1edb 813c b439 acbd 8772 9f3d
000003c0: 24f5 943d 784e e8bb 2d55 81bd e3e4 583b
000003d0: 24f4 aa3d ecd5 cf3d 7dc3 adbd a35e 51bd
000003e0: 46dc af3d 70b4 5a3d 5212 883d d7a1 6bbd
000003f0: d971 c23d d766 babd f7fc a2bb a7b7 a93a

conv1.bias f4 [64]
-0.026828928 -0.09414256 0.010457598 -0.062647596 0.03839439 -0.023032859 0.056115855 -0.008971933
0.10811589 -0.047817737 0.008210798 0.022460341 -0.094100446 0.096897684 0.06867897 0.040763788
-0.03423442 -0.056398347 0.050357316 0.034379806 0.015123191 0.0011403682 -0.07070435 0.07135627
-0.064974375 0.027610134 -0.000577879 -0.0124257235 0.029286277 0.06607178 0.09111339 -0.0072505474
0.04768649 0.040799733 0.0049042455 -0.09498724 -0.03203254 0.08513731 0.014144708 0.051218424
-0.027493836 -0.0024633463 0.0977542 -0.012605188 0.037563186 0.0106094545 -0.015984058 0.0067589176
-0.017362278 -0.02420631 0.0013253376 0.043668978 0.03213323 -0.0024572467 0.0010169107 0.0005054032
0.10463131 -0.046754077 -0.0067115016 0.0742518 0.07255339 -0.039112363 -0.097248875 -0.08088312
00000000: 57c8 dbbc d1cd c0bd 5856 2b3c 624d 80bd
00000010: 7043 1d3d 68af bcbc bdd9 653d 04ff 12bc
00000020: dd6b dd3d 88dc 43bd 9586 063c c0fe b73c
00000030: bcb7 c0bd 4b72 c63d 8fa7 8c3d eef7 263d
00000040: 6439 0cbd f401 67bd 7943 4e3d d7d1 0c3d
00000050: 43c7 773c 6878 953a 71cd 90bd 3c23 923d
00000060: 4911 85bd a62e e23c ce7c 17ba 4395 4bbc
00000070: c6e9 ef3c a450 873d a899 ba3d 0096 edbb
00000080: e952 433d 9f1d 273d cbb3 a03b ac88 c2bd
00000090: 8d34 03bd 785c ae3d 35bf 673c 69ca 513d
000000a0: c13a e1bc 1870 21bb 5b33 c83d fe85 4ebc
000000b0: dbdb 193d 47d3 2d3c 00f1 82bc e979 dd3b
000000c0: 563b 8ebc 504c c6bc f3b6 ad3a 3ede 323d
000000d0: 229e 033d c209 21bb dc49 853a 097d 043a
000000e0: f148 d63d 3481 3fbd 28ec dbbb 5411 983d
000000f0: df96 943d 4934 20bd 6b2a c7bd 0da6 a5bd

conv2.weight f4 [32, 64, 5, 5]
0.0012910247 0.0021408321 -0.0077301203 -0.013822795 -0.055945933 0.0009948943 -0.008929808 -0.017730812
-0.014730528 -0.02516566 0.008734256 -0.011606736 0.009012453 -0.0042010755 0.017200321 -0.01064887
0.01071203 0.01378967 0.01324913 0.028349208 0.0052056103 0.009954911 -0.021882782 0.01767694
-0.013873822 -0.023353644 0.015209961 0.018156307 -0.011762423 -0.019835478 -0.014414301 0.023998355
0.028551336 0.02273193 0.0055072443 0.010784774 -0.0076020774 0.020408578 0.017400496 0.027460853
-0.0052394564 0.00047182385 -0.01512823 0.005926814 0.0015959768 -0.028947933 0.010164874 0.0076668425
0.011085668 0.008417258 -0.051954944 -0.040897384 -0.08650769 -0.07849097 -0.103008516 -0.028167374
-0.0041185375 -0.0074874517 0.0030060548 -0.024161968 0.0032057948 -0.0021664223 -0.015535229 0.013207267
-0.013752473 -0.0015606026 0.034579698 0.043889664 0.039616734 0.0018303212 0.013289705 0.02275434
0.016658677 0.014699294 0.002529165 0.008767865 -0.013943369 -0.013710772 -0.019873552 -0.0209003
-0.00222414 0.018874168 -0.016025845 -0.021629632 0.012990036 0.012985241 0.0093734525 -0.016670477
0.02158094 0.0058572656 0.0016884825 0.023074122 0.009577436 0.018573767 -0.0076045757 0.016514562
-0.0062399143 0.00980049 -0.013246982 -0.016532395 -0.019015303 -0.015482023 0.020875817 0.024372637
0.011764428 -0.001494104 0.00046860898 0.010123377 0.0274797 0.0120218685 -0.015001234 -0.013486998
0.027397497 0.02328223 -0.02706787 -0.020806445 0.011576846 -0.012557977 0.024688827 0.014282539
-0.018813618 0.00077524176 -0.012782262 -0.028041309 0.00090162165 0.016326582 0.006709667 -0.004692402
-0.0010777205 -0.014936108 -0.03717935 0.005581726 -0.011228868 -0.0022368364 0.006971163 -0.023271276
0.0068997717 0.025058223 -0.0021603773 -0.0075561367 0.025652412 0.032602377 0.027057333 0.013966643
0.016447024 -0.026285395 -0.020249812 0.017007517 -0.018282035 -0.045024674 -0.017563421 -0.0045199906
-0.01585917 0.022967523 -0.028397528 0.024078282 0.01817237 -0.01593106 -0.011393411 0.023227511
-0.0017792769 -0.015042515 0.0069582085 -0.0033105444 -0.0011666853 0.01342043 -0.017717315 -0.010027479
-0.0015566911 0.020553196 -0.014787584 -0.0093900245 0.013626362 0.018961873 6.804717e-05 0.006774951
0.049597554 0.018429162 0.0054938723 0.05018488 -0.026673723 -0.00926965 0.05829402 0.024487633
-0.0003513226 -0.048507676 -0.015813459 -0.012524027 0.0057347715 -0.0043533375 -0.016352747 -0.008538771
-0.01934331 0.014412632 0.007821553 0.050972287 0.038002852 0.029028546 0.018763395 0.017137388
-0.018337807 -0.004270711 -0.0020272133 0.018825203 0.014428883 0.019656261 -0.00062079995 -0.00051755825
0.01399343 -0.0022480153 -0.028040266 -0.016993612 -0.0006930825 0.008388883 -0.025939865 0.025718166
0.008068392 0.0118770115 -0.0035256115 -0.015026774 -0.01009241 0.025840284 0.013110099 -0.019267224
0.010452185 -0.0010067982 0.011108954 -0.0028441437 -0.008725888 -0.0006125476 0.01652502 0.010544365
0.03202153 0.025934154 -0.0078095784 -0.005149199 0.002339308 0.0042097503 -0.0061678644 -0.030147908
-0.03563515 -0.011976693 -0.003247999 -0.028786298 -0.021606138 0.0028163178 -0.008705738 -0.011348995
-0.011341693 0.00039571145 -0.029402535 -0.017487014 -0.0026849054 0.008227947 0.0075219404 -0.0400836
00000000: 9a37 a93a 344d 0c3b f34c fdbb 0179 62bc
00000010: 9027 65bd 1d67 823a 544e 12bc 3540 91bc
00000020: 5058 71bc 3728 cebc 201a 0f3c 2e2a 3ebc
00000030: f8a8 133c 2da9 89bb b0e7 8c3c 9978 2ebc
00000040: 8381 2f3c 11ee 613c e112 593c 993c e83c
00000050: d393 aa3b ec19 233c 8543 b3bc 3bcf 903c
00000060: 074f 63bc 2450 bfbc 3333 793c 89bc 943c
00000070: 2eb7 40bc 037e a2bc f629 6cbc 3398 c43c
00000080: 7ee4 e93c 5038 ba3c 1d76 b43b 9fb2 303c
00000090: d91a f9bb e42f a73c 7c8b 8e3c 95f5 e03c
000000a0: bfaf abbb 205f f739 65dc 77bc b835 c23b
000000b0: 1830 d13a 3724 edbc 928a 263c 233a fb3b
000000c0: a9a0 353c 8ae8 093c b5ce 54bd 0484 27bd
000000d0: f22a b1bd e0bf a0bd 21f6 d2bd 44bf e6bc
000000e0: ccf4 86bb 4c59 f5bb 3b01 453b 52ef c5bc
000000f0: 5018 523b 89fa 0dbb 7987 7ebc 4b63 583c
00000100: 0d52 61bc 228d ccba 71a3 0d3d a6c5 333d
00000110: 2845 223d 63e7 ef3a 10bd 593c 4f67 ba3c
00000120: c777 883c 4fd5 703c 59c0 253b 17a7 0f3c
00000130: ba72 64bc 25a3 60bc dccd a2bc 1b37 abbc
00000140: e1c2 11bb 009e 9a3c a248 83bc a030 b1bc
00000150: 29d4 543c 0cc0 543c 1c93 193c 8690 88bc
00000160: 83ca b03c 4eee bf3b 1250 dd3a f105 bd3c
00000170: aeea 1c3c 0328 983c ce2f f9bb 8c49 873c
00000180: 3278 ccbb 3c92 203c df09 59bc f26e 87bc
00000190: fbc5 9bbc 50a8 7dbc c303 ab3c 20a9 c73c
000001a0: 96bf 403c d0d5 c3ba a2af f539 85dc 253c
000001b0: 1c1d e13c 5ff7 443c bcc7 75bc 92f8 5cbc
000001c0: b770 e03c 60ba be3c 70bd ddbc 4772 aabc
000001d0: d0ac 3d3c f9bf 4dbc 3940 ca3c 4f01 6a3c
000001e0: 041f 9abc 9839 4b3a b16c 51bc e3b6 e5bc
000001f0: ce5a 6c3a 53bf 853c c4dc db3b b9c2 99bb
00000200: 4d42 8dba 94b6 74bc 6049 18bd e9e6 b63b
00000210: 49f9 37bc e397 12bb 5b6e e43b 67a3 bebc
00000220: 7b17 e23b e746 cd3c 1e95 0dbb 7899 f7bb
00000230: 0225 d23c 128a 053d 57a7 dd3c 59d4 643c
00000240: e9bb 863c 7854 d7bc efe2 a5bc 5953 8b3c
00000250: 35c4 95bc cb6b 38bd 2ae1 8fbc 6e1c 94bb
00000260: 17eb 81bc 6326 bc3c efa1 e8bc d13f c53c
00000270: 39de 943c db81 82bc 6eab 3abc 9f47 be3c
00000280: a036 e9ba e174 76bc af01 e43b b8f5 58bb
00000290: 76eb 98ba 5de1 5b3c e723 91bc 4c4a 24bc
000002a0: e309 ccba 2d5f a83c 9f47 72bc 9ed8 19bc
000002b0: 1b41 5f3c ee55 9b3c 8cb4 8e38 6800 de3b
000002c0: ce26 4b3d c1f8 963c f105 b43b a98e 4d3d
000002d0: da82 dabc bbdf 17bc b6c5 6e3d 4a9a c83c
000002e0: b931 b8b9 fcaf 46bd 3a8b 81bc 9431 4dbc
000002f0: c0ea bb3b 71a6 8ebb 32f6 85bc 34e6 0bbc
00000300: dc75 9ebc f622 6c3c f925 003c 51c8 503d
00000310: e1a8 1b3d 46cd ed3c b1b5 993c b563 8c3c
00000320: 2b39 96bc 52f1 8bbb ffda 04bb 5037 9a3c
00000330: 1f67 6c3c 2b06 a13c 2ebd 22ba bfac 07ba
00000340: b344 653c 7053 13bb b3b4 e5bc 3036 8bbc
00000350: fbaf 35ba 8771 093c d77f d4bc e7ae d23c
00000360: 4a31 043c cc97 423c f20d 67bb dc32 76bc
00000370: a35a 25bc 01af d33c becb 563c 4cd6 9dbc
00000380: a43f 2b3c 8bf6 83ba 5502 363c d064 3abb
00000390: 07f7 0ebc 6093 20ba 7b5f 873c 46c2 2c3c
000003a0: 0229 033d dd73 d43c 7ee7 ffbb 9dba a8bb
000003b0: 134f 193b f2f1 893b cc1b cabb bff8 f6bc
000003c0: 2af6 11bd e439 44bc 61dc 54bb 3ed1 ebbc
000003d0: 5bff b0bc f991 383b 83a2 0ebc 23f1 39bc
000003e0: 82d2 39bc 7e77 cf39 96dd f0bc ed40 8fbc
000003f0: 3df5 2fbb 83ce 063c 9c7a f63b b32e 24bd

conv2.bias f4 [32]
-0.009006848 -0.023372138 -0.001535434 0.014903558 0.024888584 0.019503225 -0.012445225 0.0060469126
0.013003969 -0.012681385 0.00027682522 0.01058354 0.0254551 0.014370147 -0.0029848802 -0.008017392
-0.014962216 -0.018842159 0.0155078415 0.02222394 0.023290567 0.0014041564 -0.0043898844 0.008633593
0.014415396 0.020100834 0.015611198 0.018981941 0.007918894 -0.023441378 -0.0058513265 -0.0030671952
00000000: 7591 13bc ed76 bfbc 9e40 c9ba 0e2e 743c
00000010: 25e3 cb3c 3ac5 9f3c 0fe7 4bbc 2e25 c63b
00000020: 990e 553c 95c5 4fbc da22 9139 9666 2d3c
00000030: 3787 d03c c470 6b3c fb9d 43bb 615b 03bc
00000040: 1524 75bc df5a 9abc 9a14 7e3c fb0e b63c
00000050: dccb be3c ac0b b83a 05d9 8fbb ea73 0d3c
00000060: 8e2e 6c3c 81aa a43c 1cc6 7f3c 0480 9b3c
00000070: 40be 013c 2208 c0bc 7cbc bfbb ff02 49bb

conv3.weight f4 [1, 32, 5, 5]
0.018270696 0.018310288 -0.0012245261 0.025292499 0.03089714 -0.030180765 0.0010257574 -0.03466285
0.0036398564 0.010420594 -0.0030470686 0.02775947 0.011541085 -0.03090576 -0.0034811432 -0.016568473
-0.028864577 -0.00033564187 -0.032819387 0.022253705 0.003753798 0.0128673725 0.020709075 0.028012127
-0.0179289 0.0021314693 -0.03338514 0.0080820825 0.026377888 -0.022359291 0.020549556 -0.016501836
0.010137306 -0.015380259 0.006742787 -0.033336554 0.026393216 -0.008024928 0.032906033 -0.012510011
0.015579361 -0.016778834 -0.014750572 -0.008742353 0.017170094 0.0143304765 0.020675123 -0.005576255
0.004582686 0.02197086 -0.013813855 -0.011615065 0.026915718 -0.029820474 -0.017106604 -0.01959804
-0.0074307816 -0.025979418 0.008238535 -0.024685435 -0.01552492 -0.034383386 0.023595164 -0.021664066
-0.004236442 -0.021056844 -0.0048534377 -0.0067532705 -0.011505102 -0.0005064731 0.015058548 0.029141182
0.026237683 -0.026237004 -0.00409441 -0.03227096 0.01764272 0.025520852 0.0062531787 0.010064692
0.03750565 -0.0007788193 -0.029251957 -0.018558117 -0.009823326 0.020592459 0.003566119 0.029212782
0.017444633 -0.0112785315 -0.011559231 -0.014770013 -0.03590435 -0.011786546 -0.015768174 -0.0071855565
-0.008120684 -0.01644997 -0.017439649 0.0066555934 0.0062926887 0.007791534 0.014454431 -0.0028845007
0.003687166 -0.007264648 0.03193617 -1.2764217e-05 0.025245361 -0.020768754 -0.027545324 0.0045589423
-0.031790566 0.020652194 0.020388097 0.028894505 0.032078 0.011485367 0.013478931 -0.005277952
0.03237538 0.01512032 -0.008413646 -0.032758564 0.0042661326 0.0036807186 0.02820684 0.022253644
0.031401154 0.004116881 0.0106825875 -0.026897557 0.0062278435 0.009889845 -0.018550968 -0.016760854
0.01778888 -0.017369227 -0.01015503 0.027908929 0.029431963 -0.026331104 -0.028617667 0.025728684
-0.008395283 0.0049611134 -0.021373222 -0.0135854175 0.028708952 -0.021718172 0.013125771 0.0016439086
0.011631678 0.0020736817 -0.00700773 0.0132355215 0.010193306 -0.0027647496 0.024168175 0.031875737
0.018699922 -0.009902683 -0.02570379 -0.024178395 -0.017429639 -0.0029430424 0.018334039 0.009839574
0.031581078 -0.03439635 -0.020014822 0.0325828 -0.024876688 0.022946764 0.0012218826 -0.0037458984
0.025251755 0.02745111 -0.014257814 -0.0017729674 0.03330691 0.029670585 0.014352699 -0.02125036
-0.02365899 0.025665736 0.02058856 -0.003847146 0.034231547 0.024899509 -0.0075144116 0.015669575
0.03450581 0.020583602 -0.016990228 -0.03319051 0.010958565 0.01337918 -0.03471578 0.005457676
-0.020961713 0.015736694 -0.017386124 -0.025974367 0.03479354 0.021240871 -0.010811299 -0.023672104
0.020483116 -0.020711998 -0.00865276 -0.003423246 0.02675115 -0.0027881383 0.012133092 -0.017764866
0.039433505 0.018057374 -0.024444647 -0.026472876 0.021406498 -0.008732774 0.018187637 0.00032504363
-0.017136682 0.034794502 -0.012615449 0.015258139 0.02255485 0.011840418 0.034168907 -0.02406032
0.0038093058 -0.0005757313 0.017360575 -0.014787998 -0.020996504 -0.02731294 0.024469398 0.01019961
-0.032986544 -0.0022141351 -0.029184954 -0.029253995 0.022188751 -0.017739547 0.021202657 0.033140372
0.0053993855 0.015566263 -0.030875124 -0.015080688 -0.0019380196 0.0075626504 0.014301494 0.019069416
00000000: 6dac 953c 75ff 953c 4780 a0ba 3732 cf3c
00000010: 001c fd3c a73d f7bc b572 863a a2fa 0dbd
00000020: a88a 6e3b 24bb 2a3c 54b1 47bb d467 e33c
00000030: d216 3d3c 142e fdbc e423 64bb 9bba 87bc
00000040: 6875 ecbc 17f9 afb9 9f6d 06bd 674d b63c
00000050: 4802 763b acd1 523c 14a6 a93c b079 e53c
00000060: a1df 92bc 1fb0 0b3b dbbe 08bd b66a 043c
00000070: 7116 d83c d52a b7bc 8b57 a83c dc2e 87bc
00000080: f116 263c 7bfd 7bbc 99f2 dc3b e98b 08bd
00000090: 9636 d83c fd7a 03bc 7ac8 063d caf6 4cbc
000000a0: 9340 7f3c c473 89bc 62ac 71bc 163c 0fbc
000000b0: 4ca8 8c3c 60ca 6a3c e05e a93c 04b9 b6bb
000000c0: 5b2a 963b 3cfc b33c 8253 62bc 1d4d 3ebc
000000d0: 5a7e dc3c 114a f4bc 2623 8cbc 128c a0bc
000000e0: ea7d f3bb cad2 d4bc ecfa 063c 1c39 cabc
000000f0: 3c5c 7ebc 98d5 0cbd a54a c13c d778 b1bc
00000100: dad1 8abb 677f acbc 9609 9fbb 8a4a ddbb
00000110: e57f 3cbc d6c4 04ba 21b8 763c 7db9 ee3c
00000120: 69f0 d63c fcee d6bc 672a 86bb 8e2e 04bd
00000130: 7787 903c 1b11 d13c 77e7 cc3b 61e6 243c
00000140: 869f 193d ae29 4cba cda1 efbc 3107 98bc
00000150: 04f2 20bc 84b1 a83c 8cb5 693b a54f ef3c
00000160: 0ce8 8e3c 97c9 38bc ee62 3dbc edfd 71bc
00000170: 7110 13bd 5b1c 41bc 422c 81bc d174 ebbb
00000180: 9e0c 05bc 16c2 86bc 98dd 8ebc 2a17 da3b
00000190: e632 ce3b 2050 ff3b 47d2 6c3c e409 3dbb
000001a0: 61a4 713b 490c eebb 80cf 023d e525 56b7
000001b0: 5ccf ce3c 3c23 aabc bba6 e1bc 2e63 953b
000001c0: d336 02bd ca2e a93c f004 a73c 2bb4 ec3c
000001d0: 3964 033d 1f2d 3c3c bcd6 5c3c acf2 acbb
000001e0: 0c9c 043d 38bb 773c 64d9 09bc d82d 06bd
000001f0: eaca 8b3b 3638 713b 0812 e73c 464d b63c
00000200: 7f9e 003d e7e6 863b 0506 2f3c 4458 dcbc
00000210: f012 cc3b 0409 223c 33f8 97bc 0f4e 89bc
00000220: fcb9 913c e949 8ebc 4861 26bc 44a1 e43c
00000230: 4d1b f13c 54b4 d7bc 996f eabc f6c4 d23c
00000240: 5e8c 09bc d690 a23b e516 afbc 5f95 5ebc
00000250: 092f eb3c 4fea b1bc 790d 573c 6b78 d73a
00000260: cb92 3e3c 9be6 073b 1aa1 e5bb cdd9 583c
00000270: d301 273c cd30 35bb 56fc c53c 2290 023d
00000280: 9430 993c dd3e 22bc c190 d2bc c511 c6bc
00000290: 9ac8 8ebc 0fe0 40bb 4431 963c 2a36 213c
000002a0: 295b 013d 30e3 0cbd 20f6 a3bc 8b75 053d
000002b0: 32ca cbbc dafa bb3c 9427 a03a bf7d 75bb
000002c0: c5dc ce3c 26e1 e03c 9b99 69bc ea62 e8ba
000002d0: d46c 083d ba0f f33c 9527 6b3c 3c15 aebc
000002e0: 80d0 c1bc f340 d23c 57a9 a83c 6620 7cbb
000002f0: 6136 0c3d 0efa cb3c 743b f6bb 7b5d 803c
00000300: f755 0d3d f19e a83c 172f 8bbc c6f2 07bd
00000310: 8e8b 333c 5934 5b3c 2232 0ebd 4ed6 b23b
00000320: e6b7 abbc 3dea 803c 586d 8ebc 32c8 d4bc
00000330: ac83 0e3d 5601 ae3c e021 31bc 00ec c1bc
00000340: 35cc a73c 35ac a9bc 4ec4 0dbc 8a58 60bb
00000350: 3a25 db3c 33b9 36bb e0c9 463c a087 91bc
00000360: 0785 213d 0fed 933c 2440 c8bc a5dd d8bc
00000370: ae5c af3c e913 0fbc 3dfe 943c 9e6a aa39
00000380: 3a62 8cbc ae84 0e3d 07b1 4ebc 46fd 793c
00000390: f3c4 b83c 50fe 413c b2f4 0b3d 261a c5bc
000003a0: 8ca5 793b acec 16ba c437 8e3c 5c49 72bc
000003b0: dc00 acbc 63bf dfbc 0c74 c83c 441c 273c
000003c0: e61c 07bd 061b 11bb 4915 efbc 13a6 efbc
000003d0: 2fc5 b53c 8752 91bc 32b1 ad3c 33be 073d
000003e0: 54ed b03b a409 7f3c d4ed fcbc fd14 77bc
000003f0: 2605 feba 1cd0 f73b d050 6a3c 7737 9c3c
