2021_BOML_srcnn_project/output/epoch_294.pth (torch, 231519 bytes, 5 tensors)

conv1.weight f4 [64, 1, 9, 9]
000000 be 92 dd bc 9d 19 a7 3b 4c 77 ba bd 47 38 a4 3d
       -0.027047511 0.005099489 -0.09104785 0.080185466
000010 cf db 8e bc 9d c4 ed 3d 17 b7 83 bd 02 39 64 3d
       -0.017438797 0.11609767 -0.06431406 0.05571843
000020 c7 51 4f bd 1a 22 4d 3d 60 e8 e2 bb 26 c5 7e 3c
       -0.0506151 0.05008135 -0.006924674 0.015549934
000030 30 29 bb bd 73 47 3e bd 99 86 7b bd 30 59 26 bd
       -0.09138715 -0.046454858 -0.06140766 -0.0406124
000040 18 30 07 3d f8 13 08 3e b9 07 8f 3c f0 31 d1 3d
       0.03300485 0.13288867 0.017459737 0.10214603
000050 f6 82 78 3d f8 7a 6a bb cf 25 e3 38 87 bd 0f 3d
       0.06067177 -0.0035778861 0.00010831246 0.035092857
000060 59 3b 2c be 6b f4 b7 3b 9f a4 91 bd d1 46 92 3d
       -0.16819514 0.0056138537 -0.07111477 0.071424134
000070 8b 44 78 3d 87 84 4a be 60 61 73 3d ad 20 49 3d
       0.060612243 -0.19777118 0.059419036 0.049103428
000080 a5 40 c2 3c 8b 79 48 bd 7c 7d 2a 3d e9 ee da bc
       0.023712466 -0.048944037 0.041623577 -0.02672525
000090 bd d4 02 be 83 29 8c bd 33 80 00 be ca 5f cd 3d
       -0.12776466 -0.06843855 -0.12548904 0.10028036
0000a0 49 1b dc 3d ca 89 36 3c e3 71 0a bd e3 7a e8 3d
       0.10747392 0.01114125 -0.033800017 0.11351564
0000b0 0b 42 1b bb 0f c2 07 bd 87 40 23 bd ce 8b 0a 3d
       -0.0023690488 -0.033144053 -0.03985646 0.033824734
0000c0 7f 9b 6e 3e f1 af 34 3e 65 11 9a 3d 8d 05 c9 bc
       0.23301505 0.17645241 0.07522849 -0.02453878
0000d0 2c b6 c3 3c 91 11 83 3b ba b2 e5 bc f6 89 1d be
       0.023890577 0.003999897 -0.028039325 -0.15384659
0000e0 14 57 e7 bd 17 99 f4 3d e5 90 af bc ad 20 09 be
       -0.11295906 0.11943262 -0.021431396 -0.13391371
0000f0 dd 14 f0 bc fc 62 1d 3e 0c 83 98 bd ba 45 d7 bc
       -0.029306823 0.15369791 -0.0744687 -0.026278365
000100 f8 1d 9e bd 69 80 ab bd 54 d5 86 bd 4e cf a0 bd
       -0.0772056 -0.08374102 -0.06583658 -0.0785204
000110 3c 9f 1b be 94 15 6b 3c 68 56 32 3e 58 6a f7 3d
       -0.15197462 0.014348406 0.17415774 0.1208083
000120 8f 96 cd 3d fe 20 97 3c 0f 55 b6 3c 02 43 a1 3b
       0.100384824 0.01844835 0.022257356 0.004921318
000130 30 e7 5e 3d a9 9c c8 bd 57 99 84 bd 97 60 07 3d
       0.054419696 -0.097955056 -0.0647456 0.0330511
000140 39 13 3f bd 0e 19 a9 3d 58 11 12 3c de e0 09 3c
       -0.04664919 0.08256732 0.008915268 0.008415429
000150 3b 30 f0 bd a5 94 77 bd 1a 8b b2 bd a5 b5 ec 3d
       -0.11727949 -0.060444493 -0.08717938 0.115580834
000160 52 f1 66 3d ec 40 46 bd 06 31 3f bd 2b ff 56 3d
       0.056382485 -0.048401758 -0.04667761 0.05248944
000170 47 4a aa 3c a8 3e 0e bd 4e c6 08 be 00 7d 2a bd
       0.020787371 -0.034727722 -0.13356897 -0.041623116
000180 8b cd f3 3d 39 e2 7d 3d 03 f8 1b 3c fa c7 b9 3c
       0.119044386 0.06198332 0.00951958 0.022678364
000190 87 30 ae 3d da f5 6d bd 51 cd 15 bd 05 03 b4 bd
       0.085053496 -0.05809579 -0.036572758 -0.087896384
0001a0 6f b1 57 bd 01 00 a8 3c c3 f9 14 3d 90 1f 88 3d
       -0.05265945 0.020507814 0.036371004 0.06646645
0001b0 36 34 04 3d b5 e7 2d bd 5b d2 02 3e ce a0 2b bd
       0.032276355 -0.0424573 0.12775557 -0.041901402
0001c0 c6 31 ae 3d b4 da 71 bd a7 fb 5f bb 49 57 d4 3c
       0.08505587 -0.059046462 -0.0034177096 0.025920527
0001d0 08 41 9d bd bb e4 10 bd b2 90 90 b9 b3 64 5f 3e
       -0.07678419 -0.035374384 -0.00027573627 0.21815757
0001e0 4e bb c0 3d 3d 21 23 3e 16 72 ff 3d 90 78 9a bc
       0.094107255 0.15930648 0.12472932 -0.018856317
0001f0 dd 2c d1 3d c1 c1 a8 bd 3b 2b 0a bd 50 6a 1f bd
       0.10213635 -0.082400806 -0.033732634 -0.038919747
000200 a5 56 ec 3d 4b e3 31 3e 4e c8 07 3c 94 42 1d bc
       0.11539964 0.17371862 0.008287502 -0.009598393
000210 37 95 d4 3b b3 ea 95 bd 3f 90 83 bd 49 c2 16 be
       0.0064875144 -0.07320156 -0.06423997 -0.14722551
000220 8d 0e 54 bd 88 89 2c bb 55 7d ee bc dc e1 01 be
       -0.05177169 -0.0026327092 -0.029112497 -0.12683815
000230 d1 56 f5 bd 5d da c6 bc 6e 8a d3 3d 47 7f e9 3d
       -0.119794495 -0.024274046 0.10329138 0.11401229
000240 91 b0 f7 bb 94 f3 c9 bd e4 ea 9b bd 4c c7 13 bd
       -0.00755889 -0.09860912 -0.07613161 -0.036078736
000250 cf e9 3c be 42 45 41 be 44 ff 84 bd dc dc 51 3d
       -0.18448566 -0.18874076 -0.064940006 0.05123602
000260 2a 7a b4 3a 2d c0 1d 3e 30 af ba 3d 16 2e 30 3e
       0.0013769318 0.1540534 0.091154456 0.1720508
000270 30 2e 8b ba e1 58 45 3c 46 e4 0a be 18 ed b8 3d
       -0.0010618623 0.012045116 -0.13563642 0.09029597
000280 c5 47 db 3d 35 0e 89 3d 52 e2 a6 bc 6d 5f d8 3d
       0.10707048 0.06692163 -0.02037159 0.10565076
000290 fa e3 d6 3d 06 28 3b 3e 41 2e 69 3e 91 f8 8b 3e
       0.10492702 0.18276986 0.2277155 0.2733808
0002a0 c7 19 3d 3e ec e1 9a 3d 40 c6 d9 bb fc bc 97 bd
       0.18466865 0.075626224 -0.0066459477 -0.07409093
0002b0 d8 3d 6c bd dd 9c 00 be 23 19 84 be d7 ca 45 be
       -0.057676166 -0.12559839 -0.25800428 -0.19315659
0002c0 4c 5b 59 be 7f dc da bd 78 e8 8c bc 11 ea 79 bd
       -0.21226233 -0.106865875 -0.017200693 -0.06101424
0002d0 b8 f2 73 3d 3b 4f 41 3d ac 41 5d 3d 30 f5 12 be
       0.059557647 0.0471947 0.054017708 -0.14351344
0002e0 69 f9 b0 bd e9 56 5d bd 3e f0 ac bd 4e 18 7b 3b
       -0.08641321 -0.054037962 -0.0844426 0.0038314047
0002f0 6c 6e a7 3d 43 03 70 bd 5c fc 24 bd e4 ee aa bd
       0.08175358 -0.05859686 -0.04027973 -0.08346346
000300 b2 5a 8e 3d 2d 20 33 3e 06 6f 15 bd 05 be 10 bd
       0.069508925 0.17492743 -0.036482833 -0.035337467
000310 18 b3 ae 3c 18 7b b1 bc 6b 6c b3 3d 77 15 e1 3c
       0.021325633 -0.021665141 0.087609135 0.027476056
000320 f9 d7 11 bd 57 7f 0c 3d 35 33 c1 3d 80 c3 a6 bc
       -0.03560636 0.03430113 0.09433595 -0.020356894
000330 3e b6 c1 bd 36 e5 9b bc f6 66 bb 3c 7a e1 d3 3c
       -0.09458588 -0.019030195 0.022876244 0.025864352
000340 55 30 82 3c fd 09 ce 3d a0 aa 19 3d e0 8b 9d 3d
       0.015892187 0.10060499 0.037516236 0.07692695
000350 d1 7c 05 3e a7 72 9e bc 57 28 5f 3d 3a af c7 bc
       0.13035895 -0.01934178 0.05448183 -0.024375547
000360 3b 9b 04 3d be 64 b9 bd 34 9f 2d bd cc 32 cf bc
       0.0323746 -0.09052418 -0.042388156 -0.025292777
000370 8f ed 09 be 9a 9e af bd e0 78 1a 3d 91 46 39 bd
       -0.13469528 -0.08575173 0.03771293 -0.045233313
000380 12 1f 79 3c eb 0a 60 bd c3 c9 34 3a ec b5 84 bd
       0.015205162 -0.054697912 0.000689652 -0.06480011
000390 6e fa 67 3d ff 0f 89 3b 0f 86 f6 3c e7 58 83 3c
       0.056635313 0.004182815 0.030093221 0.016033603
0003a0 1d 0a 47 bd e7 fe 42 3d ae e0 7d 3c 1d de e9 bc
       -0.04859363 0.047606375 0.015495462 -0.028548295
0003b0 9a a1 9a 3d 0b 18 93 3b d8 9c d8 bd 15 60 8f 3d
       0.07550354 0.00448895 -0.105767906 0.07000748
0003c0 c2 2f 12 3d c1 d1 d5 bc ad 43 5d bd 6b 3c 55 bd
       0.035690077 -0.026100995 -0.05401962 -0.052059572
0003d0 0a 9d 38 3d 9c 06 d6 3c dc 4d d9 bd 66 51 33 bd
       0.04507164 0.026126198 -0.106105536 -0.0437788
0003e0 7a 83 b3 3d 14 2a ec 3d 13 aa 9a 3d af 4f c0 bb
       0.087653115 0.11531463 0.0755197 -0.005868874
0003f0 09 c8 92 3d 60 98 a1 bd 24 07 83 bc fe 07 cb 3c
       0.0716706 -0.07890391 -0.015994616 0.024784084

conv1.bias f4 [64]
000000 82 bf a1 3c 48 36 10 be 0d 74 a5 3c e9 aa 18 be
       0.019744638 -0.14083207 0.020196939 -0.14908947
000010 ec 4b ec 3c f1 c7 61 3c 4b cd 44 3d 45 a5 07 bc
       0.028844796 0.01378058 0.048047345 -0.008279149
000020 aa 7f 85 3d fb bc db bc 9f 54 6a bc 5d bd 88 3c
       0.065184906 -0.026823511 -0.014302402 0.016691858
000030 6f 68 56 be 74 09 81 3e bd 8d 95 3d 06 be b5 bb
       -0.20938276 0.25202525 0.07302425 -0.005546334
000040 4e 05 07 bb 57 2d 8f ba bd 1c 1e bb 2e 62 52 3c
       -0.0020602527 -0.0010923547 -0.0024126016 0.012840791
000050 2f b5 83 3c 8c e3 a9 bc 3b 75 ce bc 89 58 55 3d
       0.016077606 -0.020738386 -0.025202384 0.052086387
000060 d9 39 b5 be aa 6e db bc ce fa 85 3d 36 e6 2e 3c
       -0.35395697 -0.026786167 0.06541978 0.010675004
000070 c8 ed 03 3d cb 7a 77 3c 92 10 bd 3c e4 39 23 bc
       0.032209188 0.01510496 0.02307919 -0.009962533
000080 41 f5 3f 3d d1 d8 b6 3c 11 f1 81 3a 56 24 37 bd
       0.04686475 0.022320183 0.0009913762 -0.044712387
000090 21 e0 db bb 29 87 ac 3d 29 f0 86 bc 51 f4 fa 3c
       -0.006710068 0.08424217 -0.01647194 0.030634077
0000a0 45 68 bb 3b 80 91 81 bb 5b 60 bb 3d 53 77 b8 bc
       0.005719217 -0.0039541125 0.09149238 -0.022517836
0000b0 39 b0 40 3d 9e 57 20 bc 21 5b 12 bd 6e ea c2 3c
       0.04704306 -0.009786515 -0.03573144 0.023793425
0000c0 aa e7 a9 ba 24 de 03 3c f0 8f 6e 3c d4 6a 82 3c
       -0.0012962718 0.008048568 0.014560685 0.01592008
0000d0 c6 45 2a 3c c6 56 2e bc da 36 4a 3c c4 06 6d 3c
       0.010392612 -0.010640806 0.012342179 0.014466945
0000e0 17 88 3b 3c f7 88 46 bc 62 e9 68 3a a5 90 3f 3d
       0.011446021 -0.012117616 0.00088848744 0.046768803
0000f0 5e 50 37 3d f2 e8 13 bc a8 0e 07 bd 7d de 4a 3a
       0.04475438 -0.009027706 -0.03297296 0.0007738842

conv2.weight f4 [32, 64, 5, 5]
000000 3c 63 dc 3c 16 92 aa 3d 5c cb 7a 3d f7 2b 30 3d
       0.026902787 0.08328645 0.061229095 0.04301068
000010 48 ec 8b bc 6d 1a 2b 3d 32 15 ee 3b 14 ac 5e bc
       -0.017080441 0.04177325 0.0072657103 -0.013590831
000020 6a b1 f2 3c 10 94 6d 3b b8 ad 15 3d c2 be 6f 3c
       0.029625613 0.0036251582 0.036542624 0.014632883
000030 fc bf 54 3c ac 67 06 bd 77 d5 03 3b 92 64 26 3d
       0.012985226 -0.032813713 0.0020116249 0.040623255
000040 08 d0 a1 3d 39 35 3d 3b 4f e0 85 3a 3e f6 01 3e
       0.07901007 0.0028870835 0.0010213944 0.1269159
000050 53 52 93 bb 5b 54 08 3d 57 c3 b8 bd b2 48 ac bc
       -0.004495898 0.033283573 -0.09021633 -0.021030758
000060 a9 b4 2b 3c df 6a ad bd da 5c b5 3c 08 07 8f bc
       0.010480084 -0.0846765 0.022139002 -0.017459407
000070 e9 51 ae bd e3 c3 b2 bd ec d7 23 be 6c a0 02 bd
       -0.08511717 -0.08728769 -0.16000336 -0.03189127
000080 57 d8 d2 3d 46 49 86 3d 1d 0a c2 bc d3 09 5f bd
       0.1029517 0.065569445 -0.023686463 -0.05445273
000090 d4 e9 27 bd 27 45 93 3d 9e e2 c9 3d 8c 24 80 3d
       -0.04099448 0.07190924 0.09857677 0.06256971
0000a0 f4 f8 0b be 38 3e fe bb 74 ec 9c bc 28 bc f7 3b
       -0.13669187 -0.007758882 -0.019155718 0.007560272
0000b0 6c 73 20 3d d1 60 ad bd 19 38 8e 3d 7d 21 fe 3c
       0.039172575 -0.08465732 0.069442935 0.031021828
0000c0 1f c5 46 3d e9 d2 95 3d ee 29 d6 3c 18 25 90 3d
       0.048527833 0.073156185 0.02614304 0.07038325
0000d0 11 23 53 3d 0a f5 15 3e 16 81 0b 3e e5 13 0c 3d
       0.051547114 0.14644256 0.13623461 0.03419866
0000e0 50 43 7a 3c bc 97 1e 3c 08 8b 5c 3c c0 4f 63 bd
       0.015274838 0.009679731 0.013460882 -0.055495977
0000f0 b8 aa 9c 3d 04 35 a6 3d 91 f9 2f 3c 78 92 fc bc
       0.076497495 0.08115581 0.010740654 -0.03083156
000100 46 d9 dd bd 69 1c b9 3c a2 b8 c7 3d 69 f7 86 3d
       -0.10832457 0.022596555 0.09752013 0.065901585
000110 75 21 20 bc 4d 39 3a bd 81 3c c2 bd cd 69 18 bd
       -0.009773602 -0.045464803 -0.094841965 -0.037210274
000120 ac 39 05 bd 22 53 2b bd 5b be 95 bb c6 dd 24 3d
       -0.032525703 -0.04182733 -0.0045698113 0.040250562
000130 ce 0d 1d bb ed 67 71 3d da db 07 bb 8c 37 a6 bb
       -0.0023964527 0.058937002 -0.0020730407 -0.0050725397
000140 7a 97 1c bd 4d 01 c7 3c 62 0a bc 3c 30 5b 6f bb
       -0.038230397 0.024292612 0.02295417 -0.0036522858
000150 be 51 96 bd 7a 65 2b 3c ee 61 11 bd 35 33 12 bd
       -0.0733981 0.010461206 -0.035493784 -0.035693366
000160 22 e8 59 bd f3 65 19 be 6a e6 4a bc 3b b0 fe bb
       -0.053199895 -0.14980297 -0.012384037 -0.007772473
000170 9b da de 3b 82 1a 82 3d dd 84 bf 3c 09 02 c5 bc
       0.006800962 0.06352712 0.023378784 -0.024048822
000180 e0 ff 1d bd dc 9d 9a 3b a7 0f cb 3d f6 29 c9 3d
       -0.0385741 0.0047185253 0.09915095 0.098224565
000190 f9 5d f1 bc de 3b ca bc 6e a4 21 bd bc 54 2d bd
       -0.029463755 -0.02468675 -0.039463453 -0.042317137
0001a0 a4 8b a0 bc e2 2f 9c 3d 95 89 85 3d 26 4d df 3c
       -0.019597836 0.076263204 0.06520382 0.027258467
0001b0 dc fc df bc 45 38 dc bd e5 ad ae bd 5c 13 33 bd
       -0.027342252 -0.1075292 -0.085292615 -0.043719634
0001c0 4e 07 52 3d 48 41 95 bc 49 cc 41 be 22 ee bd bc
       0.051276498 -0.018219605 -0.18925585 -0.02318484
0001d0 00 e5 92 3d f8 2f b0 3d 0b 3c a7 3d c2 19 99 3b
       0.071725845 0.08602899 0.08165749 0.00467226
0001e0 1e b6 33 bd 5b 67 fd bc ac 70 94 bd 7e fd 3a bd
       -0.043874852 -0.030933073 -0.07248053 -0.045651905
0001f0 8c f3 2c bc 3b 6b 1c 3e ae 34 9c 3d be 97 85 3c
       -0.010556113 0.1527528 0.07627235 0.016307708
000200 9f 23 2d 3c 31 dd c2 bd bb ab 33 3d d3 42 13 3d
       0.010567575 -0.09514845 0.043864947 0.0359524
000210 4c c9 c0 3c ef c4 4a bd c8 86 7f bd b3 6d fb bc
       0.023533486 -0.049504217 -0.062384397 -0.030691957
000220 a8 81 14 3c f5 5d 0a 3d d0 22 34 bd f0 67 45 bd
       0.009064116 0.03378101 -0.043978512 -0.048194826
000230 64 d1 1f bc b5 80 f5 3c 7f ae f3 3c 46 4c 7d bc
       -0.009754512 0.029968599 0.029746292 -0.01546008
000240 8b 81 5a 3a 65 d9 ae 3d 67 65 35 3d fa 81 1e 3d
       0.00083353434 0.085375585 0.044286158 0.038698174
000250 63 29 95 bb 4d 4a 84 bb aa 3c b9 3c c2 93 00 3d
       -0.004552053 -0.0040371777 0.022611935 0.031390913
000260 51 c2 1e 3d 2f 21 bf 3d eb aa 89 bd 1e fe 9e 3d
       0.038759533 0.09332501 -0.06722053 0.07763313
000270 45 48 86 3d 0b 52 5d 3c d2 82 00 bd 72 c3 a1 bd
       0.06556753 0.01350833 -0.03137476 -0.07898606
000280 ed 0a ee 3d bd 39 8c 3d b6 95 8c 3c 3c 7a a0 bb
       0.11623178 0.0684695 0.017161231 -0.004897384
000290 39 a9 ee bb c9 6e d9 bc b2 f4 d7 bc a2 64 77 bd
       -0.0072833565 -0.026542084 -0.026361797 -0.060398705
0002a0 fd a6 a9 bd cc 59 f4 3d 7a e8 5e be 31 60 d0 bd
       -0.082838036 0.1193119 -0.2176837 -0.10174597
0002b0 aa cb 98 3b 7e 3d 1d 3d 51 7b ee 3d 78 55 0f 3e
       0.0046629505 0.03838872 0.116446145 0.13997447
0002c0 f4 bb 2b 3e 0c f2 2d 3e be 42 c5 3c bc c7 75 bd
       0.16770917 0.16986865 0.024079677 -0.060004935
0002d0 fb 0f 36 bd 12 fa 39 bd f8 06 00 3e e7 e5 86 3d
       -0.044448834 -0.0454045 0.12502658 0.06586819
0002e0 24 69 93 bd 9a da ca bd 37 63 f0 bd 56 44 0c bd
       -0.07197788 -0.09904976 -0.11737674 -0.034244858
0002f0 c5 0a aa 3d 8e ca 8f 3d e2 9d af 3d c1 50 fe 3b
       0.083028354 0.07021056 0.08575036 0.0077610915
000300 ca 66 32 bd f4 81 5c 3d 9d 19 d6 bc 86 97 d2 3d
       -0.04355506 0.05383487 -0.02613526 0.10282807
000310 4a b3 7b 3e dd 01 19 3e 17 67 51 3d 5a 85 84 3a
       0.24580112 0.14942117 0.051123705 0.0010110543
000320 ca 3d 43 3d ca 81 a3 bd 34 ea e8 bd 5d 9c 33 b9
       0.04766635 -0.0798374 -0.11372796 -0.0001712902
000330 10 99 c2 3d 3b f7 30 3d 5a 76 9c bd cd 5e d5 bd
       0.095018506 0.043204527 -0.07639761 -0.104184724
000340 f8 f3 80 bc 1d 56 f7 bc 4f 19 d7 3d 32 5e 1e 3d
       -0.015741333 -0.03019243 0.10502874 0.03866405
000350 6f be 21 bc e3 61 a9 3d 97 39 d8 3d a7 14 99 bb
       -0.009872063 0.082706235 0.105578594 -0.0046716514
000360 3f bf 3c 3d 95 fa 06 3d 86 ff 81 3d da 53 64 bb
       0.046080824 0.032953817 0.06347565 -0.0034840018
000370 96 75 0a bd df 8a 0d 3e 6a 93 13 3d e9 35 f8 3c
       -0.033803545 0.13822506 0.036029257 0.030299144
000380 98 2e 45 bd 73 f8 99 3c 70 81 59 bd 28 f0 77 bd
       -0.04814014 0.018795228 -0.053101957 -0.060531765
000390 57 92 19 bc e9 74 a0 3c 89 cd 82 3d 22 3e 18 bd
       -0.009373269 0.019586997 0.06386859 -0.03716863
0003a0 5a ec ae bc e5 fb 03 3d c2 ee 77 3d 0d 28 d5 3c
       -0.021352936 0.032222647 0.06053043 0.026020074
0003b0 4c 40 11 bd 4f 88 6f ba 45 b3 40 3d b2 2d 7b 3d
       -0.03546171 -0.0009137438 0.047045965 0.061322875
0003c0 d1 b9 83 b9 09 b6 11 bd 2d de e6 3a 3e 22 9e 3c
       -0.0002512471 -0.035573993 0.0017613821 0.019303437
0003d0 f4 a6 fa 3c 5a 48 1c 3b 97 61 8e bc 2b 5f 4b bc
       0.030597188 0.0023846836 -0.017380519 -0.0124128265
0003e0 67 44 01 3d 2e 28 b7 3a 17 de c6 bc 1f f0 10 bd
       0.031559374 0.0013973766 -0.024275823 -0.035385247
0003f0 45 98 e0 3b b5 72 8e 3c 45 f4 a9 bb 88 5c fe bc
       0.0068540894 0.017388681 -0.00518659 -0.031049982

conv2.bias f4 [32]
000000 e5 d6 06 3d 25 66 be bb 4c 3d 0b 3c 7c 4c cf 3c
       0.032919783 -0.0058105164 0.008498501 0.025305025
000010 5f 06 2f 3d 44 0e 21 bd 7e 90 25 3b a1 a6 ca 3c
       0.042730685 -0.039320245 0.0025263126 0.024737658
000020 8a 49 ac 3c 09 49 38 bd a2 5b 4a bb 2d 58 8d bd
       0.02103116 -0.044991527 -0.0030877371 -0.06901584
000030 2a 43 2a 3d 76 e9 96 bd ad 5f d3 3d fb 60 ef 3c
       0.04156796 -0.07368748 0.10320983 0.029221049
000040 04 e2 85 bc 3f 8c 52 3c 33 e2 4e bc 9c 68 5e 3d
       -0.016343124 0.01285082 -0.012627172 0.054298982
000050 dc b0 50 3d 76 c5 16 3d b3 ca 3a bd 40 bb 79 3c
       0.050949916 0.036809407 -0.045603465 0.015242398
000060 52 ee 84 bc e4 db 6c 3d e8 49 a9 3c a0 cb 2e 3d
       -0.016226921 0.05782689 0.020665124 0.04267466
000070 f2 44 07 3d 5d 9f 34 bd 4d b5 95 bd d6 4d e7 3c
       0.033024736 -0.044097293 -0.07309971 0.028235357

conv3.weight f4 [1, 32, 5, 5]
000000 3b 4d 33 bc 7f 81 a9 3c da 0b e0 3c 45 70 2f 3d
       -0.010943706 0.020691631 0.027349401 0.042831678
000010 b0 47 0a 3d f1 dd 94 bc b6 75 b3 3b 37 ca 1d bb
       0.033759773 -0.018172236 0.0054766787 -0.0024076828
000020 fb 19 50 bb 89 13 a0 ba cd 81 13 bc e0 fc 92 ba
       -0.0031753767 -0.0012212853 -0.009003115 -0.0011214279
000030 b9 27 83 bc 26 84 80 bd 52 41 a2 bc af c5 36 ba
       -0.016010152 -0.06275205 -0.019806538 -0.0006972206
000040 35 d6 65 bc c1 01 b1 bc d3 c6 27 bd e2 d6 81 3c
       -0.014028122 -0.021607282 -0.040961098 0.015849534
000050 55 4c fd 3b 94 03 a7 3c 00 e9 b7 3c a0 71 f0 3c
       0.0077300468 0.020387448 0.02244997 0.029351056
000060 bf 8b 9f 3b a4 4a b2 3b a0 ad 0b bd 9d e3 42 3c
       0.004868954 0.0054410268 -0.03410113 0.011895088
000070 fb c0 c2 3c 53 67 c8 bc 2a 7d 9f 3c 49 bb 48 bc
       0.02377366 -0.024463331 0.019468863 -0.0122516835
000080 27 3d 6d 3c d7 e4 90 bc 1e ba f1 3a b1 99 2a bd
       0.014479912 -0.017687244 0.0018442308 -0.041650478
000090 51 80 c6 3c c0 f6 8a bb c7 26 da 3c 2d 41 86 bc
       0.024231108 -0.0042408407 0.026629819 -0.0163885
0000a0 94 b7 46 3c 1d ce c8 bc 63 b1 af bc 4c f1 8a bc
       0.012128729 -0.024512345 -0.02144689 -0.016960762
0000b0 cf 8b 6e 3c 62 f8 e4 3c 8f 8a ee 3c 7a 13 c6 bb
       0.0145597 0.02795047 0.029118804 -0.0060448023
0000c0 f4 b2 f5 b7 08 ba d1 3c 48 15 82 bb bd 2a 53 3d
       -2.9289607e-05 0.025601402 -0.003969822 0.05155443
0000d0 ad fa 4c 3d d9 f2 09 bd de a6 d1 bc 99 4b 44 bd
       0.05004375 -0.033678863 -0.025592264 -0.047923658
0000e0 0f fa 53 bc 52 d0 d8 bb 4f 7d 37 3c 25 87 b4 bc
       -0.012938037 -0.0066166306 0.0111993095 -0.022037098
0000f0 75 68 94 bd b8 f3 d7 bc d8 f5 80 3d 84 83 76 3b
       -0.07246486 -0.026361331 0.06296891 0.003761501
000100 6a 4a 70 bc 51 a2 2e bd ed e5 56 3d ae 0c b0 3c
       -0.014666179 -0.042635266 0.052465368 0.021490421
000110 fb a2 0f bc b8 e8 05 bb 3d c8 09 bc 63 b1 52 3d
       -0.008766885 -0.00204329 -0.008409557 0.0514387
000120 8e 93 08 3d 41 39 bd bc 8a 1d 9b bc be 46 81 bd
       0.033343844 -0.02309859 -0.018934984 -0.06312321
000130 d4 06 be bb b0 79 3b 3c 4e f4 81 3c 81 42 06 3c
       -0.005799154 0.011442587 0.015863564 0.008194567
000140 6c d1 82 3c a1 e5 0c 3d 44 b1 fd 3c c0 f1 1e 3c
       0.015969 0.03439868 0.030968316 0.009701192
000150 e6 53 4b 3b 99 a3 7d 3d ba 51 00 3d d1 bc 35 bc
       0.003102535 0.061923597 0.03132794 -0.011092381
000160 ef ab 52 bd 4c 64 61 bc 17 17 1b 3d 4f e9 fb bb
       -0.0514335 -0.013756823 0.037863817 -0.0076877247
000170 0e 33 82 bd 5c 51 38 bd de 3a 6b bb dc 73 4b 3b
       -0.06357394 -0.044999465 -0.0035893242 0.00310444
000180 62 51 5e bc 39 d7 52 bc 02 cf c5 3b 62 fa f5 3c
       -0.013569208 -0.012868696 0.00603664 0.030026618
000190 ec ef 02 3b c4 ab 83 3b bb a2 49 3c 63 12 93 bb
       0.001997943 0.004018279 0.012306864 -0.004488276
0001a0 18 24 6f 3b ca 31 51 bc 79 0f eb 3c 31 bc b7 ba
       0.003649002 -0.012768218 0.028693901 -0.0014017877
0001b0 63 ad ca 3c a9 4f ac bc 66 55 00 bd 6e c6 f1 3a
       0.02474088 -0.021034079 -0.031331442 0.0018445977
0001c0 dc 97 08 bd af 4c aa 3c e1 3c ae 3c 1a a9 c5 3c
       -0.03334795 0.020788519 0.021269264 0.024128485
0001d0 f5 04 e5 3c a7 c6 1f 3c 91 fe 3f 3c a5 f4 cf bb
       0.027956465 0.009751952 0.011718408 -0.0063463026
0001e0 ec 87 f5 3c 80 a9 43 3c 0f 13 27 bc c1 72 11 bd
       0.02997204 0.011942267 -0.010197415 -0.03550983
0001f0 f2 76 0b 3b ee fc 07 bc c4 f5 11 3d 6a 32 50 3d
       0.0021280614 -0.008300049 0.03563477 0.05082933
000200 b1 8a 01 3d 7c 01 ec bb d6 de 79 3c 00 97 df 3b
       0.031626407 -0.0072023254 0.015250882 0.0068234205
000210 2d 58 da 3c 8d 4d a7 3b 23 a9 11 bb 47 8a 04 bc
       0.026653374 0.0051056803 -0.0022226057 -0.0080896085
000220 9a f5 51 3b 10 7e 3a bd aa 23 05 bd 3c ae b0 3c
       0.003203726 -0.04553038 -0.032504715 0.021567456
000230 a5 28 08 3c 82 fc 41 bd 35 82 3e bd aa 91 22 3c
       0.008310472 -0.04735995 -0.046510894 0.009922424
000240 5e 2f e5 3b 77 d3 4c 3c b1 69 1c bc d2 b6 51 3a
       0.006994172 0.012501589 -0.009546683 0.00079999596
000250 6c 3a dc 3c 9e 97 06 bc 33 7e 1e 3c 02 60 f5 ba
       0.026883326 -0.008214859 0.009673643 -0.0018720629
000260 df 98 2b 3c 34 2a 1a 3b 3d 63 c9 bb 06 05 0a 3c
       0.010473459 0.002352369 -0.0061458633 0.008424049
000270 90 52 8c 3b e7 0e eb bb 65 de ab 3c c3 2c ff 3c
       0.004282303 -0.0071734074 0.02098007 0.031149274
000280 15 e5 8b 3c 04 7b 50 bc 0d 2f ed bc d5 85 de bc
       0.017077008 -0.012724642 -0.0289531 -0.027163425
000290 61 72 a3 bc 23 51 d8 bb 79 bc 89 3c 33 40 41 3c
       -0.019952001 -0.006601469 0.016813504 0.011795091
0002a0 21 b2 05 3d 9c 50 1e bd bf 42 c6 bc bd 07 fd 3c
       0.03264058 -0.038651094 -0.024201749 0.030887479
0002b0 8d ce b2 bc 95 50 c9 3c d5 31 31 b9 94 f3 ae bb
       -0.021827007 0.024574557 -0.000168986 -0.0053390954
0002c0 63 f2 c3 3c b8 22 dc 3c 2a 4a 60 bc 20 96 ad ba
       0.02391929 0.026872024 -0.013689557 -0.0013243593
0002d0 6f fe fb 3c 5f ef de 3c c6 31 54 3c e9 ee ad bc
       0.030760972 0.02721375 0.01295132 -0.021232085
0002e0 a5 24 c4 bc 1f 4e ba 3c cf d5 8f 3c 99 bf b3 bb
       -0.023943255 0.02274233 0.017558007 -0.0054854867
0002f0 19 18 0b 3d 3e cb c6 3c f5 48 1d bc 1a 85 5d 3c
       0.03395853 0.024266835 -0.009599914 0.013520503
000300 d8 f8 06 3d 59 0a a6 3c 9f 23 8d bc 87 db 0c bd
       0.03295216 0.020268606 -0.0172289 -0.034389045
000310 44 9f 23 3c 98 f9 51 3c 3b 65 0d bd 09 ae b8 3b
       0.009986702 0.012815855 -0.03452037 0.005635981
000320 d1 7f 35 bd 73 c9 ee bc 66 a2 4f bd 2a 26 f6 bc
       -0.04431135 -0.029148793 -0.050691985 -0.030047495
000330 c0 2e 48 bb 14 39 e1 bc 8a 12 97 3c d0 e4 11 bd
       -0.0030545443 -0.027493037 0.018441457 -0.035618603
000340 97 58 8f bc 5d 89 36 bc fa cb bb bb c9 d0 da 3d
       -0.017498298 -0.011141148 -0.005731103 0.10684354
000350 87 bf d0 3d af 02 85 bc 93 65 d9 b9 09 f4 5e bd
       0.10192781 -0.016236631 -0.00041465144 -0.05443195
000360 b9 df a1 3d 72 0f f0 3d d8 5b c8 bb bf 6a 5e bd
       0.07904 0.11721696 -0.0061144643 -0.05430102
000370 ba cc 58 bd ae 01 0f bd a2 60 32 3c 7f fe 5f bc
       -0.052929617 -0.03491371 0.010887297 -0.013671516
000380 68 45 82 bd 0a cf 3c 3d 55 5e 88 3c 69 2a 88 3c
       -0.063608944 0.046095885 0.016646544 0.016621785
000390 77 99 e7 3c c6 93 bb 3c d4 6f c0 3c f3 fc 8b bc
       0.02827142 0.022897612 0.023490824 -0.017088389
0003a0 ea f9 d9 bc 1e 3a 0a bc 96 a8 a5 3c be 4f dd bc
       -0.026608426 -0.008436708 0.02022199 -0.027015563
0003b0 5d 02 79 bd cb 60 87 bd 52 7d 50 bc ad 98 3d 3c
       -0.06079327 -0.06610259 -0.012725191 0.011572045
0003c0 7d 2d 7f bc 1a d6 50 bc 6b 0e ae bc 05 d9 53 bc
       -0.01557481 -0.012746358 -0.02124711 -0.012930159
0003d0 bb 5d 03 3d 89 a7 03 3d 58 e8 fd 3c 42 db 1b 3d
       0.03207181 0.032142196 0.03099458 0.038050897
0003e0 dc a7 74 3c 35 74 4c 3c eb d4 fc bc fa ca 76 bc
       0.014932599 0.012478878 -0.030863246 -0.015063042
0003f0 8a be fd ba 7b 32 f8 3b 7f 8b 6a 3c 9a 27 9c 3c
       -0.0019359153 0.007574377 0.014315485 0.019061852
