2021_BOML_srcnn_project/output/epoch_118.pth (torch, 231519 bytes, 5 tensors)

conv1.weight f4 [64, 1, 9, 9]
00000000: 1c87 03bd 069d 993c 08d4 71bd f5c9 a03d
00000010: 5e71 47bd b30d e33d 9526 5bbd 3d41 fd3b
00000020: ddf4 6f3a dafc a93d 34af 9fbc c7fd bc3c
00000030: b012 cbbd e5bf 95bd 856e 96bd bbde 56bd
00000040: 10cb 65bd b8a2 de3d 92dc c73c ce45 893d
00000050: 1ac7 843d 9899 743c dd90 d23c 6aca 963d
00000060: 307f e1bd 93a2 513b 3f24 87bd 384b 4c3d
00000070: 9b6a e83c f62d 3cbe 50da 953d 3424 863d
00000080: 62d7 2c3d 1e90 96bb 0b33 273d 1f83 66bd
00000090: 716d f4bd f899 a4bd ce98 dbbd 0fee aa3d
000000a0: c18b ad3d 04a4 233b 3292 31bc f46a d13d
000000b0: 1154 a3bc 5189 71bc 4475 3cbd ff56 e13c
000000c0: 6161 473e 1f30 1c3e 96d6 893d 4fa2 7d3b
000000d0: b77d e23c 2810 df3c f5cf 3bbc cf67 0fbe
000000e0: e5c9 bbbd 6bb3 ec3d b0be 7bba 27d5 02be
000000f0: 3ac9 aebc 2398 f33d ba8d aebd f3ff 1bbd
00000100: ac9a a3bd 5953 53bd 9e29 50bd ffa4 49bd
00000110: 2606 1fbe 4c6b 933c a6dc 083e eb2b b63d
00000120: 3f8b 913d 02eb 2abd 44ae 623c 7765 1cbc
00000130: 2ef9 3d3d 8668 e5bd e9e1 f0bc 9e93 a83d
00000140: cb91 ce39 a387 603d cf6c 973c 04e1 153c
00000150: 0ac4 a6bd dfbe 76bd dc73 b6bd d2ac d63d
00000160: 9165 4f3d 82c7 37bd 88bb a0bd 62d2 433d
00000170: a89a 803c 0801 033c 1838 eabd dc68 1abd
00000180: 5e37 e23d e6f5 8b3d 73df d33c f412 94ba
00000190: d5f4 853d d717 a1bd 9654 84bc 3314 b4bd
000001a0: 2050 6fbd 182a e53a 980f e83c 6153 8e3d
000001b0: 0e00 4d3d 0999 f4bc 0991 e83d 95a8 d8bc
000001c0: 242b a93d c882 2ebd 2587 8fbb 879d 8f3c
000001d0: 23fe e4bd cc64 dcbb c21e aa3c 6929 383e
000001e0: 7213 7b3d 74a1 eb3d d05a cd3d db40 0bbd
000001f0: 9fa2 d53d e2a2 bfbd 36bc cebb 7d8d 38bc
00000200: 6c88 a53d 5860 0f3e b5c7 99bc 776c 93bc
00000210: 14c4 b73b 63c1 66bd 8593 27bd 0590 13be
00000220: 933f 2ebd f8c8 aabb 840b 70bc 4ed3 b7bd
00000230: cdeb c0bd c28d 23bd 0566 9f3d abe1 d93d
00000240: 8a73 583b ab1d d3bd c153 a7bd 24e2 c6bc
00000250: 69b7 10be 79d9 26be 0e1c 95bd ac2b 573c
00000260: 8b53 68bc bdfe 033e 40c5 353d 42d2 003e
00000270: dc63 efbc 8196 183d bb15 b3bd 9cc7 043e
00000280: 2518 e53d 95e9 b93d ddd8 7fbd 0b2b c23d
00000290: 7b45 db3d 7d8e 2e3e f566 313e 9e27 773e
000002a0: b391 1d3e 8962 a73d 831f 24bd ca8c aabd
000002b0: b3c8 19bd 0e1b 84bd 1a75 26be 6b96 e0bd
000002c0: c00d 0cbe 9891 93bd c0b2 df3c 9750 78bd
000002d0: 5466 6b3d 723f 303d 2724 753d 196c f8bd
000002e0: aebd a3bd 0f74 21bd f85b 9dbd 14ab d63c
000002f0: c16d 6f3d b0cb 81bd eb4c 55bd 2c95 c1bd
00000300: c740 713d d96b 133e 5760 6abd 4e92 2ebd
00000310: d6a0 0d3d efe6 4fbd 77c1 c53d c3b8 0b3d
00000320: 9f6e e0bc d9b2 0a3d 712a a53d 5cf7 e4bc
00000330: 9e7f b5bd 6085 ec3b 4e18 a43c d25c 9b3c
00000340: 45d5 7f3b 5269 bf3d dbcf 443c a91b 363d
00000350: 5262 b23d a3fe 23bd 132c 883d a571 d2bb
00000360: b602 503d bb1d 96bd 1dd0 3ebc 721b 7fbb
00000370: c27f ddbd 170a bdbd 0ccd 2d3d 66a5 8ebc
00000380: d78e 763d 0f02 99bd a664 0abd 446b acbd
00000390: 8b42 273d bdbf 923a 6841 71bb bd90 f7ba
000003a0: b37f 8cbd ae76 183d 75e2 3c3d d4c8 34bd
000003b0: 8787 823d c4ac ef3b b04e abbd 154e 9c3d
000003c0: 4cd8 753d 8991 1dbd 09ff adbd 30be 55bc
000003d0: 33ee 8d3d 7a85 763d a91c d9bd e973 4fbd
000003e0: 9f51 af3d 3d57 a93d 1679 833d 2a4c 5abd
000003f0: 3f14 b43d 9905 b1bd 255b 3fbc 9364 133c
-0.032111272 0.018751632 -0.0590401 0.0785102 -0.0486921 0.11086597 -0.05350359 0.0077287243
0.0009153614 0.08300181 -0.019492723 0.02307023 -0.09915674 -0.073119916 -0.07345299 -0.052458506
-0.05610186 0.1087088 0.024397168 0.06702767 0.06483288 0.014929198 0.025703842 0.07362826
-0.11010587 0.003198777 -0.0659871 0.04987642 0.028371146 -0.18376908 0.073170304 0.06549874
0.042197593 -0.004594817 0.040820163 -0.05627739 -0.11934937 -0.0803718 -0.107225046 0.08346187
0.084739216 0.0024969587 -0.010838078 0.10225478 -0.019937547 -0.014742211 -0.04601027 0.027507303
0.19470741 0.15252732 0.06730382 0.003870148 0.027647836 0.027229384 -0.011463155 -0.14004444
-0.09169368 0.11557659 -0.0009603305 -0.12776624 -0.021336187 0.11894252 -0.08523126 -0.03808589
-0.07988486 -0.05159316 -0.05082094 -0.04922962 -0.15529689 0.0179955 0.1336542 0.088950954
0.07106637 -0.041728027 0.0138354935 -0.0095456755 0.046380214 -0.11201577 -0.029404597 0.08231281
0.00039400006 0.054816853 0.018484501 0.009147886 -0.0814286 -0.060240623 -0.08908817 0.104821816
0.05063397 -0.044868 -0.07848269 0.04780806 0.015698746 0.007995851 -0.1143648 -0.037697658
0.11045717 0.06834011 0.025863385 -0.0011297152 0.06540839 -0.07865875 -0.016153615 -0.08792915
-0.058426023 0.0017483858 0.028327748 0.06949497 0.05004888 -0.02985813 0.11355788 -0.026447574
0.082601815 -0.04260519 -0.004380124 0.01753117 -0.11181285 -0.006725883 0.02076662 0.17984547
0.06129784 0.11505404 0.10027087 -0.033997398 0.10431408 -0.09357239 -0.0063090576 -0.011264202
0.08082661 0.14001596 -0.018771986 -0.017996056 0.005608091 -0.05633677 -0.04091217 -0.14410408
-0.042541098 -0.0052119456 -0.014651183 -0.0897585 -0.094199754 -0.039930113 0.077831306 0.10638746
0.003302785 -0.10308393 -0.08170272 -0.024277754 -0.14132465 -0.16293897 -0.07280742 0.013132971
-0.014180074 0.12890144 0.044377565 0.12580207 -0.029222421 0.037252907 -0.08744379 0.1296677
0.11186246 0.09077755 -0.062462676 0.09480866 0.10706612 0.17046542 0.17324431 0.24136207
0.15387611 0.08173091 -0.040069114 -0.08327635 -0.037544917 -0.06450473 -0.16255608 -0.1096619
-0.1367712 -0.07205504 0.027306914 -0.06062373 0.057470635 0.043029256 0.05984893 -0.12129993
-0.07995163 -0.039417323 -0.07683557 0.026204623 0.05845428 -0.063376784 -0.052075308 -0.094522804
0.058899667 0.1439661 -0.057220783 -0.042619996 0.034577213 -0.050757345 0.09656041 0.03411175
-0.027396498 0.03386197 0.08064736 -0.027949981 -0.08862232 0.007218048 0.02003112 0.018965159
0.003903703 0.0934626 0.012012447 0.044459973 0.08710159 -0.040037762 0.066490315 -0.006422239
0.050783835 -0.073298894 -0.011646298 -0.003892627 -0.108153835 -0.0923044 0.042431876 -0.017412852
0.060194816 -0.07471096 -0.033787392 -0.08418897 0.040834945 0.0011196058 -0.0036812667 -0.001888774
-0.06860294 0.037222557 0.046114404 -0.044136837 0.06373506 0.0073142964 -0.08364618 0.076320805
0.06002073 -0.03846887 -0.0849591 -0.0130458325 0.069301985 0.060185887 -0.106011696 -0.05064765
0.0856049 0.082685925 0.0641958 -0.053295292 0.08792924 -0.08643646 -0.011679445 0.008996147

conv1.bias f4 [64]
00000000: a62f dc3c 528a c0bd 6f95 b93b 0542 d3bd
00000010: 5ae0 0b3d 814f 903c 275a 133d 4dd5 62bc
00000020: 6c3a d23d 3b1e 29bd 54f5 d93a 8b61 b73c
00000030: cff6 3abe c128 2c3e 39f8 733d 0a50 11bc
00000040: 5539 8fbc a70f 37bc 05be 803c c1da 803c
00000050: a9b0 be3c 7914 afbc e5cb 34bd 6a1b 703d
00000060: 75c8 4abe 1ba1 97bc e0f7 8c3d 1739 063c
00000070: 4dab e53c 4b9b 0f3d d829 673d 6aad 5cbc
00000080: ef7f f73c 9f0d 053d 2371 afba 9977 42bd
00000090: c3a3 31bc 62a7 8f3d 7e47 94bc 9585 873d
000000a0: a158 003b 1330 e9b9 7c46 b53d d5bb fbbc
000000b0: 10c2 133d 321d 69bc 4c4b 07bd db20 063d
000000c0: f621 0eba 9385 8f3a dcda eb3c 3878 003d
000000d0: aff6 ea38 c040 083a cd06 673c 7661 483c
000000e0: c0ec e33c 4243 e0bc 10ef b4bb 4e89 4d3d
000000f0: 8305 503d 8554 babc c1e8 1dbd 2034 9bbc
0.02687819 -0.094013825 0.005663566 -0.103153266 0.034149505 0.017616035 0.035974648 -0.0138448
0.10265049 -0.041288596 0.00166289 0.02238538 -0.18258213 0.16812421 0.059562895 -0.00886918
-0.017483393 -0.011173165 0.015715608 0.01572931 0.023277598 -0.021372067 -0.04413976 0.058619894
-0.19803031 -0.018509438 0.06883216 0.008192322 0.028035784 0.03506021 0.05643639 -0.0134690795
0.03021237 0.032483693 -0.0013385158 -0.04747734 -0.0108422665 0.070143476 -0.018100496 0.066172756
0.0019584077 -0.0004447704 0.088513345 -0.030729214 0.036073744 -0.014228152 -0.033030793 0.032746177
-0.00054219307 0.0010949842 0.028790884 0.03136465 0.00011203938 0.0005197637 0.0141007425 0.012230268
0.027822852 -0.027375821 -0.0055216625 0.050179772 0.050786506 -0.02274538 -0.03855205 -0.018945754

conv2.weight f4 [32, 64, 5, 5]
00000000: 2080 cabc 8497 373d 92fb af3d ef6d 953d
00000010: e7f1 9cbd fcd6 413c 65ed dcbb bef4 a23c
00000020: c10b 343d 05eb 0dbc 9979 ad3c 8c9c 4ebb
00000030: dc3f 163c db00 053a 1364 463d 51c8 51ba
00000040: aad0 253d 9e92 783c f478 143d 6d75 ec3d
00000050: 6944 cabc 1454 293c e9cb a0bd 88d8 7c3b
00000060: da6a 913c 929e 93bd a3e2 f13c ea49 a2bc
00000070: b8c4 50bd 910e dcbd 62d0 f6bd 566c 06bc
00000080: 4353 6b3d dd67 913d 22c1 1abd 5691 0cbd
00000090: ca24 8ebc 7eed 763d bd79 c53d 552f 623d
000000a0: 4d58 b7bd 53f3 143b 9cd2 37bc bd5b d03c
000000b0: ec17 e13c 41e4 a3bd 7611 313d 08b2 283d
000000c0: 675a 603d bb88 2f3d 9f9f 3abc b868 4c3d
000000d0: 8a71 4f3d fcf4 ce3d f2ee 113d 337a 46bc
000000e0: ff46 8a3b fbe6 523d 686f 8a3d 6be6 edbc
000000f0: 8a66 823c f875 1f3c e26d 21bd 9ca1 6abd
00000100: 9fa2 0bbe 5d52 eb3c 6df6 b33d 24cf 453d
00000110: 01ba 32bc c5dd 3bbd 6cbd 60bd 3716 91bc
00000120: 3006 a7bc c399 48bd bfa2 12bd fe5c ad3d
00000130: d160 0d3d 160f ee3a 76ec 73bd a60d cdbd
00000140: 13ad 2c3d bb50 a33d 08a7 bd3b ed5f 18bd
00000150: c7f6 c7bc c34e 1abd d7a7 21bc a40f 35bd
00000160: 62f1 243b 3b21 febb ed5d ffbc d91c 8a3c
00000170: a8dc 36bc 8483 2a3d 529f 5f3c 2783 0bbc
00000180: 262e 8d3c 5c0f 82bc 86c3 bdbc d2d5 88bc
00000190: a148 07bd 6d1c 41bc a7f7 813c d866 a33b
000001a0: 5fd7 57bc fc63 9a3c 3db6 023d 0bba a23c
000001b0: 0f2b d8bc 3315 b4bd 1afe 5dbd e4df 14bc
000001c0: 85ec 643d a4ff 8f3b fcbb edbd c711 d1bc
000001d0: baca 473d df10 d83c 1c0e 323d 681f 3dbb
000001e0: ba48 0dbd 7839 f8bc baee a1bd adf1 11bd
000001f0: 2289 b839 27cb 033e 600e 733d 3f25 f93b
00000200: b8f4 383d 2425 77bd 2799 91bc e33b 4bbb
00000210: 57c5 29bc 0cbf efbc e2a7 eebc bc65 2abd
00000220: 72b3 15bc b16e cc3c d1ef c8bc 2723 16bd
00000230: 4a7a a23c cda3 393d c9b8 2f3d 0b3b 4e3c
00000240: 9170 223c a9fc 4d3d 632a 053d 38ae 453d
00000250: 088d ac3c 68b3 863c 543a d53c 9c89 de3c
00000260: c8d5 033a 835c 2f3d bde2 4cbd 0616 ad3d
00000270: fb3c 553d 49b7 aabb 2177 2cbc 332d 10bd
00000280: 6160 663d 12e5 923c ae19 31bb e6c3 c0bc
00000290: dad8 02bd eebd a23b 02dc 03bc 3377 0abc
000002a0: 0fd8 d4bc 44b3 b13d eace e4bd d4e3 82bd
000002b0: e5bf ba3c f151 8c3c 5155 783d 0010 cc3d
000002c0: a45e d53d ac92 d43d 32c3 2fbc 0bc1 83bd
000002d0: 9e96 debb 1648 e8bc 85e1 be3d 4ee2 9d3d
000002e0: 4a01 fcbc 8466 e0bc 08fa 71bd 7370 94bd
000002f0: fd9d 673d e9bd 6a3d 048e e53d 5405 4b3d
00000300: 79e1 8fbd e071 1e3d 18f7 183d 3fff 303e
00000310: 07d9 703e c09f 253e 7968 943d 6e78 b63c
00000320: 9caa 713c 9bab 97bd b85d b0bd cf86 9abc
00000330: 3420 c43c 9fea ef3c 41a3 69bd 3d75 73bd
00000340: 59e8 4c3c 107b bbbc 9d82 d83b 0d3e 4abd
00000350: 945e 43bd e7ac 403d 91b0 033d fbd5 49bb
00000360: 5a05 82ba bf9c e83b bd3f 213d af20 1e3d
00000370: 6d1a 593b 901e b73d 9f2f 363d 0237 4d3c
00000380: e86c 303d e50d ff3b f82a 9739 b0b9 52bb
00000390: a85f b33c db37 343d 932c 763c 851b 6bbc
000003a0: 906f 063d b9f1 773d dd55 5c3d 07da 3cbd
000003b0: 5af2 50bd 1549 58bb e915 3f3d b04a 473d
000003c0: 0bcb b5bc 0b62 aabc 5d94 f23b b03a 863b
000003d0: bc90 e53b 316c b53b e6ad 30bc 137b b9bc
000003e0: 9f13 84bc ef25 0aba f99d 39bd 080a 2ebd
000003f0: b983 11bb f103 763c 51b2 d93a 2beb 24bd
-0.024719298 0.04482223 0.08592905 0.07296359 -0.07663327 0.011831041 -0.006742167 0.019892093
0.043956522 -0.00866199 0.021176146 -0.0031526415 0.009170499 0.0005073675 0.048435282 -0.0008002567
0.0404822 0.015171675 0.036248162 0.11545835 -0.024690824 0.010334987 -0.07851393 0.003858121
0.017751146 -0.07207979 0.029527014 -0.019810636 -0.050968856 -0.10744966 -0.120514646 -0.00820454
0.05745245 0.070998885 -0.037781842 -0.03431829 -0.017351527 0.060285084 0.0964236 0.05522092
-0.08952389 0.002272804 -0.011219647 0.02543437 0.027477227 -0.0800252 0.043229543 0.04118541
0.054773714 0.042855006 -0.011390596 0.049904555 0.05064539 0.10105321 0.035628267 -0.0121140955
0.004219889 0.05148981 0.0675953 -0.029040536 0.015918035 0.009732716 -0.039411433 -0.05728303
-0.13636254 0.028725797 0.08787236 0.048293248 -0.010908605 -0.045865793 -0.054868147 -0.017710788
-0.020388693 -0.048974764 -0.035799738 0.084650025 0.03451616 0.0018162455 -0.05955168 -0.10012369
0.042157244 0.079743825 0.005787734 -0.037200857 -0.024409665 -0.03767277 -0.009866676 -0.04420437
0.002516829 -0.007755426 -0.031172717 0.016859459 -0.011161007 0.04162933 0.013648825 -0.008515156
0.01723392 -0.015876465 -0.023164522 -0.01670352 -0.03302825 -0.011786562 0.01586516 0.004986625
-0.013173907 0.018846504 0.031912077 0.019864103 -0.02638772 -0.08793106 -0.05419741 -0.009086583
0.055889625 0.0043944884 -0.11608121 -0.025521172 0.04877732 0.026375232 0.043470487 -0.002885783
-0.034493186 -0.03030084 -0.079068616 -0.03563087 0.00035197387 0.12870465 0.05933988 0.007603317
0.045155257 -0.060338154 -0.017773224 -0.0031011037 -0.010361991 -0.029265903 -0.029132787 -0.041600928
-0.009137021 0.024955126 -0.024528416 -0.036654618 0.019833703 0.04532223 0.042900834 0.012587319
0.009914533 0.050289784 0.032511126 0.04826185 0.021063343 0.01644297 0.02602879 0.027165227
0.00050291093 0.042812835 -0.050020922 0.08451466 0.05206011 -0.0052098376 -0.010526449 -0.035199355
0.056244258 0.017931495 -0.0027023363 -0.023530912 -0.031945087 0.004966489 -0.008048059 -0.008451271
-0.025981931 0.0867677 -0.11172278 -0.06391111 0.02279658 0.017128916 0.06062824 0.09963989
0.10418442 0.10379538 -0.0107276905 -0.064333044 -0.0067928573 -0.028354686 0.09320358 0.0770918
-0.030762333 -0.027392633 -0.05907634 -0.072480105 0.056547154 0.05731002 0.11208728 0.04956563
-0.07025427 0.03868282 0.037345022 0.17284869 0.2352029 0.16174221 0.07246489 0.022274222
0.014750149 -0.07405778 -0.086116254 -0.01886311 0.023941137 0.02928668 -0.057040457 -0.05943798
0.012506568 -0.02288583 0.006607367 -0.049375582 -0.04769762 0.047039893 0.03215081 -0.0030797708
-0.0009919808 0.0070987637 0.039367426 0.03860539 0.0033127323 0.08941376 0.04447901 0.012525322
0.04307261 0.007783639 0.0002883298 -0.0032154135 0.021896198 0.04399858 0.015025276 -0.014349823
0.032821238 0.06053326 0.053792823 -0.046106365 -0.051012374 -0.0033002545 0.046651755 0.048655212
-0.022191545 -0.020798704 0.00740294 0.0040963516 0.007005779 0.005536579 -0.010783648 -0.022641694
-0.016122637 -0.0005269935 -0.04531667 -0.042490035 -0.0022203757 0.015015588 0.0016608929 -0.040263336

conv2.bias f4 [32]
00000000: 052d 443c 3d64 64bc 5d81 a4bb 2dbd c23c
00000010: dd12 153d fc38 76bc 78f9 03ba 2429 9d3c
00000020: 2dc3 253d 74fc abbc d14b c1ba 22f0 e8bc
00000030: d82c 093d f2f6 65bc aa39 b43d fffa 1abc
00000040: 530c 89bc bd34 24bb 6fd7 8fbb 1ddf 0e3d
00000050: b8cb 403d a39c 493c ba8c 78bc 7516 8f3b
00000060: 772a dbbb 8537 013d dc05 d53c b12d 883c
00000070: 3bde c43c 4edf 15bd cf26 52bd a429 7f3c
0.011973624 -0.013939914 -0.005020304 0.023771847 0.036394943 -0.015028235 -0.0005034427 0.019184656
0.040469337 -0.020994402 -0.0014747326 -0.028434817 0.033490032 -0.014035927 0.08800061 -0.009459256
-0.01672951 -0.0025055849 -0.0043896954 0.034880746 0.04706928 0.0123054115 -0.015170271 0.0043666908
-0.006688412 0.03154709 0.02600377 0.01662335 0.024031749 -0.036589913 -0.051306542 0.015573893

conv3.weight f4 [1, 32, 5, 5]
00000000: 1f37 513a 3816 9f3c c459 a83c 34bc 2b3d
00000010: ee80 1a3d 7847 d8bc 87f7 a43b 2af3 a6bc
00000020: fb08 8dba 5393 553a 9bee 92bb 90e9 793c
00000030: 375d b0bb f177 5cbd 7cb8 91bc 311f 1ebc
00000040: 1ae2 efbc 18ad 9fbc b686 37bd 6f05 9d3c
00000050: 60d9 2c3c eea8 aa3c c1b4 b83c 924d 0f3d
00000060: fa5c 37bb b08d f33a bbe2 0bbd 3f8c 1d3c
00000070: 68e3 d53c f7ed c9bc dcd8 a63c ff88 81bc
00000080: 0845 343c e029 8dbc fd78 923b f1b8 0ebd
00000090: f610 d83c 2cdc f5bb 5236 fc3c 58ad 6abc
000000a0: 32e2 6d3c 7f11 97bc 524c 87bc cd34 44bc
000000b0: 7362 803c 194b 793c bbd6 ad3c 760c cebb
000000c0: bef7 283b e7c6 bb3c ea50 62bc b84b 3ebc
000000d0: fc7e dc3c 7a4f f4bc dd21 8cbc f28a a0bc
000000e0: 3979 f3bb 5bd1 d4bc 9cee 063c 5e34 cabc
000000f0: 4aa3 7ebc f8a8 0cbd 8342 c13c d07d b1bc
00000100: 32cb 8abb 4f45 acbc 77a7 9dbb a731 debb
00000110: 7f7d 3cbc 1958 04ba bfbd 773c f3fd ee3c
00000120: a09b d63c 68ed d6bc 3b24 86bb 7557 86bd
00000130: e9db 493c f50c c63c e0d9 203c be85 3f3c
00000140: 5168 123d a92d c73c c25d 723b 9179 a8bb
00000150: 9cac 773b 7047 523d 0b92 d43c 7edc 303c
00000160: ba8b dbbc f19c 94bc 88f0 be3c e22a a3bb
00000170: 6121 6abd 487b 23bd 1cb9 1ebc e1a4 d53b
00000180: 7347 56bc ed9a 9abc d92f e9bb a466 003d
00000190: b95e 923b d730 ca3b c199 5b3c d019 6abb
000001a0: 0a24 5c3b 5439 1ebc 00c0 f93c 9fc1 5fba
000001b0: f5c8 ca3c 2a12 aabc c294 efbc 76d9 653b
000001c0: 32ee 04bd 7ade a83c c846 ab3c 085c dd3c
000001d0: 411f fa3c ebc7 303c ea57 543c fe74 b3bb
000001e0: 3aa4 ff3c 3d78 633c ee98 18bc 2191 0bbd
000001f0: 74c5 4f3b d770 393a 72e7 1e3d 67b6 283d
00000200: 753f 083d 093a e2ba d59b 533c d2e8 3bbc
00000210: 0077 703c 547a 133c 438d 23bc 1ff2 89bc
00000220: ef99 e33b 7958 0dbd 618c c0bc bc27 df3c
00000230: 0153 8a3c 091b 2ebd 8a32 2cbd 71a7 873c
00000240: f976 70ba 8bb5 1a3c 097d 6abc e4e0 cabb
00000250: 9184 fe3c 9df4 5cbc eaf4 3e3c ec08 0238
00000260: 7dc0 313c 89a2 cd3a a44e e4bb e2c6 3c3c
00000270: b4c1 033c db93 7ebb 916f c33c 2be6 043d
00000280: 14f6 943c 249e 35bc 5285 ddbc 0aa0 ccbc
00000290: c120 8fbc 8651 82bb ef26 943c f5aa 2d3c
000002a0: 4392 023d 827a 13bd 7c97 b4bc d1c8 003d
000002b0: bcbe c7bc 1f4b bd3c e6d1 55b9 25d8 96bb
000002c0: be46 c93c ba1f df3c 50d8 68bc aa28 faba
000002d0: 57df 043d 6ffb ec3c e077 683c 03e5 acbc
000002e0: f4f7 c2bc c279 ca3c 4f79 a13c 3492 81bb
000002f0: a904 0d3d 3e2b cb3c 034e 0bbc f0fb 723c
00000300: edf3 0b3d d41d a93c 393b 8cbc 365e 0bbd
00000310: 8ca3 273c a42f 553c d421 0ebd 50a9 ae3b
00000320: 9585 1bbd 67e0 a9bc 8126 1fbd 95af c7bc
00000330: 0c31 4b3c 2038 71bb ca5b 0b3b 78b6 1abd
00000340: b7b3 1cba c0f7 6fbc 495c 86bb 3962 963d
00000350: de9f bd3d 442d 6dbc 59cb 33b9 b520 d8bc
00000360: 7da1 923d 4cea ab3d 956d 10bd 89ea 42bd
00000370: a12f 86bc 3992 35bc ad5f 713c 6725 71bc
00000380: 66ee 4ebd e473 303d 3362 a43b 0014 7c3c
00000390: ef83 943c 1824 1d3c 8306 083d e0b8 c5bc
000003a0: c23d 04bc 4646 bfbb 0879 963c 61e4 a6bc
000003b0: 096a 08bd 4c8a 30bd bd97 6c3c 4a59 f53b
000003c0: 6cff 23bd 6f44 ffbb ac94 00bd 4a06 b8bc
000003d0: 5beb 9f3c 4b98 5abc 5204 fa3c a4d9 3e3d
000003e0: 495b 853c 3f6e 843c ebd4 fcbc dfd8 76bc
000003f0: 0b22 fcba 2e47 f83b 168c 6a3c 9a27 9c3c
0.0007980931 0.019419774 0.020550616 0.04192753 0.037720613 -0.026401266 0.0050343904 -0.020379622
-0.0010760123 0.0008147258 -0.0044840104 0.01525344 -0.005382206 -0.053825323 -0.017788164 -0.009650991
-0.029282618 -0.019491717 -0.044806205 0.01916763 0.010549873 0.020832505 0.022547128 0.034986086
-0.0027979002 0.0018581655 -0.034151774 0.009615957 0.026109412 -0.024649603 0.020367078 -0.015812395
0.011002786 -0.017231882 0.0044699893 -0.034844343 0.026375275 -0.007503053 0.03078762 -0.014323555
0.014519261 -0.01844096 -0.016515885 -0.011975479 0.015671944 0.015215659 0.021220556 -0.0062881066
0.0025782431 0.022921992 -0.013813237 -0.011614732 0.02691602 -0.029823054 -0.017105991 -0.019597504
-0.0074302224 -0.025978735 0.0082356 -0.024683174 -0.015541861 -0.03434083 0.023591286 -0.021666437
-0.0042356486 -0.021029143 -0.004811223 -0.0067808214 -0.01150453 -0.0005048528 0.015120923 0.029173827
0.026197255 -0.026236251 -0.0040936745 -0.0655965 0.012320497 0.0241761 0.00981757 0.0116896015
0.035744015 0.024313765 0.0036982154 -0.005141445 0.0037792092 0.05133766 0.025948545 0.010794757
-0.026800025 -0.018141242 0.023308054 -0.0049794773 -0.05716074 -0.039912492 -0.009687688 0.0065198992
-0.013078558 -0.018872702 -0.0071162996 0.031347886 0.004466858 0.006170373 0.013403357 -0.0035720952
0.0033590817 -0.009657223 0.03048706 -0.00085356267 0.024754027 -0.020760614 -0.029245738 0.0035072244
-0.032453723 0.020613898 0.020907775 0.027021423 0.030532481 0.010789852 0.0129604135 -0.005476593
0.031206239 0.0138836475 -0.009313805 -0.034073953 0.0031703385 0.00070740044 0.038794942 0.041189577
0.033263642 -0.0017259727 0.012915571 -0.011469083 0.014676809 0.009001333 -0.00998241 -0.016839085
0.0069458405 -0.034508202 -0.023504438 0.027240627 0.016885282 -0.04250625 -0.042040385 0.016559334
-0.0009173002 0.009442697 -0.014312037 -0.00619136 0.031069072 -0.013486055 0.011655072 3.1002724e-05
0.010849115 0.0015688698 -0.0069673825 0.011522027 0.008041788 -0.0038845453 0.02385691 0.032446068
0.018183745 -0.011085067 -0.027041111 -0.024978656 -0.017471673 -0.0039770035 0.018084971 0.010599841
0.031877767 -0.036005504 -0.02204489 0.031441513 -0.024382941 0.02310711 -0.00020391456 -0.004603403
0.024569865 0.027236808 -0.014211729 -0.0019085605 0.032439556 0.028928487 0.014188737 -0.021105295
-0.023799874 0.024716262 0.019711165 -0.0039541963 0.034428272 0.024800893 -0.008502486 0.014830574
0.034168173 0.020644106 -0.017118083 -0.034025393 0.010231864 0.013011847 -0.03470023 0.005330242
-0.03796919 -0.020736886 -0.03885508 -0.024375716 0.01240183 -0.0036807135 0.0021264427 -0.037771672
-0.00059777073 -0.014646471 -0.0041003567 0.07342953 0.09259008 -0.014476124 -0.00017146523 -0.026382783
0.07159708 0.08394298 -0.035260756 -0.04758695 -0.016380133 -0.0110822255 0.014732284 -0.01471839
-0.050520323 0.043079272 0.005016589 0.015385628 0.018129317 0.009591125 0.033209335 -0.024136007
-0.008071365 -0.0058372347 0.01836826 -0.020372571 -0.033304248 -0.04310064 0.014440474 0.0074874507
-0.04003851 -0.0077901403 -0.031391785 -0.022463936 0.019521406 -0.013341974 0.030519638 0.046594277
0.01627888 0.01616585 -0.030863246 -0.015066355 -0.001923622 0.0075768447 0.014315626 0.019061852
