2021_BOML_srcnn_project/output/epoch_47.pth (torch, 231519 bytes, 5 tensors)

conv1.weight f4 [64, 1, 9, 9]
000000 b5 7f 20 bb 64 dd d4 3c 11 6d 35 bd 1f 4e 8c 3d
       -0.0024490182 0.025984474 -0.044293467 0.06850838
000010 d3 b2 9a bd 0e 3f ae 3d 2d cd 9f bd 66 34 32 bd
       -0.07553639 0.085081205 -0.07802806 -0.043507002
000020 c9 df 93 bc 8d c3 a7 3d c8 15 33 bd 65 b5 b4 3c
       -0.018051045 0.08191595 -0.043721944 0.022059152
000030 9f d2 d9 bd 2e d4 ab bd 0b 11 9e bd 4c 03 71 bd
       -0.10635876 -0.083900794 -0.077180944 -0.058841035
000040 1b d8 b3 bd c1 a7 ab 3d 07 9d 98 3b ee 21 04 3d
       -0.08781453 0.08381606 0.004657391 0.03225892
000050 04 6c 80 3d 6b 50 ab 3c 52 5b 1c 3d d4 83 c3 3d
       0.06270602 0.02091237 0.038173027 0.095466286
000060 7a f9 9d bd 11 17 c5 3c 02 38 53 bd b3 1b 89 3d
       -0.077135995 0.02405885 -0.051567085 0.06694736
000070 18 d9 33 3d 6b c5 0f be 65 da dc 3d a4 37 c3 3d
       0.04390821 -0.14040153 0.10783843 0.09532097
000080 19 38 97 3d c1 32 1b 3d 16 fb 9b 3d 8d 98 13 bd
       0.07383747 0.0378902 0.0761625 -0.036034156
000090 54 58 db bd 13 23 96 bd a9 7d ba bd 4a c1 89 3d
       -0.10710207 -0.073309086 -0.09105999 0.0672632
0000a0 b4 37 7f 3d a4 04 fa bb 30 8f 6d bb 3d da cc 3d
       0.062308982 -0.0076299477 -0.0036248676 0.10002563
0000b0 63 97 d5 bc ad 67 de bb 1c 79 5c bd 73 eb 87 3c
       -0.026073163 -0.0067872615 -0.053826436 0.016591763
0000c0 db cf 1e 3e ce 3f 00 3e c6 f6 78 3d c5 b4 3d 3c
       0.15508978 0.1252434 0.060782216 0.011578743
0000d0 6b 40 9f 3c 69 50 d6 3c 4c 67 e0 bb c0 9a 10 be
       0.019439897 0.02616139 -0.0068482514 -0.14121532
0000e0 47 75 ae bd c2 76 d9 3d 89 0a 29 3c 87 a2 e2 bd
       -0.08518463 0.106183544 0.010317453 -0.11066156
0000f0 de e3 31 bc a1 7c c7 3d 97 34 cd bd 57 95 40 bd
       -0.01085755 0.09740568 -0.10019796 -0.04701742
000100 6a b3 9d bd db 54 dc bc 9d ca 42 bd c3 12 17 bd
       -0.07700236 -0.026895931 -0.04755651 -0.036883127
000110 58 9e 14 be e1 86 d8 3c 8b 2e f0 3d 25 7a a3 3d
       -0.14513528 0.026431503 0.11727627 0.079822816
000120 72 96 81 3c 2a 7d 99 bd d4 70 f5 3c aa 33 38 bc
       0.015818808 -0.07494576 0.029961027 -0.011242786
000130 de 40 27 3d 49 98 f1 bd ab 0c 19 bc 8f 60 db 3d
       0.040833347 -0.11796624 -0.009341399 0.107117765
000140 5a 2c 4d 3d 5f b6 94 3c 08 69 12 3c 53 48 b3 bb
       0.050091125 0.018153368 0.008936174 -0.005471268
000150 4b 46 9b bd 34 43 82 bd 4a 11 bc bd f8 45 b6 3d
       -0.07581767 -0.06360474 -0.09182985 0.08900064
000160 1c 6c 22 3d aa 04 95 bc ed c8 b5 bd 56 3b 6b 3d
       0.039653882 -0.0181907 -0.08876214 0.057429634
000170 7f 9b 7e 3c 87 16 0e 3d 3e 21 b7 bd f0 d1 79 bc
       0.015540003 0.034689452 -0.08941887 -0.015247807
000180 af 68 e3 3d 08 a7 94 3d 9f bb 5c 3d 38 77 0b bc
       0.11103951 0.07258421 0.053889867 -0.008512311
000190 7a b3 99 3d ad 6b a7 bd 39 d7 29 3b ee 24 90 bd
       0.075049356 -0.081748344 0.0025915636 -0.07038294
0001a0 b2 50 19 bd 75 d9 f4 ba 74 a6 d7 3c e1 5c a8 3d
       -0.037430473 -0.001868053 0.026324488 0.0822084
0001b0 44 12 1a 3d d8 96 d2 bc 01 8a bc 3d 88 70 21 bd
       0.037615076 -0.025706694 0.0920601 -0.03941396
0001c0 36 a0 8b 3d 21 01 1b bd 45 d9 a9 bc be 20 80 3b
       0.06817667 -0.037842873 -0.020733485 0.003910153
0001d0 c0 3a fe bd 34 cd f3 ba fd 50 12 3d 0d 48 1f 3e
       -0.124135494 -0.0018600584 0.035721768 0.15554829
0001e0 17 ac 18 3d 81 08 bf 3d d1 a2 d9 3d 9a d6 1b bd
       0.037273493 0.09327794 0.10626758 -0.038046457
0001f0 ed 7e e1 3d 31 7b a7 bd ba 64 77 3c 5b 71 9e 3c
       0.11010537 -0.08177794 0.015099699 0.019341161
000200 54 9b 91 3d 3b df 00 3e 20 0c 00 bd 82 53 af bb
       0.071097046 0.12585156 -0.031261563 -0.005350531
000210 7e df 40 ba 4d 3b 86 bd a4 2d 31 bd 0e 37 f6 bd
       -0.00073575217 -0.065542795 -0.043256417 -0.120222196
000220 d2 68 37 bb 1a 84 54 3c f1 bb 62 ba be 4f 98 bd
       -0.0027986062 0.012970949 -0.0008649221 -0.074370846
000230 5c 96 86 bd 1c 4c 3b bd f6 b4 6c 3d 82 30 bf 3d
       -0.065716475 -0.04572688 0.057789765 0.09335424
000240 e0 bd d9 3b 65 bd ae bd 11 27 8c bd 99 c5 0d bc
       0.0066449493 -0.08532218 -0.06843389 -0.008653068
000250 ed 89 f8 bd 35 7d 08 be b3 74 96 bd 72 1a 25 bb
       -0.12135682 -0.13329013 -0.07346477 -0.0025192765
000260 40 17 50 bc ab f6 b7 3d 1e 52 bc 3c 82 1f dd 3d
       -0.012700856 0.08982595 0.022988375 0.10797025
000270 c6 29 3a bd 1a e8 e2 3c 8b 43 a6 bd fb 5f ec 3d
       -0.045449995 0.027698565 -0.081183515 0.11541744
000280 0f dc b4 3d 24 64 bf 3d 92 70 8a bd 68 a2 e5 3d
       0.08831035 0.09345272 -0.06759752 0.11212617
000290 5a a8 01 3e 13 1a 24 3e 03 a9 03 3e 58 54 42 3e
       0.12661877 0.16025572 0.12857442 0.18977487
0002a0 66 4d fc 3d 92 86 b7 3d b1 fb 24 bd aa e4 ba bd
       0.1231945 0.08961214 -0.040279094 -0.091256455
0002b0 1c f4 85 bc a8 df 8a bc d7 3f e3 bd d1 93 8a bd
       -0.016351752 -0.01695235 -0.11096161 -0.06766475
0002c0 05 13 ec bd 9d 4c 66 bd 46 c6 74 3d fb 5d 47 bd
       -0.11527065 -0.056225408 0.0597594 -0.04867361
0002d0 75 06 25 3c cd d7 98 3c de 6d 70 3d 7e c0 f1 bd
       0.01007234 0.01865759 0.058698528 -0.11804293
0002e0 26 fd aa bd 67 ce 3e bd d6 5a 9f bd a0 e4 1a 3d
       -0.083490655 -0.04658356 -0.077809975 0.03781569
0002f0 96 db 26 3d 52 9a aa bd dc 56 6e bd a8 5a a9 bd
       0.040736757 -0.083302155 -0.058188304 -0.082692444
000300 95 33 84 3d a5 70 0b 3e 0a b2 71 bd de 2c 02 bd
       0.06455151 0.13617189 -0.059007682 -0.03178107
000310 0b cb 5f 3d be 1d 83 bd 9c df c8 3d af f6 2c 3d
       0.054636996 -0.06402157 0.09808275 0.042227443
000320 3f 62 43 bc c3 5a 0f 3d 6f 14 a5 3d c8 61 8d bc
       -0.011925279 0.034998666 0.08060538 -0.01725854
000330 74 d6 96 bd 2b 83 96 3c 80 05 00 3c f7 c6 0f 3c
       -0.073651224 0.018373093 0.007813811 0.008775464
000340 b9 9d f7 bb 8f b9 ac 3d 01 85 2f bc 5f 3f df 3c
       -0.007556644 0.0843383 -0.010712863 0.027251897
000350 21 2f 91 3d 3c fd 58 bd 30 6f 58 3d 36 bd 8c bc
       0.07089067 -0.052975878 0.05284041 -0.017180067
000360 bd e8 55 3d de cf 96 bd c3 84 91 bb ab 58 2d b9
       0.05222391 -0.07363866 -0.0044408753 -0.00016531597
000370 98 a4 b6 bd 75 51 ab bd b1 6e 33 3d 0a 64 a7 bc
       -0.089181125 -0.08365146 0.043806735 -0.020433445
000380 54 fd 8a 3d b2 e6 a4 bd 1d 22 30 bd 87 03 a9 bd
       0.067866 -0.08051814 -0.043001283 -0.08252626
000390 54 25 30 3d af 00 49 3c 5e 21 f3 bb b2 8c c4 bb
       0.04300435 0.012268229 -0.007419749 -0.0059982175
0003a0 72 97 98 bd c4 21 13 3d 52 59 3b 3d f1 43 57 bd
       -0.07450761 0.035920873 0.04573948 -0.05255503
0003b0 ac 26 83 3d 5e 28 d1 3b 25 05 a3 bd 45 bf 9e 3d
       0.064038604 0.006382986 -0.079599656 0.077513255
0003c0 22 6e 8f 3d dd 20 ce bc 1c c0 a9 bd 99 ca a2 bb
       0.07003428 -0.025162155 -0.08288595 -0.004967999
0003d0 65 cd 97 3d 18 31 b0 3d 2d 4b c6 bd f0 fd 6d bd
       0.07412223 0.08603114 -0.096823074 -0.0581035
0003e0 4a f4 a3 3d 17 18 4a 3d fc 5f 6a 3d 74 a9 8a bd
       0.08005579 0.04933938 0.057220444 -0.06770602
0003f0 ad d2 b0 3d cb 0f ca bd 06 aa 81 bc 56 c4 d2 bb
       0.08633933 -0.098662935 -0.015828144 -0.0064320965

conv1.bias f4 [64]
000000 db eb ae 3c 28 cb c7 bd cc 2b 4f b9 4d a3 55 bd
       0.021352699 -0.09755546 -0.00019757374 -0.05215769
000010 d2 b8 31 3d c0 32 3c 3c fa 9a 50 3d a5 ba 90 bc
       0.04338915 0.011486709 0.050929047 -0.017667124
000020 85 b2 dd 3d f9 d4 28 bd 30 6b f1 3b cb bb f7 3c
       0.108250655 -0.04121873 0.007367514 0.030240914
000030 cd 42 0b be b7 b3 e5 3d 92 ad 6b 3d 0e ef b9 ba
       -0.13599701 0.112159185 0.057538576 -0.0014185624
000040 aa 74 e9 bc e0 26 24 bd a8 54 1a 3d 86 ab d9 3c
       -0.028498013 -0.040076137 0.03767839 0.026571047
000050 d1 13 d5 3c f7 c6 a7 bb 20 48 6f bd 9d 4c 9b 3d
       0.026010426 -0.005120154 -0.058418393 0.07582972
000060 a4 97 d7 bd a5 e0 39 bc 72 f3 2c 3d 3b 3f 72 3c
       -0.1052697 -0.011345063 0.042224355 0.014785583
000070 a0 fc ce 3c 1a 8a 57 3d 97 17 b0 3d 1e 0b 2c bc
       0.025266945 0.05262194 0.085982494 -0.010500697
000080 83 4c 17 3d 39 eb 42 3d 6b 28 b8 b9 5d 95 7e bd
       0.0369382 0.047587607 -0.0003512533 -0.062154163
000090 18 42 3d bb de 02 89 3d ed 5b bd bc b9 b9 92 3d
       -0.0028878506 0.0669 -0.023115123 0.0716433
0000a0 c2 c6 7e bb d7 63 c6 38 f0 99 b9 3d 18 c6 1b bd
       -0.0038875793 9.459972e-05 0.090625644 -0.038030714
0000b0 d2 71 0b 3d 28 51 93 bc dd 17 f6 bc ca 9c ae 3c
       0.034044094 -0.017983034 -0.030040676 0.021314997
0000c0 40 e0 1c 3a 8f 08 2a bd 09 ee 54 3c ca 93 5c 3d
       0.00059843436 -0.04151207 0.012996205 0.05385188
0000d0 b6 78 82 bc 1f 0d 07 3b 00 f9 6c 3b 56 62 13 3c
       -0.0159267 0.0020607186 0.0036159158 0.008995613
0000e0 b9 ef a7 3d c3 f3 01 bd 78 7d f1 bb 4b 75 85 3d
       0.0820002 -0.03172661 -0.0073696934 0.065165125
0000f0 ea f8 59 3d 04 c8 23 bd b6 57 69 bd 00 97 4b bd
       0.0532159 -0.03998567 -0.056968413 -0.04970455

conv2.weight f4 [32, 64, 5, 5]
000000 cf 83 cf 39 59 9c 99 3c 30 47 83 3d 91 a6 93 3d
       0.00039580322 0.01875131 0.06410062 0.072095044
000010 05 fe 78 bd 18 e9 17 3b 65 ec d5 bc 87 f1 ac bb
       -0.060789127 0.0023179706 -0.026113698 -0.0052778157
000020 2a 0c ce 3c e9 d9 2e bc 66 26 f8 3b 6c 83 f6 bb
       0.025152285 -0.010672071 0.007572937 -0.007522991
000030 05 e1 c4 3c e5 89 92 3c dd 52 64 3d c0 6d 92 bc
       0.024033079 0.017888019 0.055743087 -0.017874599
000040 55 08 9a 3c 2d e2 e4 3c 88 5f e8 3c 4a 4d 76 3d
       0.018802801 0.02793988 0.028365865 0.060132302
000050 60 f0 a3 bc ad 3f 29 ba 48 cc 10 bd e0 ac c5 3c
       -0.02001208 -0.0006456327 -0.035351068 0.024130285
000060 b2 06 c0 bb 01 29 1b bd 03 19 e5 3a ab 97 c7 bc
       -0.005860173 -0.0378809 0.0017478768 -0.024364313
000070 d2 1e 54 bd 98 a2 97 bd d2 90 59 bd f6 0e dc 3b
       -0.051787205 -0.07404059 -0.053116627 0.0067156507
000080 a9 64 fd 3c 83 5f fb 3c 50 19 2f bc 87 3a 2a bc
       0.030931788 0.030685192 -0.010687187 -0.010389931
000090 9b 72 fd bc e6 53 16 3d 56 26 94 3d ff 82 93 3d
       -0.030938437 0.036701106 0.072338745 0.0720272
0000a0 33 2d 4b bd f9 78 8a bc 3c 78 e6 bc 3d b8 57 3c
       -0.049603652 -0.016903387 -0.028133504 0.013166484
0000b0 e8 30 43 3b 84 90 82 bd 0b 78 29 3c ea 9b d1 3b
       0.002978379 -0.063752204 0.010343562 0.00639676
0000c0 93 41 bb 3c 2e d9 41 3c df 18 09 bd 08 6f 67 bc
       0.022858417 0.011831565 -0.033470985 -0.014125593
0000d0 2e 81 1d bd 55 87 88 3c 74 81 48 bd ee 41 f5 bc
       -0.038453273 0.016666094 -0.04895158 -0.029938664
0000e0 01 58 03 bd 30 fb aa 39 3c f4 4c 3d 20 64 2c bc
       -0.03206635 0.00032612076 0.050037608 -0.010521919
0000f0 4a da d7 3c 58 05 07 3c 29 a7 d2 bc 27 3d 36 ba
       0.026349206 0.00824102 -0.025714474 -0.00069518614
000100 f2 84 5d bd 53 f0 21 bb c5 6d 3c 3d 6d 98 08 3d
       -0.054081865 -0.0024709895 0.046003122 0.03334849
000110 f9 56 1a 3c b7 57 f0 bc 4d 0d 45 bc d2 db 5f 3c
       0.00942015 -0.0293387 -0.012027097 0.013663249
000120 28 2e a7 3c 7f 07 a3 3b 5e af 3c 3c 6e e9 ba 3c
       0.020407751 0.004975259 0.01151642 0.022816386
000130 65 49 33 bc f0 9f 30 bc 50 3d 0a bd 1e 8e 6e bd
       -0.010942792 -0.01078032 -0.03374988 -0.058241002
000140 b0 a5 ab 3c 3d fc e5 3c fa 77 8f bc 40 3c ea bc
       0.02095303 0.028074378 -0.017513264 -0.028593183
000150 2d bb 70 bc 9f fa d2 ba 42 f8 07 bc ca 25 00 bd
       -0.014693064 -0.001609642 -0.008298935 -0.03128604
000160 bf 38 ab 3c aa 64 d0 bb 26 f1 ea bc 1d 3b ab 3b
       0.020901082 -0.0063596563 -0.028679442 0.0052255527
000170 ee 39 28 bb 3f 7e 24 3d a6 ad 24 ba 62 f9 16 3c
       -0.0025669294 0.04015946 -0.0006281979 0.009214731
000180 4a 1b 17 3b e3 8b b3 3b 77 43 f2 bb ea bd 89 bc
       0.0023057037 0.0054793223 -0.0073932963 -0.01681419
000190 79 81 42 bd 8e f4 2a bd c0 d7 8f 3c c9 00 80 3c
       -0.047486756 -0.04173713 0.017558932 0.015625374
0001a0 54 ed 41 bc 21 47 97 bc 0f 6a a2 bb 4e 23 49 3c
       -0.011836369 -0.018466534 -0.004956491 0.012276484
0001b0 02 f8 ad 3b f7 5b 9a bc fc c0 44 bd e4 67 da bc
       0.005309106 -0.01884268 -0.048035607 -0.026660867
0001c0 01 91 cf 3c c7 a6 20 3c 85 3c 72 bd cd 50 f0 bc
       0.025337698 0.009805388 -0.059139747 -0.029335404
0001d0 34 04 03 3c 22 6f b2 bc d3 d7 7a 3c f0 6e 43 bc
       0.007996608 -0.021781508 0.015310246 -0.011928305
0001e0 48 28 1b bd ed 07 10 bd 96 0e 5b bd b3 fa 0f bd
       -0.037880212 -0.03516381 -0.053480707 -0.035151195
0001f0 94 40 5f bc dd e9 fa 3d a8 a1 44 3d 0d c5 99 3c
       -0.0136262365 0.12251637 0.04800573 0.018770719
000200 39 10 ae 3d 80 d2 c5 bc bd e2 e3 bc 12 c2 a3 bb
       0.08499188 -0.024148226 -0.027818078 -0.0049975
000210 70 f0 2b bc 71 b1 17 bc 34 86 44 bc dc f7 11 bd
       -0.0104943365 -0.009258614 -0.011994887 -0.035636768
000220 a4 56 10 bc dc c9 c3 3c 1d 4c 92 bc 6e 98 0e bd
       -0.008809719 0.023899965 -0.01785856 -0.034813337
000230 6e c4 89 3c 8f 3e 08 3d f2 14 25 3d 05 21 79 3c
       0.016817298 0.033262786 0.040303178 0.015205626
000240 5a 63 80 bb dd 50 22 bc 30 3e 8f bc d1 03 03 3d
       -0.0039180936 -0.009906975 -0.017485708 0.03198606
000250 22 56 c4 3b 0c 26 b3 bc 97 35 81 bc 30 f6 f9 bb
       0.005991713 -0.021868728 -0.015772624 -0.007628225
000260 c9 46 c1 bc ed 41 2a 3c b7 fd 51 bd 60 18 1a 3d
       -0.023593323 0.0103916945 -0.051267352 0.037620902
000270 cf f2 80 3c bb 3f d9 bb 7a db 09 bc 4f 68 41 3b
       0.01574078 -0.0066299117 -0.008414144 0.0029511636
000280 1d 65 a0 3c 1c f3 e2 ba d6 4d 91 3c 74 d2 80 bb
       0.019579465 -0.0017314884 0.01773731 -0.003931338
000290 00 1a ad bc 5a 9c 67 3d 2e ec ef 3c 15 0a 9e 3c
       -0.021130562 0.056545593 0.029287424 0.019291917
0002a0 59 93 c9 3b 27 5b 18 3d 23 ad bb 3b 8a f8 26 bb
       0.0061515984 0.037196305 0.0057274266 -0.002547773
0002b0 5b d9 fa 3b 0e ef 32 bc 82 72 4e 3c 6d d6 14 3d
       0.0076553053 -0.010921253 0.012600543 0.036337305
0002c0 b5 74 65 3d f3 b1 17 3d 05 3b 9a bc 6f ff f9 3c
       0.056019504 0.03703494 -0.01882697 0.030517308
0002d0 94 7b b1 bc 92 f6 db bc 26 0f 93 3d f4 8f 4e 3d
       -0.021665372 -0.026850972 0.07180624 0.050430253
0002e0 9f b5 13 3c 43 8c c9 bc d6 23 f1 bc 20 73 64 bd
       0.00901547 -0.024603015 -0.029436033 -0.055773854
0002f0 15 0b fb 3c 80 aa f0 3c 42 eb 9a 3d 2e 5f 82 3d
       0.030644933 0.029378176 0.07564403 0.0636581
000300 5e 5a ff bc 78 a0 ad 3c c4 05 97 3c bf 1c 56 3e
       -0.03117102 0.021194682 0.018435366 0.20909403
000310 8e f8 43 3e 70 1f 13 3e 33 c1 5f 3d 4b 74 b3 bb
       0.19137785 0.14367461 0.05462761 -0.0054765097
000320 bb 8e 0c 3c 5f 55 fe bb f5 38 31 bc e6 92 9f 3c
       0.0085789515 -0.007761642 -0.010816802 0.019479226
000330 8a a7 7a bb f0 52 bd 3c b4 ce c0 bc dc ba bf bc
       -0.0038246834 0.023110837 -0.023536064 -0.023404531
000340 6a 38 3e 3c 40 ef 2c bc fc f3 19 bd 1b 94 6a bd
       0.01161013 -0.0105550885 -0.037586197 -0.05727015
000350 5b 74 2f bd e7 e8 2f bb 3d 1a 58 bc f9 e0 28 3c
       -0.042835575 -0.0026841701 -0.013189849 0.010307544
000360 14 d9 94 bc e8 55 18 bc 1e eb c9 bb ab ba 98 3c
       -0.018169917 -0.009297825 -0.0061620614 0.018643698
000370 5c 21 f7 3b d9 f3 31 3d ff 66 77 3c cf 40 a2 bc
       0.0075418185 0.043445442 0.01510024 -0.019806294
000380 c7 a6 0e 3d 79 fb df 3b d4 1b a7 3c 8c 9c 3f 3c
       0.03482702 0.006835398 0.020399012 0.0116950385
000390 4b e0 5e 3c a3 e1 b3 3c 35 3d 21 3c 27 17 7d 3b
       0.01360328 0.021958178 0.009841253 0.0038618536
0003a0 35 55 17 3d fc 79 14 3d 13 5c 32 3c 04 af 01 bd
       0.036946494 0.036249146 0.01088621 -0.03166105
0003b0 44 2e bf bc ab ae c7 ba f6 e3 0e 3c 71 84 10 bb
       -0.02333749 -0.001523455 0.008721342 -0.0022051597
0003c0 3a bd 36 bd 11 ca cd bc 53 08 50 bc 50 71 f0 bc
       -0.044614054 -0.025120767 -0.012697297 -0.029350907
0003d0 3c da 8b bc 12 c1 1f bb 93 cb 3d bc da 50 b2 bc
       -0.017071836 -0.0024376553 -0.01158418 -0.021767069
0003e0 45 a1 b0 bc 07 a6 27 3c ed c0 33 bd e7 f4 07 bd
       -0.021561274 0.010232455 -0.04388516 -0.03319254
0003f0 28 38 8c bb 08 f2 99 3c de f8 1b 3c 4f c8 37 bd
       -0.0042791553 0.018792167 0.009519784 -0.044868764

conv2.bias f4 [32]
000000 ad 15 c4 bb ca 51 92 bc c7 00 43 bb 94 20 b2 3c
       -0.0059840293 -0.017861266 -0.0029755102 0.02174405
000010 7e c8 e7 3c 46 56 d8 3b 15 13 fe bb 53 e2 40 3c
       0.028293844 0.0066020815 -0.0077537396 0.01177271
000020 3f 75 1c 3d 42 b5 9c bc d1 4b c1 ba b5 8f 32 3a
       0.038197752 -0.0191294 -0.0014747326 0.0006811575
000030 d3 62 e7 3c 22 4a 63 3b 28 6d 40 3d a7 8c 85 bc
       0.028245365 0.0034681638 0.0469791 -0.01630242
000040 be e3 5c bc d3 46 4e bc 40 fc 21 3c ba db ca 3c
       -0.013482032 -0.012590128 0.009886801 0.024762977
000050 f6 53 1d 3d 28 2a b0 3b f9 d3 26 bc 27 20 3b 3c
       0.03841015 0.005376119 -0.010182374 0.01142124
000060 82 72 84 ba e0 a8 fb 3c 0b 77 b1 3c 8e c4 5e 3c
       -0.0010104927 0.030720174 0.02166321 0.013596667
000070 4b 71 5e 3c fa 03 04 bd a0 1d ca bc 8b b9 0e 3b
       0.013576816 -0.032230355 -0.02467233 0.0021778073

conv3.weight f4 [1, 32, 5, 5]
000000 63 c2 33 3c 1e 65 93 3c e7 af ac 3b 76 bf 00 3d
       0.010971638 0.017992552 0.0052699926 0.03143259
000010 d0 2e 0b 3d eb f3 03 bd ce 10 79 3a 5d 66 08 bd
       0.03398019 -0.03221504 0.00095011 -0.033300746
000020 45 f4 a6 3a cd b8 01 3c 3d aa 90 bb 0a 76 c8 3c
       0.0012737593 0.007917595 -0.0044148252 0.024470348
000030 36 b2 8a 3b 9e 26 25 bd 43 72 17 bc 98 0c 7a bc
       0.00423267 -0.04032003 -0.009243551 -0.015261792
000040 9c d4 f6 bc b8 12 fd bb 7a 9a 23 bd de 78 91 3c
       -0.030130677 -0.0077231787 -0.039942242 0.01775783
000050 11 73 f1 3b 95 4e 86 3c 6d 34 bc 3c a8 16 f3 3c
       0.0073684533 0.016394893 0.022974217 0.02967389
000060 46 fb 80 bc e6 0a f6 3a f8 35 0a bd c5 7d 07 3c
       -0.015744817 0.0018771559 -0.033742875 0.008269732
000070 1d 62 d8 3c 54 24 bc bc 43 0f a3 3c 74 27 89 bc
       0.026413972 -0.022966541 0.019904738 -0.016742446
000080 8a fe 27 3c 0f 74 81 bc 38 5e c6 3b be 97 0b bd
       0.010253558 -0.015802411 0.006053712 -0.03408026
000090 23 63 d6 3c f2 2c 03 bc 02 73 04 3d b7 7e 56 bc
       0.026170319 -0.008006321 0.032336242 -0.013091735
0000a0 7b 15 76 3c 25 dd 8d bc fe 5b 7c bc cc f2 1d bc
       0.01501977 -0.017317364 -0.015402792 -0.009640407
0000b0 99 2f 8a 3c 3c fc 68 3c 25 24 a8 3c 7c 22 c4 bb
       0.0168684 0.014220294 0.020525048 -0.005985556
0000c0 c9 d7 85 3b 67 58 b6 3c 82 53 62 bc 1d 4d 3e bc
       0.0040845615 0.02225895 -0.013813855 -0.011615065
0000d0 5a 7e dc 3c 11 4a f4 bc 26 23 8c bc 12 8c a0 bc
       0.026915718 -0.029820474 -0.017106604 -0.01959804
0000e0 ea 7d f3 bb ca d2 d4 bc ec fa 06 3c 1c 39 ca bc
       -0.0074307816 -0.025979418 0.008238535 -0.024685435
0000f0 c3 5a 7e bc 2f d5 0c bd 9b 4b c1 3c 36 78 b1 bc
       -0.015524569 -0.034382995 0.023595622 -0.021663766
000100 5a d7 8a bb b3 7f ac bc 43 0a 9f bb 2c 4b dd bb
       -0.0042370977 -0.021056985 -0.004853518 -0.006753346
000110 db 7c 3c bc 07 94 04 ba cd b7 76 3c 78 b9 ee 3c
       -0.011504377 -0.0005057458 0.01505847 0.029141173
000120 e2 ef d6 3c 21 ef d6 bc f6 27 86 bb 76 aa 31 bd
       0.026237432 -0.026237072 -0.004094119 -0.043375455
000130 9e 1a a1 3c 10 54 f8 3c 3d 28 b5 3b 15 f3 fd 3b
       0.019666012 0.030313522 0.0055284784 0.007749925
000140 b2 5a 3a 3d 7c 91 8f 3c 47 0b 66 bc b7 63 84 bc
       0.04549665 0.017525427 -0.014040775 -0.016160829
000150 29 6c c1 bb 98 6d 28 3d e9 43 88 3c 41 39 bc 3c
       -0.0059027863 0.04112014 0.016633945 0.02297652
000160 f0 f4 8a ba ce de 79 bc 61 c1 14 3c 73 4b 22 bc
       -0.0010601562 -0.015250875 0.009079308 -0.009905684
000170 00 c6 4b bd 98 81 d9 bc fe 99 25 bc 74 6e 03 3b
       -0.049749374 -0.026551053 -0.010107515 0.002005485
000180 b4 c5 3f bc ab 38 c6 bc 1d f6 81 bc 49 90 e2 3c
       -0.011704851 -0.024196943 -0.015864426 0.027656691
000190 13 1b bb 3b f9 d4 ee 3b 0a b9 66 3c be 18 52 bb
       0.0057100146 0.007288572 0.014082203 -0.0032058205
0001a0 bf 12 5b 3b 49 98 03 bc 62 a7 00 3d fb 75 f2 b9
       0.0033427922 -0.008031913 0.03140963 -0.0004624574
0001b0 d5 93 cb 3c cd 68 ab bc b6 f0 e5 bc 86 d3 89 3b
       0.024850765 -0.020923996 -0.028068881 0.0042061238
0001c0 64 61 03 bd c7 18 a8 3c ad 6f a7 3c 32 bc e7 3c
       -0.0320753 0.020519627 0.020438993 0.02828798
0001d0 80 33 01 3d 7b 96 38 3c b1 cf 59 3c 40 29 b2 bb
       0.031543255 0.011266346 0.013294146 -0.0054370463
0001e0 dd c6 02 3d 8c 05 71 3c bb 52 0d bc fe 0e 08 bd
       0.031927932 0.014710795 -0.0086256815 -0.033217423
0001f0 cd c5 79 3b c1 7a a0 3b 6e a7 0e 3d 15 28 fa 3c
       0.0038112283 0.004897446 0.034827642 0.03053669
000200 d5 cc 06 3d a4 f1 40 3b fe 04 3f 3c de 51 b1 bc
       0.032910187 0.0029440904 0.011658905 -0.021645483
000210 b5 7a 16 3c df 72 1f 3c 6b 56 87 bc f8 4f 92 bc
       0.009184529 0.009731977 -0.0165207 -0.017860398
000220 37 4a 53 3c 2e 81 c8 bc e3 90 7a bc db 95 e4 3c
       0.012896112 -0.02447566 -0.015293333 0.027903488
000230 26 ca cc 3c fc a9 09 bd d1 6b 0f bd dc dc b5 3c
       0.024998736 -0.033609375 -0.03501493 0.02220004
000240 b8 b5 d5 bb 22 58 b6 3b 90 05 ad bc b8 97 53 bc
       -0.0065219067 0.0055647055 -0.021120816 -0.012914591
000250 4c 8a e9 3c 09 93 ac bc 78 fb 4c 3c fc 55 82 3a
       0.028508328 -0.021066206 0.012511127 0.0009943838
000260 44 3e 3c 3c 43 59 03 3b fd 00 dc bb dc 82 55 3c
       0.011489455 0.0020042218 -0.006713985 0.013031688
000270 a4 3a 20 3c c0 b9 30 bb 7b 57 c9 3c 3c 1e 05 3d
       0.009779606 -0.0026966184 0.024577847 0.032499537
000280 b2 af 98 3c 48 cf 29 bc 01 dd d5 bc fb 48 c7 bc
       0.018638466 -0.010364361 -0.02610636 -0.024326792
000290 fb 07 8d bc b3 26 56 bb 80 bd 94 3c b8 0f 23 3c
       -0.01721572 -0.0032676875 0.018156767 0.009952478
0002a0 31 15 01 3d 5c 7e 0f bd cc cf a9 bc fc 12 04 3d
       0.03151435 -0.035032615 -0.020728968 0.032244667
0002b0 34 14 cb bc ea d1 bb 3c c1 23 35 3a e5 58 87 bb
       -0.024789907 0.022927243 0.000690993 -0.00413047
0002c0 6f 24 cc 3c 12 d3 df 3c 15 48 69 bc 6a e6 fc ba
       0.024919717 0.027322326 -0.014238377 -0.0019294743
0002d0 bc c3 07 3d 59 ef f1 3c f9 3a 6b 3c 79 ee ac bc
       0.03314565 0.029533075 0.014357322 -0.021109806
0002e0 cd c6 c1 bc ed 3e d1 3c e8 32 a8 3c 95 9f 75 bb
       -0.023654366 0.0255427 0.020532086 -0.0037479152
0002f0 08 d1 0c 3d ce 34 cc 3c 35 4e 00 bc 88 f4 7d 3c
       0.034379035 0.024927523 -0.007831146 0.015500195
000300 22 42 0d 3d 2d b4 a8 3c 4c 29 8c bc e3 94 09 bd
       0.034486897 0.020593727 -0.017109536 -0.033589255
000310 7f 14 2f 3c 5c 27 59 3c 03 88 0e bd e3 68 ad 3b
       0.010686039 0.013254013 -0.03479768 0.0052920445
000320 1a a9 e9 bc 31 4a 6d 3b 7d 95 7a bc ff 44 9b bc
       -0.028523017 0.0036207552 -0.01529443 -0.018953798
000330 6f cd e2 3c 92 ad 13 3c e5 6e 04 bc 4a a0 e5 bc
       0.027685849 0.00901355 -0.00808308 -0.028030533
000340 14 94 20 3c 5b be 21 bc e5 9e 18 ba 95 ca 22 3d
       0.00980093 -0.009872044 -0.0005822017 0.03974398
000350 ca e8 99 3d 63 74 d8 bb a1 49 3d 3c 66 8c 41 bc
       0.07515104 -0.0066056713 0.011553199 -0.011813259
000360 f4 fc 75 3d 1b e2 6f 3d 26 be 0a bd 87 26 ee bc
       0.060055688 0.05856524 -0.033872746 -0.029071106
000370 ad ca fa 3b 40 50 f7 3b a9 9d c0 3c 79 6c b6 bc
       0.0076535554 0.0075474083 0.023512678 -0.02226852
000380 1f 55 1b bd 59 bc 16 3d 7e 34 12 bc 62 d4 8f 3c
       -0.037922975 0.036800716 -0.008923648 0.017557327
000390 99 5f bf 3c 0a fd 44 3c 85 71 08 3d 2e 03 ce bc
       0.023361014 0.01202322 0.033311386 -0.025148
0003a0 fd e9 f2 3a 81 0a 15 bb 04 ea 88 3c 6b 81 88 bc
       0.0018532869 -0.0022741857 0.01671315 -0.016663274
0003b0 44 e5 bd bc 46 cc f7 bc 20 23 ae 3c 9a 20 19 3c
       -0.023180611 -0.030248772 0.021256983 0.009346152
0003c0 a9 cd 10 bd af 15 82 bb a6 1e 01 bd 25 be 01 bd
       -0.035352383 -0.00396987 -0.03152337 -0.031675477
0003d0 b4 22 aa 3c fb 7d 95 bc 27 3f b2 3c c5 50 0b 3d
       0.0207685 -0.018248549 0.021758629 0.034012575
0003e0 07 ae d8 3b fb 83 8c 3c eb d4 fc bc df d8 76 bc
       0.0066125426 0.017152777 -0.030863246 -0.015066355
0003f0 0b 22 fc ba 2e 47 f8 3b 16 8c 6a 3c 9a 27 9c 3c
       -0.001923622 0.0075768447 0.014315626 0.019061852
