2021_BOML_srcnn_project/output/epoch_236.pth (torch, 231519 bytes, 5 tensors)

conv1.weight f4 [64, 1, 9, 9]
-0.034954242 0.0087866625 -0.080767475 0.08100386 -0.025647694 0.11509428 -0.060028136 0.045373064
-0.030925754 0.06059286 -0.00804974 0.020959558 -0.08991241 -0.05116354 -0.06285036 -0.041319393
0.010504098 0.13220915 0.022743177 0.09306078 0.06142412 -0.0012655369 0.0034715044 0.043593783
-0.15265796 0.0014181978 -0.0722446 0.06700064 0.051563736 -0.19497871 0.060123798 0.050663527
0.029111153 -0.033316586 0.041751504 -0.034386232 -0.1237754 -0.07130222 -0.12084602 0.093786955
0.09942476 0.008858603 -0.024918083 0.11019032 -0.006392077 -0.030799795 -0.043712724 0.03334196
0.22386791 0.17146294 0.072462074 -0.015799485 0.02202076 0.0067334743 -0.024709126 -0.15054713
-0.102434255 0.12203602 -0.012553478 -0.13372314 -0.026720455 0.14077078 -0.079872824 -0.030229043
-0.08058178 -0.07116901 -0.057420604 -0.06580435 -0.15244488 0.017479338 0.16314867 0.11237343
0.09531916 -0.0033124306 0.019071208 0.0014066995 0.055084866 -0.102661975 -0.05401642 0.046989266
-0.038860276 0.0795572 0.014914917 0.006430698 -0.106274396 -0.06119251 -0.08639293 0.11114542
0.053930063 -0.052835554 -0.058054212 0.051181797 0.016152728 -0.02291652 -0.13011898 -0.039361928
0.11550096 0.064235516 0.012775711 0.016532905 0.07981608 -0.0669067 -0.03225778 -0.09065856
-0.05386403 0.014248766 0.035091694 0.06909644 0.03796713 -0.0386574 0.122902475 -0.035895508
0.08540057 -0.050875433 -0.002841252 0.02286192 -0.08682857 -0.026639609 0.006572106 0.20556875
0.08395223 0.1446547 0.11620419 -0.025400192 0.100310504 -0.08615886 -0.025644148 -0.029600754
0.10593466 0.1640209 0.0009057274 -0.012148089 0.006514568 -0.06790441 -0.0542842 -0.1505516
-0.05272415 -0.006859528 -0.026385078 -0.11394199 -0.11073306 -0.026526697 0.09819433 0.11878627
-0.0099082785 -0.10418701 -0.082738034 -0.03812747 -0.17476365 -0.18477863 -0.070760466 0.03189664
-0.0039153984 0.14871529 0.08260371 0.16299918 -0.0050828885 0.025565967 -0.11641631 0.104753576
0.10228925 0.073465794 -0.03522137 0.10003183 0.09655829 0.17810625 0.21182358 0.26443654
0.17135966 0.07334447 -0.012931654 -0.07717333 -0.050649703 -0.1125541 -0.22783315 -0.16916592
-0.19315119 -0.103969045 -0.012096875 -0.061819673 0.0578762 0.044225123 0.04907391 -0.13399816
-0.081336305 -0.04707765 -0.08292385 0.009876758 0.07880602 -0.060284015 -0.044485535 -0.09233966
0.06882186 0.16907842 -0.040854458 -0.038446512 0.024650168 -0.027143326 0.095616914 0.033448026
-0.035529446 0.03591894 0.08977878 -0.02456454 -0.09618058 -0.013040334 0.021862382 0.033593096
0.02085598 0.10054435 0.033120107 0.06684189 0.11746356 -0.025306996 0.06076124 -0.017909434
0.043163653 -0.082394324 -0.03705544 -0.021592218 -0.13210481 -0.08984142 0.039196108 -0.03349323
0.030812584 -0.06615357 -0.012917856 -0.07403014 0.05227636 0.0035748738 0.024900947 0.017608685
-0.053441305 0.043804202 0.021490762 -0.034150656 0.070336476 0.006315647 -0.09905681 0.07311065
0.0458939 -0.03637182 -0.0702878 -0.05220229 0.052356016 0.03637514 -0.10484802 -0.0454332
0.089030646 0.104678 0.078117564 -0.015725678 0.07110818 -0.07509351 -0.012167119 0.023451647
00000000: 2e2c 0fbd eff5 0f3c 6b69 a5bd 5ae5 a53d
00000010: 1d1b d2bc 8db6 eb3d 10e0 75bd 1bd9 393d
00000020: 0258 fdbc 3830 783d 0fe3 03bc 61b3 ab3c
00000030: ff23 b8bd dc90 51bd b1b7 80bd 863e 29bd
00000040: 6119 2c3c d661 073e e64f ba3c a696 be3d
00000050: dc97 7b3d 5fe0 a5ba 2e82 633b 658f 323d
00000060: 5e52 1cbe d2e2 b93a faf4 93bd a237 893d
00000070: 7f34 533d 80a8 47be 5f44 763d 8f84 4f3d
00000080: 837a ee3c f976 08bd a003 2b3d 94d8 0cbd
00000090: f57d fdbd e606 92bd 1e7e f7bd 6013 c03d
000000a0: 359f cb3d ad23 113c 0221 ccbc 76ab e13d
000000b0: a174 d1bb da4f fcbc 1d0c 33bd 9491 083d
000000c0: a13d 653e fb93 2f3e ff66 943d ec6d 81bc
000000d0: e264 b43c 7aa4 dc3b cb6a cabc 0729 1abe
000000e0: 0dc9 d1bd 05ee f93d 1aad 4dbc b8ee 08be
000000f0: dbe4 dabc 3726 103e 5d94 a3bd e6a2 f7bc
00000100: 0f08 a5bd 0fc1 91bd de31 6bbd 6ec4 86bd
00000110: 831a 1cbe d430 8f3c 7210 273e 0a24 e63d
00000120: b136 c33d 5d15 59bb 393b 9c3c 0161 b83a
00000130: aba0 613d 7140 d2bd 5240 5dbd d177 403d
00000140: f42b 1fbd e3ee a23d b25d 743c 9bb8 d23b
00000150: 64a6 d9bd ffa4 7abd c7ee b0bd 36a0 e33d
00000160: c5e5 5c3d 186a 58bd 41ca 6dbd 01a4 513d
00000170: ba52 843c 6dbb bbbc e93d 05be f939 21bd
00000180: c48b ec3d e98d 833d 3751 513c 0470 873c
00000190: 9d76 a33d 6106 89bd bc20 04bd 32ab b9bd
000001a0: 87a0 5cbd a873 693c 4fbc 0f3d 6f82 8d3d
000001b0: 6c83 1b3d 3957 1ebd 4bb4 fb3d 2b07 13bd
000001c0: 7ee6 ae3d c262 50bd 4c34 3abb ec48 bb3c
000001d0: 2dd3 b1bd 4f3b dabc d25a d73b 9d80 523e
000001e0: 26ef ab3d 5d20 143e 76fc ed3d 1014 d0bc
000001f0: 986f cd3d 0e74 b0bd ad13 d2bc 487d f2bc
00000200: 45f4 d83d 18f5 273e 566e 6d3a c708 47bc
00000210: 2878 d53b 7811 8bbd 1c59 5ebd 332a 1abe
00000220: 47f5 57bd e4c5 e0bb 8525 d8bc 6b5a e9bd
00000230: 04c8 e2bd 844e d9bc 1c1a c93d 3746 f33d
00000240: 5556 22bc 0060 d5bd 8f72 a9bd 8d2b 1cbd
00000250: 3ef5 32be 9c36 3dbe ddea 90bd 0da6 023d
00000260: be4c 80bb d248 183e 222c a93d 42e9 263e
00000270: 5c8e a6bb b86f d13c ad6b eebd 0b89 d63d
00000280: 077d d13d 3c75 963d 4944 10bd 7ddd cc3d
00000290: 5ac0 c53d 7c61 363e 48e8 583e 3a64 873e
000002a0: e878 2f3e a035 963d 4adf 53bc 0d0d 9ebd
000002b0: 1076 4fbd c482 e6bd 184d 69be d539 2dbe
000002c0: 6dc9 45be b9ed d4bd f931 46bc a036 7dbd
000002d0: 980f 6d3d 6725 353d b901 493d d036 09be
000002e0: a693 a6bd 7ed4 40bd fbd3 a9bd 20d2 213c
000002f0: 0d65 a13d 5fec 76bd 7736 36bd 931c bdbd
00000300: 7af2 8c3d e522 2d3e 0157 27bd 177a 1dbd
00000310: 26ef c93c ae5b debc cdd2 c33d cc00 093d
00000320: 5387 11bd bd1f 133d f0dd b73d 933b c9bc
00000330: 53fa c4bd 20a7 55bc bd18 b33c ea98 093d
00000340: 29da aa3c 32ea cd3d f3a8 073d 67e4 883d
00000350: bc90 f03d 9e50 cfbc c7e0 783d ceb6 92bc
00000360: 5fcc 303d 5bbe a8bd 72c7 17bd 2ae2 b0bc
00000370: 7c46 07be c7fe b7bd 198c 203d 3230 09bd
00000380: ac6a fc3c 867b 87bd 6aa5 53bc 1d9d 97bd
00000390: bd1f 563d 6e48 6a3b 12fd cb3c 1740 903c
000003a0: 45e5 5abd 096c 333d 650d b03c 8fe1 0bbd
000003b0: 920c 903d 7df3 ce3b 4cde cabd 09bb 953d
000003c0: 3efb 3b3d 9efa 14bd 0df3 8fbd 12d2 55bd
000003d0: 4373 563d 19fe 143d 8fba d6bd 2a18 3abd
000003e0: b355 b63d 6b61 d63d 1afc 9f3d 23d3 80bc
000003f0: 2aa1 913d a0ca 99bd 9958 47bc ab1d c03c

conv1.bias f4 [64]
0.02309223 -0.12827434 0.01503743 -0.1375256 0.027707739 0.015932204 0.04774129 -0.009321034
0.070446715 -0.027191617 -0.009857194 0.019522587 -0.20092498 0.23762152 0.06961701 -0.0059647397
-0.007925868 -0.0013717903 0.0032504308 0.0127685545 0.019214429 -0.02309 -0.03067603 0.052314207
-0.29657295 -0.025910897 0.065214716 0.0091519095 0.033043552 0.01658384 0.027869305 -0.009381284
0.043826167 0.0253011 0.001622987 -0.046396118 -0.009500034 0.08245565 -0.01728147 0.035784293
0.004339353 0.0016245608 0.09489631 -0.02344717 0.04848029 -0.0119559085 -0.034764715 0.025855243
-0.003774287 0.009377405 0.019708633 0.021092774 0.00889826 -0.006705423 0.013114331 0.01497573
0.012825892 -0.014882214 0.00011659469 0.048299354 0.045585666 -0.009204319 -0.03217289 -0.004339355
00000000: eb2b bd3c 595a 03be 8e5f 763c 83d3 0cbe
00000010: 57fb e23c 4184 823c 5f8c 433d 40b7 18bc
00000020: 5e46 903d f4c0 debc 1180 21bc d5ed 9f3c
00000030: 47bf 4dbe 0e53 733e 5d93 8e3d dd73 c3bb
00000040: 80db 01bc a5cd b3ba 2e05 553b 3333 513c
00000050: 9467 9d3c 3d27 bdbc 4c4c fbbc 6c47 563d
00000060: 69d8 97be 1743 d4bc 4b8f 853d e4f1 153c
00000070: ad58 073d d5da 873c 2b4e e43c f5b3 19bc
00000080: 1183 333d 4144 cf3c 68ba d43a db09 3ebd
00000090: 08a6 1bbc 82de a83d df91 8dbc 8d92 123d
000000a0: 2231 8e3b 37ef d43a ff58 c23d 4814 c0bc
000000b0: 4593 463d b7e2 43bc 7265 0ebd 60ce d33c
000000c0: 075a 77bb b0a3 193c 0074 a13c c1ca ac3c
000000d0: 02ca 113c 2ab9 dbbb 7edd 563c c45c 753c
000000e0: b123 523c 88d4 73bc 4c84 f438 8bd5 453d
000000f0: 09b8 3a3d b6cd 16bc b8c7 03bd 2631 8ebb

conv2.weight f4 [32, 64, 5, 5]
0.004723914 0.070564404 0.06360073 0.05216485 -0.03773417 0.037838206 0.0037713444 -0.003767567
0.03489987 -0.0009274317 0.047634482 0.016605005 0.015264128 -0.020245973 0.02578792 0.034476884
0.07156288 0.0017173697 0.010200988 0.12603867 -0.00881808 0.025467115 -0.095919244 -0.018723268
0.005366843 -0.08264029 0.026035996 -0.016084926 -0.06888515 -0.0895539 -0.1587145 -0.028246606
0.09247374 0.071922354 -0.020701785 -0.05105738 -0.027334794 0.07450129 0.09663417 0.05582829
-0.13371451 -0.003039317 -0.012872934 0.009460794 0.024775833 -0.0867178 0.07154874 0.044466496
0.055533245 0.06604259 0.0071787573 0.067531995 0.055309888 0.13145232 0.10735993 0.014099275
0.025828127 0.03410624 0.038417984 -0.04295395 0.055554457 0.06634146 -0.000623517 -0.049628075
-0.13928469 0.025149282 0.099971056 0.056811742 -0.020254213 -0.05766638 -0.092167206 -0.03880849
-0.041813992 -0.058201592 -0.024378149 0.064667456 0.016096594 0.051167194 -0.030512951 -0.04558122
-0.014714695 0.036702935 0.016686574 -0.011949556 -0.042953346 -0.023981465 -0.042565092 -0.051108893
-0.046242476 -0.10309592 -0.009640731 -0.0013108775 -0.0069162264 0.05062047 0.023611777 -0.008002246
-0.003423782 0.0023224636 0.05701424 0.062452972 -0.03211627 -0.023888696 -0.025402838 -0.029447159
-0.020356204 0.069918886 0.059232224 0.029082173 -0.028778108 -0.108874045 -0.066417925 -0.029278615
0.055389546 -0.013903012 -0.1760813 -0.021570945 0.06543335 0.067885116 0.069058836 0.0021372708
-0.041907933 -0.029330054 -0.08033636 -0.046263 -0.008327724 0.14839937 0.075047165 0.011730219
0.020134145 -0.08415247 0.025638953 0.023283863 0.013182014 -0.044474788 -0.052114107 -0.037835035
0.0014851432 0.027737085 -0.043796077 -0.04800735 0.002728376 0.037706062 0.033341233 -0.010208418
0.0041044415 0.08229801 0.047777254 0.040349383 0.0005712757 0.0031393722 0.021282926 0.030679794
0.025522353 0.07321434 -0.06743979 0.09459882 0.07897257 0.017934874 -0.018763904 -0.063305266
0.10826725 0.053638794 0.009881755 -0.0137680685 -0.010303131 -0.019034924 -0.030009095 -0.04948863
-0.072166376 0.113244325 -0.20241682 -0.09592366 0.021479573 0.049125772 0.123582095 0.13095681
0.15288025 0.15852854 0.016786737 -0.06663419 -0.037936877 -0.045534503 0.11343324 0.06926556
-0.06575026 -0.080198854 -0.10231237 -0.04813201 0.0793518 0.06874792 0.093256816 0.0122978445
-0.061758578 0.052826837 -0.006429709 0.13081174 0.25152895 0.15610024 0.058624264 0.011369037
0.049760368 -0.083961956 -0.109236784 -0.0025938342 0.085431285 0.050683293 -0.0658336 -0.080149956
-0.00022784078 -0.033804484 0.08411438 0.009105697 -0.020297917 0.075281076 0.07447021 0.0036374468
0.03575799 0.03141575 0.06393051 0.009059435 -0.010696039 0.13003005 0.03987159 0.028912928
-0.030307889 0.023179691 -0.037010502 -0.049245674 -0.0037978769 0.023663586 0.046272263 -0.03737779
-0.014647045 0.038629945 0.060689293 -0.0086358115 -0.043273795 0.001069404 0.052816782 0.0635688
-0.011697211 -0.027743746 0.010945659 0.01385416 0.01933733 -0.00747329 -0.015841722 -0.008459328
0.013433385 -0.01151036 -0.033487078 -0.04189702 0.0019160464 0.013635918 -0.006125326 -0.03611572
00000000: 10cb 9a3b 1284 903d 1941 823d cfaa 553d
00000010: 258f 1abd 3cfc 1a3d a928 773b 49e9 76bb
00000020: 2bf3 0e3d e31e 73ba 601c 433d 3807 883c
00000030: 6516 7a3c e2da a5bc 3041 d33c a237 0d3d
00000040: 8f8f 923d 5d19 e13a 0b22 273c 4810 013e
00000050: b579 10bc 69a0 d03c 4f71 c4bd 8a61 99bc
00000060: 58dc af3b 503f a9bd 7149 d53c 89c4 83bc
00000070: a813 8dbd 0968 b7bd 0e86 22be 6d65 e7bc
00000080: df62 bd3d 074c 933d ca96 a9bc 8b21 51bd
00000090: 38ed dfbc 2294 983d 23e8 c53d 34ac 643d
000000a0: 75ec 08be 472f 47bb 00e9 52bc 7201 1b3c
000000b0: b0f6 ca3c 1a99 b1bd 2588 923d 8022 363d
000000c0: d476 633d 5641 873d c83b eb3b 374e 8a3d
000000d0: 9f8c 623d 709b 063e 86df db3d a500 673c
000000e0: 8295 d33c fcb2 0b3d 2d5c 1d3d 7bf0 2fbd
000000f0: 128d 633d 08de 873d 8473 23ba cf46 4bbd
00000100: a5a0 0ebe de05 ce3c a0bd cc3d 6eb3 683d
00000110: 2aec a5bc 9533 6cbd 29c2 bcbd a7f5 1ebd
00000120: 2645 2bbd cb64 6ebd afb4 c7bc 5f70 843d
00000130: 01dd 833c b194 513d 4cf6 f9bc 60b3 3abd
00000140: e715 71bc d155 163d 48b2 883c 12c8 43bc
00000150: d9ef 2fbd c774 c4bc bc58 2ebd 8f57 51bd
00000160: c068 3dbd f423 d3bd 28f4 1dbc c0d1 abba
00000170: 83a1 e2bb 6957 4f3d 7c6d c13c da1b 03bc
00000180: 8861 60bb 7934 183b c487 693d b0ce 7f3d
00000190: 5a8c 03bd 3ab2 c3bc 9d19 d0bc 2b3b f1bc
000001a0: 0ec2 a6bc a231 8f3d 7d9d 723d bd3d ee3c
000001b0: 11c0 ebbc 5bf9 debd 1f06 88bd b5d9 efbc
000001c0: 26e0 623d 75c9 63bc a84e 34be 8db5 b0bc
000001d0: ec01 863d 5a07 8b3d b86e 8d3d 7411 0c3b
000001e0: a7a7 2bbd 9545 f0bc 6487 a4bd 467e 3dbd
000001f0: 0271 08bc 01f6 173e 54b2 993d 1b30 403c
00000200: 5df0 a43c 2158 acbd c808 d23c cdbd be3c
00000210: 60f9 573c 322b 36bd 9a75 55bd e9f8 1abd
00000220: 23a9 c23a e238 e33c 8463 33bd 5ba3 44bd
00000230: 8ece 323b ac71 1a3d d190 083d 3541 27bc
00000240: 8d7e 863b dc8b a83d 15b2 433d 6545 253d
00000250: aac1 153a edbd 4d3b 8859 ae3c 3154 fb3c
00000260: 4114 d13c 66f1 953d df1d 8abd 07bd c13d
00000270: 5fbc a13d 28ec 923c c2b6 99bc 31a6 81bd
00000280: 38bb dd3d 5ab4 5b3d 16e7 213c 7793 61bc
00000290: 77ce 28bc 21ef 9bbc a2d5 f5bc 97b4 4abd
000002a0: f7cb 93bd a4ec e73d 5b46 4fbe a073 c4bd
000002b0: eef5 af3c 1b38 493d 9c18 fd3d 8b19 063e
000002c0: a48c 1c3e 4e55 223e 5784 893c 8277 88bd
000002d0: b363 1bbd 6382 3abd b04f e83d 1adb 8d3d
000002e0: 13a8 86bd 4c3f a4bd 2689 d1bd 1226 45bd
000002f0: 3283 a23d b6cb 8c3d 6efd be3d e67c 493c
00000300: 90f6 7cbd f460 583d 4fb0 d2bb 83f3 053e
00000310: 67c8 803e bed8 1f3e ff1f 703d 3345 3a3c
00000320: 87d1 4b3d 3ff4 abbd 89b7 dfbd 51fd 29bb
00000330: 99f6 ae3d 4999 4f3d c4d3 86bd a925 a4bd
00000340: 8be8 6eb9 9276 0abd 2944 ac3d 1030 153c
00000350: d147 a6bc f72c 9a3d d683 983d 3b62 6e3b
00000360: f876 123d cdad 003d 00ee 823d 066e 143c
00000370: 703e 2fbc 9926 053e 6450 233d ceda ec3c
00000380: 4048 f8bc 56e3 bd3c 5398 17bd d5b5 49bd
00000390: cde5 78bb 23da c13c fc87 3d3d 7419 19bd
000003a0: 29fa 6fbc 6f3a 1e3d 5695 783d 387d 0dbc
000003b0: dd3f 31bd 3e2b 8c3a 6956 583d 5c30 823d
000003c0: a9a5 3fbc da46 e3bc 6c55 333c 8ffc 623c
000003d0: 5269 9e3c 80e2 f4bb 80c6 81bc fe98 0abc
000003e0: b317 5c3c f395 3cbc bf29 09bd 369c 2bbd
000003f0: d923 fb3a 2f69 5f3c f5b6 c8bb 14ee 13bd

conv2.bias f4 [32]
0.027402973 -0.003155557 0.0098992055 0.022668116 0.040153358 -0.033289813 0.0027426751 0.021777157
0.025513416 -0.03593872 -0.0030877371 -0.05798181 0.03839879 -0.058431648 0.10709083 0.019706497
-0.018372005 0.007554192 -0.012747129 0.048039623 0.04424875 0.026534436 -0.037705757 0.009310094
-0.010836044 0.052864835 0.022211112 0.033260543 0.028885663 -0.038474645 -0.071064316 0.02501973
00000000: 337c e03c 76cd 4ebb 4730 223c 7cb2 b93c
00000010: d977 243d e65a 08bd 74be 333b 0266 b23c
00000020: 8301 d13c 7b34 13bd a25b 4abb 567e 6dbd
00000030: 0d48 1d3d 0656 6fbd 7052 db3d 856f a13c
00000040: e380 96bc 2889 f73b 56d9 50bc 32c5 443d
00000050: 2d3e 353d bf5e d93c 5a71 1abd 5d89 183c
00000060: aa89 31bc cc88 583d 14f4 b53c 353c 083d
00000070: a0a1 ec3c 9797 1dbd 2b8a 91bd 2df6 cc3c

conv3.weight f4 [1, 32, 5, 5]
-0.008212834 0.02065485 0.026225476 0.043071665 0.034708638 -0.02003219 0.0054541626 -0.006704552
-0.002759495 -0.0015762176 -0.006307954 0.0030835527 -0.013339676 -0.061261624 -0.019978924 -0.0014709746
-0.019149862 -0.023360416 -0.043172617 0.01803301 0.008655425 0.020982016 0.02134584 0.031736225
0.0039851055 0.0037368704 -0.03458665 0.011232515 0.024397783 -0.025254695 0.019922214 -0.013407674
0.013519871 -0.017913248 0.0024013969 -0.039432365 0.025567466 -0.005099845 0.027922826 -0.016131813
0.013353423 -0.021492472 -0.019487958 -0.015521506 0.014832307 0.023488494 0.02651614 -0.006073914
0.00060105196 0.025338382 -0.014021768 0.0023425724 0.033543155 -0.021514148 -0.018719368 -0.02136064
0.0034443506 -0.022614269 0.014371677 -0.025731921 -0.024180576 -0.02043554 0.041233953 -0.012353505
-0.009906853 -0.020155257 0.009062868 0.0030612373 0.00015028751 0.001261776 0.006964487 0.03741065
0.03650205 -0.016180841 -0.0069942693 -0.0685247 -0.0035610432 0.013474766 0.015304392 0.0104103675
0.02043 0.030527292 0.024387646 0.0072819474 0.0053792223 0.061972428 0.030845826 -0.0057556625
-0.04856728 -0.013724948 0.03451762 -0.0059476765 -0.0633628 -0.045260407 -0.005175436 0.005288314
-0.01321432 -0.014316951 0.0039745513 0.02940176 0.0027495688 0.004705114 0.012597813 -0.004257705
0.003485549 -0.011881908 0.029185424 -0.0013095262 0.024724673 -0.02095117 -0.030765459 0.0023288904
-0.03314909 0.020746794 0.021243496 0.024920823 0.028737826 0.010014278 0.012156411 -0.0059753465
0.030227091 0.012506693 -0.009981404 -0.035055712 0.0025154168 -0.0059089493 0.037169725 0.049225375
0.03289899 -0.0061298176 0.014930683 0.0019522436 0.02233991 0.00586391 -0.0041796416 -0.01087624
0.0037290317 -0.043639105 -0.030420434 0.024007112 0.010333026 -0.04736378 -0.045844533 0.012242381
0.0055749677 0.012459838 -0.009825232 -0.0006037746 0.027935648 -0.009906345 0.010254007 -0.0013611871
0.01029823 0.0019011843 -0.006710131 0.00927923 0.005168199 -0.0064158365 0.021860389 0.031542376
0.01715003 -0.012533786 -0.028675022 -0.02669637 -0.019304164 -0.0058191093 0.017276347 0.011567051
0.03264678 -0.037570145 -0.02375459 0.030970363 -0.02274868 0.02403036 -0.00028290684 -0.0050839805
0.024151847 0.027039623 -0.0138403 -0.0015319092 0.031349536 0.027766047 0.013384334 -0.021102477
-0.023857908 0.023373624 0.018236896 -0.004955362 0.03416087 0.024443692 -0.009286415 0.01392488
0.033352397 0.020402858 -0.017210625 -0.034297775 0.01004914 0.012914954 -0.034505587 0.0055654333
-0.044344228 -0.029766744 -0.05135826 -0.028739458 0.0014796086 -0.022239191 0.015782565 -0.039130498
-0.015599545 -0.011164341 -0.0057199593 0.09868563 0.10013509 -0.018218618 0.0010612461 -0.042245522
0.081111245 0.11048283 -0.01541398 -0.05322966 -0.04311471 -0.031244276 0.009227257 -0.017363986
-0.06136008 0.047833502 0.016222492 0.012889607 0.02746616 0.01879773 0.027846593 -0.019636823
-0.024791293 -0.007921931 0.020121377 -0.025539245 -0.055472355 -0.0618028 -0.0049102204 0.010757578
-0.022792028 -0.014700195 -0.025078904 -0.014475772 0.029835505 0.023725478 0.032880135 0.0424503
0.017530037 0.01407126 -0.030863246 -0.015063042 -0.0019359153 0.007574377 0.014315485 0.019061852
00000000: 1f8f 06bc 5c34 a93c cfd6 d63c ea6b 303d
00000010: a52a 0e3d 8c1a a4bc d5b8 b23b dcb1 dbbb
00000020: a5d8 34bb 1699 ceba f4b2 cebb 6e15 4a3b
00000030: a88e 5abc 78ed 7abd d7aa a3bc b8cd c0ba
00000040: 2ce0 9cbc 585e bfbc c5d5 30bd f7b9 933c
00000050: 7ccf 0d3c 7ae2 ab3c 79dd ae3c d8fd 013d
00000060: 7d95 823b 48e6 743b bbaa 0dbd 9508 383c
00000070: dcdd c73c efe2 cebc e933 a33c dcab 5bbc
00000080: 7382 5d3c cebe 92bc c160 1d3b d583 21bd
00000090: dd72 d13c 9a1c a7bb 69be e43c dd26 84bc
000000a0: 51c8 5a3c fb10 b0bc 36a5 9fbc ea4d 7ebc
000000b0: 3403 733c f16a c03c 6038 d93c af07 c7bb
000000c0: ea8f 1d3a 7092 cf3c 8fbb 65bc d885 193b
000000d0: 8c64 093d 703e b0bc 5c59 99bc 82fc aebc
000000e0: 9dba 613b 8f41 b9bc 2f77 6b3c c0cb d2bc
000000f0: 5816 c6bc 6f68 a7bc efe4 283d 5b66 4abc
00000100: 5a50 22bc a31c a5bc 6c7c 143c 0a9f 483b
00000110: 7f96 1d39 2d62 a53a 5a36 e43b e93b 193d
00000120: 2c83 153d af8d 84bc 2f30 e5bb ae56 8cbd
00000130: 6460 69bb 44c5 5c3c 46bf 7a3c 3f90 2a3c
00000140: d15c a73c 5f14 fa3c 9ac8 c73c 679d ee3b
00000150: 3044 b03b cdd6 7d3d 63b0 fc3c ff99 bcbb
00000160: 7cee 46bd 9bde 60bc 5962 0d3d bae4 c2bb
00000170: 5bc4 81bd fa62 39bd b496 a9bb 9849 ad3b
00000180: e080 58bc a591 6abc f43c 823b f6db f03c
00000190: 1c32 343b 5b2d 9a3b 0f67 4e3c 3884 8bbb
000001a0: cf6d 643b 56ac 42bc 4516 ef3c 68a4 abba
000001b0: 668b ca3c caa1 abbc d807 fcbc 4ca0 183b
000001c0: 57c7 07bd 2ef5 a93c d706 ae3c c126 cc3c
000001d0: 976b eb3c ed12 243c af2b 473c d7cc c3bb
000001e0: ce9e f73c dfe8 4c3c 0b89 23bc 9496 0fbd
000001f0: b1d9 243b dc9f c1bb 483f 183d 8ca0 493d
00000200: 17c1 063d a3dc c8bb d39f 743c 6de2 ff3a
00000210: 3002 b73c 0b26 c03b 60f5 88bb 4232 32bc
00000220: c562 743b ebbe 32bd 4634 f9bc 90aa c43c
00000230: da4b 293c 8600 42bd 7ac7 3bbd 4594 483c
00000240: 38ae b63b 5924 4c3c 03fa 20bc a146 1eba
00000250: 4dd9 e43c 394e 22bc 6c00 283c dc69 b2ba
00000260: e8b9 283c 2931 f93a a9e0 dbbb e907 183c
00000270: ff59 a93b f03b d2bb 8f14 b33c 9432 013d
00000280: 387e 8c3c 825a 4dbc e1e7 eabc 59b2 dabc
00000290: c423 9ebc 3aae bebb 2087 8d3c ba83 3d3c
000002a0: a1b8 053d 27e3 19bd fc98 c2bc 8fb5 fd3c
000002b0: 715b babc 51db c43c 1d53 94b9 8597 a6bb
000002c0: 18da c53c 3382 dd3c 6dc2 62bc 58ca c8ba
000002d0: 5f68 003d 9f75 e33c f749 5b3c 1adf acbc
000002e0: a971 c3bc 0b7a bf3c 8b65 953c 9760 a2bb
000002f0: 45ec 0b3d 233e c83c 0c26 18bc 2e25 643c
00000300: 869c 083d e523 a73c 4cfd 8cbc d37b 0cbd
00000310: 26a5 243c 3e99 533c bb55 0dbd 3d5e b63b
00000320: 4ba2 35bd 63d9 f3bc 0a5d 52bd 036f ebbc
00000330: 6def c13a f72e b6bc 704a 813c 4d47 20bd
00000340: 3c95 7fbc a4ea 36bc 7f6e bbbb b11b ca3d
00000350: a013 cd3d 363f 95bc 8319 8b3a a409 2dbd
00000360: a71d a63d d244 e23d eb8a 7cbc 5807 5abd
00000370: 0d99 30bd fff3 ffbc ec2d 173c eb3e 8ebc
00000380: b554 7bbd 10ed 433d 08e5 843c ee2e 533c
00000390: b600 e13c b2fd 993c 8a1e e43c 67dd a0bc
000003a0: 1c17 cbbc fdca 01bc 96d5 a43c ae37 d1bc
000003b0: fb36 63bd ef24 7dbd eae5 a0bb 8d40 303c
000003c0: 59b6 babc 16d9 70bc 4672 cdbc ca2b 6dbc
000003d0: 9769 f43c ef5b c23c 52ad 063d 5ee0 2d3d
000003e0: 279b 8f3c 248b 663c ebd4 fcbc faca 76bc
000003f0: 8abe fdba 7b32 f83b 7f8b 6a3c 9a27 9c3c
