2021_BOML_srcnn_project/output/epoch_84.pth (torch, 231519 bytes, 5 tensors)

conv1.weight f4 [64, 1, 9, 9]
000000 28 ec 9e bc 8b 04 e4 3c 64 ba 3c bd 45 9f a3 3d
       -0.019399717 0.027834198 -0.046076193 0.079893626
000010 12 99 66 bd 66 36 d4 3d 3f 0e 7a bd 2a f0 fe bb
       -0.056298323 0.10361938 -0.061048742 -0.0077800946
000020 99 c7 81 3a 44 68 ab 3d 65 22 f3 bc a4 05 b2 3c
       0.0009901404 0.083694965 -0.029679487 0.021731205
000030 79 7f d6 bd 87 7f a6 bd e4 32 a5 bd b0 69 7c bd
       -0.10473532 -0.08129793 -0.08066347 -0.06162423
000040 02 a1 95 bd 18 44 c4 3d dd 9a 77 3c 72 3d 4b 3d
       -0.073061004 0.095833 0.015112606 0.049619146
000050 6b 83 7a 3d 6a a7 83 3c d6 1a 00 3d 10 95 a7 3d
       0.061160486 0.01607104 0.031275593 0.08182728
000060 dc 1e c8 bd d4 d5 5b 3c 63 c5 73 bd b1 f1 55 3d
       -0.09771511 0.01341768 -0.059514415 0.052232448
000070 74 5c ea 3c 71 f0 2d be df ea b1 3d 6f 1d a5 3d
       0.028608538 -0.16986252 0.08687376 0.08062255
000080 59 27 6b 3d 96 d2 58 3c 80 f0 69 3d 82 89 4b bd
       0.05741057 0.013233801 0.057114124 -0.049691685
000090 fe 4e f1 bd 28 dd a9 bd 53 ca d2 bd a2 2f 9e 3d
       -0.11782645 -0.08294135 -0.102924965 0.07723929
0000a0 8a a9 9e 3d 8c d9 5d ba 04 69 23 bc ee 62 ce 3d
       0.07747181 -0.0008462898 -0.009973768 0.10077463
0000b0 b4 94 d0 bc 31 c3 f7 bb 50 79 43 bd 2c fe c7 3c
       -0.025461532 -0.0075611104 -0.047723114 0.02441319
0000c0 b1 71 39 3e 3a 85 14 3e b4 c2 8b 3d 97 76 0b 3c
       0.18109776 0.14503947 0.06824246 0.008512161
0000d0 db 4b ea 3c aa a9 fa 3c 39 e2 95 bb 10 cb 0d be
       0.028600624 0.03059848 -0.004574087 -0.13846993
0000e0 07 86 b4 bd 20 7f e7 3d 61 54 df 3b aa 8e f1 bd
       -0.08814626 0.11303544 0.0068154787 -0.11794789
0000f0 57 db 8d bc e8 87 e6 3d 7b ff b9 bd d5 50 23 bd
       -0.017316503 0.11256391 -0.09081932 -0.03987201
000100 dc c4 a4 bd ed bc 38 bd f2 79 57 bd 48 66 38 bd
       -0.080453604 -0.04510205 -0.05260653 -0.045019418
000110 5a 8f 1b be 6f e4 8f 3c 35 06 fe 3d da a2 9d 3d
       -0.15191403 0.01756498 0.12403528 0.07697077
000120 22 92 66 3d d3 6e 62 bd fe 22 86 3c b5 7e 5b bc
       0.056291707 -0.05528147 0.016374107 -0.0133969085
000130 52 b2 30 3d 8f 42 e7 bd 3a d2 ac bc 23 ee c2 3d
       0.04313881 -0.11291992 -0.021096338 0.09518077
000140 d4 c7 94 3c 8b 10 1e 3d 10 96 68 3c d1 be b8 3b
       0.018161692 0.038589995 0.014195934 0.0056379815
000150 86 3d 9f bd 3c a7 82 bd 77 18 c0 bd 92 cd c8 3d
       -0.077754065 -0.06379554 -0.09379666 0.098048344
000160 97 2d 37 3d cc 78 1a bd 2d 22 ac bd c8 7d 4e 3d
       0.044721212 -0.037712857 -0.08404956 0.050412923
000170 e5 d6 8c 3c b8 65 ad 3c fa 1f d5 bd c5 30 f8 bc
       0.017192313 0.021166667 -0.1040649 -0.030296693
000180 d5 bd e6 3d 1a 31 91 3d af 82 0d 3d 82 0a d0 bb
       0.11266676 0.070894435 0.034548458 -0.006348909
000190 e2 0b 88 3d 7c 1d a4 bd 7e a4 fe bb f2 1f a8 bd
       0.066428915 -0.08013436 -0.007771074 -0.08209218
0001a0 dc 12 55 bd 54 56 d3 3a 0a 01 e0 3c ff 3d 92 3d
       -0.05201994 0.001612375 0.027344245 0.07140731
0001b0 f7 c7 44 3d 22 bc df bc fd ac d8 3d 17 c5 f1 bc
       0.048042264 -0.027311388 0.1057987 -0.029512925
0001c0 9f d1 9c 3d 93 3d 2b bd 45 9d 22 bc 7c ee 48 3c
       0.076571696 -0.04180677 -0.009925191 0.01226389
0001d0 2f 80 f5 bd 07 e4 51 bb 27 75 da 3c 60 33 2e 3e
       -0.1198734 -0.0032026784 0.02666719 0.17011786
0001e0 e2 f1 58 3d 34 54 d8 3d 29 70 cc 3d 09 58 14 bd
       0.052965052 0.105629355 0.0998233 -0.03621677
0001f0 81 5b db 3d 16 18 b9 bd fa fe 8e 3a a7 13 1e bb
       0.10710812 -0.09037797 0.0010909729 -0.00241206
000200 52 6c 95 3d af 3d 08 3e 00 cc ca bc bd cd 7c bc
       0.07296051 0.1330478 -0.024755478 -0.015429911
000210 81 9c 35 3b ad 5d 6c bd 01 19 25 bd 49 14 0c be
       0.0027711692 -0.057706524 -0.04030705 -0.13679613
000220 08 32 03 bd 1f 00 38 bb 76 49 27 bc e4 a9 aa bd
       -0.032030135 -0.0028076244 -0.010210386 -0.08333185
000230 00 29 ad bd 80 91 36 bd d7 8b 8d 3d cc a5 c9 3d
       -0.08455086 -0.044572353 0.06911438 0.09846076
000240 3d 43 29 3c 4d 94 c4 bd c2 c6 9f bd de 9c 87 bc
       0.010330972 -0.09598599 -0.07801582 -0.016554292
000250 24 2d 05 be 16 74 18 be 5e dd 91 bd 24 d2 22 3c
       -0.13005501 -0.14888033 -0.071223006 0.009937797
000260 ba 5f 7c bc 6c a7 f3 3d af 07 0a 3d 5b 5a e8 3d
       -0.015403682 0.118971676 0.033698734 0.11345359
000270 4b 2a 19 bd b1 9a 12 3d 4b fb a4 bd 86 9d 04 3e
       -0.03739385 0.035792056 -0.08055743 0.12950715
000280 34 d3 df 3d f2 40 be 3d 07 af 8d bd ed f2 cc 3d
       0.10928956 0.09289731 -0.069181494 0.10007272
000290 ad e1 e7 3d 24 a9 2a 3e cb f2 21 3e 5b 1c 64 3e
       0.11322341 0.16666085 0.15815274 0.22276442
0002a0 9e bc 12 3e e0 17 ab 3d 57 64 45 bd 38 02 b7 bd
       0.14329764 0.08354163 -0.048191395 -0.0893597
0002b0 06 ce f9 bc 4c 17 45 bd 69 76 12 be a0 ea b9 bd
       -0.030493747 -0.04811792 -0.14302982 -0.09077954
0002c0 77 69 02 be 6d f7 85 bd 3e 64 1c 3d a9 52 82 bd
       -0.12735544 -0.06541333 0.038181536 -0.063634224
0002d0 ea 18 2a 3d f5 46 16 3d 9c a4 76 3d c4 85 f4 bd
       0.041527666 0.036688764 0.060215577 -0.11939576
0002e0 d2 3e a1 bd ea 9d 27 bd cb 92 98 bd fa 6b 09 3d
       -0.0787331 -0.040922083 -0.074498735 0.03355024
0002f0 fc 42 4d 3d 7b 1e 8e bd 60 58 56 bd 46 f1 b8 bd
       0.05011271 -0.069394074 -0.052330375 -0.09030394
000300 78 a9 71 3d d4 b8 0e 3e 6b bc 77 bd bf 7b 1a bd
       0.05899951 0.13937694 -0.060482424 -0.03771567
000310 ea 58 38 3d b1 5b 62 bd 35 30 c7 3d 5d 60 19 3d
       0.04500667 -0.055263225 0.09725992 0.037445415
000320 57 d2 b6 bc 82 90 07 3d 4b f1 a3 3d 0b 2a d4 bc
       -0.022317095 0.033096798 0.08005007 -0.025898954
000330 d4 fd a7 bd f9 6d 69 3c 69 a3 8b 3c 00 d1 65 3c
       -0.08202711 0.014247411 0.017045693 0.01402688
000340 14 15 fb ba 37 fc b3 3d bb 7b 94 3a 38 29 16 3d
       -0.0019156062 0.087883405 0.0011328378 0.036660403
000350 f9 57 9e 3d 64 0e 39 bd 79 30 82 3d 80 8a bf bb
       0.07731623 -0.04517974 0.06356902 -0.005845368
000360 a5 c8 4f 3d 96 cf 96 bd 34 84 0a bc 18 a5 20 bb
       0.05072846 -0.073638126 -0.008454371 -0.0024512466
000370 bc 89 ce bd 1c a5 be bd a1 06 2d 3d 66 fd 8c bc
       -0.100848645 -0.09308836 0.04224265 -0.017210674
000380 4e 69 8a 3d 32 49 9b bd f1 8f 17 bd f8 4a a8 bd
       0.067583665 -0.0758232 -0.037002508 -0.08217424
000390 60 bf 2e 3d b6 db b6 3b e5 46 1c bc 11 92 a0 bb
       0.04266298 0.005580391 -0.009538387 -0.004900225
0003a0 f6 fa 90 bd f5 ca 1b 3d 84 01 4b 3d 1c 5d 41 bd
       -0.07079117 0.03803535 0.049561992 -0.047207937
0003b0 aa 2b 85 3d d7 da 07 3c 3f 66 a6 bd a3 7e 97 3d
       0.06502469 0.008291922 -0.08124971 0.07397201
0003c0 f8 c7 83 3d 78 6d 09 bd 58 46 af bd 5d e6 72 bb
       0.064346254 -0.033551663 -0.08558339 -0.0037063577
0003d0 15 b2 8d 3d b5 03 90 3d b9 fc de bd 08 cc 5c bd
       0.06918732 0.07031957 -0.10888047 -0.053905517
0003e0 ba fd af 3d 3b 45 92 3d 28 73 82 3d c2 a5 85 bd
       0.085933164 0.07142111 0.063696206 -0.065257564
0003f0 f7 3c bc 3d 2e a7 be bd 0a 84 55 bc 30 f6 ed ba
       0.091913156 -0.09309231 -0.013031969 -0.0018155035

conv1.bias f4 [64]
000000 8e 6a d9 3c f6 8c b7 bd f0 9e 2e 3b 82 14 98 bd
       0.026540067 -0.08962433 0.0026645027 -0.074257866
000010 67 fb 14 3d ab cf 9b 3c ba 7c 14 3d c9 51 84 bc
       0.03637257 0.019019922 0.03625176 -0.01615228
000020 fb 34 e9 3d 26 5f 3b bd 67 3c a5 3b 22 b0 b6 3c
       0.11387058 -0.045745037 0.005042601 0.022300784
000030 5a fc 28 be 9f cb 12 3e 9c 9d 69 3d f9 68 fe bb
       -0.16502514 0.14335488 0.057035074 -0.0077639786
000040 1d ff aa bc a7 93 a0 bc 78 1a a0 3c f8 99 92 3c
       -0.0208736 -0.019601656 0.019543871 0.017895684
000050 20 3d e3 3c c2 ba 8c bc 6f cf 4b bd f4 87 8b 3d
       0.027739108 -0.017178897 -0.04975837 0.068130404
000060 b9 35 2c be 66 7a 81 bc 41 4a 83 3d 87 e9 2d 3c
       -0.16817369 -0.015805434 0.06410647 0.010614759
000070 31 d7 e5 3c 7d 11 37 3d 4b 42 9a 3d a1 f3 5c bc
       0.028056713 0.044694412 0.07532176 -0.01348582
000080 d6 c7 f1 3c d0 db 25 3d c5 8b 47 3b 10 03 48 bd
       0.029514235 0.040492833 0.00304483 -0.048831046
000090 0d 10 43 bc f4 03 89 3d ca e9 a4 bc 27 d3 98 3d
       -0.011905682 0.06690207 -0.02013101 0.07462149
0000a0 03 d5 ae 3a 9c 79 d1 ba 55 5a a8 3d 27 7e 25 bd
       0.0013338629 -0.0015981677 0.082203545 -0.04040351
0000b0 57 63 04 3d c8 d1 99 bc 65 94 f6 bc 38 66 fb 3c
       0.0323213 -0.01877679 -0.030100057 0.03068839
0000c0 a8 b4 83 3a 99 e7 8f bc 1e 33 d2 3c 2c 6c 33 3d
       0.0010048347 -0.017566489 0.02565914 0.043804333
0000d0 67 86 a5 bb 9d ee 79 3b 26 ca 61 3c eb e5 36 3c
       -0.0050514224 0.003813661 0.013781106 0.011163215
0000e0 8a cc 2e 3d c5 9f e8 bc 82 67 c7 bb a5 0e 5d 3d
       0.042675532 -0.028396497 -0.006085337 0.053969044
0000f0 26 36 4f 3d dd 7b e5 bc d7 98 37 bd 7c 1b 06 bd
       0.05058875 -0.028013164 -0.044823494 -0.032741055

conv2.weight f4 [32, 64, 5, 5]
000000 40 b0 91 bc f6 31 18 3d e4 82 ba 3d 6f 99 9d 3d
       -0.017784238 0.03715702 0.09106997 0.07695281
000010 7f e3 92 bd af 8e e5 3b c9 56 21 bc f9 61 a1 3c
       -0.07172298 0.0070055346 -0.009847351 0.019700037
000020 71 18 25 3d 7a 7b bf bb 57 2a 99 3b 00 fa 38 bc
       0.040306512 -0.005843577 0.0046742368 -0.011290073
000030 20 97 24 3c 02 26 43 3b d0 3d 4c 3d 27 64 70 bc
       0.010045797 0.0029777293 0.049863636 -0.014672316
000040 bc 3c ff 3c bd e6 b9 3c 69 fd 1e 3d aa 52 c7 3d
       0.03115689 0.022693032 0.03881589 0.09732564
000050 9b 73 d9 bc 74 af f7 3b 60 e3 74 bd 08 ba a3 3c
       -0.026544383 0.0075587574 -0.059787154 0.019986168
000060 58 b5 9f 3c cc 95 74 bd ff f5 9c 3c cf 7a d4 bc
       0.019495651 -0.05971317 0.019160269 -0.025937466
000070 a7 b5 49 bd 70 fc cb bd 82 1e b7 bd 18 4f 93 3a
       -0.049245503 -0.09960258 -0.08941366 0.0011238782
000080 d6 04 4d 3d cb 36 85 3d 49 c1 02 bd 52 0e 9b bc
       0.05005344 0.065045916 -0.031922612 -0.018927727
000090 52 63 c2 bc b5 f4 67 3d c1 35 c4 3d 99 61 86 3d
       -0.023729 0.056629855 0.09580565 0.06561584
0000a0 bf 93 94 bd 9f ee dd bb a9 8f 70 bc ab 99 c3 3c
       -0.07254743 -0.0067728306 -0.014682689 0.023876986
0000b0 7a c6 90 3c 70 23 a0 bd b3 70 cc 3c 27 bc dc 3c
       0.017672766 -0.07819259 0.024956083 0.026945187
0000c0 2a 9a 39 3d 02 17 e2 3c ac cf ad bc 16 87 c3 3c
       0.045313038 0.027598862 -0.02121719 0.023868125
0000d0 05 56 cf 3c e6 44 a2 3d e6 e3 76 3a a6 be 8b bc
       0.025309572 0.079232976 0.0009418115 -0.017058682
0000e0 e5 f0 8b bc c0 51 0c 3d ee 24 89 3d 92 74 95 bc
       -0.01708264 0.03425765 0.06696497 -0.018244062
0000f0 52 c9 d7 3c 8b 70 db 3b 23 ea 1c bd 80 84 22 bd
       0.026341114 0.006696766 -0.038309228 -0.039677143
000100 f2 aa db bd 0b 4f ad 3c 3c c5 97 3d ae e4 33 3d
       -0.107259646 0.021155855 0.07410666 0.043919258
000110 a1 54 83 ba a2 d6 15 bd 38 4e 0c bd 1c a1 48 bb
       -0.0010019728 -0.036581643 -0.034254283 -0.0030613607
000120 9e 3d 69 37 3b c1 b8 bc 43 0b 83 bc 6c 5f 6b 3d
       1.3902229e-05 -0.022553077 -0.015996581 0.05746405
000130 f8 f2 9f 3c 2d 3e 8b bc 0d 51 6b bd 2b b1 cc bd
       0.019525036 -0.016997421 -0.057450343 -0.099947296
000140 64 9a 39 3d c6 3b 83 3d 06 5a 33 bc 69 10 3b bd
       0.045313254 0.06407885 -0.010946756 -0.045669947
000150 08 90 ed bc 87 87 bf bc cd 6b c7 bb 98 d9 2c bd
       -0.028999344 -0.023380054 -0.006085849 -0.0421997
000160 2a 58 36 3c f6 54 41 ba 7d dd 2a bd ef cd 59 3c
       0.011129418 -0.0007375026 -0.041715134 0.013293727
000170 35 24 29 bc 4d 97 2f 3d 10 31 7b 3b 3e 49 bf bb
       -0.010323574 0.0428689 0.0038328804 -0.0058375886
000180 af dc 06 3c 78 4c 07 bc ca c1 88 bc c7 0b bd bc
       0.008231326 -0.008257978 -0.016693968 -0.023076905
000190 ac 97 10 bd 08 d3 96 bc 89 65 c9 3c 28 2d 68 3c
       -0.035300896 -0.018411174 0.024584549 0.014170922
0001a0 b3 f8 42 bc e1 c2 73 bb de a3 81 3c 3e 8a 63 3c
       -0.011900115 -0.0037195014 0.015825208 0.01388794
0001b0 32 28 af bc 08 58 84 bd 7b 5e 6c bd d4 8d 69 bc
       -0.021381471 -0.06462103 -0.05770729 -0.014255006
0001c0 12 fb 33 3d 4a 17 cf 3b a5 7c b7 bd 1f 0b ce bc
       0.04394061 0.006319915 -0.08959321 -0.025151787
0001d0 15 e7 10 3d d9 99 62 3b 49 17 ff 3c ba e7 8d bb
       0.035376627 0.0034576564 0.031139033 -0.0043306025
0001e0 7a cc 1e bd 1c 4a 1e bd 8f 56 9e bd 2a 79 10 bd
       -0.038769223 -0.038644895 -0.077313535 -0.0352718
0001f0 ec fb d1 b8 f5 51 ff 3d 95 db 4c 3d b9 03 4e 3c
       -0.00010012821 0.12466804 0.050014097 0.01257413
000200 30 7c 6c 3d 32 db 40 bd 15 cb f3 bc c7 29 43 bc
       0.057735622 -0.04708404 -0.029759923 -0.011911816
000210 2c 5f 61 bc ce 54 b0 bc bc 75 aa bc 85 69 19 bd
       -0.013755601 -0.021524813 -0.020808093 -0.037454147
000220 36 71 e6 bb c4 c0 f5 3c c9 4a 62 bc b9 3d f3 bc
       -0.0070325388 0.029999144 -0.0138117755 -0.029692518
000230 28 58 9d 3c 90 b4 2e 3d 65 eb 30 3d af 60 97 3c
       0.019207075 0.042652667 0.04319324 0.01847872
000240 2a d7 bf 3b 9b c7 d6 3c 4c a5 70 3c 3b 2d 32 3d
       0.005854507 0.026218226 0.014687847 0.043500166
000250 91 ca 8c 3c c8 92 60 39 e4 47 59 3c 6d e4 54 3c
       0.017186435 0.00021416985 0.013261769 0.012993914
000260 c7 52 3a bc 44 d0 08 3d 08 f5 39 bd 37 e0 84 3d
       -0.011372275 0.033401743 -0.045399696 0.06488078
000270 ee 8e eb 3c 99 30 3a bc 82 ef 3c bc cc e1 b3 bc
       0.028754678 -0.011364126 -0.0115317125 -0.021958254
000280 94 01 0f 3d 04 63 bf 3b 2a 62 98 3b db 76 7e bc
       0.034913614 0.005840661 0.004650374 -0.015531267
000290 7b ac d0 bc d5 41 ed 3c 53 2a 6c 3c 08 e8 6d 3c
       -0.02547287 0.028962055 0.014414388 0.014520653
0002a0 90 60 de bb 9d c8 8c 3d 1a d5 7b bd 23 39 3a bd
       -0.0067864135 0.068742014 -0.061482526 -0.045464646
0002b0 09 f7 54 3c 57 87 a6 bb 5c 0f 0b 3d 40 0c 99 3d
       0.012998351 -0.0050820517 0.033950195 0.074730396
0002c0 c3 21 a4 3d 52 e5 a0 3d d4 a5 74 bc c2 ee 17 bd
       0.08014252 0.078562394 -0.014932115 -0.03709293
0002d0 fd fd 38 bc 21 94 f5 bc 13 66 b0 3d d5 14 99 3d
       -0.011291024 -0.02997786 0.08613219 0.074746765
0002e0 8a 45 84 bc 4a 65 85 bc dc 0b 3a bd ed 29 89 bd
       -0.01614644 -0.01628365 -0.045421466 -0.0669745
0002f0 34 d3 68 3d bf 18 66 3d 68 2b d9 3d 96 55 6f 3d
       0.056842044 0.056175943 0.10603982 0.05843123
000300 b0 67 93 bd 5d 14 bb 3c 08 d2 14 3d a1 f8 3f 3e
       -0.07197511 0.022836858 0.036333114 0.18747188
000310 d4 d4 5f 3e 3f fb 15 3e ae 0b 77 3d fc 28 ef 3a
       0.21858531 0.14646624 0.060313873 0.0018246467
000320 70 71 8f 3b 8f 69 5b bd a8 6a 72 bd 4d fb e9 bb
       0.0043775365 -0.053567465 -0.059183747 -0.007140553
000330 f2 43 6e bb 51 9c 95 3c 9f 4f 56 bd 04 da 5e bd
       -0.0036356417 0.018263014 -0.052322026 -0.054407135
000340 dc 44 1f 3c ae 43 d9 bc dc db a4 bc 39 f7 79 bd
       0.009721007 -0.02652153 -0.020124368 -0.061026786
000350 1c 1d 63 bd f7 59 b0 3c 65 f4 2e 3c 63 dc 0f bb
       -0.055447683 0.021527274 0.010678385 -0.002195143
000360 39 48 38 bc 45 f4 a1 bb f0 46 96 3c 87 66 1f 3d
       -0.011247688 -0.0049424493 0.018344373 0.038916137
000370 38 9e 6d ba 51 26 97 3d c2 89 1b 3d a1 20 ca b9
       -0.0009064409 0.07380355 0.037973173 -0.00038552753
000380 de df 3f 3d 08 84 de 3a 07 ab 4f 3c c8 53 1e 3c
       0.046844356 0.0016976604 0.012675053 0.00966353
000390 1d 00 e2 3c e6 68 36 3d 7f f0 fa 3b f1 b2 df bb
       0.027587945 0.044533633 0.007658064 -0.0068267514
0003a0 4f 21 17 3d 19 ea 5b 3d 47 43 1c 3d b1 2d 42 bd
       0.036897 0.05369005 0.0381501 -0.047406856
0003b0 c9 43 45 bd fa fb 2f bc 3e f9 ec 3c 02 09 e7 3c
       -0.048160348 -0.010741228 0.028927442 0.028202537
0003c0 8b 90 ed bc 2a b5 d0 bc 04 08 4e bb b5 76 c1 bb
       -0.028999588 -0.02547701 -0.0031437883 -0.0059040436
0003d0 ff e8 97 3b c5 1e bc 3b 7c a8 69 bc 7f d4 da bc
       0.0046359296 0.0057409727 -0.014261361 -0.026712654
0003e0 84 bb 95 bc 18 a8 50 3c 7e f4 38 bd a9 d6 1b bd
       -0.018277891 0.012735389 -0.04515504 -0.038046513
0003f0 ea 6a 17 bb 8f cb 94 3c f1 21 af 3b 0a f1 26 bd
       -0.0023104497 0.01816347 0.0053446223 -0.040757217

conv2.bias f4 [32]
000000 24 93 d9 3b 51 d0 66 bc f6 20 71 bb 09 c1 d5 3c
       0.006639855 -0.014087752 -0.0036793328 0.026093023
000010 1c 22 0c 3d dc 14 cc bb 63 3e 25 bb af 82 8d 3c
       0.034212217 -0.0062280726 -0.0025214187 0.017274229
000020 3c 66 33 3d 44 ab ac bc d1 4b c1 ba 6a 62 7e bc
       0.04379867 -0.02107776 -0.0014747326 -0.015526393
000030 65 66 fc 3c 5e 08 40 ba 4b 5a 91 3d ec bc 62 bc
       0.030810544 -0.00073254656 0.070973 -0.013838988
000040 12 53 5d bc 99 be c3 bb b0 b8 cd 3a cf 7f fa 3c
       -0.013508575 -0.0059736487 0.00156953 0.030578522
000050 f3 a7 3c 3d 35 4b 28 3c bc 05 4f bc f2 19 0f 3c
       0.046058606 0.010271837 -0.0126356445 0.008734213
000060 db 0e c3 bb 8b 4c eb 3c 25 18 c6 3c e1 94 6e 3c
       -0.0059526986 0.028723022 0.024181435 0.014561863
000070 39 b3 a5 3c ad 90 15 bd 76 cd 20 bd aa 6c 2a 3c
       0.020227062 -0.036514927 -0.039258443 0.010401884

conv3.weight f4 [1, 32, 5, 5]
000000 81 6c 93 3b 0b f1 9b 3c 81 59 7c 3c 85 66 20 3d
       0.0044990187 0.019035837 0.015402199 0.03916027
000010 60 60 18 3d 11 7d ef bc 81 17 87 3b 93 cf d6 bc
       0.037201285 -0.029234441 0.004122675 -0.026222026
000020 5b dc ba 38 d7 2b 74 3b 8f c6 8d bb 4b d5 9f 3c
       8.9102155e-05 0.0037257576 -0.0043266485 0.019510886
000030 7a 21 11 bb e4 07 4a bd 27 ac 79 bc ca a8 51 bc
       -0.0022145198 -0.04932393 -0.015238798 -0.01279659
000040 34 42 fe bc ba a5 78 bc 61 16 35 bd 4c 4b 90 3c
       -0.031037427 -0.015176231 -0.044210795 0.01761403
000050 c8 90 21 3c 70 db a0 3c 6f d8 c3 3c 82 c2 09 3d
       0.009861179 0.019635886 0.023906915 0.033632763
000060 ad 63 06 bc 33 75 ec 3a bf 61 0b bd d2 57 10 3c
       -0.0082024755 0.0018040299 -0.034028765 0.0088100005
000070 f2 0f d8 3c c0 82 c3 bc 2c 76 a3 3c 5e f7 86 bc
       0.02637479 -0.023866057 0.01995381 -0.016475376
000080 36 d4 2c 3c d1 7a 86 bc d0 28 a8 3b 92 67 0d bd
       0.010548642 -0.016415985 0.0051318184 -0.0345226
000090 70 fc d5 3c cf 6e 00 bc e3 4f 01 3d 2d 8d 63 bc
       0.026121348 -0.007838919 0.031570327 -0.013888639
0000a0 57 7f 6f 3c 3a 31 93 bc 9a 13 82 bc 33 98 31 bc
       0.0146177625 -0.017967809 -0.015878487 -0.01083951
0000b0 aa ad 84 3c 35 da 6c 3c 0d 83 a9 3c 11 dc c7 bb
       0.01619609 0.0144563215 0.020692373 -0.006099232
0000c0 14 af 5a 3b 30 38 b8 3c 82 53 62 bc 1d 4d 3e bc
       0.0033368515 0.02248773 -0.013813855 -0.011615065
0000d0 5a 7e dc 3c 11 4a f4 bc 26 23 8c bc 12 8c a0 bc
       0.026915718 -0.029820474 -0.017106604 -0.01959804
0000e0 ea 7d f3 bb ca d2 d4 bc ec fa 06 3c 1c 39 ca bc
       -0.0074307816 -0.025979418 0.008238535 -0.024685435
0000f0 97 a3 7e bc 3f a9 0c bd dd 42 c1 3c 36 78 b1 bc
       -0.015541933 -0.034341093 0.023591453 -0.021663766
000100 5a d7 8a bb e1 44 ac bc f3 a8 9d bb e3 2b de bb
       -0.0042370977 -0.021028938 -0.0048114 -0.006780134
000110 db 7c 3c bc 07 94 04 ba ed bb 77 3c 62 fd ee 3c
       -0.011504377 -0.0005057458 0.015120489 0.029173557
000120 4e 9d d6 3c 21 ef d6 bc f6 27 86 bb d5 fe 66 bd
       0.026198056 -0.026237072 -0.004094119 -0.05639537
000130 0d 8b 85 3c 74 eb e3 3c 2f 51 fa 3b c6 84 33 3c
       0.016301656 0.027822234 0.0076390724 0.010956949
000140 af ed 24 3d 2c e8 bd 3c 21 98 82 bb 24 ae 2f bc
       0.040265735 0.023181997 -0.0039854203 -0.010722671
000150 11 ed 6b 38 f9 f6 42 3d 6a d0 ba 3c 32 4a 84 3c
       5.624915e-05 0.047598813 0.022804458 0.01614866
000160 89 f9 74 bc 6b 1f 96 bc 9d 0d 8c 3c c7 7e f1 bb
       -0.014952072 -0.018325528 0.017096335 -0.0073698494
000170 9e 30 63 bd 3f 06 0c bd 9f c2 19 bc 1a 00 9e 3b
       -0.055466287 -0.034185644 -0.00938478 0.0048217895
000180 65 24 56 bc 99 4e b5 bc 0d 01 2b bc f9 c9 05 3d
       -0.013070201 -0.022132205 -0.010437262 0.03266332
000190 14 b9 a4 3b 50 17 d9 3b 5a 4a 60 3c ef d7 5d bb
       0.005026946 0.0066250935 0.013689602 -0.003385063
0001a0 14 28 5c 3b d3 e6 10 bc cb 3c fd 3c b6 8c 3a ba
       0.0033593224 -0.008844095 0.030912777 -0.00071163045
0001b0 17 a4 ca 3c 5e ab aa bc 4c ce ea bc 6a ee 7b 3b
       0.024736447 -0.020833667 -0.028662823 0.0038441666
0001c0 61 1e 04 bd 22 66 a8 3c d7 88 a9 3c 54 a9 e2 3c
       -0.032255534 0.020556513 0.020695133 0.027668633
0001d0 4c 21 fe 3c e8 62 34 3c 9f 03 57 3c 31 0a b3 bb
       0.031021737 0.011009909 0.013123422 -0.0054638614
0001e0 eb 87 01 3d dd 22 6b 3c e7 da 12 bc c0 28 0a bd
       0.031623762 0.014351574 -0.008963323 -0.03373027
0001f0 d7 92 5d 3b ce ef 3a 3b ab e3 1b 3d 4a 94 17 3d
       0.0033809447 0.0028524282 0.038058918 0.037006654
000200 23 af 07 3d 6e 43 2c 3a 71 4a 44 3c 06 f9 82 bc
       0.033126008 0.0006571327 0.011980639 -0.015987884
000210 7c 3d 4a 3c a9 5c 1e 3c 86 e6 4f bc 27 a6 96 bc
       0.012343761 0.009665647 -0.012689238 -0.018389774
000220 64 a0 0c 3c 24 2c fc bc e1 8c a4 bc c4 b7 e5 3c
       0.008583162 -0.030782767 -0.020086708 0.028041728
000230 2b dc a0 3c 3f 1e 23 bd 08 46 23 bd 30 bd 98 3c
       0.019636234 -0.039823767 -0.03986171 0.0186449
000240 ac 18 63 bb f6 7e f7 3b 44 f0 8e bc bd ab 15 bc
       -0.0034652157 0.0075529767 -0.017448552 -0.009135184
000250 0d 8c f7 3c 82 63 86 bc 2b 64 45 3c 57 4c f6 39
       0.030218149 -0.01640487 0.012047808 0.00046977654
000260 9b b3 36 3c ed d0 e7 3a 6d 2a dd bb 8c 97 4b 3c
       0.01115122 0.0017686166 -0.0067494423 0.012426268
000270 89 63 14 3c 86 b0 4a bb fe 3a c8 3c 1e 04 06 3d
       0.009056934 -0.003092797 0.024442192 0.03271877
000280 38 4d 97 3c 72 d6 2f bc a5 d1 d9 bc 8c 4d c9 bc
       0.018469438 -0.01073228 -0.026589224 -0.02457311
000290 24 d0 8c bc b9 50 67 bb 59 98 94 3c 10 ab 28 3c
       -0.017189093 -0.0035295917 0.018139051 0.010294691
0002a0 10 be 01 3d 13 ff 11 bd 78 33 ae bc 04 88 02 3d
       0.0316754 -0.03564365 -0.021264777 0.031867996
0002b0 05 f8 c9 bc 2b 4d bb 3c 72 2f 01 b8 55 96 90 bb
       -0.024654398 0.022863945 -3.0800184e-05 -0.004412452
0002c0 20 72 ca 3c ba 2c df 3c 1f c2 69 bc e8 b3 fd ba
       0.024712622 0.027243007 -0.0142674735 -0.0019355984
0002d0 c9 4a 06 3d ce 97 ef 3c 97 8a 69 3c b4 61 ad bc
       0.032786164 0.02924719 0.014254234 -0.021164753
0002e0 67 8b c2 bc eb df cd 3c dc 0e a5 3c 39 ca 7a bb
       -0.023748113 0.025131186 0.020148687 -0.0038267507
0002f0 89 f0 0c 3d ff d5 cb 3c a9 38 06 bc 61 a7 78 3c
       0.03440908 0.024882315 -0.00819222 0.015176625
000300 9e a9 0c 3d 05 05 a9 3c 12 1d 8c bc 42 76 0a bd
       0.034341447 0.020632276 -0.017103706 -0.033804186
000310 dc a7 2b 3c 9f f5 56 3c 1f 66 0e bd 2e 08 ad 3b
       0.0104770325 0.013120084 -0.03476536 0.005280516
000320 b3 c6 07 bd 9e 70 48 bc c8 57 f1 bc eb 0e bf bc
       -0.03314848 -0.012233881 -0.029460803 -0.023322543
000330 d3 94 96 3c 7a 64 be 3a 9b fc 93 bb 8b aa 0c bd
       0.018381512 0.0014525794 -0.004516197 -0.03434233
000340 35 3b 3e 3b 84 94 79 bc 63 f7 35 bb 0a c9 73 3d
       0.002902699 -0.015233163 -0.0027765862 0.059517898
000350 c7 0a b3 3d b0 20 3a bc 27 8a 84 3a 3e af b0 bc
       0.0874229 -0.011360332 0.0010111973 -0.021567937
000360 aa 17 83 3d 02 5d 92 3d 8a 5a 19 bd 4a 14 2e bd
       0.06400998 0.07146646 -0.03743986 -0.042499818
000370 4d 39 ab bb 20 63 39 bb da fd a1 3c ef 02 8d bc
       -0.0052253366 -0.0028287843 0.019774366 -0.017213313
000380 66 41 3b bd 94 3b 25 3d ad dd e0 ba af ed 93 3c
       -0.045716666 0.04034002 -0.0017155908 0.018057672
000390 18 49 a3 3c cf 4e 38 3c a1 d2 06 3d 23 55 d2 bc
       0.019932315 0.011249258 0.032915715 -0.025675362
0003a0 c7 7b 41 bb 38 db b2 bb 0f ed 91 3c a6 c5 9d bc
       -0.002952324 -0.005458262 0.017813234 -0.019259285
0003b0 e4 c7 e0 bc 88 0c 13 bd fa cc 93 3c a0 37 1a 3c
       -0.027439065 -0.035900623 0.018042076 0.009412676
0003c0 7b 13 24 bd 75 8e d6 bb e3 e3 04 bd 94 c7 e4 bc
       -0.04005764 -0.006547744 -0.032443892 -0.027927198
0003d0 ba 4b a9 3c 2a 1a 98 bc 3d f8 d0 3c 0f ee 27 3d
       0.020665992 -0.018567163 0.025508994 0.040998515
0003e0 0b 01 4b 3c 21 a8 93 3c eb d4 fc bc df d8 76 bc
       0.012390385 0.018024506 -0.030863246 -0.015066355
0003f0 0b 22 fc ba 2e 47 f8 3b 16 8c 6a 3c 9a 27 9c 3c
       -0.001923622 0.0075768447 0.014315626 0.019061852
