2021_BOML_srcnn_project/output/epoch_205.pth (torch, 231519 bytes, 5 tensors)

conv1.weight f4 [64, 1, 9, 9]
000000 4a 2d 1e bd 50 64 2e 3c 55 32 9a bd b2 da a5 3d
       -0.03861741 0.010644034 -0.07529131 0.080983534
000010 63 57 fd bc b2 26 eb 3d b4 11 69 bd 23 01 18 3d
       -0.030925458 0.1148199 -0.05690165 0.03711046
000020 34 85 a2 bc 67 17 8b 3d 28 cf 07 bc 5e 22 bd 3c
       -0.019838907 0.06791573 -0.008289136 0.023087677
000030 b9 f4 b9 bd 6d 7e 64 bd 37 56 82 bd 3f e7 29 bd
       -0.0907988 -0.05578463 -0.063641004 -0.0414803
000040 ec ca 99 bb 72 05 05 3e ad 72 ca 3c ca 16 b3 3d
       -0.0046933796 0.12990358 0.024712885 0.08744581
000050 55 55 7a 3d c2 9a de b8 79 86 b9 3b 9d cc 4a 3d
       0.061116535 -0.00010614611 0.0056617823 0.04951154
000060 96 fb 11 be 2c 90 84 ba 92 92 95 bd 69 7f 84 3d
       -0.14256129 -0.0010113767 -0.07303347 0.06469614
000070 ab ba 40 3d 15 d2 45 be 8c 17 7a 3d 60 46 55 3d
       0.04705302 -0.19318421 0.061057612 0.052069068
000080 cd b2 02 3d 21 b7 cb bc d1 e9 27 3d 63 3b 27 bd
       0.0319088 -0.024867596 0.04099447 -0.04082812
000090 c3 73 f9 bd d0 50 95 bd 60 b7 f1 bd 47 1e b9 3d
       -0.12180283 -0.072908044 -0.11802554 0.09038978
0000a0 94 af c2 3d c6 c5 ed 3b 7f 05 a5 bc bf 68 dd 3d
       0.09506145 0.0072562424 -0.020144222 0.10810994
0000b0 a3 21 1f bc dc 6c e6 bc 5e a1 39 bd 08 c0 03 3d
       -0.009712609 -0.02812808 -0.045319907 0.032165557
0000c0 80 09 5f 3e b8 6e 2b 3e b4 41 90 3d 1e 26 2f bc
       0.21780968 0.16741455 0.07043782 -0.01069024
0000d0 b3 3b bb 3c 45 04 3a 3c 8f 6c b5 bc 6d 09 18 be
       0.022855615 0.011353557 -0.022146491 -0.14847346
0000e0 2c 02 ca bd 41 1b fa 3d 41 2e 15 bc a8 2d 09 be
       -0.098636955 0.122122295 -0.009105266 -0.13396323
0000f0 da 44 d3 bc be f9 09 3e 7c ec a4 bd 8a 4a 05 bd
       -0.025789667 0.13474175 -0.08052918 -0.03254179
000100 d9 46 a7 bd f7 87 86 bd 8b 75 5a bd 88 71 74 bd
       -0.0816781 -0.06568902 -0.053334754 -0.059678584
000110 4f 2f 1d be 45 07 92 3c 29 e5 1e 3e f8 ae db 3d
       -0.15350078 0.017825732 0.15517105 0.10726732
000120 f9 39 b9 3d 50 09 6f bc 38 b4 88 3c 30 24 d7 b9
       0.090442605 -0.014589623 0.016687497 -0.00041034957
000130 de 6b 5f 3d b2 93 d6 bd b3 f7 44 bd 37 f7 5c 3d
       0.05454623 -0.104773894 -0.048087787 0.0539467
000140 1d a7 08 bd 18 b0 9b 3d 86 f0 94 3c f7 32 f1 3b
       -0.033362497 0.076019466 0.018181097 0.007360812
000150 60 35 c9 bd f0 bb 71 bd d0 aa ad bd eb 88 e2 3d
       -0.098246336 -0.05901712 -0.084798455 0.11061271
000160 69 2f 5b 3d eb ee 5a bd f0 9e 82 bd 83 41 50 3d
       0.05351201 -0.053450506 -0.06377971 0.050843727
000170 20 90 77 3c e8 c1 7d bc 63 d1 01 be 11 8f 1f bd
       0.015110046 -0.015488125 -0.12677531 -0.038954798
000180 e8 a8 ea 3d d9 11 88 3d ff 37 83 3c d5 6b 55 3c
       0.114579976 0.06644029 0.016017912 0.013026197
000190 6d 4b 9e 3d c8 07 90 bd 98 13 ee bc 4b 78 bb bd
       0.0772923 -0.07032734 -0.029062077 -0.091538034
0001a0 d4 1d 63 bd 45 ff 3a 3c 2f a9 0e 3d 21 b2 91 3d
       -0.05544837 0.0114134 0.034829315 0.071140535
0001b0 5d e3 2d 3d 9c f9 0f bd 33 7a f9 3d 50 d9 03 bd
       0.04245316 -0.035150155 0.12181511 -0.032189667
0001c0 75 a5 ae 3d 61 d4 44 bd 04 df 13 bb 31 31 b4 3c
       0.08527652 -0.048054103 -0.0022563348 0.021996113
0001d0 7b c3 bc bd 2e a9 a4 bc fc f2 37 3c 40 6a 4c 3e
       -0.092169724 -0.020100202 0.011227366 0.19962406
0001e0 d6 85 a0 3d 87 8b 0b 3e e8 72 e2 3d e0 88 e6 bc
       0.07838027 0.13627444 0.11057073 -0.028141439
0001f0 b0 cf ce 3d ab 81 b3 bd 87 9f 9d bc ce f1 c0 bc
       0.10098207 -0.087649666 -0.019241108 -0.023552801
000200 d5 2e ce 3d 82 3e 22 3e 63 64 73 bb 81 8e 6a bc
       0.10067526 0.15844157 -0.0037138693 -0.014316202
000210 78 81 e0 3b 90 c2 82 bd e5 11 48 bd 81 88 18 be
       0.0068513714 -0.06384766 -0.04884519 -0.14895822
000220 a1 23 4c bd bf fa bf bb 25 85 b4 bc 60 bf d8 bd
       -0.049838666 -0.0058587487 -0.022036145 -0.10583377
000230 10 92 d8 bd 13 a5 e3 bc 3b 4d c3 3d bd e7 f4 3d
       -0.10574734 -0.027788674 0.09536215 0.11958263
000240 18 3e 33 bc 63 b9 da bd fb 47 ae bd 42 ac 16 bd
       -0.010940097 -0.10679891 -0.08509823 -0.03678537
000250 8e c6 2b be da 9f 3a be 2b f7 95 bd 01 5b c1 3c
       -0.16774961 -0.18225041 -0.07322534 0.023602964
000260 e9 2c e9 bb a8 1b 12 3e 7e d0 98 3d 2b 5f 1f 3e
       -0.0071159494 0.14268363 0.07461642 0.15563647
000270 57 13 06 bc 9b 2a 05 3d e8 a0 da bd e3 0e e8 3d
       -0.008183322 0.032511335 -0.10675222 0.113309644
000280 34 5e d3 3d b9 31 9f 3d d7 a7 3b bd 58 4d c0 3d
       0.10320702 0.07773156 -0.04581436 0.09389752
000290 12 d6 c4 3d ab cd 34 3e d0 e0 4f 3e b1 0c 85 3e
       0.09611143 0.17656581 0.20300603 0.25986245
0002a0 b7 c6 28 3e b1 dd 9a 3d 48 c1 9d bc a9 54 9d bd
       0.16482054 0.075618155 -0.019257203 -0.07682163
0002b0 e9 88 3f bd 43 65 cb bd b8 b2 54 be ca 45 1b be
       -0.046761427 -0.099314235 -0.20771301 -0.15163341
0002c0 86 82 34 be af 04 c4 bd 53 d3 11 38 bf 1f 73 bd
       -0.17627916 -0.09571206 3.4767505e-05 -0.059356447
0002d0 89 3b 6b 3d c6 d3 24 3d 82 de 40 3d f0 d2 07 be
       0.057429824 0.040241025 0.0470872 -0.1326406
0002e0 81 af aa bd a5 21 41 bd 49 9e af bd 22 24 17 3c
       -0.08334256 -0.047151227 -0.085751124 0.009224923
0002f0 86 35 8c 3d fb d1 7f bd 0b 58 4f bd a2 46 c9 bd
       0.06846146 -0.062456112 -0.050621074 -0.09827925
000300 63 8a 83 3d 66 20 25 3e 6e eb 3d bd 96 19 2d bd
       0.064228795 0.1612564 -0.0463671 -0.04226073
000310 9d 81 cb 3c 3d 2a 0c bd 07 d8 c7 3d aa d7 09 3d
       0.024842078 -0.03421997 0.09758001 0.03365294
000320 22 7a 0f bd 6a df 11 3d a0 cb b0 3d 25 b1 da bc
       -0.035028584 0.035613455 0.086325884 -0.026695797
000330 1f 05 c4 bd b6 43 03 bc e6 99 b7 3c 94 ff 16 3d
       -0.09571289 -0.008011749 0.022412252 0.036864832
000340 5f ab b9 3c 1c 8f d4 3d cc 75 07 3d 26 6c 83 3d
       0.022664724 0.103788584 0.033071324 0.06417112
000350 98 5e e8 3d e6 df cc bc cb cf 8a 3d 94 f8 27 bc
       0.11346167 -0.025009107 0.067779146 -0.010252137
000360 60 29 52 3d 9b b5 99 bd 28 49 d9 bc e1 9b 4e bc
       0.05130899 -0.075053416 -0.026524141 -0.012610407
000370 ca a1 fc bd 10 35 af bd 98 5b 3c 3d 24 21 b5 bc
       -0.12335546 -0.08555043 0.045985788 -0.02211053
000380 43 24 34 3d 96 96 93 bd 69 fb c2 bc 7c 6a a9 bd
       0.043979894 -0.07206456 -0.023801522 -0.082722634
000390 e6 fb 32 3d a7 ce 38 bb 66 53 79 3c 93 94 35 3c
       0.04369726 -0.0028199346 0.015217638 0.011082786
0003a0 1d ff 7d bd 6b bf 13 3d b8 a4 f1 3c 34 62 16 bd
       -0.062010873 0.036071222 0.02949749 -0.036714748
0003b0 f1 97 8a 3d cc 5f ca 3b ae ea c3 bd 1c 0b 99 3d
       0.06767262 0.0061759707 -0.09566246 0.07472822
0003c0 2d 14 4d 3d 6e 6d 27 bd 1a a7 a1 bd 7d 40 4a bd
       0.05006807 -0.040875845 -0.078932 -0.049377907
0003d0 f2 92 69 3d 13 11 26 3d cb 3e d7 bd 9e 47 3d bd
       0.057024904 0.040543627 -0.10510024 -0.046210878
0003e0 70 b6 b5 3d 90 61 c6 3d e3 83 9d 3d f3 68 c4 bc
       0.08872688 0.09686577 0.07691171 -0.023975825
0003f0 c5 7d 92 3d 1c eb 98 bd 7e 02 4c bc 62 6a ab 3c
       0.07152895 -0.074667186 -0.012451766 0.02092475

conv1.bias f4 [64]
000000 69 14 c5 3c 1d 8c f6 bd a3 16 60 3c 37 26 08 be
       0.024057584 -0.12038443 0.013677272 -0.13295828
000010 8f b0 ed 3c ef 02 91 3c 9a 96 3b 3d e9 06 2c bc
       0.029014854 0.017701594 0.04579792 -0.010499694
000020 65 75 95 3d 11 40 f7 bc 5c cd e5 bb c5 8a ac 3c
       0.07297782 -0.030181916 -0.007013006 0.021062264
000030 a4 a3 48 be 5c e7 61 3e 20 9e 88 3d 45 20 d6 bb
       -0.19593674 0.22060913 0.06670785 -0.0065346085
000040 94 e6 22 bc 1d 92 04 bb ea d8 ca 3b 10 05 4a 3c
       -0.009942669 -0.0020228692 0.006190409 0.012330309
000050 ff de 93 3c dc 87 be bc 10 3d 09 bd 70 d4 55 3d
       0.018050669 -0.023258142 -0.0335055 0.05220455
000060 92 7e 88 be 33 d8 c9 bc 2d c7 88 3d 06 eb 07 3c
       -0.26659065 -0.024639225 0.06678615 0.00829578
000070 84 63 03 3d 77 c4 92 3c 64 0a 05 3d 48 94 2e bc
       0.032077327 0.017915947 0.032480612 -0.01065547
000080 b8 2a 30 3d 9b 60 c7 3c e9 21 b7 3a 65 61 40 bd
       0.04300949 0.024338057 0.0013971898 -0.046967883
000090 17 59 34 bc 1c f7 a1 3d 07 4f 91 bc eb 90 29 3d
       -0.011007569 0.079084605 -0.017737878 0.04139797
0000a0 ae 03 85 3b 0a 12 2a 3b d6 1b c3 3d 37 49 c0 bc
       0.0040592765 0.0025950694 0.09526794 -0.023472412
0000b0 03 db 47 3d 7b d0 4d bc f7 39 0b bd a0 7e e1 3c
       0.04879285 -0.012561913 -0.033990826 0.0275262
0000c0 de bf 6d bb 2a 1a 2a 3c 41 91 c2 3c 9c 6f c2 3c
       -0.0036277692 0.010382215 0.023750903 0.02373486
0000d0 ef 15 0c 3c e6 e6 b8 bb 01 ed 55 3c f6 0f 80 3c
       0.008550151 -0.0056427596 0.013056994 0.01563261
0000e0 fa 7b 61 3c 05 45 92 bc d6 38 a5 ba f5 87 45 3d
       0.0137624685 -0.017855177 -0.0012605439 0.04822536
0000f0 67 2d 3a 3d ca 13 1b bc 5c 43 06 bd 21 6b db bb
       0.045453455 -0.009465167 -0.032779083 -0.0066961204

conv2.weight f4 [32, 64, 5, 5]
000000 09 3c db bb af 75 85 3d 28 92 89 3d 3e f9 6c 3d
       -0.0066905064 0.06516587 0.0671733 0.057854883
000010 5e 72 4f bd 22 7f f7 3c c2 1d 01 ba a6 5c 66 3b
       -0.05064618 0.030211989 -0.0004925394 0.0035150438
000020 e1 4d 1e 3d eb 87 1a bb 1b 7a 41 3d 9a db 6d 3c
       0.03864849 -0.0023579549 0.04723559 0.014517689
000030 8e 40 95 3c b0 18 43 bc 69 aa 10 3d fe 07 dd 3c
       0.018219259 -0.011907741 0.035318766 0.02698135
000040 20 77 86 3d 9f 7f 9a 3b 6c 81 91 3c 88 ca ff 3d
       0.0656569 0.0047149207 0.017761908 0.12489802
000050 cc 9d 64 bc 06 bd b9 3c f0 c2 bf bd 28 82 5b bc
       -0.013953637 0.022673141 -0.09363353 -0.013397731
000060 31 92 04 3c f1 7a a6 bd dc 1f e6 3c 53 ae 8a bc
       0.008091495 -0.08128918 0.028091364 -0.016928827
000070 e8 c4 82 bd 6d 13 c1 bd b9 0a 20 be b9 02 de bc
       -0.06385213 -0.09427533 -0.1562909 -0.027100908
000080 09 ee a8 3d 0f 0b 90 3d cb 1a c9 bc fb d4 3d bd
       0.082485266 0.07033359 -0.024548909 -0.046345692
000090 53 22 a7 bc de 03 9a 3d e5 68 c2 3d 99 2a 5e 3d
       -0.02040211 0.07520269 0.09492663 0.054239843
0000a0 20 03 03 be 11 b7 67 ba 18 26 2b bc 24 94 41 3c
       -0.12794161 -0.00088392297 -0.010446094 0.011815105
0000b0 57 43 c3 3c e0 31 ad bd 0d ae 90 3d d3 69 4b 3d
       0.023835821 -0.084567785 0.070644476 0.04966147
0000c0 bb 10 73 3d f1 5f 82 3d b6 eb 2b bb dd 1e 81 3d
       0.059342127 0.063659556 -0.0026233024 0.06304715
0000d0 d8 de 5c 3d 8d 49 f5 3d e9 71 b5 3d e0 1c 94 3b
       0.053923458 0.11976919 0.08859617 0.0045200437
0000e0 b1 c9 dd 3c 47 24 3a 3d e3 12 48 3d a0 ca 1f bd
       0.027073713 0.045444753 0.048846137 -0.039011598
0000f0 e8 80 1d 3d 72 16 4d 3d b6 8b 23 bc f1 8b 6d bd
       0.038453013 0.050070234 -0.00998204 -0.057994787
000100 d2 ec 1a be 80 a0 d6 3c 96 ef c9 3d 0c 43 59 3d
       -0.15129402 0.02619958 0.098601505 0.053042457
000110 c4 db b7 bc e5 b5 73 bd 97 91 b6 bd a3 3b 27 bd
       -0.02244366 -0.05949964 -0.08914488 -0.04082836
000120 bd d4 42 bd f4 8c 8b bd 68 11 19 bd 77 fe 99 3d
       -0.047566164 -0.06813994 -0.037370116 0.075192384
000130 33 df cb 3c b0 54 3d 3d 21 56 40 bd bd a6 89 bd
       0.024886703 0.046223342 -0.04695714 -0.06721256
000140 ef 9d 83 bb 5b 55 3d 3d b2 00 55 3c b4 f7 a1 bc
       -0.00401663 0.04622398 0.013000654 -0.019771434
000150 9f 79 da bc 0a 5f 2a bd 2c cb 2a bd 90 54 5f bd
       -0.026669322 -0.041594543 -0.041697666 -0.054524004
000160 89 18 15 bd c3 e1 8f bd ff f8 2b bc 75 5e f2 3b
       -0.03640035 -0.070254825 -0.010496377 0.007396514
000170 86 59 f6 bb c1 d4 38 3d de c2 d5 3c 10 45 e0 ba
       -0.0075179962 0.045124773 0.026093896 -0.0017110426
000180 0e 6e 82 3c 7a 1f 2e 3a d7 72 00 3d 63 12 2d 3d
       0.015921619 0.00066422636 0.03135952 0.042253863
000190 1b 5c 03 bd 01 ae 9c bc 9f 40 59 bc e1 87 9d bc
       -0.03207026 -0.01912594 -0.013260036 -0.019229831
0001a0 a3 f7 95 bc 27 a1 84 3d b7 bf 65 3d 04 f8 f6 3c
       -0.018306559 0.0647605 0.056091037 0.03014756
0001b0 f1 50 ea bc 75 94 dd bd 2c d4 6e bd 7b 3d b8 bc
       -0.028603049 -0.108193316 -0.05830781 -0.022490254
0001c0 9c 96 65 3d 47 dd 2a bc c0 61 29 be ff c0 bf bc
       0.056051835 -0.010428733 -0.16541195 -0.023407457
0001d0 16 d5 79 3d 2b 33 69 3d 57 a2 7c 3d b3 a9 af 39
       0.06099423 0.056933563 0.061678257 0.00033505037
0001e0 7a b2 2e bd 24 72 e5 bc c5 6d a8 bd a7 a7 34 bd
       -0.042650677 -0.028008528 -0.08224062 -0.0441052
0001f0 94 41 c0 bb ca da 13 3e 21 d6 96 3d f9 e6 18 3c
       -0.0058671925 0.1443893 0.073650606 0.009332412
000200 46 3e d8 3c d4 8a 9e bd 47 97 86 3c 25 7f 8d 3c
       0.026396882 -0.07741323 0.016429557 0.017272541
000210 04 c6 e3 3b 83 1a 29 bd 4f a8 42 bd 26 3e 2b bd
       0.0069510955 -0.04128505 -0.047523793 -0.041807316
000220 48 4b 55 bb 2d 64 ca 3c 59 71 29 bd 6e 09 40 bd
       -0.0032546092 0.02470597 -0.041367862 -0.046883993
000230 30 de f0 3b ba 64 22 3d c6 58 0e 3d b9 a9 d1 bb
       0.0073507056 0.03964684 0.03475263 -0.0063984063
000240 85 5c ac 3b 82 a9 9d 3d c4 cb 40 3d 61 6e 2d 3d
       0.0052600526 0.07698347 0.047069326 0.042341594
000250 74 fb cb 3b ef 22 24 3c 71 34 ab 3c 82 74 e2 3c
       0.006225044 0.010018094 0.02089903 0.027643446
000260 3e 44 89 3c 94 a9 77 3d 71 fa 88 bd e2 5f ca 3d
       0.016756173 0.060464457 -0.06688393 0.098815694
000270 66 58 a6 3d 94 5b 7a 3c 06 6b 84 bc 84 37 64 bd
       0.081223294 0.015280623 -0.016164314 -0.055717006
000280 c8 b6 cf 3d 09 45 3e 3d e9 44 d0 3b 7a b5 a2 bc
       0.10142285 0.046452556 0.006355871 -0.019861925
000290 14 8b 42 bc e8 8f 7c bc 3b 92 f7 bc 7b 50 30 bd
       -0.011873979 -0.015415169 -0.030221095 -0.043045502
0002a0 6e a5 85 bd 5f 12 df 3d 35 47 42 be 4a 6a b8 bd
       -0.06525694 0.10892176 -0.18972476 -0.09004648
0002b0 d0 ba e8 3c 79 ea 54 3d e6 fd f4 3d 19 89 00 3e
       0.028409392 0.051981423 0.1196249 0.12552299
0002c0 49 4f 12 3e d5 63 18 3e ab 5b 30 3c c1 68 8f bd
       0.14288057 0.14881833 0.010764043 -0.07002402
0002d0 1b 73 00 bd 6d 4f 2f bd 6e b5 d9 3d 2a b4 92 3d
       -0.031359773 -0.042800356 0.10630308 0.0716327
0002e0 d1 71 71 bd 46 af 89 bd 33 6a b8 bd f1 06 68 bd
       -0.058946434 -0.06722884 -0.09004631 -0.056647245
0002f0 b1 93 98 3d 40 69 8a 3d 66 3b c9 3d 20 fd ad 3c
       0.07450045 0.06758356 0.098257825 0.021238863
000300 b8 b3 85 bd 9c fa 54 3d 83 49 90 3b 8f 18 12 3e
       -0.06528419 0.051996812 0.0044032945 0.14267181
000310 55 ee 80 3e 26 f7 22 3e db c1 7d 3d 3d 65 6a 3c
       0.25181833 0.15914592 0.061952453 0.014306364
000320 85 9d 44 3d 02 c2 a9 bd 7d 5c d7 bd be 96 fc bb
       0.048001785 -0.08288957 -0.105156876 -0.0077083996
000330 6b cb 9a 3d 25 dd 4c 3d 8b 38 80 bd e8 f7 92 bd
       0.0755833 0.050015587 -0.06260785 -0.071761906
000340 41 62 3a 3b 31 77 0b bd b2 f2 88 3d 4c 7d ba bb
       0.0028439912 -0.034049217 0.066869155 -0.005691206
000350 2b d1 d8 bc f9 87 8e 3d e0 3c 78 3d 75 73 54 3b
       -0.026466927 0.069595285 0.06060493 0.003241745
000360 09 29 eb 3c 66 f5 e6 3c 10 66 7f 3d e5 26 9b 3c
       0.02870609 0.028193187 0.062353194 0.018939445
000370 7c 0e 2c ba 27 bb fb 3d cc ef 26 3d b7 86 d8 3c
       -0.00065634376 0.12291556 0.040756032 0.026431425
000380 56 a1 3f bc 8c 27 a7 3c 17 46 e6 bc 66 d3 1e bd
       -0.01169618 0.0204046 -0.028109593 -0.038775824
000390 64 e4 30 3a 19 c9 cc 3c 9e 34 14 3d df 7e 0d bd
       0.00067479 0.024998235 0.036182992 -0.03454482
0003a0 d7 bb 9a bb c4 16 31 3d 60 af 74 3d 50 ea cc bc
       -0.0047220993 0.0432346 0.059737563 -0.025014073
0003b0 e9 f5 44 bd ac f7 ec 3a 92 00 5f 3d 4a 5e 82 3d
       -0.04808608 0.0018079183 0.054443903 0.063656405
0003c0 e8 09 8e bc 2b cb c2 bc b5 dd 60 3c f0 5b 41 3c
       -0.017338708 -0.023778519 0.013724734 0.011801705
0003d0 25 ee 57 3c fc fe 0f bc 93 ff 61 bc d5 5d 22 bc
       0.013179337 -0.00878882 -0.013793844 -0.009910067
0003e0 30 24 70 3b a7 4c 6f bc 23 3f 1f bd 43 10 39 bd
       0.0036642663 -0.014605678 -0.03887857 -0.045181524
0003f0 a4 7d 9a ba 98 7f 37 3c 9b a6 d4 bb 8f 14 1c bd
       -0.0011786711 0.011199854 -0.0064895875 -0.038105544

conv2.bias f4 [32]
000000 54 e1 c0 3c 2f e3 9c bb 5d 81 a4 bb d3 f4 aa 3c
       0.023544945 -0.0047878246 -0.005020304 0.020868694
000010 54 26 21 3d e6 34 f2 bc 2a 5f 43 3b 49 80 ab 3c
       0.039343193 -0.02956624 0.002981136 0.020935195
000020 ca ae f1 3c f1 bc f3 bc a2 5b 4a bb d6 70 4b bd
       0.029502291 -0.02975318 -0.0030877371 -0.049668156
000030 54 78 1c 3d e5 eb 44 bd 2b 39 db 3d 77 84 54 3c
       0.03820069 -0.04807653 0.10704263 0.012971035
000040 76 74 9f bc bc 52 9d 3b 20 bd 36 bc 0e 46 36 3d
       -0.019464713 0.0048011225 -0.011153489 0.044500403
000050 34 81 2e 3d 31 7c af 3c 33 43 02 bd 62 58 b4 3b
       0.042603686 0.021421524 -0.031802367 0.0055037
000060 fe a1 11 bc 6e ca 44 3d 21 61 c3 3c aa fd de 3c
       -0.00888872 0.048044614 0.023850026 0.027220566
000070 75 ef e5 3c b6 f1 12 bd 74 ff 8d bd ad cc be 3c
       0.028068284 -0.035875045 -0.069334894 0.023290956

conv3.weight f4 [1, 32, 5, 5]
000000 7b 5a cc bb 2f 72 a8 3c 21 2f d1 3c 74 db 30 3d
       -0.006236372 0.02056226 0.025535168 0.043178037
000010 54 17 11 3d 63 d1 b0 bc 1e 9b b0 3b 1d 5d 1c bc
       0.035422638 -0.021584218 0.005389585 -0.009543684
000020 c9 75 2b bb 13 8a cd ba c1 99 b7 bb 34 06 c3 3b
       -0.0026162735 -0.0015681408 -0.0056030457 0.005951667
000030 10 10 3a bc 0e a5 75 bd ff e4 a3 bc 46 3c 3a bb
       -0.011356369 -0.05997186 -0.020006655 -0.0028417273
000040 92 43 b1 bc 04 51 be bc bb a6 33 bd 4f 3c 9b 3c
       -0.021638665 -0.02323199 -0.04386018 0.018949656
000050 68 55 14 3c 67 2d ad 3c 2e f8 aa 3c 1b ff 05 3d
       0.009053566 0.021139814 0.020870294 0.03271399
000060 62 8e 48 3b 9f a5 3d 3b 41 7d 0e bd f5 64 30 3c
       0.0030602445 0.002893783 -0.03478742 0.0107662575
000070 b2 c7 c9 3c 19 d6 d0 bc f0 a6 a4 3c f9 23 68 bc
       0.024631355 -0.025492715 0.020099133 -0.014168733
000080 f2 34 53 3c e0 6d 93 bc 84 de 31 3b 3f 14 1c bd
       0.012891041 -0.017996728 0.0027140686 -0.038105246
000090 fd 48 d5 3c ea 3b b9 bb 2b ce e9 3c b1 ee 82 bc
       0.02603578 -0.0056528943 0.028540691 -0.015982958
0000a0 7f 6e 67 3c be fc a3 bc b4 8b 96 bc 22 4a 6f bc
       0.014125465 -0.020017978 -0.018377163 -0.014605077
0000b0 29 a2 76 3c f5 7e ad 3c a5 79 cd 3c 8f db ca bb
       0.01505331 0.021178702 0.025082419 -0.006190724
0000c0 39 6f 58 3a 80 41 cb 3c ea 50 62 bc b8 4b 3e bc
       0.00082563196 0.024811506 -0.013813237 -0.011614732
0000d0 fc 7e dc 3c 7a 4f f4 bc dd 21 8c bc f2 8a a0 bc
       0.02691602 -0.029823054 -0.017105991 -0.019597504
0000e0 39 79 f3 bb 5b d1 d4 bc 9c ee 06 3c 5e 34 ca bc
       -0.0074302224 -0.025978735 0.0082356 -0.024683174
0000f0 4a a3 7e bc f8 a8 0c bd 83 42 c1 3c d0 7d b1 bc
       -0.015541861 -0.03434083 0.023591286 -0.021666437
000100 32 cb 8a bb 4f 45 ac bc 77 a7 9d bb a7 31 de bb
       -0.0042356486 -0.021029143 -0.004811223 -0.0067808214
000110 7f 7d 3c bc 19 58 04 ba bf bd 77 3c f3 fd ee 3c
       -0.01150453 -0.0005048528 0.015120923 0.029173827
000120 a0 9b d6 3c 68 ed d6 bc 3b 24 86 bb 62 e5 90 bd
       0.026197255 -0.026236251 -0.0040936745 -0.07075001
000130 ca 4c 23 ba 78 84 83 3c 34 fd 6e 3c 41 b7 35 3c
       -0.0006229399 0.016054377 0.0145867355 0.011091054
000140 67 fe c1 3c 32 47 e7 3c a8 04 a4 3c 73 16 9f 3b
       0.023680879 0.02823219 0.020021752 0.004854971
000150 ff d4 c7 3b 3e c8 77 3d d4 e2 f7 3c bc aa ac ba
       0.006098389 0.0604937 0.030259527 -0.0013173441
000160 1f 34 39 bd c9 48 6f bc 60 27 04 3d 55 16 a4 bb
       -0.045215722 -0.014604756 0.032264113 -0.005007545
000170 fc 9f 7e bd d4 ee 39 bd b6 b4 df bb 08 99 da 3b
       -0.06216429 -0.04539378 -0.0068269623 0.006671075
000180 7f 06 50 bc e4 47 79 bc fb c5 df 3a a2 03 f2 3c
       -0.012696861 -0.015214894 0.0017072553 0.029542748
000190 f1 c9 4f 3b 8d 7f a7 3b 89 18 52 3c 07 5f 85 bb
       0.003170606 0.005111641 0.012823232 -0.004070166
0001a0 95 d5 60 3b 63 ba 3a bc 31 97 f1 3c 62 18 9d ba
       0.0034306992 -0.011396977 0.029491039 -0.0011985416
0001b0 19 94 ca 3c a5 47 ab bc 4f 78 f9 bc 59 b2 2b 3b
       0.024728822 -0.020908186 -0.030452875 0.0026198833
0001c0 c0 2f 07 bd 64 8f a9 3c 0e 60 ad 3c 1f 1c d0 3c
       -0.033004522 0.020698257 0.021163967 0.025404034
0001d0 06 35 ef 3c 43 04 27 3c a4 c0 4a 3c fd d3 be bb
       0.029200088 0.010193887 0.012375031 -0.005823611
0001e0 33 3e f9 3c 7a 54 52 3c 61 71 21 bc 0b a5 0e bd
       0.030425167 0.012837524 -0.009853692 -0.034825366
0001f0 f0 f2 2f 3b 48 99 91 bb f6 c6 1a 3d 2d 14 44 3d
       0.0026847683 -0.0044433214 0.0377874 0.047870804
000200 33 ae 08 3d 61 76 ae bb 24 30 69 3c 7b 50 ae ba
       0.033369254 -0.0053241705 0.014232669 -0.0013299132
000210 cb 62 a5 3c fc c3 d5 3b 19 89 b3 bb 37 ac 4f bc
       0.02018871 0.0065236073 -0.00547899 -0.012675337
000220 c1 15 90 3b 27 1a 2b bd f7 fa ed bc 20 7a cc 3c
       0.0043971245 -0.041772988 -0.029050333 0.024960577
000230 d4 91 40 3c 80 49 3e bd 71 7b 39 bd 3e 69 5b 3c
       0.011753518 -0.046456814 -0.04528374 0.013391791
000240 92 4c 92 3b 54 28 49 3c d2 f7 23 bc bb 71 c5 ba
       0.0044646943 0.012277681 -0.010007815 -0.0015063802
000250 f3 cf eb 3c c9 95 30 bc d4 ba 2c 3c 66 1d 8b ba
       0.028785681 -0.010777899 0.01054259 -0.001061362
000260 54 f2 27 3c 5c b1 d9 3a de 63 e2 bb 12 7a 1f 3c
       0.010250647 0.0016608643 -0.0069088778 0.009733694
000270 90 97 bc 3b 4f 34 c2 bb 9c a3 b6 3c 33 f5 01 3d
       0.0057553723 -0.005926646 0.022294812 0.03172798
000280 d1 8a 8d 3c 07 e1 49 bc 86 c0 e8 bc ee d2 d7 bc
       0.017278107 -0.012321717 -0.028412115 -0.026345696
000290 31 a0 9a bc 4b 9f b0 bb 33 5b 8f 3c 17 b1 3a 3c
       -0.018875213 -0.005390083 0.017499542 0.011394761
0002a0 3b 7e 05 3d bf c6 17 bd de 5d c0 bc 17 eb fd 3c
       0.032591086 -0.037054773 -0.02348226 0.030995889
0002b0 c9 1c be bc c4 1a c3 3c a9 3b a9 b9 74 33 a3 bb
       -0.023207085 0.023816474 -0.00032278642 -0.004980499
0002c0 ff bf c6 3c fe 3d de 3c 6d 48 64 bc 08 04 da ba
       0.024261473 0.02712917 -0.013933283 -0.0016633281
0002d0 af 95 01 3d ad f2 e5 3c 0c a4 5f 3c 44 6c ac bc
       0.03163689 0.028069818 0.013649952 -0.021047719
0002e0 26 4b c3 bc 33 39 c2 3c aa 8a 98 3c dd 39 98 bb
       -0.023839545 0.023708915 0.018620808 -0.0046455697
0002f0 af 56 0c 3d d5 f2 c8 3c d5 08 15 bc 40 d1 67 3c
       0.034262355 0.024529854 -0.009096344 0.01414901
000300 e7 84 09 3d 65 8f a7 3c 49 f7 8c bc ba 38 0c bd
       0.03357401 0.020454118 -0.017207759 -0.034233786
000310 95 1d 25 3c 5b 0a 54 3c b9 94 0d bd e1 55 b3 3b
       0.010077854 0.012941922 -0.03456566 0.005472884
000320 ad ab 3a bd 49 72 f1 bc 2d ff 4d bd d2 14 e2 bc
       -0.04557388 -0.02947344 -0.050292183 -0.027597819
000330 38 3e 75 3b d5 9f 96 bc 12 9d 5b 3c e4 a8 23 bd
       0.0037421118 -0.01838676 0.013404148 -0.03995599
000340 61 9b 54 bc 7a 06 41 bc ae f1 b7 bb ff 40 bf 3d
       -0.012976498 -0.011781329 -0.0056135273 0.09338569
000350 3e 34 cb 3d a9 f9 96 bc 69 77 28 3a 5c 5a 14 bd
       0.09922074 -0.018429594 0.0006426485 -0.036218986
000360 15 85 a6 3d 29 ab da 3d f6 50 ab bc 01 7d 56 bd
       0.08130852 0.106771775 -0.020912629 -0.052365307
000370 39 c3 16 bd c5 83 e2 bc 0a a1 1d 3c b4 5a 93 bc
       -0.036807273 -0.027650723 0.009620914 -0.017987587
000380 ed c8 73 bd 6c 1f 45 3d aa c3 6d 3c 8f 1a 39 3c
       -0.05951779 0.04812567 0.014511982 0.011297836
000390 2c 30 d0 3c ce cf 84 3c 51 9d f7 3c 2b 7c ac bc
       0.025413595 0.01621237 0.030226381 -0.021055302
0003a0 d4 06 ba bc 99 2d ed bb 74 f8 a1 3c 27 b9 c8 bc
       -0.022708334 -0.0072381017 0.019771792 -0.02450235
0003b0 fe 47 51 bd a8 45 72 bd ff 30 59 39 b0 91 1a 3c
       -0.051094048 -0.05914846 0.00020712985 0.009434149
0003c0 d1 c5 e2 bc e6 fc 69 bc b4 29 e1 bc a7 42 73 bc
       -0.027682217 -0.014281487 -0.027485706 -0.014847434
0003d0 05 35 e2 3c 75 c2 7d 3c 00 e4 0b 3d 57 96 38 3d
       0.027613172 0.015488257 0.034152985 0.04506525
0003e0 42 7b 93 3c d0 77 6d 3c eb d4 fc bc fa ca 76 bc
       0.01800311 0.014493898 -0.030863246 -0.015063042
0003f0 8a be fd ba 7b 32 f8 3b 7f 8b 6a 3c 9a 27 9c 3c
       -0.0019359153 0.007574377 0.014315485 0.019061852
