2021_BOML_srcnn_project/output/epoch_119.pth (torch, 231519 bytes, 5 tensors)

conv1.weight f4 [64, 1, 9, 9]
00000000: 647d 01bd 32da 9e3c ac5d 6fbd 9285 a23d
00000010: f39c 43bd 4125 e43d 80ae 59bd c189 093c
00000020: b390 993a 938d ab3d cfbd 95bc 51ec c53c
00000030: b5b2 c8bd 2d85 93bd 1fec 94bd 1e4f 54bd
00000040: 22f3 61bd 2e6b e03d 789e cd3c b97e 8b3d
00000050: 2975 863d dcbe 7d3c 385c d43c 0397 963d
00000060: 4e3d e2bd eb39 3e3b e58c 87bd 76ba 4e3d
00000070: a27b ee3c 0bb3 3bbe d094 963d b64e 863d
00000080: ce23 2c3d 67a0 a5bb e232 253d cea2 67bd
00000090: badc f3bd d482 a3bd 6da2 dabd 3b55 ac3d
000000a0: 89b0 ae3d 02dc 313b 5b0c 34bc 35e6 d03d
000000b0: cc12 a5bc c326 72bc 4088 3bbd 81e8 e43c
000000c0: 7317 483e 5fa8 1c3e 71d9 893d 304c 643b
000000d0: c15d de3c fc92 d93c bc23 3abc 0436 0fbe
000000e0: 9012 bbbd f8c9 ed3d c0b5 3cba 35dc 02be
000000f0: f2c1 afbc 3c72 f33d 50fd aebd f300 1abd
00000100: f2f5 a2bd 43c7 51bd 6164 4dbd e05d 47bd
00000110: 879a 1ebe 8116 963c 503e 093e 45da b63d
00000120: 3898 923d b2a9 29bd d55e 663c acab 13bc
00000130: 9742 403d 63e3 e4bd a173 f2bc 4c87 a73d
00000140: 1ce4 b1b9 24b8 5f3d 8251 973c 24ac 153c
00000150: 32e5 a6bd aed6 75bd 9cec b5bd 6b07 d73d
00000160: 5863 4f3d b284 39bd d59d a1bd 0f4d 433d
00000170: 8807 803c d5d1 fe3b ad40 eabd 8119 1abd
00000180: a369 e23d b2d8 8b3d 4976 d13c eb28 b8ba
00000190: 7d1b 863d 3dd0 a0bd 173d 84bc a6af b3bd
000001a0: a6a7 6ebd fd78 013b 42e9 e83c 0531 8e3d
000001b0: c27d 4a3d 4f9c f6bc 7197 e83d 9aaa d8bc
000001c0: e78f a93d b878 2ebd e89a 8bbb 167c 8f3c
000001d0: e50e e5bd 4833 efbb fe58 a83c 6d51 383e
000001e0: 160a 7c3d 8a60 ec3d 2aaa cd3d a58d 0abd
000001f0: cd76 d53d 9523 c0bd 25ff ddbb 8e45 3abc
00000200: 0322 a63d a5c4 0f3e 4344 96bc 04c2 91bc
00000210: 9cf5 c13b 5950 66bd 0b1e 28bd 9fe8 13be
00000220: c147 2ebd beaa a7bb 0ade 6dbc d799 b7bd
00000230: f0d5 c0bd e8af 21bd aa53 a03d f15d da3d
00000240: d6c6 323b 3e5b d3bd de8d a7bd 5bf6 c7bc
00000250: 48f5 10be 7732 27be fc22 95bd 7145 573c
00000260: 60bb 6abc 6fe7 033e d36c 373d 7836 013e
00000270: a084 ecbc 4016 193d a87c b3bd 18b9 043e
00000280: 84e1 e43d 1547 b93d 94a8 7ebd 12bc c23d
00000290: 275b db3d 1dab 2e3e 19ce 313e 5db7 773e
000002a0: 1309 1e3e 2e5d a73d c46e 23bd fb39 aabd
000002b0: ce2e 19bd 8aa7 84bd e2f7 26be 9889 e1bd
000002c0: bf26 0cbe 383b 93bd 94e8 de3c bad9 77bd
000002d0: e065 6b3d a4ca 303d cca6 743d dadd f8bd
000002e0: 660b a4bd f5e9 20bd 9c16 9dbd b7ef d43c
000002f0: 1764 6f3d 59c7 82bd b92e 56bd 2113 c2bd
00000300: 4fba 703d 2a77 133e ca41 69bd 14e6 2dbd
00000310: 7598 0c3d 3b44 50bd b2ad c43d 8aeb 0a3d
00000320: 543e e1bc b8e4 0a3d 753d a53d ac41 e3bc
00000330: bb3d b5bd bb72 e73b 13bc a33c 4c76 983c
00000340: 0406 833b 62df bf3d 251b 4a3c 83cc 363d
00000350: 9b56 b33d 4e78 22bd d941 883d 311b d9bb
00000360: 23e0 4d3d c93d 96bd a942 3fbc c412 81bb
00000370: 0f21 debd fda9 bcbd 38a0 2e3d 5f12 8fbc
00000380: 4809 753d 01e2 99bd 9115 0abd 7842 acbd
00000390: d046 273d 5766 723a c24c 5abb 081d cfba
000003a0: a04f 8cbd 2f38 183d 5a3f 3b3d f90f 34bd
000003b0: 23e2 823d 05ac f13b 1ca6 abbd b89b 9c3d
000003c0: 348c 753d d065 1ebd 2931 aebd b999 59bc
000003d0: f59b 8e3d 0158 773d c39c d7bd 3ee7 4cbd
000003e0: 196e b03d 75c0 aa3d 51ca 843d e756 54bd
000003f0: ffce b33d b335 b0bd a493 3bbc 424b 1d3c
-0.031613722 0.019391153 -0.05843894 0.07935633 -0.0477571 0.11139918 -0.05314493 0.0083946595
0.0011716097 0.083766125 -0.018278984 0.024160536 -0.09799711 -0.07203136 -0.07271599 -0.051833265
-0.05516351 0.10957943 0.025099978 0.0681128 0.06565315 0.015487399 0.02592288 0.07353022
-0.11046849 0.002902622 -0.066186704 0.05047079 0.029111687 -0.18330018 0.073526025 0.06557982
0.042026334 -0.005054522 0.04033173 -0.056551747 -0.119073346 -0.07983938 -0.106755115 0.08414694
0.08529765 0.0027139192 -0.010989274 0.102001585 -0.020150565 -0.014779749 -0.045784235 0.027942898
0.19540195 0.15298603 0.06730927 0.003483545 0.027144315 0.026559345 -0.011361059 -0.13985449
-0.091344 0.11610788 -0.0007198714 -0.12779315 -0.021454785 0.11887023 -0.08544409 -0.03759856
-0.079570666 -0.05121542 -0.050144557 -0.04867351 -0.15488635 0.018321278 0.13402677 0.0892835
0.0715794 -0.0414216 0.014060696 -0.009013098 0.046938505 -0.11176183 -0.029596152 0.08180103
-0.00033930026 0.05461897 0.018471483 0.00913528 -0.08149184 -0.060019188 -0.0888302 0.10499462
0.05063185 -0.045292564 -0.07891432 0.04768091 0.015628591 0.007776479 -0.11438117 -0.03762198
0.11055305 0.06828441 0.025569098 -0.001405028 0.06548212 -0.07852218 -0.016142411 -0.08773737
-0.05826535 0.0019755953 0.028431538 0.069429435 0.04943634 -0.03010383 0.1135701 -0.026448537
0.082794 -0.042595595 -0.0042604096 0.017515223 -0.111844815 -0.0072998144 0.020550247 0.17999811
0.061533056 0.11541851 0.10042222 -0.03382649 0.1042305 -0.09381787 -0.0067748004 -0.011369122
0.08111956 0.14039858 -0.018343097 -0.01779271 0.0059191715 -0.05622897 -0.041044276 -0.14444207
-0.0425489 -0.0051167896 -0.01451827 -0.089648895 -0.09415805 -0.039474398 0.07828458 0.10662449
0.002727916 -0.103201374 -0.08181356 -0.024409464 -0.14156067 -0.16327845 -0.07282063 0.013139115
-0.0143269 0.12881254 0.044781517 0.12618434 -0.028871834 0.037374735 -0.08764011 0.12961233
0.11175826 0.09046761 -0.062172487 0.09508528 0.10710745 0.17057462 0.17363776 0.24191041
0.15433149 0.081720695 -0.039900556 -0.0831184 -0.037398152 -0.06477268 -0.16305497 -0.11012572
-0.13686655 -0.071890295 0.027210511 -0.060510375 0.057470202 0.043162003 0.059729382 -0.1215169
-0.080099866 -0.03928562 -0.07670328 0.025993211 0.058445062 -0.06385679 -0.052290652 -0.09476305
0.058771428 0.14400926 -0.056947507 -0.042455748 0.03432508 -0.05084632 0.09603442 0.033916034
-0.02749554 0.03390953 0.080683626 -0.027741276 -0.08849665 0.0070632375 0.019987142 0.018611096
0.00399852 0.09368779 0.012335573 0.04462863 0.08756753 -0.039665513 0.066531844 -0.006625556
0.05026258 -0.07336003 -0.011673608 -0.0039390046 -0.10846149 -0.0921211 0.042633265 -0.017464815
0.059823304 -0.0751381 -0.033711974 -0.084111154 0.040839016 0.0009246817 -0.0033309911 -0.0015801499
-0.06851125 0.037162956 0.045714714 -0.043960545 0.063907884 0.0073752427 -0.08381292 0.076468885
0.05994816 -0.038671315 -0.0850547 -0.013281279 0.0696334 0.06038666 -0.10527947 -0.050025217
0.086147495 0.083374895 0.06483901 -0.05184069 0.08779716 -0.08603992 -0.0114487745 0.009600462

conv1.bias f4 [64]
00000000: bc6a de3c 0261 c0bd 1acf bb3b 8d4f d4bd
00000010: 17fb 0a3d 9d4a 943c 8a3c 143d ff38 62bc
00000020: f9dc d03d 7986 27bd 14fe cf3a b600 b83c
00000030: 8719 3bbe f7fc 2c3e 2dd7 753d 8b0f 11bc
00000040: 9bc9 8cbc 4251 35bc 814f 833c 775a 7f3c
00000050: 2b15 be3c afcc adbc c92c 34bd c381 6f3d
00000060: 4df6 4bbe c6f5 98bc c72a 8e3d bd3a 043c
00000070: cf44 e63c 33b9 0c3d d7e2 663d 9040 58bc
00000080: 3a9d f83c 5c3c 053d 960e 93ba bd8d 44bd
00000090: dba1 31bc fff9 8f3d 1273 94bc be0e 873d
000000a0: 1444 e23a 67fd bbb9 c7d6 b53d c36b fabc
000000b0: 8ad2 163d 5657 6dbc 94b2 08bd c453 043d
000000c0: 408e 74ba 8ef8 af3a 6895 ed3c 00d5 013d
000000d0: 31e0 a339 5b1d f739 40db 6a3c 2fc4 4d3c
000000e0: eb0b df3c d251 dcbc 41ff c6bb 9ef8 4b3d
000000f0: f4bd 4f3d 7a8f babc 5922 1fbd d93a 97bc
0.027150504 -0.09393503 0.0057314755 -0.103667356 0.033930864 0.018101985 0.036190547 -0.013807534
0.10198397 -0.040899727 0.0015868568 0.022461277 -0.18271457 0.16893373 0.06001966 -0.008853803
-0.017185977 -0.011066737 0.016029121 0.015585533 0.023203453 -0.021215765 -0.043988023 0.05847336
-0.19918175 -0.018671881 0.06941753 0.008070645 0.028108982 0.034356307 0.056368675 -0.013198987
0.030348409 0.032528266 -0.0011219557 -0.047986735 -0.010841812 0.07030105 -0.018121276 0.06594609
0.001726272 -0.0003585622 0.08878856 -0.030568963 0.03682188 -0.014486155 -0.03337343 0.032306448
-0.0009329058 0.0013425515 0.029001907 0.031697273 0.00031256818 0.00047133383 0.0143345 0.012558981
0.027227363 -0.026894484 -0.006072909 0.049797647 0.050718263 -0.022773493 -0.038851116 -0.018460678

conv2.weight f4 [32, 64, 5, 5]
00000000: 3fb0 c9bc c8f4 3b3d 60c3 b13d 2afa 963d
00000010: 599b 9bbd cc3a 3c3c 03e9 e0bb da38 a33c
00000020: 71cf 343d 02b6 0dbc eafa ac3c 1f8a 54bb
00000030: bf48 143c 7fa2 8d39 63c6 443d 9ea3 2cba
00000040: 7455 263d 3100 733c eaa6 123d de30 ec3d
00000050: bdc9 c6bc 717d 343c 776e a0bd ef26 823b
00000060: 4930 943c 4506 94bd 65f8 f23c 49e4 9ebc
00000070: 564b 50bd 6482 dbbd 15b0 f8bd 095c 0ebc
00000080: a643 6b3d 55db 903d 7a51 1bbd dccc 0cbd
00000090: 1c48 8bbc 5aa9 773d a242 c53d 4c0e 613d
000000a0: 5f9f b8bd 1d3c 213b 9d0b 32bc 3bdc d13c
000000b0: a035 e23c 18f7 a3bd abca 333d 4ae7 2b3d
000000c0: 27dc 623d 5eb7 313d 32cc 21bc c672 533d
000000d0: f369 563d 2578 d23d 2fe9 1a3d adb3 42bc
000000e0: 2dba 9b3b c893 543d d39c 8a3d 40eb eebc
000000f0: cbf2 773c 5b61 183c 6737 23bd ae5c 6ebd
00000100: 84e6 0cbe 75e5 ea3c 523b b43d d234 463d
00000110: c687 37bc 2c74 3dbd 0e5e 60bd 21e9 8ebc
00000120: 7ba5 a4bc f9de 47bd 66cd 10bd 9c4a b03d
00000130: e164 103d 3943 3c3b 0264 71bd a1a1 ccbd
00000140: e13e 2c3d 8b13 a33d 4ad3 c53b 45d2 15bd
00000150: 10d0 c8bc bfc6 1bbd 5b2c 2abc 73f5 34bd
00000160: b83d 273b a555 08bc 2c41 f9bc d91e 8c3c
00000170: 6beb 2dbc 16d0 2d3d 8390 6b3c b0ab 09bc
00000180: c7ff 8d3c c3eb 80bc 5c50 b9bc eb0f 83bc
00000190: d9a1 06bd b152 3fbc 672f 823c fe31 ab3b
000001a0: 7e01 52bc a9e0 a03c 5d5b 043d 1b07 a53c
000001b0: d605 d7bc ad24 b5bd 502d 5dbd a3ee 11bc
000001c0: e1d6 663d ff18 963b f50f efbd 2bfb cfbc
000001d0: db8f 493d e78a de3c bbd1 333d 123f 3ebb
000001e0: 5be3 0bbd 2b4c f4bc af77 a1bd c3c1 11bd
000001f0: 7d74 a039 4e29 043e 863a 753d 617e fa3b
00000200: b2cd 383d bc1d 77bd af1c 8fbc 6c55 3ebb
00000210: 5ecb 28bc 72f0 f0bc e303 f0bc 5f40 2cbd
00000220: be8c 1cbc b0de c73c 74ca cebc e7da 18bd
00000230: b489 a33c e0a6 3a3d 9042 303d c7c3 4d3c
00000240: ee16 253c fb5d 513d 786f 083d be89 473d
00000250: 4182 af3c cee7 8c3c 0ce7 d73c 5897 e13c
00000260: 41ac 7a3a cf3d 313d c168 4bbd f0c9 ae3d
00000270: 8305 593d 701c 9bbb 7f6d 28bc 1328 0fbd
00000280: f920 6e3d feb5 9f3c 7fbf d0ba 2648 babc
00000290: 6463 fabc ff09 bf3b 0084 e4bb ed57 f9bb
000002a0: 9167 d0bc b864 b43d 3a61 e4bd 1268 7fbd
000002b0: a416 cc3c 3c87 9f3c 9433 803d 9418 cd3d
000002c0: 5839 d63d 5d10 d63d 85a8 2dbc 4d06 85bd
000002d0: 442b d8bb 8b27 eabc 6c21 bf3d 8b9b 9d3d
000002e0: c535 01bd 456b debc 9ef6 72bd 7692 94bd
000002f0: 8f9e 663d ac3e 683d f5e6 e73d b306 4c3d
00000300: f4e5 8ebd 2738 1f3d 3338 173d 234f 313e
00000310: 01e9 713e 6072 263e c226 953d 0b3d ba3c
00000320: b442 803c 78e5 97bd a9e9 b0bd 22d7 96bc
00000330: 3775 cc3c 130e f83c 17bc 66bd b6b7 70bd
00000340: 2561 5d3c 5804 b6bc 259f 033c 569d 44bd
00000350: 08af 3ebd 6d25 463d 314d 073d fed8 3bbb
00000360: 4c05 9bb8 6cb9 023c 9041 243d 3835 1d3d
00000370: d3b4 823b a96f b93d 5d9e 383d 85e6 543c
00000380: 02fe 2e3d 2197 013c 0af8 6db9 67f2 81bb
00000390: 0a68 af3c d445 323d 6ed1 7d3c 0202 6fbc
000003a0: 1ba3 033d 5ca1 763d efce 5b3d 9cc0 3abd
000003b0: c583 4fbd 948b 48bb 89be 403d c191 483d
000003c0: e1d4 b1bc 13c7 a7bc 567d f33b e7b1 823b
000003d0: 13a9 d63b 8e7a cf3b cbf2 21bc c6d5 b3bc
000003e0: 68bb 7dbc d6c8 fcb9 15f7 37bd b795 2cbd
000003f0: 7c9b e2ba c197 7e3c 2559 0a3b 86a7 23bd
-0.024620173 0.04588774 0.08679843 0.07371934 -0.075979896 0.011488628 -0.0068637147 0.01992457
0.044143144 -0.008649351 0.021115739 -0.003243096 0.009050547 0.00027014685 0.04804076 -0.000658566
0.04060884 0.014831589 0.035803713 0.11532758 -0.024266118 0.011016236 -0.078335695 0.0039719264
0.01808943 -0.07227758 0.02965946 -0.019395964 -0.050853096 -0.107182294 -0.1214296 -0.008688935
0.05743756 0.07073084 -0.0379195 -0.034375057 -0.017002158 0.06046424 0.0963185 0.054945275
-0.090147726 0.002460248 -0.010867027 0.02561771 0.027613461 -0.08006114 0.04389445 0.04196862
0.055385735 0.043387763 -0.009875344 0.05162313 0.052347135 0.10276822 0.037820037 -0.011883658
0.0047524185 0.051898748 0.06768193 -0.02916491 0.01513357 0.009300555 -0.039847758 -0.058193855
-0.1375981 0.028673867 0.08800377 0.048390217 -0.0112018045 -0.04625337 -0.054777198 -0.017445149
-0.020098438 -0.048796628 -0.035352133 0.086079806 0.035252456 0.0028726591 -0.058933266 -0.09991766
0.042052153 0.07962712 0.0060371505 -0.03657748 -0.024513274 -0.038031336 -0.010386552 -0.04417939
0.0025518965 -0.0083212005 -0.030426584 0.017104553 -0.01061521 0.042434774 0.014377716 -0.00840275
0.017333878 -0.01573742 -0.022621326 -0.015998801 -0.032869194 -0.01167743 0.015891744 0.0052244654
-0.012817739 0.019638376 0.032313693 0.02014499 -0.0262479 -0.08844886 -0.05399829 -0.008906993
0.05635727 0.0045806165 -0.116729654 -0.02538832 0.049209457 0.027165843 0.043901186 -0.0029029292
-0.03415237 -0.029821476 -0.07884156 -0.035585176 0.0003060437 0.12906381 0.059870265 0.00764446
0.04511804 -0.06033109 -0.017469732 -0.0029042615 -0.010302393 -0.029411528 -0.029298728 -0.042053577
-0.00955504 0.024398178 -0.025243022 -0.037318137 0.019963123 0.0455693 0.04303223 0.012558884
0.010076268 0.051115017 0.03330943 0.048715346 0.021424415 0.017200377 0.026355289 0.027537987
0.0009562411 0.043271836 -0.049660448 0.0853461 0.052983772 -0.0047336146 -0.010280012 -0.034950327
0.058136914 0.01949596 -0.0015926211 -0.022739481 -0.030564971 0.005830049 -0.0069737434 -0.0076093585
-0.02544001 0.08808273 -0.11151357 -0.06235511 0.02491314 0.019473664 0.06259838 0.100144535
0.10460156 0.1045234 -0.01059926 -0.064953424 -0.0065969545 -0.028583309 0.093325466 0.07695683
-0.03154542 -0.02715076 -0.059317224 -0.07254498 0.056303557 0.056700394 0.113233484 0.049811076
-0.06977454 0.03887191 0.03691883 0.17315345 0.2362404 0.16254568 0.07282783 0.022734186
0.015656807 -0.074168146 -0.08638317 -0.01841313 0.024958236 0.030280149 -0.05633172 -0.05876895
0.013511931 -0.022218868 0.0080335485 -0.04800161 -0.04655364 0.048375536 0.0330326 -0.0028663273
-7.3919626e-05 0.007978778 0.040101588 0.03838083 0.003988841 0.090545006 0.045072902 0.012994413
0.04272271 0.007909567 -0.00022694483 -0.003965664 0.021411914 0.043523625 0.015491826 -0.014587881
0.03213797 0.060212478 0.053664144 -0.045593843 -0.050662775 -0.0030600773 0.04705671 0.048967127
-0.021707954 -0.020480668 0.0074307127 0.003988493 0.006550917 0.0063317483 -0.0098845465 -0.021952521
-0.015486576 -0.0004821482 -0.04491337 -0.042134967 -0.001728877 0.015539111 0.0021110263 -0.039954685

conv2.bias f4 [32]
00000000: b16d 543c a560 60bc 5d81 a4bb 32f3 c33c
00000010: e165 153d 1cf3 79bc eef7 b9b9 c13a 9d3c
00000020: 70a6 243d f30c acbc d14b c1ba 956d ebbc
00000030: 61da 093d 8668 6abc 08d0 b53d 7a1a 18bc
00000040: beec 89bc 4f91 16bb e85a 9fbb 62b0 0f3d
00000050: d1a2 413d d5d3 4b3c 0a59 7abc bc45 903b
00000060: 99a9 d7bb d1e4 013d 87ba d43c 18e1 863c
00000070: 39f9 c53c d8be 14bd 7168 53bd 4195 803c
0.012965606 -0.013694917 -0.005020304 0.023919675 0.036474112 -0.015255716 -0.00035470672 0.019193055
0.04019779 -0.021002268 -0.0014747326 -0.028738776 0.033655528 -0.014307147 0.088775694 -0.009283656
-0.01683652 -0.0022974794 -0.004863132 0.03508032 0.047274414 0.012440641 -0.015280018 0.0044028442
-0.006581497 0.031712357 0.02596785 0.016464755 0.02416669 -0.036314815 -0.051613275 0.01569617

conv3.weight f4 [1, 32, 5, 5]
00000000: f9c9 433a 233a 9f3c 8feb a83c 2ef9 2b3d
00000010: 50d4 1a3d 3782 d7bc 3cd7 a53b 7cf1 a5bc
00000020: 31be 92ba cfc7 533a 08a1 92bb 13d5 783c
00000030: cb8e b2bb b4fb 5cbd 6c12 92bc 3bd2 1cbc
00000040: 1101 efbc 2353 a0bc 7595 37bd 915b 9d3c
00000050: 6702 2d3c 151d ab3c 2270 b83c c757 0f3d
00000060: 1596 2dbb c659 f43a 9aeb 0bbd ddb4 1d3c
00000070: a29a d53c 0641 cabc 27de a63c 9988 81bc
00000080: 0512 343c 558a 8dbc 3044 913b 07b8 0ebd
00000090: 6729 d83c 2c82 f5bb 81f5 fb3c 7900 6bbc
000000a0: ed49 6e3c 00fb 96bc 4258 87bc afce 44bc
000000b0: 563f 803c ea29 7a3c 6935 ae3c 59d4 cdbb
000000c0: dc31 273b 1ff1 bb3c ea50 62bc b84b 3ebc
000000d0: fc7e dc3c 7a4f f4bc dd21 8cbc f28a a0bc
000000e0: 3979 f3bb 5bd1 d4bc 9cee 063c 5e34 cabc
000000f0: 4aa3 7ebc f8a8 0cbd 8342 c13c d07d b1bc
00000100: 32cb 8abb 4f45 acbc 77a7 9dbb a731 debb
00000110: 7f7d 3cbc 1958 04ba bfbd 773c f3fd ee3c
00000120: a09b d63c 68ed d6bc 3b24 86bb 8ca7 86bd
00000130: 727d 473c ee28 c53c d0aa 213c c855 403c
00000140: aff7 113d f354 c73c 3392 7f3b 87ca a2bb
00000150: 5f2f 813b a1d4 523d 8a5c d53c 5b1d 2e3c
00000160: fe21 debc 63ee 93bc c07d c03c 1271 a1bb
00000170: 9da7 6abd 6f37 24bd c073 1ebc 80e9 d73b
00000180: 82b3 56bc 3c9d 9abc 97c7 e6bb 5f45 003d
00000190: b8fc 913b 26a6 c93b e959 5b3c 5dd7 6abb
000001a0: 2d8a 5b3b 5b83 1ebc 67a5 f93c ecef 61ba
000001b0: 29c3 ca3c 7422 aabc ada9 efbc 3852 653b
000001c0: 21f9 04bd b9d4 a83c b23a ab3c b03a dd3c
000001d0: 1000 fa3c ef86 303c ad0e 543c 72f4 b3bb
000001e0: c38b ff3c a829 633c a4ed 18bc 59a5 0bbd
000001f0: 1b9b 4e3b 1db7 273a 04f1 1e3d 602f 293d
00000200: 9e60 083d 1bda e4ba cd92 543c 5f01 39bc
00000210: 54f7 713c 8b6a 133c 78f9 21bc e365 89bc
00000220: 537a e33b 5ac7 0dbd db91 c1bc a59f de3c
00000230: 73d4 893c 3845 2ebd 0b7b 2cbd 48d8 863c
00000240: 7e83 6bba bb25 1c3c 797f 68bc d6c5 c7bb
00000250: 8b98 fe3c 955e 5cbc c1d0 3e3c 20d4 9137
00000260: 1eb8 313c 5dbf cd3a db75 e4bb 8e6c 3c3c
00000270: 4c48 033c 16c3 7fbb 7551 c33c 53df 043d
00000280: d6db 943c 65fa 35bc 4cb6 ddbc 46c7 ccbc
00000290: e344 8fbc 35a1 82bb 9a0b 943c 2f90 2d3c
000002a0: f291 023d 068d 13bd 0aac b4bc dcb9 003d
000002b0: 64b6 c7bc a05f bd3c 97be 5ab9 c0ed 96bb
000002c0: 0f32 c93c 9d09 df3c ceec 68bc 91d6 faba
000002d0: dfd6 043d 6adc ec3c ed43 683c feed acbc
000002e0: 9503 c3bc 9b65 ca3c ee54 a13c 3719 82bb
000002f0: 8bfa 0c3d 8d15 cb3c 3273 0bbc 54ae 723c
00000300: 13dd 0b3d 51fe a83c 4256 8cbc 5065 0bbd
00000310: 6462 273c 70e1 543c d72f 0ebd c73d ae3b
00000320: e214 1cbd d3e3 abbc 09f3 20bd b863 c8bc
00000330: d5df 493c f274 70bb e0d0 1e3b 16fe 1abd
00000340: 1059 40ba 4b88 6ebc 3665 85bb 3d43 973d
00000350: 12f6 bd3d efe3 6ebc e10e 71b9 5d36 d8bc
00000360: c946 933d b383 ac3d 9644 10bd 35a3 43bd
00000370: 205e 88bc 694b 3abc fbbc 6e3c 634a 71bc
00000380: 5b6a 4fbd 9bb9 303d f7b9 aa3b d0e9 7a3c
00000390: 398b 943c 02de 1c3c 4301 083d be97 c5bc
000003a0: f87b 07bc ba41 c0bb 768f 963c d3b7 a7bc
000003b0: 33b9 09bd 1df3 31bd aa2e 693c 2527 f33b
000003c0: c100 24bd 7aa5 01bc 91d4 00bd d681 b7bc
000003d0: 46c9 9f3c 1390 56bc b553 fb3c 8032 3f3d
000003e0: 5880 853c 6228 843c ebd4 fcbc dfd8 76bc
000003f0: 0b22 fcba 2e47 f83b 168c 6a3c 9a27 9c3c
0.0007468756 0.019436901 0.020620136 0.041985683 0.037800133 -0.026307208 0.0050610583 -0.02025675
-0.0011195597 0.0008078785 -0.004474763 0.01518752 -0.005449151 -0.05395098 -0.01783105 -0.009571607
-0.029175313 -0.019570893 -0.044820268 0.019208701 0.010559655 0.02088789 0.022514407 0.03499582
-0.002648716 0.0018642477 -0.034160234 0.009625641 0.026074711 -0.024689209 0.020369602 -0.015812205
0.010990624 -0.017277876 0.0044331774 -0.03484347 0.02638693 -0.0074923243 0.030756714 -0.014343374
0.0145439925 -0.018430233 -0.016521577 -0.012012168 0.0156552 0.015268782 0.021265702 -0.0062814173
0.0025511896 0.022942124 -0.013813237 -0.011614732 0.02691602 -0.029823054 -0.017105991 -0.019597504
-0.0074302224 -0.025978735 0.0082356 -0.024683174 -0.015541861 -0.03434083 0.023591286 -0.021666437
-0.0042356486 -0.021029143 -0.004811223 -0.0067808214 -0.01150453 -0.0005048528 0.015120923 0.029173827
0.026197255 -0.026236251 -0.0040936745 -0.06574926 0.012175905 0.024067368 0.009867385 0.011739202
0.0356366 0.0243325 0.0038997054 -0.004967991 0.0039424147 0.05147231 0.026045103 0.010627116
-0.027115818 -0.018058008 0.023497462 -0.004926809 -0.057288755 -0.040091928 -0.009671152 0.0065891147
-0.013104321 -0.018873803 -0.007042836 0.031316157 0.0044551753 0.0061538396 0.0133881355 -0.0035833933
0.0033499107 -0.009674872 0.030474378 -0.000861882 0.024751263 -0.020768382 -0.029255712 0.0034991633
-0.03246415 0.020609247 0.020902012 0.027005523 0.030517608 0.010774358 0.012942952 -0.0054917866
0.031194573 0.013864912 -0.009334002 -0.034093235 0.0031525556 0.00063978304 0.03880407 0.041304946
0.033295266 -0.001746002 0.012974453 -0.011291831 0.01476844 0.00899757 -0.009886138 -0.016772216
0.0069420724 -0.034613945 -0.02362912 0.027175734 0.016824936 -0.04254648 -0.04210953 0.016460553
-0.00089841324 0.00953048 -0.014190548 -0.006096582 0.031078598 -0.0134502845 0.0116464505 1.7384125e-05
0.01084712 0.001569729 -0.0069720573 0.011500491 0.008012842 -0.0039026192 0.023842553 0.03243954
0.018171232 -0.011107062 -0.027064465 -0.024997365 -0.017488902 -0.0039865025 0.018071938 0.010593458
0.031877466 -0.036023162 -0.02205469 0.03142725 -0.024378963 0.023116887 -0.000208611 -0.0046059787
0.024560003 0.027226264 -0.014216615 -0.0019137432 0.03243148 0.028913695 0.014176351 -0.021109577
-0.023805419 0.024706652 0.019693818 -0.003970291 0.034418624 0.02479055 -0.008511351 0.014812071
0.03414638 0.02062908 -0.017130975 -0.034032166 0.010216329 0.012993202 -0.034713592 0.005317423
-0.038105853 -0.020982658 -0.039294276 -0.024461612 0.012321432 -0.0036690799 0.0024233386 -0.03783997
-0.000733749 -0.014558862 -0.004070903 0.073858716 0.0927545 -0.014580711 -0.00022989094 -0.02639311
0.071912356 0.08423557 -0.03522166 -0.04776307 -0.016646445 -0.011370518 0.014571424 -0.014727208
-0.050638538 0.043145757 0.005210157 0.015314534 0.018132793 0.009574415 0.03320433 -0.024120208
-0.008269303 -0.00586721 0.018378954 -0.020473396 -0.033623885 -0.04344474 0.014232317 0.007420438
-0.04003978 -0.007912988 -0.03145272 -0.022400778 0.019505154 -0.013095873 0.030679563 0.04667902
0.01629655 0.016132537 -0.030863246 -0.015066355 -0.001923622 0.0075768447 0.014315626 0.019061852
